checkpoint/ode_rk4/pushing_2_steps_ode_rk4_dynamics_model.pt (torch, 47614 bytes, 6 tensors)

ode_func.net.0.weight f4 [100, 6]
-0.11357719 0.031210884 0.21764511 0.03953764 -0.1859426 -0.14708015 -0.19351003 0.27238923
-0.04232595 0.28857827 -0.35293084 0.10541343 -0.020972487 0.333284 -0.139501 -0.11694098
-0.32479686 0.10460793 -0.31075934 -0.047903087 -0.029086301 0.33117798 0.1545274 0.32640997
-0.069041036 -0.21263054 -0.157554 -0.21875808 0.10299927 -0.013961733 0.14813375 0.1861624
0.34329912 0.0028721232 -0.12678903 0.37675232 0.15056169 0.2944729 0.08963358 -0.30070895
-0.14012149 0.40574393 -0.20798369 -0.19070195 -0.08792457 0.35930407 0.29327026 -0.145138
-0.32760078 -0.2477163 -0.069011204 -0.15711729 0.17418242 -0.40797177 -0.3792826 0.2523592
-0.37446576 0.3088982 -0.13236155 0.012875093 0.12006132 0.2476826 0.033198908 0.41578102
0.080663495 0.048900235 -0.3362882 0.10771215 0.025791222 -0.17247616 -0.12543336 0.013994255
0.27260038 -0.32380587 -0.36719882 -0.1551109 -0.19696394 0.18386212 -0.31274644 0.30173612
-0.3692192 -0.14895292 -0.1858149 -0.37398937 -0.1419227 -0.15156038 0.32205856 0.42093715
0.25608686 0.24026138 0.05329297 0.35177457 0.14405735 -0.3999179 -0.14296141 -0.29075283
-0.31955114 -0.180677 0.35094243 -0.019527728 0.0671481 -0.29774195 0.4261931 -0.25625575
0.07955775 0.07490512 0.35559657 -0.09876581 -0.18447277 -0.011046097 -0.27216974 -0.27307183
-0.34002656 0.34873378 0.18293585 0.113659695 -0.192117 0.20656009 0.25475717 -0.06741321
0.08563489 0.26656172 0.079102814 0.26548624 -0.2839458 -0.29526302 0.2255306 -0.11473763
-0.3022538 0.086986445 -0.11759927 0.24762961 -0.399753 0.48199457 0.05733637 -0.0475058
0.381767 0.43770778 -0.30822113 -0.07019985 -0.18909267 -0.04705879 0.24079274 -0.021904089
0.1627883 0.21765724 0.3810099 -0.3332485 -0.33676085 -0.30223727 -0.23497315 -0.3046371
0.019973297 -0.14011884 0.070387624 -0.3964506 0.122617304 0.26850557 -0.11429996 -0.18893532
0.010575528 0.23769455 -0.26079586 -0.15765934 0.06898109 -0.2345075 -0.35424033 -0.20486751
0.28484246 0.2749408 -0.2823429 0.18816575 0.17489047 -0.09918447 0.2939131 -0.2245444
0.3217549 -0.1891326 -0.34599918 -0.10178264 -0.38009438 0.38232118 0.38127178 -0.049356215
-0.14513867 -0.0003281264 0.10387367 -0.14244358 -0.031841543 0.34980208 0.37127224 0.033978812
-0.26973084 0.28764248 0.1585685 0.13858716 0.27592322 -0.15036412 0.13919823 -0.22298212
-0.022317752 -0.26282164 0.35817784 0.046204526 -0.062906444 0.3674828 0.23581102 -0.094779104
0.4517801 0.349924 -0.03599078 0.2155995 -0.21665625 0.14558576 0.4338503 -0.32923675
-0.0074724583 0.07697465 -0.18946962 0.091314934 0.37644172 0.43459406 -0.1469084 -0.2298463
0.2269899 -0.32163146 0.21866721 -0.32269615 0.3375899 -0.017308796 0.34956497 -0.18093464
-0.20048258 0.1976376 0.35285708 -0.32267073 -0.33474967 -0.31476063 0.19450223 0.10542743
0.012558523 0.22059913 -0.15009643 0.3004038 -0.17862268 0.3591069 0.3616747 0.375565
-0.15970282 0.024064466 -0.3887677 -0.022738388 0.39889306 0.13981016 0.055590145 -0.40820637
00000000: 289b e8bd f8ad ff3c 5cde 5e3e 38f2 213d
00000010: bd67 3ebe 2e9c 16be 7e27 46be 9a76 8b3e
00000020: fa5d 2dbd 88c0 933e 5ab3 b4be ffe2 d73d
00000030: 7ece abbc 33a4 aa3e 5ad9 0ebe c17e efbd
00000040: c64b a6be af3c d63d d91b 9fbe 0736 44bd
00000050: 6546 eebc 2990 a93e 6e3c 1e3e 351f a73e
00000060: 6365 8dbd d2bb 59be d655 21be 1e02 60be
00000070: 48f1 d23d c1bf 64bc 60b0 173e 5ba1 3e3e
00000080: e7c4 af3e 3b3a 3c3b fcd4 01be aee5 c03e
00000090: d82c 1a3e 27c5 963e cf91 b73d 86f6 99be
000000a0: 027c 0fbe abbd cf3e adf9 54be 5f47 43be
000000b0: cc11 b4bd b4f6 b73e 8527 963e 0e9f 14be
000000c0: 4abb a7be 57a9 7dbe bf55 8dbd 5be3 20be
000000d0: e05c 323e ade1 d0be 5431 c2be 3a35 813e
000000e0: fab9 bfbe e827 9e3e c989 07be 0ef2 523c
000000f0: b6e2 f53d 82a0 7d3e 94fb 073d 40e1 d43e
00000100: e732 a53d 9d4b 483d f82d acbe 3098 dc3d
00000110: 1d48 d33c 979d 30be 9a71 00be 2948 653c
00000120: 4792 8b3e e2c9 a5be 7c01 bcbe 64d5 1ebe
00000130: eab0 49be 5a46 3c3e 4d20 a0be 287d 9a3e
00000140: 4d0a bdbe 1d87 18be 4346 3ebe 897b bfbe
00000150: 2f54 11be a532 1bbe dce4 a43e 1385 d73e
00000160: d11d 833e 1407 763e bb49 5a3d cc1b b43e
00000170: c583 133e 0ac2 ccbe 7a64 12be 8edd 94be
00000180: 359c a3be 6403 39be baae b33e 9df8 9fbc
00000190: f184 893d a271 98be fb35 da3e f433 83be
000001a0: 2cef a23d db67 993d c110 b63e bb45 cabd
000001b0: 6ee6 3cbe b0fa 34bc d559 8bbe 12d0 8bbe
000001c0: f617 aebe 3c8d b23e 8953 3b3e 6ac6 e83d
000001d0: 52ba 44be 7d84 533e 886f 823e f00f 8abd
000001e0: 5861 af3d c77a 883e a800 a23d d0ed 873e
000001f0: 5861 91be b72c 97be 7ef1 663e 90fb eabd
00000200: 03c1 9abe f325 b23d e3d7 f0bd 9e92 7d3e
00000210: 6dac ccbe fec7 f63e 8bd9 6a3d 7195 42bd
00000220: f776 c33e 3c1b e03e 29cf 9dbe f0c4 8fbd
00000230: 82a1 41be b8c0 40bd 5f92 763e 3470 b3bc
00000240: fab1 263e 8ae1 5e3e bb13 c33e 8c9f aabe
00000250: eb6b acbe d8be 9abe cd9c 70be 65f9 9bbe
00000260: 0a9f a33c 507b 0fbe 6327 903d 93fb cabe
00000270: c81e fb3d 9079 893e 1916 eabd 4378 41be
00000280: fb44 2d3c 3366 733e 0987 85be 7371 21be
00000290: f545 8d3d bc22 70be fd5e b5be cac8 51be
000002a0: dfd6 913e 0ac5 8c3e 408f 90be 86ae 403e
000002b0: 7d16 333e 3a21 cbbd c77b 963e f8ee 65be
000002c0: 0fbd a43e faab 41be ce26 b1be 6b73 d0bd
000002d0: bb9b c2be 9abf c33e 0e36 c33e be29 4abd
000002e0: 3b9f 14be 6108 acb9 b8bb d43d bbdc 11be
000002f0: 476c 02bd 4219 b33e 6517 be3e 5e2d 0b3d
00000300: 291a 8abe e045 933e c85f 223e cbe9 0d3e
00000310: cf45 8d3e 0df9 19be fb89 0e3e 6d55 64be
00000320: b8d3 b6bc 8f90 86be 1663 b73e f540 3d3d
00000330: 18d5 80bd b526 bc3e 7278 713e 8c1b c2bd
00000340: b94f e73e 3d29 b33e 116b 13bd 1ec6 5c3e
00000350: 23db 5dbe 6f14 153e a021 de3e b891 a8be
00000360: 86db f4bb e3a4 9d3d 5304 42be 5303 bb3d
00000370: f8bc c03e 1d83 de3e 286f 16be d45c 6bbe
00000380: 0a70 683e e1ac a4be 4cea 5f3e 6e38 a5be
00000390: 95d8 ac3e 2dcb 8dbc 2efa b23e ee46 39be
000003a0: 4e4b 4dbe 8361 4a3e afa9 b43e 1935 a5be
000003b0: 4f64 abbe 4e28 a1be 982b 473e 56ea d73d
000003c0: 43c2 4d3c bde4 613e e1b2 19be 87ce 993e
000003d0: dde8 36be dcdc b73e 6d2d b93e 0e4a c03e
000003e0: 2389 23be d822 c53c 8f0c c7be db45 babc
000003f0: b63b cc3e 652a 0f3e 7eb2 633d 6d00 d1be

ode_func.net.0.bias f4 [100]
0.15870681 -0.07903328 -0.049293295 0.362277 0.18527137 0.36087397 0.16031471 -0.10266469
-0.2512131 0.3390709 -0.37801892 0.3705724 -0.15197004 -0.2953878 0.33482748 0.123317614
0.27928135 -0.16721304 -0.41763887 0.3567539 0.26885912 -0.16137284 -0.30499083 -0.34938622
-0.37129718 0.2860365 0.3158765 -0.20558247 -0.19399463 -0.16991813 0.30951297 0.34418377
0.2644716 -0.14952993 -0.18569925 -0.007772831 0.4163685 -0.19673944 0.029540436 0.0333215
-0.33483326 -0.09727047 0.1365968 0.14559418 -0.07068917 -0.29691663 0.23709786 0.23241135
0.17307538 -0.19540489 -0.15133294 0.46863386 -0.14332148 -0.3186991 -0.030111406 -0.3342826
-0.32563633 0.014817699 0.37206867 -0.30273634 0.27130923 -0.1257674 0.11456457 -0.25499183
-0.29400367 0.15153927 -0.0037712571 0.36813837 0.38944075 -0.42576662 -0.30952692 0.13352884
-0.284881 0.17263584 -0.23078698 -0.20182909 -0.11062496 0.04292315 0.040638126 -0.3203581
0.39085343 0.12117511 0.073862635 -0.2665287 0.35578573 0.1262973 -0.2153642 -0.016396435
0.2332974 0.34040415 0.18176275 -0.28705853 0.20268807 0.059047345 0.3701886 0.29123935
0.013339475 0.3170884 -0.21990284 0.21636914
00000000: 0a84 223e 33dc a1bd c4e7 49bd 5f7c b93e
00000010: c7b7 3d3e 79c4 b83e 8a29 243e dd41 d2bd
00000020: 019f 80be b39a ad3e b28b c1be aabb bd3e
00000030: 099e 1bbe 123d 97be 826e ab3e f28d fc3d
00000040: f7fd 8e3e e539 2bbe c3d4 d5be 72a8 b63e
00000050: e7a7 893e ec3e 25be c227 9cbe c0e2 b2be
00000060: aa1a bebe 6073 923e 91ba a13e 3684 52be
00000070: 87a6 46be 05ff 2dbe 7c78 9e3e db38 b03e
00000080: d268 873e 601e 19be f227 3ebe 3bb3 febb
00000090: 412e d53e 1076 49be c9fe f13c 207c 083d
000000a0: 446f abbe bd35 c7bd 08e0 0b3e a416 153e
000000b0: 7cc5 90bd 7505 98be c8c9 723e 3efd 6d3e
000000c0: ac3a 313e 3818 48be 06f7 1abe c7f0 ef3e
000000d0: dec2 12be 872c a3be 32ac f6bc 1727 abbe
000000e0: ceb9 a6be efc5 723c c97f be3e 4200 9bbe
000000f0: 0be9 8a3e 2bc9 00be d4a0 ea3d 4a8e 82be
00000100: a687 96be 1c2d 1b3e 3227 77bb a27c bc3e
00000110: c764 c73e 15fe d9be 507a 9ebe c9bb 083e
00000120: ecdb 91be 73c7 303e 6c53 6cbe 49ac 4ebe
00000130: 578f e2bd 2fd0 2f3d 2a74 263d fa05 a4be
00000140: f11d c83e a82a f83d 4b45 973d 7376 88be
00000150: 8c29 b63e 1454 013e 6f88 5cbe d151 86bc
00000160: 83e5 6e3e 7449 ae3e 0420 3a3e 56f9 92be
00000170: 768d 4f3e a1db 713d 5c89 bd3e 531d 953e
00000180: d08d 5a3c 6959 a23e 362e 61be df8f 5d3e

ode_func.net.2.weight f4 [100, 100]
-0.09400802 -0.013903105 0.0969491 -0.01572273 -0.07356467 0.021796074 -0.0029324251 -0.017054332
-0.041992642 -0.067949556 -0.051621698 -0.02250326 0.032226708 0.03508432 -0.088097714 0.025753736
0.020602094 -0.0028171765 0.052968904 -0.006019429 0.119305335 0.042705838 -0.22239655 -0.04424068
0.06550579 -0.16222517 0.107503176 0.13585745 -0.17579758 -0.0020693915 -0.06919066 -0.08481207
0.16733168 0.21698953 -0.10926348 -0.11807718 0.07964085 0.16293545 0.086474545 -0.21858516
0.081309155 0.12345999 -0.027797405 -0.06783224 -0.01910481 0.015785791 0.018219694 -0.24796362
0.046162844 -0.02896522 0.0776851 0.02648911 0.14166255 -0.08398874 -0.023704825 -0.23801114
0.012285352 0.037402093 0.024489911 0.0572038 0.025615938 0.16881102 0.07285518 -0.007233627
0.03376248 -0.09524007 -0.09356019 0.0025090654 -0.059006117 0.012712425 0.053496983 0.079778925
-0.04769634 0.031581882 0.07239837 -0.056583747 -0.09602013 0.004612162 0.010873331 0.16436838
-0.094425015 0.023707068 0.20014378 -0.43864927 0.08167428 0.081316695 0.10235077 0.07022051
0.09315028 -0.41554737 -0.06694526 0.023614679 -0.22534038 -0.118680805 -0.04645883 -0.041424543
0.07356889 0.0035639023 0.02370068 -0.07993055 -0.09209241 0.003817357 -0.08966965 0.056012798
0.023986427 0.04928385 -0.008537224 -0.012087063 -0.092090584 -0.07387666 0.043000843 0.045260597
0.039423253 0.0091109155 -0.03675524 0.05705685 0.029034209 0.03564138 -0.021592231 -0.050545607
-0.02143855 0.04926042 0.025894348 0.033848107 -0.09541331 0.09460056 -0.009824613 0.04586797
-0.08764128 0.070834816 0.051368676 -0.0071248603 -0.0008172027 0.04804647 -0.09446825 -0.013012239
0.08376296 -0.10457516 -0.03321226 -0.06389949 -0.03386853 -0.07284154 0.095713176 0.0647304
-0.055544153 0.07218642 -0.075812645 -0.00908902 -0.04213149 -0.048899833 0.09375756 -0.036852844
0.08149577 0.015585878 0.07620644 0.022767866 -0.09294001 -0.06831178 -0.091023006 -0.038894724
0.07840243 0.038195092 0.048628464 -0.09286325 -0.044705898 -0.057261456 -0.017247763 -0.07910671
0.096809514 -0.027902888 0.091974616 0.013099104 -0.08407959 0.033360943 0.08733251 -0.10042005
-0.10194617 0.09814935 -0.007663506 -0.11555535 0.06623519 0.067003086 0.10069518 0.041015934
-0.014048994 -0.005138114 0.05050726 0.053908207 0.081524014 0.004779095 -0.054274138 -0.042990915
-0.06023054 0.057052225 -0.007305581 -0.0465071 -0.07240831 -0.06843659 0.053166885 0.019843118
0.1074076 0.07883618 0.084848404 0.027601296 0.0985065 0.08470188 0.03951265 -0.11374329
0.020715225 -0.04946022 -0.16820887 0.019117218 -0.08832148 -0.049434032 0.11084838 0.03417634
0.05405255 -0.0069411416 0.13827866 0.018452484 -0.034105893 -0.0022708063 -0.06767374 -0.0055454015
0.026531389 0.08087588 0.08888841 0.029350476 -0.049811855 -0.02040676 -0.01271566 -0.031364962
-0.07214359 -0.005489726 -0.014112793 0.15142144 -0.09125323 0.10405383 0.023564052 0.055497445
-0.06903205 -0.036973543 0.036330577 -0.098183885 -0.14507197 0.010651564 -0.0005059127 -0.07896447
-0.08026176 -0.0118802935 0.11841863 0.08928018 0.017835569 0.0015739353 -0.06993425 -0.11883898
00000000: 4787 c0bd d9c9 63bc 408d c63d f4cc 80bc
00000010: 13a9 96bd ae8d b23c ee2d 40bb 87b5 8bbc
00000020: 7a00 2cbd 2329 8bbd 4671 53bd c258 b8bc
00000030: 2700 043d 93b4 0f3d 936c b4bd 80f9 d23c
00000040: b9c5 a83c 61a0 38bb ecf5 583d a13e c5bb
00000050: 5b56 f43d 51ec 2e3d ecbb 63be b735 35bd
00000060: e627 863d 5b1e 26be a02a dc3d 371e 0b3e
00000070: 4804 34be a19e 07bb d5b3 8dbd f3b1 adbd
00000080: ff58 2b3e 8132 5e3e 88c5 dfbd 73d2 f1bd
00000090: be1a a33d 8dd8 263e 9119 b13d cad4 5fbe
000000a0: 6a85 a63d 97d8 fc3d 62b7 e3bc a1eb 8abd
000000b0: b181 9cbc 3451 813c 7841 953c 2dea 7dbe
000000c0: 4015 3d3d 7848 edbc 5e19 9f3d b1ff d83c
000000d0: fd0f 113e 4a02 acbd 9f30 c2bc 31b9 73be
000000e0: 8048 493c f032 193d 119f c83c 884e 6a3d
000000f0: 84d8 d13c ccdc 2c3e 1935 953d 1008 edbb
00000100: 874a 0a3d 3a0d c3bd 7c9c bfbd 226f 243b
00000110: 66b0 71bd c647 503c a71f 5b3d 2263 a33d
00000120: 3d5d 43bd 015c 013d 9945 943d 5cc4 67bd
00000130: 34a6 c4bd 9e21 973b 0e26 323c 2f50 283e
00000140: e761 c1bd 5335 c23c 7ef2 4c3e a396 e0be
00000150: d844 a73d 5e89 a63d 489d d13d c5cf 8f3d
00000160: 93c5 be3d a0c2 d4be 991a 89bd 9273 c13c
00000170: a1bf 66be ec0e f3bd 9d4b 3ebd c8ac 29bd
00000180: 49ab 963d 5c90 693b ee27 c23c a1b2 a3bd
00000190: f29a bcbd 9f2c 7a3b b9a4 b7bd ad6d 653d
000001a0: 2f7f c43c dddd 493d b6df 0bbc d108 46bc
000001b0: fd99 bcbd a54c 97bd a721 303d 2d63 393d
000001c0: 477a 213d f345 153c aa8c 16bd 72b4 693d
000001d0: 26d9 ed3c b2fc 113d 31e2 b0bc e908 4fbd
000001e0: e69f afbc 4bc5 493d 6220 d43c 50a4 0a3d
000001f0: 0e68 c3bd f0bd c13d 6af7 20bc 0de0 3b3d
00000200: 457d b3bd d811 913d f667 523d a977 e9bb
00000210: 8b39 56ba 60cc 443d 9278 c1bd 4931 55bc
00000220: ea8b ab3d 802b d6bd 9409 08bd bcdd 82bd
00000230: bab9 0abd f22d 95bd 4505 c43d 5f91 843d
00000240: 4482 63bd 79d6 933d a943 9bbd 1dea 14bc
00000250: 1292 2cbd 314b 48bd f703 c03d 02f3 16bd
00000260: 41e7 a63d e95b 7f3c 1f12 9c3d ad83 ba3c
00000270: 5557 bebd 0ce7 8bbd 456a babd 1350 1fbd
00000280: 7491 a03d 7572 1c3d a42e 473d 162f bebd
00000290: 881d 37bd fd8a 6abd 2e4b 8dbc b302 a2bd
000002a0: 1144 c63d 9994 e4bc 305d bc3d a09d 563c
000002b0: ec31 acbd 7ca5 083d 63db b23d 07a9 cdbd
000002c0: 27c9 d0bd 8702 c93d 261e fbbb 49a8 ecbd
000002d0: 51a6 873d ea38 893d 4639 ce3d 5300 283d
000002e0: c02d 66bc a05d a8bb b3e0 4e3d dace 5c3d
000002f0: 10f6 a63d f499 9c3b 8f4e 5ebd 3e17 30bd
00000300: 4cb4 76bd 98af 693d a863 efbb 3b7e 3ebd
00000310: cf4a 94bd 7c28 8cbd 85c5 593d 098e a23c
00000320: 84f8 db3d dd74 a13d 00c5 ad3d 1d1c e23c
00000330: c7bd c93d 2e78 ad3d 04d8 213d 3ef2 e8bd
00000340: fab2 a93c cd96 4abd f23e 2cbe b69b 9c3c
00000350: e4e1 b4bd 577b 4abd 7a04 e33d 7dfc 0b3d
00000360: 3566 5d3d 8472 e3bb ec98 0d3e aa29 973c
00000370: 9fb2 0bbd cfd1 14bb 8898 8abd 33b6 b5bb
00000380: 5b58 d93c 41a2 a53d 200b b63d 6970 f03c
00000390: 8407 4cbd 142c a7bc 5855 50bc 8c78 00bd
000003a0: 05c0 93bd 29e3 b3bb 5839 67bc 390e 1b3e
000003b0: f9e2 babd 2d1a d53d 6609 c13c 4a51 633d
000003c0: ad60 8dbd 9271 17bd 5fcf 143d a214 c9bd
000003d0: bf8d 14be e683 2e3c 3a9f 04ba 20b8 a1bd
000003e0: 4760 a4bd 90a5 42bc 7785 f23d 87d8 b63d
000003f0: e61b 923c 814c ce3a b039 8fbd da61 f3bd

ode_func.net.2.bias f4 [100]
-0.062915176 0.09037881 -0.0028511577 -0.08279283 0.033730082 -0.022768367 -0.03527166 0.005433416
-0.049742274 0.06887052 -0.054300822 -0.09315755 -0.063670754 0.09801449 0.06245822 -0.036988232
-0.0042585493 -0.038232822 -0.09182479 -0.032768983 -0.0029529284 -0.061240423 0.08803779 0.00063919544
0.02747215 -0.009540759 0.08113098 0.00723894 -0.07416472 0.023539184 0.06545086 -0.019477438
0.06474241 -0.04366146 0.011024111 0.016081125 -0.026418133 0.027919747 0.095952965 -0.04307546
0.035151493 0.004916873 -0.05121114 -0.002682952 0.042512875 -0.093604304 -0.047462393 -0.027188769
-0.08511199 -0.044383254 -0.03870999 0.05487664 0.01773378 -0.0005498091 0.06864729 0.061419405
-0.09405225 0.044495072 0.08113497 0.034629166 0.0153093105 -0.07958982 -0.033619095 -0.06260483
-0.010069239 0.03545908 -0.09355468 -0.0433708 0.04489079 -0.0070825084 0.098787226 -0.014899836
0.04466052 -0.07515069 0.013778769 0.051411226 -0.06716039 0.0132355895 -0.105124205 0.08450857
-0.082094036 -0.05524228 0.038544692 0.04417172 -0.084063455 -0.05750722 0.06640955 -0.052569102
0.10055826 -0.022586294 -0.060926083 0.017690277 -0.05550349 0.036866084 0.07621891 -0.080658875
0.028849784 0.041469477 -0.07933437 0.09644485
00000000: acd9 80bd 8718 b93d 7dda 3abb 4a8f a9bd
00000010: 8e28 0a3d ba84 babc 0479 10bd cc0a b23b
00000020: 8ebe 4bbd fd0b 8d3d 8a6a 5ebd 63c9 bebd
00000030: d065 82bd d2bb c83d 31d4 7f3d f980 17bd
00000040: 4d8b 8bbb 059a 1cbd a30e bcbd c538 06bd
00000050: eb85 41bb 3dd7 7abd 284d b43d ae8f 273a
00000060: 460d e13c d850 1cbc 0028 a63d a134 ed3b
00000070: ace3 97bd 3fd5 c03c 1a0b 863d 268f 9fbc
00000080: ab97 843d 5cd6 32bd 799e 343c 90bc 833c
00000090: d76a d8bc f4b7 e43c fd82 c43d e56f 30bd
000000a0: 03fb 0f3d b81d a13b c6c2 51bd 77d4 2fbb
000000b0: fb21 2e3d 9db3 bfbd ed67 42bd fbba debc
000000c0: 324f aebd 37cb 35bd 5e8e 1ebd 54c6 603d
000000d0: 6f46 913c 1021 10ba f396 8c3d ea92 7b3d
000000e0: 779e c0bd 7740 363d 172a a63d 50d7 0d3d
000000f0: e7d3 7a3c fdff a2bd 2db4 09bd f636 80bd
00000100: 73f9 24bc 8a3d 113d 9999 bfbd 94a5 31bd
00000110: 68df 373d 6314 e8bb f550 ca3d 711e 74bc
00000120: f3ed 363d 9be8 99bd 59c0 613c 9494 523d
00000130: 638b 89bd 16da 583c 5c4b d7bd d412 ad3d
00000140: eb20 a8bd bb45 62bd 0ae1 1d3d 68ed 343d
00000150: 7629 acbd b18c 6bbd bb01 883d b352 57bd
00000160: 7df1 cd3d e406 b9bc a18d 79bd 33eb 903c
00000170: a157 63bd e400 173d a918 9c3d 7b30 a5bd
00000180: 6256 ec3c e6db 293d 0f7a a2bd e184 c53d

ode_func.net.4.weight f4 [3, 100]
0.026909059 -0.015222668 0.023857098 0.058762975 0.038368493 0.026053978 -0.08352148 -0.079669766
-0.012977917 0.08469083 0.007547373 0.04712012 0.019874375 -0.07270346 -0.09014862 0.006709528
-0.090394184 0.04207241 -0.048003163 0.037621185 0.07811462 0.03490146 -0.041509636 0.08662505
-0.057130583 0.019105576 -0.023468489 -0.09277993 0.01442704 0.021203676 -0.013497359 -0.010941532
-0.016440563 -0.07866661 0.044091955 0.08947759 -0.030640403 0.041124605 0.007906086 0.020631552
0.03246847 -0.01027237 -0.02076863 0.08000541 -0.0262139 0.08939023 -0.09192911 -0.07310501
0.08269822 -0.007609177 -0.018142283 0.0042754826 -0.072690256 0.07564389 0.026765373 0.04057125
-0.096922405 0.0877151 -0.038525216 -0.008731871 -0.049696982 -0.05291725 0.05058962 0.05222599
-0.033176687 0.008506263 0.08350516 -0.062470466 0.049373608 0.0795229 -0.074393235 0.056841906
-0.0036549573 -0.025252748 0.052613284 0.090291135 0.072790116 0.021855673 -0.044487324 0.05716469
0.06265246 -0.029026352 -0.09287428 -0.071076006 0.051115196 -0.017696947 -0.06699462 -0.05185442
0.0008865843 0.0044062035 0.002701325 -0.03664898 0.04737368 -0.034575943 -0.08800668 -0.062542826
0.061031416 -0.06562876 -0.007408142 0.006870583 -0.0152899 0.08376498 0.093148276 0.08642468
0.093082756 0.080630854 -0.01984257 -0.041229896 -0.07192753 -0.03600833 -0.043783624 0.07912906
0.09250687 -0.04660589 0.05571724 0.022655915 -0.03272397 0.097074196 0.055070724 0.072681904
-0.068252206 -0.048923563 -0.053601272 0.03809401 -0.051191006 -0.005963866 0.011949307 0.0371123
-0.04416315 0.11768049 0.03073732 0.068050586 -0.08182563 0.031151867 -0.054209024 -0.07550337
-0.045668453 -0.019325258 0.033218402 0.012201508 -0.002203881 -0.09867805 -0.066849925 -0.0024096798
0.033016022 -0.012892901 0.08946163 -0.06610481 -0.035638884 0.09792763 0.010038277 -0.08606603
0.016009536 -0.0016420364 0.018579504 -0.0031067508 0.0019213213 -0.0024842864 -0.029927615 -0.05503206
0.07526918 -0.047580004 0.037235893 -0.06972573 -0.0052746534 -0.06275586 -0.034203976 -0.027436322
-0.07408191 -0.043375988 -0.008956221 -0.06250369 0.073810264 -0.005849433 -0.04875428 0.06954905
0.00034587606 -0.053701825 0.018998427 0.06685631 -0.019174147 0.12096807 0.012173645 -0.07284521
-0.044151116 0.017430523 -0.025163664 -0.088881455 -0.06405726 -0.07618291 0.07353731 0.0808671
-0.018790677 -0.029451355 0.047896765 0.05468076 -0.07993904 0.0067617716 0.024444938 0.093555644
0.20835568 -0.013932956 -0.1472465 -0.03713434 0.06252258 -0.034128513 -0.0045755557 -0.02343588
0.19158542 -0.003642336 -0.093277335 -0.08701595 -0.14884277 0.0020493974 -0.052658595 -0.25289392
0.011947096 0.16808574 0.14546263 -0.108974636 -0.117487945 -0.09811691 -0.08960169 -0.06637302
-0.27573293 0.046380468 -0.0071684984 0.163597 0.033731848 0.0048336857 -0.105754346 0.2198515
-0.05132229 0.019770607 0.27704623 0.018251387 0.088658206 -0.19825172 0.013654659 0.1640907
-0.13700688 -0.048882626 0.25179967 -0.07181338 0.0594293 -0.101320006 -0.11828047 0.040347062
0.08386341 0.03173542 -0.25869757 0.1354832 0.3002252 0.092943266 -0.13164295 -0.18615524
00000000: 6370 dc3c 7f68 79bc f66f c33c 72b1 703d
00000010: 4828 1d3d 276f d53c 4f0d abbd e729 a3bd
00000020: 54a1 54bc 6372 ad3d f44f f73b 0701 413d
00000030: 96cf a23c 8de5 94bd d79f b8bd 9adb db3b
00000040: 9620 b9bd 1f54 2c3d f79e 44bd ac18 1a3d
00000050: 8ffa 9f3d d5f4 0e3d 0206 2abd 7968 b13d
00000060: c201 6abd 4c83 9c3c fd40 c0bc 6703 bebd
00000070: 645f 6c3c 55b3 ad3c 0724 5dbc 1d44 33bc
00000080: 5cae 86bc f61b a1bd c499 343d 0740 b73d
00000090: 9501 fbbc 4672 283d 8788 013c 8003 a93c
000000a0: a9fd 043d 714d 28bc f922 aabc e0d9 a33d
000000b0: 88be d6bc 3a12 b73d 5445 bcbd 14b8 95bd
000000c0: af5d a93d 6756 f9bb 209f 94bc 5919 8c3b
000000d0: a1de 94bd 2feb 9a3d 0e43 db3c 0a2e 263d
000000e0: 417f c6bd f9a3 b33d 9ecc 1dbd 1f10 0fbc
000000f0: 108f 4bbd c2bf 58bd 1037 4f3d ebea 553d
00000100: 47e4 07bd da5d 0b3c c104 ab3d 08e1 7fbd
00000110: fb3b 4a3d e7dc a23d 7b5b 98bd 0fd3 683d
00000120: 0288 6fbb dade cebc 0781 573d 8fea b83d
00000130: fc12 953d ab0a b33c 5738 36bd 8625 6a3d
00000140: ef4f 803d acc8 edbc df34 bebd 4c90 91bd
00000150: 2b5e 513d 30f9 90bc 7a34 89bd 4d65 54bd
00000160: aa69 683a ea61 903b b708 313b 3e1d 16bd
00000170: e70a 423d 819f 0dbd d93c b4bd 7416 80bd
00000180: 14fc 793d 5f68 86bd 00c0 f2bb a122 e13b
00000190: 7d82 7abc f98c ab3d 86c4 be3d 6cff b03d
000001a0: 2ca2 be3d ca21 a53d e38c a2bc aee0 28bd
000001b0: be4e 93bd 787d 13bd 7556 33bd 6b0e a23d
000001c0: 3e74 bd3d d1e5 3ebd c337 643d e698 b93c
000001d0: 9209 06bd d6ce c63d d791 613d 40da 943d
000001e0: d0c7 8bbd 1364 48bd 028d 5bbd 7708 1c3d
000001f0: a9ad 51bd 896c c3bb 07c7 433c 1103 183d
00000200: 6be4 34bd 7802 f13d d5cc fb3c 1b5e 8b3d
00000210: 3294 a7bd 3332 ff3c 480a 5ebd 83a1 9abd
00000220: d80e 3bbd 0150 9ebc 0510 083d d5e8 473c
00000230: fd6e 10bb b817 cabd 9de8 88bd b8eb 1dbb
00000240: cf3b 073d bf3c 53bc a937 b73d f561 87bd
00000250: 14fa 11bd 488e c83d 9677 243c 6343 b0bd
00000260: 6e26 833c 9939 d7ba 0b34 983c a19a 4bbb
00000270: d8d4 fb3a 69cf 22bb c22a f5bc 4c69 61bd
00000280: ba26 9a3d 40e3 42bd aa84 183d 5dcc 8ebd
00000290: 00d7 acbb 2586 80bd 7819 0cbd 23c2 e0bc
000002a0: 42b8 97bd 05ab 31bd 1dbd 12bc ef01 80bd
000002b0: d629 973d 9aac bfbb 91b2 47bd bb6f 8e3d
000002c0: b356 b539 72f6 5bbd 97a2 9b3c f6eb 883d
000002d0: 1a13 9dbc 1cbe f73d f873 473c df2f 95bd
000002e0: cdd7 34bd 75ca 8e3c 0724 cebc 7b07 b6bd
000002f0: 7430 83bd c905 9cbd bb9a 963d a69d a53d
00000300: e8ee 99bc f843 f1bc 662f 443d eff8 5f3d
00000310: 14b7 a3bd da91 dd3b c040 c83c 1a9a bf3d
00000320: 315b 553e 0e47 64bc c9c7 16be 2d1a 18bd
00000330: d70b 803d 57ca 0bbd 8bee 95bb 9afc bfbc
00000340: f82e 443e 42b4 6ebb 3008 bfbd 6b35 b2bd
00000350: 3d6a 18be 2f4f 063b 8ab0 57bd 507b 81be
00000360: c1bd 433c ab1e 2c3e 28f4 143e 182e dfbd
00000370: 859d f0bd 85f1 c8bd 1781 b7bd 94ee 87bd
00000380: de2c 8dbe 72f9 3d3d b9e5 eabb f985 273e
00000390: 682a 0a3d e563 9e3b bc95 d8bd c020 613e
000003a0: 5237 52bd f8f5 a13c 01d9 8d3e ef83 953c
000003b0: 6f92 b53d 8002 4bbe cab7 5f3c 6407 283e
000003c0: 884b 0cbe 2639 48bd e3eb 803e e512 93bd
000003d0: 236c 733d dd80 cfbd 083d f2bd f642 253d
000003e0: 94c0 ab3d 00fd 013d 0274 84be 1cbc 0a3e
000003f0: 1eb7 993e 0a59 be3d 69cd 06be 7b9f 3ebe

ode_func.net.4.bias f4 [3]
0.09499125 -0.039791528 -0.057262495
00000000: c68a c23d 71fc 22bd 148c 6abd
