checkpoint/ode_rk4/pushing_3_steps_ode_rk4_dynamics_model.pt (torch, 47614 bytes, 6 tensors)

ode_func.net.0.weight f4 [100, 6]
0	0xbd6f5d56	-0.05843862
1	0xbec23736	-0.37932748
2	0x3ebbda94	0.366902
3	0x3e759da7	0.23985921
4	0xbe7c167e	-0.24617955
5	0xbe41eaf6	-0.18937287
6	0xbe46c9a9	-0.19412865
7	0x3ebab0a4	0.3646289
8	0xbddc18f5	-0.10746948
9	0xbe4f91b6	-0.20270428
10	0xbf064c2d	-0.52459985
11	0x38fc5819	0.00012032706
12	0xbe1ba14d	-0.1519825
13	0xbe8f2c10	-0.27963305
14	0x3e871a02	0.2638703
15	0x3d5d3b60	0.054011703
16	0x3ef5e6eb	0.4802774
17	0xbcf59e9f	-0.029982863
18	0xbd998dec	-0.074977726
19	0x3d690ca2	0.056896813
20	0xbe6787e8	-0.22610438
21	0x3dc31150	0.095247865
22	0xbea57186	-0.32313174
23	0xbe07d0c2	-0.13263229
24	0xbe614acd	-0.2200119
25	0x3ec49206	0.38392657
26	0x3ec2a60f	0.38017318
27	0xbe19d813	-0.15023832
28	0xbe3c66dc	-0.18398613
29	0x3e686961	0.22696449
30	0xbe560b7f	-0.20902823
31	0xbed997a2	-0.424985
32	0x3d71ace5	0.059002776
33	0xbec70079	-0.38867548
34	0x3ddf83e4	0.10913828
35	0x3cde9b1c	0.027173571
36	0x3e12f5a0	0.14351511
37	0xbec7c0bb	-0.3901423
38	0x3ed19872	0.4093662
39	0x3e195240	0.14972782
40	0x3e594530	0.21217799
41	0x3de5d69f	0.11222576
42	0xbcc41fd5	-0.02394096
43	0xbea18363	-0.31545553
44	0xbd838d90	-0.06423485
45	0x3e8c9c35	0.27462927
46	0x3ec118b9	0.37714174
47	0x3e95a212	0.29225212
48	0x3e7b41ae	0.24536774
49	0xbe787819	-0.24264564
50	0xbd85722b	-0.065159164
51	0xbc8a9187	-0.016915096
52	0x3cf77ebc	0.030211799
53	0xbc48aabf	-0.01224774
54	0x3e20b47a	0.15693846
55	0x3ea858f6	0.32880372
56	0x3e1b57e6	0.1517025
57	0x3d2e9689	0.04262403
58	0xbc9ec4da	-0.019380976
59	0xbd7a1763	-0.06105746
60	0x3e38bf73	0.18041782
61	0x3e4b6923	0.19864325
62	0xbdb16ebf	-0.08663701
63	0xbe8e112b	-0.27747473
64	0xbeb3ecbe	-0.35141557
65	0x3d00d68e	0.031454615
66	0xbe291092	-0.16510227
67	0xbddf0c16	-0.10890977
68	0xbe97c80d	-0.29644814
69	0x3ecd2f6f	0.4007525
70	0xbea0cd2d	-0.31406537
71	0xbe92f054	-0.2869898
72	0x3e54e9b1	0.20792271
73	0xbe55f242	-0.20893195
74	0x3e9b25f6	0.303024
75	0x3dbd2fbc	0.0923762
76	0xbc93f659	-0.018061804
77	0xbeb7cac9	-0.358969
78	0xbe054757	-0.13015495
79	0x3eabd7d4	0.335631
80	0x3d8018e0	0.062547445
81	0x3e0be273	0.13660602
82	0xbdb99819	-0.090622135
83	0xbee274f7	-0.44229862
84	0xbe2d9438	-0.16951072
85	0x3e637a24	0.22214562
86	0x3e5550a7	0.20831548
87	0x3e9f1ec6	0.31078166
88	0xbe0d79a9	-0.13815941
89	0xbece7063	-0.4032012
90	0xbd69bdaf	-0.057065662
91	0xbe04a57e	-0.12953755
92	0x3e814864	0.25250542
93	0x3eb1a2cf	0.34694526
94	0x3e94553a	0.28971273
95	0xbe751457	-0.2393354
96	0xbd3f8aa8	-0.046763092
97	0x3e17eebe	0.14837167
98	0xbe945d6f	-0.28977534
99	0x3d163596	0.036672197
100	0xbc120402	-0.008912088
101	0x3df90620	0.121593714
102	0x3d7c7aa7	0.061640408
103	0x3dc36e98	0.095425785
104	0xbede3383	-0.43398675
105	0x3e840b0d	0.2578968
106	0x3e70743a	0.23481837
107	0xbc552754	-0.013009865
108	0xbed2114f	-0.4102883
109	0x3ea73e8e	0.32664913
110	0x3d8f0f9a	0.06985398
111	0x3e651146	0.2236987
112	0x3ec7b580	0.3900566
113	0xbe26aaf2	-0.16276148
114	0xbe891d7e	-0.26780313
115	0x3ed6e4b2	0.41971356
116	0x3eabe92b	0.3357633
117	0xbe4cee1f	-0.20012711
118	0xbe8c4dcc	-0.27403104
119	0xbdf6a418	-0.12043017
120	0x3ea350e0	0.3189764
121	0x3eae1be3	0.3400565
122	0xbd32aae9	-0.043620024
123	0x3e9aa704	0.30205548
124	0x3e024213	0.12720518
125	0xbe0fd4cb	-0.14046018
126	0x3dfb56b2	0.12272395
127	0x3e24fb52	0.16111496
128	0xbe624709	-0.2209741
129	0xbe2e0377	-0.16993509
130	0x3e910dd9	0.28330877
131	0x3ea25f0b	0.31713137
132	0xbec11c45	-0.3771688
133	0x3b0fa2d4	0.0021917121
134	0xbe52f827	-0.20602475
135	0x3ea42998	0.32062984
136	0xbeb32cd4	-0.3499514
137	0x3e83302b	0.25622687
138	0xbde5bf33	-0.11218109
139	0x3e36767f	0.1781864
140	0x3dde7595	0.10862271
141	0xbe01e6df	-0.12685727
142	0x3e922cf6	0.28549927
143	0xbe9166f4	-0.2839886
144	0xbea7a69c	-0.327443
145	0x3e729bd4	0.23692256
146	0x3eb38552	0.35062653
147	0xbe295b4b	-0.16538732
148	0xbde9bae4	-0.114126
149	0x3e84433a	0.2583254
150	0x3e2a9ccc	0.16661376
151	0xbeadd8b6	-0.339544
152	0xbeda75fa	-0.42668134
153	0xbe6c8ffe	-0.23101804
154	0xbd228a57	-0.039682712
155	0xbd4421e4	-0.047883883
156	0x3ed5e8d3	0.41779193
157	0x3e9189f8	0.28425574
158	0xbea23d2a	-0.3168729
159	0x3d2983e3	0.041385543
160	0x3eb8a48f	0.36063048
161	0x3d854916	0.06508081
162	0x3dfa0b0f	0.122091405
163	0x3e3ee8b4	0.18643457
164	0x3b6c6141	0.003606871
165	0x3dac997c	0.08427712
166	0xbe9055cd	-0.2819046
167	0xbd4002bb	-0.046877604
168	0xbc848ecd	-0.016181374
169	0x3d39cb8a	0.045360126
170	0x3dce755a	0.10080977
171	0xbe36c685	-0.17849167
172	0xbe81b05a	-0.25329858
173	0x3e34652c	0.17616719
174	0x3e3269bb	0.17423145
175	0x3e6550a2	0.2239404
176	0x3ea387c5	0.3193952
177	0xbe34e258	-0.17664468
178	0x3dd6f8dd	0.10496686
179	0xbeb1c4d6	-0.34720486
180	0x3d9e4d1f	0.077295534
181	0xbe9d7263	-0.30751333
182	0x3e67909e	0.22613761
183	0xbd8f9bbb	-0.07012125
184	0xbce66e4f	-0.028128771
185	0x3e1bbe42	0.15209296
186	0x3d9a0a6e	0.075215206
187	0x3e33e1ab	0.17566554
188	0xbdabf642	-0.08396579
189	0x3d25b86e	0.04045909
190	0xbecc1de6	-0.3986656
191	0xbea14d3e	-0.31504244
192	0x3e7a52ae	0.24445602
193	0x3d2a1a2e	0.041528873
194	0x3e64efc8	0.22357094
195	0x3db24658	0.08704823
196	0x3e1453b4	0.14485055
197	0xbeb1392e	-0.34613937
198	0xbd0823c7	-0.033237245
199	0x3da32d6f	0.0796765
200	0xbe8d47b2	-0.27593762
201	0x3e35dfff	0.17761229
202	0x3ecadec4	0.39623082
203	0x3c5e7d53	0.013579684
204	0xbd2222a3	-0.039583813
205	0xbe9ec785	-0.31011596
206	0x3e7b32c3	0.24531083
207	0x3c737f9d	0.014861968
208	0xbec5a80e	-0.38604778
209	0x3e220dc4	0.15825564
210	0x3e529871	0.20565964
211	0x3d6b0bed	0.05738442
212	0x3ef02d0f	0.46909377
213	0x3e096d8d	0.13420697
214	0x3e3477e1	0.17623855
215	0xbe1b5ae5	-0.15171392
216	0x3ebcd826	0.36883658
217	0xbeb11cc2	-0.34592253
218	0xbeb2b508	-0.3490374
219	0xbe763b80	-0.24046135
220	0xbe8235f7	-0.25431797
221	0xbe89ee3b	-0.26939568
222	0xbdcdf000	-0.10055542
223	0xbe73b7ca	-0.23800579
224	0xbd1c5dd3	-0.038175415
225	0xbe6d5ac1	-0.23179151
226	0xbadb6582	-0.0016738626
227	0xbea9680f	-0.33087203
228	0xbed297f4	-0.41131556
229	0x3e3396fa	0.17538062
230	0xbed8d8c5	-0.42352882
231	0x3e22e592	0.15907887
232	0x3ea16442	0.31521803
233	0xbdb41f19	-0.08794994
234	0xbd9e1208	-0.07718283
235	0xbdc54b76	-0.09633534
236	0x3c7ec02d	0.015548748
237	0xbe371877	-0.17880426
238	0xbec3b2f9	-0.38222483
239	0x3ec2c782	0.38042837
240	0xbd7e6c26	-0.062114857
241	0x3e0574b7	0.13032804
242	0x3e47c150	0.19507337
243	0xbda8248b	-0.08210095
244	0xbbd1e36e	-0.0064052856
245	0x3bf316bf	0.007418483
246	0xbdf059d2	-0.11735882
247	0xbe996045	-0.2995626
248	0xbecdc3d2	-0.40188462
249	0xbe4a9b3b	-0.19785778
250	0xbe822f8d	-0.25426903
251	0x3dbdc05d	0.09265206
252	0x3e8b3eff	0.271965
253	0xbe8a6f40	-0.27038002
254	0x3e6d7de0	0.23192549
255	0xbed63a39	-0.41841295

ode_func.net.0.bias f4 [100]
0	0x3d84f8aa	0.064927414
1	0xbe23061c	-0.159203
2	0x3dabb101	0.0838337
3	0xbe8f7031	-0.28015283
4	0x3c6b9709	0.014379271
5	0x3e15e5b4	0.14638406
6	0xbe91e362	-0.28493792
7	0xbc32d4fa	-0.010915035
8	0x3ed6c859	0.41949728
9	0xbe40be18	-0.18822515
10	0x3e591f36	0.21203312
11	0x3e825413	0.2545477
12	0x3df52ab5	0.11971036
13	0x3c83889f	0.016056357
14	0xbde82659	-0.11335439
15	0xbe401fc8	-0.18762124
16	0xbe0799c3	-0.13242249
17	0x3d815883	0.063157104
18	0x3d99921e	0.07498573
19	0xbe974f43	-0.2955266
20	0x3e4067e4	0.18789631
21	0x3ea6fe1b	0.32615742
22	0xbeccab65	-0.39974514
23	0x3ec9d857	0.39422867
24	0xbe1d62c2	-0.15369704
25	0x3e1d6078	0.15368831
26	0x3e92f208	0.2870028
27	0x3eb27e31	0.348619
28	0x3ea3c661	0.3198729
29	0x3d81fb35	0.06346742
30	0xbdc49cf4	-0.09600249
31	0x3c9ad03b	0.01889812
32	0x3eb55748	0.35418153
33	0x3c66ef87	0.014095194
34	0x3bdb5f16	0.0066946847
35	0xbe1c7c26	-0.15281734
36	0xbd759579	-0.059957
37	0x3e997b92	0.2997709
38	0xbdf9328c	-0.12167844
39	0xbe8a5313	-0.27016506
40	0xbd2455db	-0.04012094
41	0xbe8e3bc6	-0.2777998
42	0x3e9a2f38	0.3011415
43	0x3e9d2385	0.30691162
44	0xbe9a3892	-0.30121285
45	0x3de968be	0.11396931
46	0x3dcc5c65	0.0997856
47	0x3e16ccaf	0.14726518
48	0x3df0c26b	0.11755832
49	0x3ecc297b	0.39875397
50	0xbeb341a4	-0.35011017
51	0x3ec36289	0.38161114
52	0xbe7b84da	-0.24562398
53	0x3e5eff19	0.21777
54	0x3e85de22	0.26146036
55	0x3e92377d	0.2855796
56	0xbe17a384	-0.1480847
57	0xbd1485c1	-0.03626037
58	0x3e480940	0.19534779
59	0x3e8dadef	0.27671763
60	0xbc54a01a	-0.012977624
61	0x3ec8871d	0.39165583
62	0x3ec9f661	0.39445785
63	0x3df36a87	0.11885553
64	0x3d8b7bd8	0.06810731
65	0x3dfda67c	0.1238527
66	0xbddd0afa	-0.10793109
67	0x3eb8d440	0.36099434
68	0xbed8efe0	-0.4237051
69	0x3e2119a5	0.15732439
70	0x3eb75351	0.35805753
71	0x3d0a997c	0.03383778
72	0x3d8a2388	0.06745058
73	0xbe0ca0fe	-0.13733289
74	0xbdd93717	-0.10606211
75	0xbd63e83f	-0.05564141
76	0x3e9088af	0.2822928
77	0x3d806040	0.06268358
78	0x3ca0add7	0.019614143
79	0xbe9abb6b	-0.30221114
80	0xbe574b77	-0.21024881
81	0x3dc32dc1	0.09530211
82	0xbed4994c	-0.41523206
83	0x3de861f6	0.113468096
84	0xbebd5fa2	-0.36987025
85	0x3e859d1b	0.26096424
86	0x3c70c888	0.014696248
87	0x3e3685b4	0.17824441
88	0xbce63945	-0.02810348
89	0x3dea596d	0.11442838
90	0xbe2f0cc4	-0.17094713
91	0x3e0ebcd5	0.13939221
92	0xbeaf1822	-0.341981
93	0x3e7e1554	0.24812824
94	0x3dd5f516	0.10447137
95	0x3e52bda5	0.20580156
96	0xbc9a3167	-0.018822385
97	0x3e574471	0.21022202
98	0x3e820e6a	0.25401622
99	0x3db893bd	0.09012554

ode_func.net.2.weight f4 [100, 100]
0	0x3d430da7	0.04762044
1	0x3d63fa8d	0.055658866
2	0x3d298a67	0.041391756
3	0x3db7fdaf	0.08983933
4	0xbd8bfbc8	-0.06835133
5	0x3d119293	0.035540175
6	0x3b0ab533	0.0021165132
7	0x3d268cf7	0.04066178
8	0xbcbbf76d	-0.02294513
9	0x3d88cb87	0.06679445
10	0xbc9335da	-0.017970014
11	0xbd9f83c3	-0.077888034
12	0xbd1f63c0	-0.03891349
13	0x3c161240	0.009159625
14	0x3d7baaa3	0.06144203
15	0xbd3ba7ea	-0.045814432
16	0xbd457f93	-0.048217367
17	0xbd8fc29d	-0.070195414
18	0x3db8369a	0.089947894
19	0xbd3629ca	-0.044473447
20	0xbd9db8f2	-0.07701291
21	0xba5c2000	-0.00083971024
22	0xb9f8199a	-0.0004732132
23	0xbda706bf	-0.081555836
24	0x3dbeb58d	0.09311972
25	0x3d507ac0	0.050898314
26	0x3877a667	5.9044363e-05
27	0x3dc74b33	0.0973114
28	0xbd606b1a	-0.05478964
29	0x3cc75bc0	0.024335742
30	0xbd15ce47	-0.036573675
31	0x3dc9083d	0.098160245
32	0x3db3478f	0.08753883
33	0x3d89a300	0.06720543
34	0xbc303967	-0.010755873
35	0xbd9355e8	-0.0719412
36	0x3d911eea	0.070859745
37	0xbd5e577d	-0.054282654
38	0x3d6b7af7	0.057490315
39	0xbd63e6f0	-0.05564016
40	0x3d84f692	0.06492342
41	0xbd4c1d3d	-0.04983257
42	0xbcf30fcd	-0.02967062
43	0xbd9adba8	-0.07561427
44	0xbccf6073	-0.025314545
45	0x3d606e0a	0.05479244
46	0x3d0e87c0	0.03479743
47	0xbd18376d	-0.037162233
48	0xbc0804e7	-0.00830195
49	0x3d6d24f3	0.057896566
50	0x3da64773	0.081190966
51	0xbd352ada	-0.04423032
52	0x3da75ea2	0.08172347
53	0xbd9cbe7f	-0.07653522
54	0xbd5cbde7	-0.053892042
55	0xbdb0175a	-0.08598204
56	0xbd8591b3	-0.065219305
57	0x3da296f8	0.07938951
58	0x3cc788e7	0.024357272
59	0xbda70d6d	-0.08156858
60	0xbc8abda0	-0.016936123
61	0x3c4bb69a	0.012433672
62	0xbc966c7a	-0.018362273
63	0xbc9459e0	-0.018109262
64	0xbd875752	-0.06608452
65	0xbd63eab3	-0.05564375
66	0xbd81b3fd	-0.06333158
67	0xbcdf22e0	-0.02723831
68	0x3d92fcd0	0.071771264
69	0x3d51ba1a	0.05120287
70	0xbda9c873	-0.08290186
71	0x3d495493	0.049152922
72	0xbda57643	-0.08079197
73	0xbcacc46d	-0.021089757
74	0xbd252857	-0.040321674
75	0xbd8580a2	-0.065186754
76	0x3d98f99a	0.07469483
77	0xbcccf2fa	-0.025018204
78	0x3dbfc807	0.09364324
79	0x3d338b63	0.0438341
80	0x3d1c6d1a	0.038189985
81	0x3cc7b3ad	0.024377668
82	0xbdbb0f20	-0.09133744
83	0xbd28b8e7	-0.04119196
84	0x3cf21587	0.02955128
85	0xbd6087ca	-0.054817
86	0x3d28a450	0.041172326
87	0x3d71e037	0.05905172
88	0x3da75fda	0.08172579
89	0x3d39753a	0.04527781
90	0x3d4ba77d	0.049720276
91	0x3cb582e0	0.022157133
92	0xbd67ebb0	-0.056621253
93	0x3d218dea	0.03944198
94	0x3c680f5a	0.014163816
95	0xbdad73ab	-0.084693275
96	0xbd0dc520	-0.03461182
97	0xbdb0a523	-0.08625247
98	0x3c92b61a	0.017909098
99	0x3db094cf	0.08622133
100	0xbdd5c65a	-0.10438223
101	0xbeb43acc	-0.35201108
102	0x3b973d56	0.004615466
103	0xbe91207c	-0.28345096
104	0x3de44902	0.11146738
105	0xbccbfbff	-0.024900435
106	0xbcdcc24a	-0.026948113
107	0x3cc0f406	0.02355386
108	0x3b85edc9	0.004087184
109	0x3d8456cf	0.0646187
110	0x3d5b2a55	0.053507168
111	0x3cb04d54	0.021521248
112	0xbd7d05d9	-0.061773155
113	0xbc4e693b	-0.012598331
114	0x3c501fdf	0.012702911
115	0x3defac67	0.11702805
116	0x3db6bbd8	0.08922547
117	0x3dc8c941	0.09804011
118	0xbdb7cae6	-0.08974247
119	0xbd809e0f	-0.06280147
120	0x3d9e67cc	0.077346414
121	0x3d1632dd	0.0366696
122	0x3dab6ab7	0.083699636
123	0x3d85cf84	0.06533721
124	0x3e29d0ba	0.16583529
125	0x3dd52ab5	0.10408536
126	0x3db5358c	0.08848104
127	0xbd854525	-0.06507329
128	0x3dd55e7d	0.10418413
129	0x3d802772	0.062575236
130	0xbcd65eff	-0.026168345
131	0xbe0a728c	-0.13520259
132	0xbd964fd5	-0.073394455
133	0x3d2b1c58	0.041775078
134	0xbc9d252b	-0.019182762
135	0x3da57d14	0.080804974
136	0xbd17d147	-0.037064817
137	0xbc4f80e3	-0.012665006
138	0x3cadb91a	0.021206427
139	0x3d878f34	0.06619111
140	0x3dd139b3	0.102160834
141	0xbe0bcfa7	-0.13653432
142	0xbd027546	-0.031850122
143	0x3d08bb77	0.033381905
144	0x3d329a56	0.043604217
145	0xbd3891ea	-0.04506103
146	0x3c8b50f5	0.017006377
147	0xbdda968a	-0.10673244
148	0x3ccaabce	0.024740126
149	0x3dbaa5eb	0.091136776
150	0x3e2552a9	0.16144814
151	0x3e0d3113	0.13788252
152	0xbe36d0b1	-0.17853047
153	0xbdca232b	-0.09869989
154	0xbd81594b	-0.063158594
155	0xbdb89cba	-0.09014268
156	0xbd696297	-0.05697879
157	0xbd02883c	-0.031868204
158	0xbde95a83	-0.11394217
159	0xbd14759c	-0.036244974
160	0x3dcee99c	0.10103151
161	0x3d23c7fa	0.039985634
162	0xbd8eda2f	-0.06975209
163	0xbcc47892	-0.023983274
164	0x3d3c4b33	0.045970153
165	0xbe126dc7	-0.14299689
166	0xbd825f7e	-0.0636587
167	0xbd4339a0	-0.047662377
168	0xbd44f738	-0.04808733
169	0x3d0888c5	0.03333356
170	0x3d1f4b79	0.038890336
171	0xbc7e8d05	-0.015536551
172	0xbcc6b952	-0.02425829
173	0xbd10f151	-0.035386387
174	0x3ccabe1f	0.02474886
175	0xbceafb33	-0.028684234
176	0xbd96bb85	-0.07359985
177	0xbcace038	-0.02110301
178	0x3d9c34a9	0.07627232
179	0x3db13e73	0.08654489
180	0xbd297197	-0.041368093
181	0xbcae0597	-0.0212429
182	0x3de56eb2	0.11202754
183	0xbd89cda9	-0.0672868
184	0xbd97b6e3	-0.0740793
185	0x3d8c9faf	0.06866395
186	0x3da3e36d	0.080023624
187	0xbccb82a1	-0.024842562
188	0x3d01ffa8	0.031737953
189	0xbd9d2dcd	-0.076747514
190	0x3da57a64	0.08079985
191	0x3e115ca1	0.14195491
192	0x3d2dc647	0.04242542
193	0xbd1a38bd	-0.037651766
194	0x3deaf6a2	0.11472823
195	0xbbbd35e6	-0.0057742475
196	0x3d0d48f3	0.034493398
197	0xbcf7f08c	-0.030266069
198	0xbd1a8374	-0.03772302
199	0xbe49f426	-0.19722041
200	0x3d6342fe	0.05548381
201	0x3c9f9580	0.019480467
202	0x3dbaaa1d	0.09114478
203	0xbca47158	-0.020073578
204	0xbb4fc6cd	-0.0031704188
205	0x3d5ae4cf	0.053440865
206	0xbd5cca44	-0.053903833
207	0xbbadd099	-0.005304408
208	0xbd256866	-0.040382765
209	0xbbfdcd76	-0.00774544
210	0xbbd9eaa6	-0.0066502867
211	0x3d6b28c2	0.057411917
212	0x3d97576b	0.073897205
213	0x3b837ef3	0.0040129363
214	0x3dc1adc3	0.094569705
215	0x3d76e35f	0.06027543
216	0x3db26c16	0.08712022
217	0x3b94447e	0.0045247665
218	0x3cb8bdde	0.022551473
219	0xbd60f3be	-0.05491995
220	0x3d8e5318	0.069494426
221	0xbd9b4b4a	-0.075827196
222	0x3cc2624e	0.023728516
223	0xbdb86094	-0.09002796
224	0x3d070324	0.03296198
225	0xbd79c67e	-0.060980313
226	0x3d2a2940	0.041543245
227	0x3d91c79e	0.07118152
228	0x3da31b95	0.07964245
229	0xbdb6c57b	-0.08924385
230	0x3d62cdd4	0.055372074
231	0x3dbd09ab	0.0923036
232	0xbd81ffc7	-0.06347614
233	0x3cc960ec	0.024582349
234	0x3d45c3a6	0.048282288
235	0x3c2e11f7	0.0106244
236	0x3b462840	0.0030236393
237	0xba85c0ab	-0.0010204514
238	0x3e21f3f1	0.15815713
239	0xbd90d50b	-0.07071885
240	0xbdaa277f	-0.083083145
241	0xbdc40b37	-0.095724516
242	0xbdb73a21	-0.08946634
243	0x3bda97cb	0.006670927
244	0xbb6b3910	-0.0035892166
245	0xbc1dfdfe	-0.009643076
246	0xbc0fe388	-0.008782275
247	0x3d975cc2	0.07390739
248	0x3da4e6a1	0.080518015
249	0x3d2a7260	0.041612983
250	0xbddcb12c	-0.1077598
251	0xbc9806c4	-0.018557914
252	0xbc092639	-0.008370929
253	0x3c897cb7	0.016783101
254	0x3d3d1395	0.046161253
255	0x3db46aa2	0.08809401

ode_func.net.2.bias f4 [100]
0	0xbd28ac2a	-0.041179813
1	0xbd78d991	-0.060754362
2	0xbdc00956	-0.09376781
3	0xbd5e2415	-0.05423363
4	0xbd74c8a2	-0.05976165
5	0x3c83d28e	0.016091611
6	0x3daf109d	0.085480906
7	0x3d856388	0.06513125
8	0x3c103cc4	0.00880355
9	0x3d44de8f	0.04806381
10	0x3d7142f5	0.058901746
11	0xbbf42568	-0.0074507482
12	0x3da2d603	0.07950976
13	0xbd3222b1	-0.043490116
14	0xbda3da4e	-0.08000623
15	0xbda609cb	-0.081073366
16	0x3d3af54b	0.045644086
17	0x3cf72e02	0.030173305
18	0x3d092fc4	0.03349282
19	0x3da26a4a	0.07930429
20	0xbcc3de65	-0.023909757
21	0xbd92edb5	-0.07174245
22	0xbcc358cb	-0.02384605
23	0x3ceebe69	0.029143529
24	0x3bf60016	0.0075073345
25	0xbcdbe309	-0.026841657
26	0xbd5b0b51	-0.05347759
27	0x3dc47ec3	0.095944904
28	0xbd07cc6f	-0.033153947
29	0xbd9d5469	-0.076821156
30	0x3d6a3ccf	0.057186898
31	0x3d911a8f	0.07085144
32	0x3de1c01e	0.110229716
33	0xbc3aeced	-0.011409027
34	0xbd9129e9	-0.07088072
35	0x3b7af9fa	0.003829597
36	0x3d5e4bff	0.054271694
37	0x3b73d760	0.003720723
38	0xbce362b1	-0.02775702
39	0x3d4113b4	0.04713793
40	0x3da463e0	0.08026862
41	0x3b0318a4	0.00200037
42	0x3dbe2573	0.092844866
43	0x3dccbd3d	0.09997032
44	0x3dae64e9	0.08515341
45	0xbd95f390	-0.073218465
46	0xbb037966	-0.0020061373
47	0x3d59cf5f	0.05317628
48	0x3d7dc3c7	0.061954286
49	0x3dc95b7b	0.09831902
50	0xbc4f1f0a	-0.012641678
51	0x3cac2e70	0.021018237
52	0xbd22cf53	-0.0397485
53	0xbd9cb8bd	-0.076524235
54	0xbda674da	-0.081277564
55	0x3d1a8085	0.037720222
56	0xbd85e768	-0.06538278
57	0x3d947f0c	0.07250795
58	0x3caa0813	0.020755803
59	0x3c8a0ef6	0.016852837
60	0x3d44381a	0.047905065
61	0x3d51606a	0.05111734
62	0xbcbffe97	-0.023436828
63	0x3d934ae8	0.071920216
64	0x3da17569	0.07883722
65	0xbd8b23f4	-0.06793967
66	0xbd462613	-0.048376154
67	0x3db512d1	0.088414796
68	0x3dce87db	0.10084506
69	0x3c880421	0.016603531
70	0xbd5b7fdd	-0.053588737
71	0xbd471c83	-0.048611175
72	0x3cf000a5	0.029297182
73	0x3d0bc0b3	0.03411932
74	0x3cdd8c25	0.027044365
75	0xbd67a119	-0.05655012
76	0x3d44d1de	0.048051707
77	0x3d9b1f20	0.07574296
78	0x3cec1621	0.028819146
79	0x3d869f48	0.06573349
80	0x3d0b417f	0.03399801
81	0x3d214af4	0.03937812
82	0xbd7b4241	-0.06134248
83	0x3d1d6c09	0.03843311
84	0x3d868660	0.06568599
85	0x3c6b4e9c	0.014362004
86	0xbb9a64f8	-0.0047117434
87	0xbd80b10f	-0.06283771
88	0x3bae6721	0.0053223525
89	0xbd4fb329	-0.05070797
90	0xbdcd4a71	-0.10023964
91	0x3c9c7b92	0.019101892
92	0xbd28781a	-0.041130163
93	0xbd56d689	-0.05245069
94	0x3c535585	0.012898807
95	0x3d667c8d	0.056271125
96	0x3c94c9eb	0.018162688
97	0x3d41bf9e	0.04730188
98	0x3daa088d	0.08302412
99	0x3b9385b4	0.0045020226

ode_func.net.4.weight f4 [3, 100]
0	0xbcd0f9a0	-0.025509655
1	0x3c3fd8c3	0.011709395
2	0x3d9a3774	0.07530108
3	0xbda833ce	-0.08213006
4	0x3d065364	0.03279437
5	0xb97bfe9e	-0.00024032078
6	0x3c7254ee	0.014790757
7	0x3da11d67	0.07866936
8	0xbd8364ed	-0.064157344
9	0x3d9b8aa6	0.075948045
10	0xbd497d9e	-0.049192064
11	0xbd5e3e0e	-0.0542584
12	0x3d2d6923	0.042336594
13	0xbd1d6c91	-0.038433615
14	0xbb859c0d	-0.0040774406
15	0xbc6bfa30	-0.014402911
16	0x3da48fd1	0.08035243
17	0xbc3461cc	-0.011009645
18	0x3ce60ee4	0.028083272
19	0x3d1ea408	0.03873065
20	0xbd82e24c	-0.06390819
21	0x3d8e9585	0.06962112
22	0x3d5eff2f	0.05444258
23	0xbda47245	-0.08029608
24	0xbd91db57	-0.07121914
25	0x3d1c7f45	0.03820731
26	0x3cb7418e	0.022370126
27	0xbc98a298	-0.018632218
28	0x3d75fada	0.060053684
29	0xbafcb6a9	-0.0019280511
30	0xbd505c33	-0.050869178
31	0x3da2ec6e	0.07955252
32	0xbd19d8e8	-0.037560374
33	0xbc276fc8	-0.010219522
34	0xbda3c0c7	-0.07995754
35	0x3d1e0ef6	0.038588487
36	0x3d692dbb	0.056928378
37	0xbc27a6b1	-0.010232613
38	0x3d63cc67	0.055614855
39	0xbd872022	-0.06597926
40	0xbc8e8b94	-0.01740054
41	0xbcf338e6	-0.029690217
42	0x3d0b11a3	0.033952367
43	0xbce715ef	-0.028208701
44	0xbccc0aad	-0.024907434
45	0xbbfdc6f4	-0.0077446643
46	0xbca3d0d4	-0.019997038
47	0x3ba7e6fa	0.00512397
48	0xbdc18e30	-0.09450948
49	0x3d803a90	0.0626117
50	0x3d169d55	0.036771137
51	0x3b18fce0	0.0023344085
52	0x3bf710ad	0.0075398297
53	0xbd9ff224	-0.078098565
54	0x3c92c4d2	0.017916117
55	0x3da6ca47	0.0814405
56	0xbca0b641	-0.019618155
57	0xbd61723a	-0.055040576
58	0x3c4d2ae7	0.012522436
59	0x3c0ebfa6	0.008712685
60	0x3d484a17	0.048898783
61	0xbd42cf06	-0.047560714
62	0x3d91f8de	0.07127546
63	0x3d26f812	0.040763922
64	0xbd4feaec	-0.05076115
65	0xbcb2ae51	-0.021811636
66	0x3d79cd73	0.060986947
67	0x3d785a07	0.06063273
68	0x3c988c9a	0.018621732
69	0x3da8da36	0.082447454
70	0xbd037c9f	-0.03210127
71	0x3dc1b8f7	0.09459107
72	0x3c933929	0.017971592
73	0xbd639d45	-0.055569906
74	0xbd365bdf	-0.04452121
75	0x3dbccad8	0.09218377
76	0xbd62eda8	-0.055402428
77	0xbd750114	-0.05981548
78	0x3dbd0d1c	0.09231016
79	0x3dba09f9	0.090839334
80	0xbd21fae8	-0.039545923
81	0x3db3ac13	0.08773055
82	0xbded386d	-0.11583028
83	0xbda5fabe	-0.08104466
84	0xbd88aea8	-0.06673938
85	0xbd1de193	-0.038545202
86	0xbd792e60	-0.060835242
87	0xbe0b1652	-0.13582733
88	0x3dab3757	0.083601646
89	0x3b89e708	0.0042084493
90	0xbd7bb43f	-0.061451193
91	0x3d3452f2	0.044024415
92	0x3d5ca31a	0.053866483
93	0xbd0d3934	-0.03447838
94	0x3d52e893	0.05149133
95	0xbd896f82	-0.067107216
96	0x3d8a5b1a	0.067556575
97	0xbd48f2aa	-0.049059547
98	0x3d87ecdb	0.066369735
99	0xbd3b3086	-0.045700572
100	0xbdc4677b	-0.0959005
101	0xbd7b7c6f	-0.061397966
102	0x3c0af312	0.008480804
103	0x3cfd5033	0.030922031
104	0xbda4941d	-0.08036063
105	0x3d620643	0.055181753
106	0x3ca64e46	0.020300996
107	0x3db35820	0.08757043
108	0x3c369d20	0.01114586
109	0x3d96ada4	0.07357338
110	0x3da333ba	0.079688504
111	0x3d97e2b3	0.07416286
112	0xbd696e52	-0.056989975
113	0xbc7dc1ab	-0.015488069
114	0x3d16bc48	0.036800653
115	0xbd685048	-0.056717187
116	0xbcf4c727	-0.02988012
117	0xbdc3d673	-0.09562387
118	0x3d5d2820	0.053993344
119	0x3b32efd6	0.0027303598
120	0x3d88a98d	0.06672964
121	0x3d62ead5	0.055399735
122	0xbd129c0f	-0.03579336
123	0x3c908010	0.01763919
124	0xbdcb1367	-0.0991581
125	0xbd1acbe1	-0.03779209
126	0x3c6a6e6d	0.014308554
127	0x3d8b280e	0.06794749
128	0x3d6e2d59	0.058148716
129	0x3d0fc44c	0.035099313
130	0xbd285096	-0.041092478
131	0x3d178115	0.036988337
132	0xbadf79f2	-0.0017049892
133	0x3d048ce3	0.032360923
134	0xbda98e8b	-0.08279141
135	0xbd01d495	-0.031696875
136	0xbd8dbffc	-0.06921384
137	0xbd16c7a9	-0.036811505
138	0xbd75212d	-0.059846092
139	0xbd78fc8a	-0.060787715
140	0x3d945b91	0.072440274
141	0x3d92efe6	0.07174663
142	0x3db4eb3e	0.088339314
143	0xbb9fbc94	-0.004874775
144	0xbd3efed9	-0.04662976
145	0xbda82a77	-0.082112245
146	0x3d69be37	0.05706617
147	0xbd371248	-0.04469517
148	0xbd6c2880	-0.05765581
149	0x3c2155de	0.0098471325
150	0xbd912d40	-0.07088709
151	0x3dca1ada	0.09868403
152	0xbbd77e39	-0.006576326
153	0x3c75bf4c	0.014999222
154	0x3d64321b	0.055711847
155	0xbdc08150	-0.093996644
156	0x3baf3530	0.0053469166
157	0xbd8182ee	-0.06323801
158	0xbd504dc7	-0.050855424
159	0xbcf58109	-0.029968755
160	0xbdb0d379	-0.08634085
161	0x3d921291	0.071324475
162	0x3d9ccd5d	0.076563574
163	0x3d8e979f	0.06962513
164	0xbd61eabb	-0.055155497
165	0xbd9e74ad	-0.07737098
166	0x3d84ee5e	0.064907774
167	0xbd9d9858	-0.07695073
168	0xbc85cf84	-0.016334303
169	0x3d98599e	0.07438968
170	0xbdbab03f	-0.091156475
171	0x3aa6e381	0.0012732596
172	0xbc51018e	-0.012756718
173	0xbd69f608	-0.0571194
174	0x3da5c0b3	0.08093395
175	0xbd8ba1b5	-0.068179525
176	0xbcc58783	-0.024112469
177	0xbdc6a576	-0.09699528
178	0x3c65cf74	0.014026511
179	0x3d954c0d	0.07289896
180	0x3dbc58bb	0.091966115
181	0x3d5e0be1	0.054210547
182	0x3cd03482	0.025415663
183	0x3d747770	0.059684217
184	0xbce048d9	-0.027378486
185	0x3dc203ad	0.09473357
186	0xbdbf62e0	-0.09345031
187	0xbca24a2a	-0.019810755
188	0xbcb1b1ba	-0.021691192
189	0xbd16aaed	-0.0367841
190	0x3d9acfbc	0.075591534
191	0x3d19509f	0.037430402
192	0xbd769805	-0.06020357
193	0x3d728052	0.059204407
194	0xbda90a5d	-0.0825393
195	0xbb506256	-0.0031796894
196	0xbd11ed2e	-0.035626583
197	0xbdb5da08	-0.08879477
198	0xbd0f069c	-0.034918413
199	0x3dbaa200	0.0911293
200	0xbc8a9700	-0.016917706
201	0x3e79e060	0.24401999
202	0xbc860f69	-0.01636477
203	0xbe9bf0c5	-0.3045713
204	0xbdb379bf	-0.087634556
205	0x3dcd2e8a	0.10018642
206	0x3ec49da2	0.38401514
207	0x3d773a87	0.06035855
208	0xbe678c39	-0.22612084
209	0xbda4420e	-0.080204114
210	0x3de7b557	0.11313885
211	0x3d0e0061	0.03466833
212	0x3e17cdda	0.1482462
213	0x3e546d25	0.2074476
214	0x3e1a999e	0.15097663
215	0xbf02d422	-0.5110494
216	0x3e11ab47	0.14225493
217	0xbd60946a	-0.05482904
218	0x3d3ae7dc	0.045631275
219	0xbb267d3a	-0.002540423
220	0xbb92666b	-0.0044677756
221	0xbd0b8ddb	-0.03407083
222	0x3d3b3510	0.0457049
223	0xbe04f7e5	-0.1298519
224	0x3b288435	0.0025713567
225	0x3e065d5b	0.1312155
226	0x3ea3d6b4	0.31999743
227	0x3a918c0f	0.0011104363
228	0x3e328788	0.17434514
229	0xbed1b65c	-0.40959442
230	0xbe0e9ca1	-0.13926937
231	0xbe7cb994	-0.24680167
232	0x3e5d57dd	0.21615548
233	0xbe1fc7fd	-0.15603633
234	0x3de331c8	0.110934794
235	0xbe6e82ee	-0.23292133
236	0x3d146126	0.03622546
237	0x3dab4713	0.08363166
238	0xbdc7cc46	-0.09755759
239	0xbcf546c9	-0.02994098
240	0x3ca8be47	0.020598544
241	0x3dcd9c48	0.10039574
242	0xbd93f110	-0.072237134
243	0xbe3678bb	-0.17819493
244	0x3db53211	0.0884744
245	0x3caaf452	0.020868454
246	0x3d8c724a	0.068577364
247	0x3e40dfef	0.18835424
248	0x3c1f029c	0.009705212
249	0x3ce847f7	0.028354628
250	0x3e79ca44	0.24393564
251	0x3d2a9636	0.04164716
252	0xbec66841	-0.38751414
253	0x3dd54e36	0.10415308
254	0xbc339363	-0.010960433
255	0x3d52d73d	0.0514748

ode_func.net.4.bias f4 [3]
0	0xbd7f3bea	-0.062312998
1	0x3d158691	0.036505286
2	0x3c8a1dd8	0.016859934
