checkpoint/ode_rk4/pushing_1_steps_ode_rk4_dynamics_model.pt (torch, 47614 bytes, 6 tensors)

ode_func.net.0.weight f4 [100, 6]
0.19518211 -0.42755622 -0.079920545 -0.010919874 0.37308708 -0.24204183 0.30133882 -0.18088509
0.066167064 0.08105927 0.06508197 0.3490686 0.13842362 0.1568864 0.11841838 -0.19747157
-0.46775374 -0.26715952 0.3295702 -0.1328398 -0.16443662 0.34449527 -0.0027903607 0.082166374
-0.005254894 0.021200791 -0.12963855 -0.40560126 0.1567947 -0.28886673 0.2607483 0.26925045
0.2691965 -0.4125284 -0.11706333 -0.18128821 0.2926509 -0.35223266 0.28876162 -0.30987144
-0.31978703 -0.10864972 -0.17316142 0.07581612 0.19701046 0.31753647 -0.16093479 0.0026410853
0.25555417 -0.17526983 -0.31067654 -0.1639735 -0.39522266 0.16367346 0.0032906055 -0.23385176
0.22975072 0.048081737 -0.10702634 0.19602926 0.10459876 -0.33060685 -0.23779032 -0.04088705
0.35896692 0.2540602 0.40470567 0.35052007 -0.17510973 0.06651872 -0.031464163 0.28041863
0.23163757 -0.16079895 0.12443109 0.25720352 0.20368782 0.17251156 0.26044324 -0.072458446
-0.04232573 0.4041681 0.4484345 -0.35960025 -0.10316175 -0.34205818 0.15149519 0.02381305
-0.015368305 -0.019499112 0.32301283 0.13181938 -0.16760902 -0.27887928 0.060553648 -0.42146584
0.06378147 0.17977303 0.3245376 0.19234829 -0.16471726 0.21408667 -0.32986307 0.3356709
0.41588593 -0.13478044 -0.38492656 0.17812835 0.19801812 0.15644364 0.15559897 -0.12310347
0.35234782 0.35447836 0.12582098 -0.2176518 -0.17972201 0.3941786 -0.24438387 -0.21503298
0.18070988 0.25332 -0.1980265 -0.34571755 0.11355705 0.28006765 0.31806123 -0.26011017
0.059129372 -0.02456175 -0.28420058 0.1608771 -0.2817923 -0.10418823 0.31402004 0.051146314
-0.12263058 0.43455866 0.12492394 -0.35304785 -0.12760499 -0.28408587 -0.4060772 0.2240763
0.2600025 -0.11094438 0.17426161 -0.19854894 -0.3687526 -0.3294604 0.26826397 -0.1946487
-0.6165623 0.13244703 -0.08297123 -0.109317616 -0.06568375 -0.19520697 -0.22939746 -0.2709237
-0.28513002 0.15136525 -0.3447203 0.16595581 -0.34349644 0.23247348 0.25777546 -0.19206597
-0.055275317 -0.29474688 0.29457983 -0.13941713 -0.1740496 -0.34148946 0.27605268 -0.10752135
-0.022326166 0.20174819 -0.4170513 -0.062637076 0.32732365 -0.27248195 -0.23287694 0.11774842
-0.24467002 -0.13294247 -0.07018279 0.26988706 -0.27209368 -0.3709356 0.332075 -0.23182727
0.34759322 0.19733714 -0.13583791 -0.27797556 -0.012401275 -0.13429643 -0.20005748 -0.09793868
-0.17003974 -0.22622237 -0.3512159 0.39899936 -0.048892684 0.018381154 -0.09767082 0.19381681
-0.23720774 -0.14496821 -0.31196383 0.30061087 0.3343651 0.052032053 0.1491554 0.18504032
0.09731189 -0.3179017 -0.1965453 0.21512902 -0.1555796 -0.2044048 0.04085324 -0.03186391
0.021746153 -0.1171682 -0.20434348 -0.22740315 -0.300237 0.03088036 0.25255188 0.16308714
-0.34850535 0.43963575 0.123752825 -0.16571587 0.35683244 0.28287712 0.16106145 0.27665877
-0.12613201 -0.18018241 0.35062024 -0.22508512 -0.36551762 0.16652918 0.27838346 -0.105427735
-0.34586853 -0.18392879 -0.035578456 0.3715177 0.057290904 0.19821814 -0.06915855 0.12713596
00000000: d2dd 473e a6e8 dabe 62ad a3bd 45e9 32bc
00000010: 4505 bf3e d0d9 77be 1549 9a3e f139 39be
00000020: 9982 873d 6702 a63d b249 853d 1fb9 b23e
00000030: ecbe 0d3e d4a6 203e 5685 f23d fd35 4abe
00000040: 6b7d efbe 22c9 88be 6dbd a83e 2807 08be
00000050: 1362 28be af61 b03e 7cde 36bb d846 a83d
00000060: 3f31 acbb 48ad ad3c f8bf 04be f8aa cfbe
00000070: ca8e 203e 57e6 93be cd80 853e 32db 893e
00000080: 20d4 893e ec36 d3be e6be efbd 9ea3 39be
00000090: 57d6 953e d757 b4be 90d8 933e 78a7 9ebe
000000a0: 20bb a3be bf83 debd 3a51 31be 7b45 9b3d
000000b0: 1cbd 493e 2494 a23e 17cc 24be 0f16 2d3b
000000c0: ffd7 823e ef79 33be ff10 9fbe abe8 27be
000000d0: a05a cabe 049a 273e 33a7 573b d676 6fbe
000000e0: c643 6b3e 5bf1 443d a030 dbbd e5bb 483e
000000f0: e037 d63d 4d45 a9be 4e7f 73be 2e79 27bd
00000100: 83ca b73e 2e14 823e 9535 cf3e 5e77 b33e
00000110: f74f 33be f73a 883d 91e0 00bd 0893 8f3e
00000120: 6632 6d3e 7ba8 24be bad5 fe3d 2eb0 833e
00000130: 8a93 503e dfa6 303e d158 853e 1865 94bd
00000140: bf5d 2dbd 1fef ce3e 3599 e53e 861d b8be
00000150: 7846 d3bd 4022 afbe 8e21 1b3e 9613 c33c
00000160: 58cb 7bbc 9abc 9fbc f061 a53e a9fb 063e
00000170: b3a1 2bbe 44c9 8ebe 1a07 783d 5fca d7be
00000180: dc9f 823d 6c16 383e cb29 a63e f3f6 443e
00000190: a4ab 28be 8939 5b3e d0e3 a8be 0edd ab3e
000001a0: 00ef d43e e203 0abe 1815 c5be 4767 363e
000001b0: 43c5 4a3e c332 203e 5655 1f3e ac1d fcbd
000001c0: ef66 b43e 307e b53e 37d7 003e 1de0 5ebe
000001d0: 0c09 38be c7d1 c93e c43f 7abe 9b31 5cbe
000001e0: 030c 393e 29b3 813e 75c7 4abe e401 b1be
000001f0: 9990 e83d 0765 8f3e ecd8 a23e 292d 85be
00000200: a431 723d b935 c9bc bd82 91be f7bc 243e
00000210: 1547 90be a460 d5bd 3cc7 a03e cc7e 513d
00000220: be25 fbbd 797e de3e 1fd8 ff3d b0c2 b4be
00000230: e2aa 02be b473 91be 5ae9 cfbe 4274 653e
00000240: 0c1f 853e cf36 e3bd a371 323e 6a50 4bbe
00000250: 24cd bcbe 09af a8be e559 893e fd51 47be
00000260: 07d7 1dbf 32a0 073e d2ec a9bd eae1 dfbd
00000270: 3485 86bd 56e4 47be 2be7 6abe 83b6 8abe
00000280: 90fc 91be 7eff 1a3e 2e7f b0be 52f0 293e
00000290: c4de afbe 870d 6e3e 25fb 833e f1ac 44be
000002a0: 5f68 62bd 10e9 96be 2bd3 963e 5dc3 0ebe
000002b0: 0f3a 32be b5d7 aebe c756 8d3e 2734 dcbd
000002c0: 5de5 b6bc 1497 4e3e bf87 d5be de47 80bd
000002d0: f796 a73e c182 8bbe 4b77 6ebe 1526 f13d
000002e0: c78a 7abe 1222 08be ffbb 8fbd a32e 8a3e
000002f0: dd4f 8bbe 45eb bdbe bc05 aa3e 2164 6dbe
00000300: bdf7 b13e bf12 4a3e 1819 0bbe d052 8ebe
00000310: b82e 4bbc 0185 09be dedb 4cbe 1394 c8bd
00000320: e61e 2ebe d6a6 67be 92d2 b3be a549 cc3e
00000330: b243 48bd 1394 963c a407 c8bd ea77 463e
00000340: 96e6 72be 8c72 14be b9b9 9fbe abe9 993e
00000350: e731 ab3e 901f 553d 31bc 183e 367b 3d3e
00000360: 754b c73d 03c4 a2be 2c43 49be c84a 5c3e
00000370: 4250 1fbe 7e4f 51be ba55 273d bb83 02bd
00000380: fd24 b23c e2f5 efbd 6b3f 51be 5fdc 68be
00000390: aab8 99be cff8 fc3c 7b4e 813e 5100 273e
000003a0: 4b6f b2be f017 e13e 1f72 fd3d 6cb1 29be
000003b0: beb2 b63e 45d5 903e 4bed 243e 38a6 8d3e
000003c0: c028 01be bd81 38be 7f84 b33e b77c 66be
000003d0: 2025 bbbe a086 2a3e 4788 8e3e 7fea d7bd
000003e0: ae15 b1be d457 3cbe b7ba 11bd 9137 be3e
000003f0: dea9 6a3d b2f9 4a3e ffa2 8dbd ee2f 023e

ode_func.net.0.bias f4 [100]
-0.22980386 -0.38018012 0.3748381 0.2600586 0.15345103 0.36157233 -0.048540443 0.12900944
-0.40819925 0.025365602 0.10901556 -0.16111244 -0.29573336 -0.07337846 -0.29298872 -0.09613744
0.38336286 0.13013716 0.10778106 -0.12369417 0.40584904 -0.18999287 -0.008942257 0.4008068
0.32086796 -0.26880875 0.3692705 0.37951314 -0.04856625 -0.16517074 0.30491075 -0.27330276
-0.07414821 0.28368935 0.3282867 0.260069 0.33510724 0.09217761 -0.3712602 -0.13505287
-0.2468617 0.024382353 -0.3072302 -0.09052557 0.08755112 0.1696295 -0.008981341 0.13235334
0.11351958 0.10262051 -0.25108942 0.2753412 -0.28485134 -0.18039988 0.31973168 0.2901306
-0.26862153 -0.2865044 0.24823229 -0.11143185 -0.1726709 0.119405545 -0.32495353 -0.1843429
0.31987855 -0.09220127 -0.23340213 0.21155728 0.0344028 0.10083019 0.13379994 0.29124156
-0.3508898 0.07828788 -0.14412692 -0.12985176 -0.19894928 0.29395816 0.040464044 0.3292376
-0.03635198 -0.07504406 -0.36226597 0.25988162 -0.339233 0.075757205 -0.31074578 0.29149964
0.25578323 -0.23858815 -0.08320829 -0.09976977 0.20585178 -0.2354147 -0.16071588 -0.15804486
0.2477832 0.1256636 0.30225748 0.13871185
00000000: b451 6bbe f8a6 c2be c8ea bf3e 6726 853e
00000010: 4422 1d3e 0220 b93e 58d2 46bd 0d1b 043e
00000020: 7eff d0be 86cb cf3c 8d43 df3d a9fa 24be
00000030: 5d6a 97be 7247 96bd 9e02 96be b5e3 c4bd
00000040: 2348 c43e ad42 053e 51bc dc3d 5e53 fdbd
00000050: 72cb cf3e 7e8d 42be 8b82 12bc 8d36 cd3e
00000060: ce48 a43e 4da1 89be 0611 bd3e 8c4f c23e
00000070: 67ed 46bd 8522 29be 431d 9c3e 57ee 8bbe
00000080: 04db 97bd bb3f 913e 3215 a83e c427 853e
00000090: 2d93 ab3e 9dc7 bc3d d115 bebe 4d4b 0abe
000000a0: 50c9 7cbe 80bd c73c 474d 9dbe 7865 b9bd
000000b0: 004e b33d 5bb3 2d3e 7926 13bc a287 073e
000000c0: f47c e83d b42a d23d cb8e 80be 86f9 8c3e
000000d0: 09d8 91be bfba 38be dfb3 a33e ff8b 943e
000000e0: c388 89be b4b0 92be 9b30 7e3e 6236 e4bd
000000f0: a4d0 30be e58a f43d 4f60 a6be 63c4 3cbe
00000100: 1fc7 a33e 05d4 bcbd f800 6fbe 79a2 583e
00000110: f3e9 0c3d 0f80 ce3d da02 093e 9d1d 953e
00000120: d4a7 b3be 6555 a03d 0296 13be dcf7 04be
00000130: 5cb9 4bbe af81 963e a0bd 253d d591 a83e
00000140: d0e5 14bd b3b0 99bd ed7a b9be 340f 853e
00000150: f3af adbe 9826 9b3d 121a 9fbe 713f 953e
00000160: 05f6 823e 7450 74be 1c69 aabd 1854 ccbd
00000170: cfca 523e 8d10 71be b492 24be 83d6 21be
00000180: e1ba 7d3e f5ad 003e 7ec1 9a3e 7b0a 0e3e

ode_func.net.2.weight f4 [100, 100]
0.022149969 0.005127323 0.013658226 -0.06192894 0.07750262 -0.04300319 -0.086046636 -0.011653066
-0.06907224 0.08907374 -0.067075215 0.052278485 0.06638347 -0.07979182 -0.037895977 0.09795406
-0.02785107 -0.070782796 -0.021864021 -0.0464285 -0.011701512 -0.021562492 0.0070688725 -0.046446074
-0.026739096 0.0025078536 0.03989711 0.054468453 -0.022509528 0.00056293013 -0.05123624 0.09690441
0.028981661 -0.028097546 -0.032643486 0.08059851 0.039049234 0.013378108 -0.02953682 0.08717115
0.073063694 0.028357757 -0.039604615 0.0070213317 -0.097495995 -0.06783583 -0.0072139385 0.08039113
-0.04640807 0.0069479705 -0.013363731 -0.022086252 -0.031495642 0.0705987 -0.051122226 -0.02685572
-0.025304759 -0.059793066 0.053445768 -0.0069676996 -0.09127792 -0.055196583 -0.045401763 0.044874895
-0.030395305 0.066761985 0.09418527 -0.04847292 0.024782646 0.0036450983 0.053227272 -0.08926417
-0.09216126 -0.04073595 0.040111985 0.018147409 -0.0027436495 -0.003189075 -0.010230148 -0.016191745
-0.011193991 0.039339006 0.06924265 0.0038927556 -0.002663398 0.041589834 -0.057353225 0.0459391
0.06143229 0.034261227 -0.04440272 -0.012232221 0.056284416 0.08705466 0.092963316 0.0032700778
0.011616207 -0.021035016 -0.08902681 -0.09257954 -0.12287723 0.081285626 0.004290928 -0.10140893
0.028236672 -0.065578304 0.008733036 0.019565657 -0.1265068 -0.07497569 -0.022615738 0.09360789
-0.13990265 -0.084881864 0.050308265 0.05752281 0.05613703 0.10361699 -0.06298543 -0.040041655
0.09616791 0.081825 -0.026997237 0.073366486 -0.0052500083 -0.034187607 0.10968248 0.09573314
-0.088728085 -0.0043727397 -0.07928143 -0.14415666 0.0012547617 -0.07350823 -0.09128817 0.0035664288
-0.0031958597 -0.21646672 0.0028268034 -0.015917573 -0.01987789 0.06112533 -0.092578456 0.031104341
-0.090519086 -0.04139818 0.18739772 0.05415923 -0.039746772 0.08763134 0.06611147 0.03756884
0.119551025 -0.09920818 0.105232164 0.06725411 0.11117451 0.1398607 0.04640809 -0.12978421
0.07519128 0.043564092 0.082081735 0.09072267 -0.08117774 -0.2401549 -0.12253627 0.08267075
-0.05362471 0.07584329 0.0431168 -0.055678688 0.08383417 -0.012046345 0.12986846 0.1295447
0.0807673 0.11080301 0.016153235 -0.048478864 0.04695938 -0.015168148 -0.056481812 -0.07271097
-0.0054886164 0.09407621 0.058043096 -0.08666726 0.1099024 -0.2856528 0.07357926 -0.0053449064
-0.18360813 0.043288756 0.0214427 -0.0037856654 0.019048076 0.041217722 -0.074563175 0.031761415
0.09273309 0.018442534 -0.0644955 -0.08905626 -0.06512963 -0.041284155 0.050814684 -0.04322782
-0.02461238 -0.027841236 0.083019055 -0.09791214 -0.060143992 -0.027035767 0.057607185 -0.00490889
0.07858125 -0.047057506 0.083929606 0.030055705 -0.046746656 -0.061099056 0.043595247 0.07648233
0.07409799 -0.09420442 0.09768406 0.11140324 -0.10225616 -0.06387942 0.09967903 0.044205293
-0.034071065 0.0518907 0.053017665 0.036722343 -0.06030893 -0.19509761 -0.1038764 0.09415568
0.09241413 0.028011769 -0.016760774 0.110743895 0.0900093 0.04182633 -0.02373373 -0.0465307
0.109146774 -0.088827424 0.09594435 -0.017763536 0.03999461 0.049482454 -0.023782002 0.004224795
00000000: da73 b53c 1a03 a83b c0c6 5f3c 33a9 7dbd
00000010: b2b9 9e3d 1d24 30bd 3839 b0bd 80ec 3ebc
00000020: bf75 8dbd 4b6c b63d bb5e 89bd f721 563d
00000030: 0ff4 873d e569 a3bd d038 1bbd 239c c83d
00000040: ed27 e4bc 92f6 90bd 2d1c b3bc d02b 3ebd
00000050: b3b7 3fbc d3a3 b0bc 00a2 e73b 3d3e 3ebd
00000060: f30b dbbc cd5a 243b 276b 233d 501a 5f3d
00000070: e765 b8bc 9a91 133a 17dd 51bd d275 c63d
00000080: f36a ed3c d32c e6bc 2db5 05bd d510 a53d
00000090: 17f2 1f3d da2f 5b3c 33f7 f1bc ca86 b23d
000000a0: 6ba2 953d 874e e83c 7338 22bd 3313 e63b
000000b0: fbab c7bd 83ed 8abd e762 ecbb 1ba4 a43d
000000c0: 6316 3ebd cdab e33b 8df3 5abc 3aee b4bc
000000d0: 9301 01bd 0d96 903d 8a65 51bd 8700 dcbc
000000e0: ed4b cfbc 93e9 74bd f3e9 5a3d 4d51 e4bb
000000f0: ebef babd d015 62bd 33f7 39bd bdce 373d
00000100: 93ff f8bc 82ba 883d 35e4 c03d 8a8b 46bd
00000110: fa04 cb3c 9ae2 6e3b d704 5a3d 22d0 b6bd
00000120: 0bbf bcbd bdda 26bd 774c 243d e0a9 943c
00000130: cdce 33bb cdff 50bb 5a9c 27bc 8da4 84bc
00000140: 0067 37bc f021 213d 17cf 8d3d 9a1d 7f3b
00000150: 678c 2ebb 1a5a 2a3d 37eb 6abd a32a 3c3d
00000160: 6da0 7b3d 8055 0c3d a0df 35bd a769 48bc
00000170: 7d8a 663d b749 b23d 8d63 be3d cd4e 563b
00000180: e751 3e3c a051 acbc b053 b6bd 589a bdbd
00000190: 0fa7 fbbd 1479 a63d ea9a 8c3b 7caf cfbd
000001a0: 9850 e73c eb4d 86bd 0215 0f3c 2848 a03c
000001b0: 008b 01be db8c 99bd a444 b9bc 7eb5 bf3d
000001c0: a442 0fbe 8bd6 adbd 0a10 4e3d 0a9d 6b3d
000001d0: f1ef 653d 2535 d43d 81fe 80bd b802 24bd
000001e0: aef3 c43d de93 a73d 4f29 ddbc 2b41 963d
000001f0: 4308 acbb 4e08 0cbd 35a1 e03d bd0f c43d
00000200: 12b7 b5bd 3349 8fbb 4d5e a2bd ce9d 13be
00000210: d176 a43a 7c8b 96bd 4bf5 babd bfba 693b
00000220: a171 51bb 74a9 5dbe e441 393b 9265 82bc
00000230: f5d6 a2bc 8e5e 7a3d c699 bdbd 88ce fe3c
00000240: 1262 b9bd 2391 29bd 30e5 3f3e 12d6 5d3d
00000250: 83cd 22bd 0f78 b33d 7365 873d c9e1 193d
00000260: 2bd7 f43d a92d cbbd f683 d73d 86bc 893d
00000270: 76af e33d a537 0f3e 6916 3e3d 27e6 04be
00000280: e3fd 993d 4370 323d 781a a83d cfcc b93d
00000290: 8440 a6bd 2beb 75be 4cf4 fabd 484f a93d
000002a0: 95a5 5bbd ba53 9b3d 3e9b 303d 560f 64bd
000002b0: 40b1 ab3d 085e 45bc 3dfc 043e 5ea7 043e
000002c0: 5469 a53d b0ec e23d ca53 843c c691 46bd
000002d0: 7b58 403d d383 78bc 7959 67bd 7de9 94bd
000002e0: dad9 b3bb 07ab c03d 99be 6d3d 9b7e b1bd
000002f0: 8214 e13d 1541 92be b9b0 963d 5324 afbb
00000300: c503 3cbe 8d4f 313d 9aa8 af3c ed18 78bb
00000310: b60a 9c3c ead3 283d 94b4 98bd 4218 023d
00000320: d9ea bd3d cc14 973c 3716 84bd 2163 b6bd
00000330: af62 85bd 9319 29bd 0f23 503d a80f 31bd
00000340: e79f c9bc 4e13 e4bc e505 aa3d 2986 c8bd
00000350: 8c59 76bd 1d7a ddbc 83f5 6b3d c1da a0bb
00000360: 35ef a03d 5fbf 40bd 49e3 ab3d 6237 f63c
00000370: 6c79 3fbd 0143 7abd ee90 323d c5a2 9c3d
00000380: b0c0 973d 3fee c0bd 950e c83d 6227 e43d
00000390: ad6b d1bd 37d3 82bd 8524 cc3d 9c10 353d
000003a0: 1a8e 0bbd 588b 543d 0d29 593d 2b6a 163d
000003b0: 7f06 77bd abc7 47be 26bd d4bd b1d4 c03d
000003c0: 9f43 bd3d f078 e53c e44d 89bc b2cd e23d
000003d0: cc56 b83d 1652 2b3d 3d6d c2bc fa96 3ebd
000003e0: 5888 df3d 27eb b5bd 797e c43d d684 91bc
000003f0: 63d1 233d 1dae 4a3d 79d2 c2bc 2670 8a3b

ode_func.net.2.bias f4 [100]
-0.09127569 -0.089350194 -0.062806204 -0.050887328 0.02333123 0.09857312 0.06294468 -0.09469979
-0.04156837 -0.022962894 -0.0025569117 -0.019941341 0.017366584 0.05731293 -0.0320885 -0.09486692
0.021006225 0.023291871 0.06749905 -0.019798124 0.0076229246 -0.027783869 0.017821813 -0.07692478
0.09303714 0.10675213 -0.030322898 -0.029369002 -0.022734873 0.018004114 0.10438274 0.10128707
-0.020740427 -0.021600476 0.060867812 0.009071626 0.013182278 -0.0036224325 0.01816406 0.07027067
0.06907848 0.09005052 -0.0077205556 -0.035260633 -0.09662946 0.06618362 0.040483337 0.022074658
0.00444786 -0.04506603 0.08166633 0.029494008 0.1097876 -0.02947783 0.092677265 -0.045700304
-0.036682658 0.08307049 -0.08042582 -0.05329082 0.024639755 -0.077906616 0.019487467 -0.09656617
0.10470729 0.06562645 0.07629109 0.1047591 -0.057375416 -0.04242242 -0.06831475 0.06923527
0.09667977 -0.08975702 -0.06486676 0.0017256484 0.010055225 0.07299531 0.0070602996 0.07933555
0.07630715 0.06050913 -0.05277843 0.018813021 -0.013593414 -0.06808151 0.08290259 -0.043552358
0.084580675 0.04285811 -0.06753877 0.018611623 -0.063819095 0.008078821 0.10039065 0.018500833
-0.026498359 -0.055298652 0.09413109 0.007513178
00000000: c0ee babd 3cfd b6bd 8aa0 80bd 3b6f 50bd
00000010: 2321 bf3c b4e0 c93d 24e9 803d f7f1 c1bd
00000020: 9843 2abd ae1c bcbc dc91 27bb 065c a3bc
00000030: 5e44 8e3c f6c0 6a3d 3b6f 03bd 9649 c2bd
00000040: 3f15 ac3c 98ce be3c f13c 8a3d ad2f a2bc
00000050: bac9 f93b ff9a e3bc 0dff 913c bd8a 9dbd
00000060: 428a be3d dca0 da3d ba67 f8bc 4397 f0bc
00000070: 7c3e babc 5d7d 933c 9ec6 d53d 986f cf3d
00000080: d4e7 a9bc 7bf3 b0bc 8750 793d 28a1 143c
00000090: 7bfa 573c 5566 6dbb cbcc 943c 12ea 8f3d
000000a0: 0579 8d3d 686c b83d b7fc fcbb 746d 10bd
000000b0: abe5 c5bd 478b 873d dbd1 253d ead5 b43c
000000c0: 5bbf 913b 2897 38bd ad40 a73d 6b9d f13c
000000d0: 52d8 e03d 7d7b f1bc 94cd bd3d 3e30 3bbd
000000e0: 8e40 16bd dc20 aa3d 4bb6 a4bd 7a47 5abd
000000f0: 50d9 c93c 818d 9fbd 2ea4 9f3c 7cc4 c5bd
00000100: c770 d63d 2967 863d 813e 9c3d f08b d63d
00000110: 7c02 6bbd 22c3 2dbd 9be8 8bbd 39cb 8d3d
00000120: 0b00 c63d 87d2 b7bd ddd8 84bd 272f e23a
00000130: acbe 243c 917e 953d 165a e73b ad7a a23d
00000140: ec46 9c3d 6cd8 773d 322e 58bd c41d 9a3c
00000150: e9b6 5ebc 526e 8bbd d5c8 a93d f563 32bd
00000160: a238 ad3d fc8b 2f3d c451 8abd 6777 983c
00000170: 96b3 82bd 085d 043c 9d99 cd3d 0f8f 973c
00000180: 1613 d9bc d780 62bd cdc7 c03d 1b31 f63b

ode_func.net.4.weight f4 [3, 100]
-0.07752949 -0.057295132 -0.046067894 0.06401787 0.023670869 0.02059984 0.0056428434 -0.009350638
-0.05786022 0.0053665964 -0.019913843 -0.09779032 -0.0026865485 -0.03591247 -0.08066853 0.015251221
-0.01178596 -0.03489265 0.010707277 -0.053616244 -0.014926944 -0.04027797 -0.0013025645 -0.07279938
-0.04302178 -0.015916487 0.06808119 0.08840403 0.064784095 0.050410986 0.012745343 0.026076613
-0.05031814 -0.026171384 -0.031370066 -0.06230631 0.08365345 0.012392614 -0.072128564 0.019547222
-0.08369119 0.043018457 -0.018009063 -0.07069953 0.02881986 0.13872097 0.045896217 0.017243566
0.0052671065 0.05038299 0.020007601 0.0637942 0.0825112 0.005742826 -0.032867067 -0.07294034
-0.043244112 0.022469705 0.01010164 0.0051305057 0.09657645 0.13081083 -0.029368851 0.07066758
-0.07463574 0.07285283 0.098912165 0.003960654 -0.021729557 0.019585814 0.08189956 0.051204186
-0.021034371 0.024550218 0.09916555 -0.07239071 -0.0064161764 -0.003153059 -0.045676745 -0.08778041
0.08368875 -0.020517394 -0.0643999 0.06264969 -0.07378637 0.006093269 0.07112117 -0.031957883
0.05898663 0.084410325 -0.0108918995 -0.040391643 0.008446842 -0.074055746 0.009459975 -0.069653235
-0.053874504 -0.0038998765 -0.02288213 -0.06885554 0.09901881 -0.074282646 -0.030646648 0.093032055
0.015314392 -0.006296023 -0.0343053 -0.052817296 -0.09160284 0.019670239 0.03348527 0.019493748
-0.0061399927 -0.041752037 -0.02519346 0.05441193 0.014637136 -0.01490538 -0.05118993 -0.023993097
0.052901424 -0.0868775 -0.016464405 0.025626143 0.053543925 0.022298638 0.0071032834 -0.064118765
0.08845725 -0.062154695 0.0016430214 0.03152852 -0.042395826 -0.07838863 0.02936503 -0.06353539
0.08396738 0.029900877 0.08731606 -0.0077943923 0.02700929 0.045409176 -0.035335205 0.058273293
0.009573027 -0.046602864 -0.040142853 0.02333261 0.08472898 0.0822068 -0.07237449 0.00018983755
0.063952476 -0.08592493 0.03685027 -0.067822315 0.018895859 -0.07585014 0.09941776 0.031383302
-0.02759775 -0.08240049 -0.09070732 -0.004390884 0.062828206 0.0820044 -0.06267029 0.0970733
0.08815301 0.08296769 0.09027488 -0.062260106 0.048513338 -0.074249245 0.08335587 -0.045278326
-0.008136247 0.02232344 -0.06737245 -0.055057917 -0.0069423956 0.014054735 -0.03938497 -0.0424351
-0.029168056 -0.044839066 -0.032362767 -0.057009127 0.00014217333 -0.006439262 0.043184496 -0.073776886
0.030264955 -0.031899765 -0.009850761 0.05016743 0.05700724 -0.047295947 0.08106025 0.024689803
-0.07967707 0.28203493 0.12241045 -0.046316996 -0.1413259 0.3651329 0.095939696 0.024371013
0.07277773 0.2120847 -0.0527592 0.18140107 0.42478544 -0.17137085 0.18475288 -0.01653171
-0.14677629 -0.017565522 -0.08851519 -0.107622534 -0.0633653 -0.23887019 0.2200331 -0.11227648
-0.03076986 -0.10953293 0.15477148 -0.03807165 -0.0395033 -0.0483659 0.13456737 -0.14280051
-0.057087775 -0.11625218 0.07563537 0.12745729 0.025884138 0.088211544 0.116905406 0.13022655
-0.13772556 0.08424048 0.35274568 0.05297139 0.04191195 -0.063059084 -0.14520822 0.19315594
-0.089053735 0.042897753 -0.08276063 0.005948835 -0.21578047 0.11030761 0.1318596 0.13764223
00000000: c8c7 9ebd 4dae 6abd b0b1 3cbd cd1b 833d
00000010: 69e9 c13c ffc0 a83c 9ae7 b83b 6b33 19bc
00000020: d7fe 6cbd 46da af3b 5b22 a3bc 4b46 c8bd
00000030: ce10 30bb f418 13bd 8b35 a5bd 42e0 793c
00000040: e619 41bc 98eb 0ebd 936d 2f3c b59c 5bbd
00000050: 2490 74bc 83fa 24bd d0ba aaba d717 95bd
00000060: 9b37 30bd 4b63 82bc 276e 8b3d 2c0d b53d
00000070: 86ad 843d c07b 4e3d d8d1 503c 9f9e d53c
00000080: 651a 4ebd 5f65 d6bc e67d 00bd e734 7fbd
00000090: 8052 ab3d 640a 4b3c 24b8 93bd 7f21 a03c
000000a0: 4966 abbd 1f34 303d be87 93bc eaca 90bd
000000b0: a117 ec3c df0c 0e3e acfd 3b3d 6142 8d3c
000000c0: b197 ac3b 655e 4e3d fbe6 a33c 89a6 823d
000000d0: a2fb a83d 512e bc3b 9e9f 06bd bf61 95bd
000000e0: bd20 31bd 6312 b83c 5981 253c cd1d a83b
000000f0: e0c9 c53d 46f3 053e f296 f0bc 2aba 903d
00000100: 9fda 98bd dd33 953d 7692 ca3d 60c8 813b
00000110: 2f02 b2bc 6e72 a03c f5ba a73d 7bbb 513d
00000120: 4650 acbc 8a1d c93c 4f17 cb3d 9541 94bd
00000130: ca3e d2bb 8da3 4ebb 8a17 3bbd 37c6 b3bd
00000140: 0265 ab3d 1814 a8bc 18e4 83bd 7b4e 803d
00000150: 4f1d 97bd 0caa c73b faa7 913d 45e6 02bd
00000160: f79b 713d 52df ac3d f073 32bc b571 25bd
00000170: a064 0a3c 8aaa 97bd 03fe 1a3c 5ba6 8ebd
00000180: 83ab 5cbd 1295 7fbb 4e73 bbbc 2204 8dbd
00000190: 60ca ca3d 8021 98bd ae0e fbbc 9787 be3d
000001a0: 37e9 7a3c de4e cebb b783 0cbd f356 58bd
000001b0: 459a bbbd 7b23 a13c da27 093d 5ab1 9f3c
000001c0: fe31 c9bb 2f04 2bbd 8462 cebc 0bdf 5e3d
000001d0: 99d0 6f3c b235 74bc 88ac 51bd 2c8d c4bc
000001e0: 2aaf 583d d5ec b1bd 5ce0 86bc ebed d13c
000001f0: e050 5b3d a2ab b63c a9c2 e83b b350 83bd
00000200: 1329 b53d ec95 7ebd a65a d73a 0d24 013d
00000210: 3fa7 2dbd 388a a0bd ee8e f03c d81e 82bd
00000220: 17f7 ab3d aff2 f43c c3d2 b23d 1a68 ffbb
00000230: 9642 dd3c f9fe 393d a6bb 10bd faaf 6e3d
00000240: 2fd8 1c3c a5e2 3ebd d56c 24bd 0824 bf3c
00000250: 6386 ad3d 0a5c a83d 1439 94bd 210f 4739
00000260: 84f9 823d 69f9 afbd 4ff0 163d 6de6 8abd
00000270: 7dcb 9a3c 5157 9bbd 8a9b cb3d c78b 003d
00000280: ad14 e2bc 97c1 a8bd c2c4 b9bd 68e1 8fbb
00000290: 13ac 803d ecf1 a73d 4859 80bd 5ece c63d
000002a0: 9189 b43d f7ea a93d 09e2 b83d 7404 7fbd
000002b0: ecb5 463d fd0f 98bd 7bb6 aa3d c475 39bd
000002c0: e54d 05bc a6df b63c 91fa 89bd 6984 61bd
000002d0: 097d e3bb d545 663c 2252 21bd 6dd0 2dbd
000002e0: d9f1 eebc 2ba9 37bd d28e 04bd 6782 69bd
000002f0: 5d14 1539 7200 d3bb 3ae2 303d 5618 97bd
00000300: 36ee f73c 54a9 02bd 1665 21bc 5d7c 4d3d
00000310: 6c80 693d 65b9 41bd eb02 a63d 4542 ca3c
00000320: bb2d a3bd e266 903e 54b2 fa3d e4b6 3dbd
00000330: bdb7 10be b3f2 ba3e 087c c43d b8a5 c73c
00000340: 7e0c 953d bb2c 593e 081a 58bd 34c1 393e
00000350: 7a7d d93e d77b 2fbe dc2f 3d3e 826d 87bc
00000360: 864c 16be 92e5 8fbc 7447 b5bd 3469 dcbd
00000370: abc5 81bd 639a 74be 5b50 613e 36f1 e5bd
00000380: 1311 fcbc cd52 e0bd 6a7c 1e3e 05f1 1bbd
00000390: 36ce 21bd 521b 46bd 07cc 093e 4c3a 12be
000003a0: dfd4 69bd 9f15 eebd b8e6 9a3d 2a84 023e
000003b0: f90a d43c 41a8 b43d 1a6c ef3d 1c5a 053e
000003c0: ee07 0dbe 4686 ac3d 159b b43e 87f8 583d
000003d0: ddab 2b3d 1f25 81bd 77b1 14be acca 453e
000003e0: ce61 b6bd 8eb5 2f3d 687e a9bd 72ee c23b
000003f0: 8ef5 5cbe f5e8 e13d 3406 073e 16f2 0c3e

ode_func.net.4.bias f4 [3]
-0.037512336 -0.077519685 -0.055069305
00000000: 89a6 19bd a4c2 9ebd 5a90 61bd
