checkpoint/ode_rk4/pushing_4_steps_ode_rk4_dynamics_model.pt (torch, 47614 bytes, 6 tensors)

ode_func.net.0.weight f4 [100, 6]
-0.057429045 0.15055463 0.30064496 0.1651772 0.4360211 -0.32724375 -0.24231695 -0.30367315
-0.07747575 -0.24423787 -0.2882828 0.09050848 -0.41379374 0.39192203 0.070227236 -0.35385513
-0.035029225 -0.14538336 0.38450184 0.01036339 0.04630971 0.098520055 -0.028795352 -0.0080599515
-0.19762614 0.20334005 -0.071924254 0.20647354 -0.10146251 -0.14205946 -0.2576105 0.03489064
0.03137774 0.3114234 -0.30325818 -0.32880935 -0.3063904 0.119724534 0.07781099 -0.3621468
-0.30577207 0.4092195 -0.36075437 0.37112668 0.2004959 0.32904437 -0.26805133 -0.38478023
-0.042216953 -0.050478935 -0.04279119 -0.32708126 -0.30306056 0.09377901 -0.2423489 -0.17107432
0.033628717 0.21756786 -0.11579989 0.20534809 -0.095024325 0.18409504 -0.28385162 0.3422957
-0.3194528 0.0015407052 -0.21988583 -0.3874801 0.24366178 0.3197297 -0.12789743 0.0033649583
0.037903715 -0.22633107 0.06310463 0.2176338 -0.0006186146 0.14547865 -0.07017676 0.24272053
0.17832579 -0.40769443 -0.3654627 0.23688257 -0.1519955 0.040492404 0.3345097 -0.18227129
-0.07613519 0.33951664 -0.02045606 0.32425153 -0.12081976 -0.068691894 -0.3948442 0.38694927
-0.25917023 -0.013501899 0.21128723 0.15274353 0.24991558 -0.29636526 -0.29244694 0.47476184
-0.3189853 0.15674722 0.05360989 0.3717767 -0.3211564 -0.030081417 0.05992448 -0.0030258358
-0.33917862 -0.0049527083 -0.016551232 -0.31586915 -0.15309352 -0.0029440087 -0.08390271 0.31753367
-0.036702372 0.10806071 0.20666538 0.16815676 0.3651487 -0.0084395595 -0.27423307 0.28372467
0.22862628 0.11073454 -0.22824621 0.24921188 -0.29273772 0.42958578 0.18782724 -0.3979613
0.26318085 0.22698112 0.16404021 0.05882491 -0.36929822 -0.087528884 0.096802264 -0.053428337
-0.14632809 -0.29656595 -0.25124785 -0.15177912 0.4152561 -0.29833248 -0.3579657 -0.15697378
0.115132265 -0.38327506 0.09901768 -0.30358973 0.37208194 0.14217208 -0.16757804 -0.35198525
-0.068344966 0.035812803 0.24230917 0.20951013 -0.15546718 0.09769678 0.21707053 0.2671991
0.010616535 0.11031602 0.08769601 -0.35659984 -0.2121238 0.18633153 0.055098187 0.116872296
-0.1366115 0.37409532 0.043129127 0.12202649 -0.034664366 -0.08037499 -0.09238919 0.19781381
0.028489698 0.026788091 -0.18662032 -0.23925315 0.2847575 0.1264691 -0.110656574 0.0818306
0.09818356 -0.030673075 0.059728395 0.16802087 0.3174658 0.25960654 0.3323348 -0.088366486
0.18106881 0.13512667 -0.29034162 0.17326586 -0.12248411 -0.22612402 0.39901626 -0.2865341
-0.15141055 -0.14284661 0.36335316 -0.20785691 -0.09649645 -0.34204853 -0.014163733 -0.282525
-0.0052822214 0.10563848 -0.17401166 0.16673505 -0.3406392 0.012845827 -0.0038715343 -0.285969
-0.11727155 -0.38701433 -0.36307377 -0.33331382 0.28024414 -0.32361773 0.09914767 0.381065
-0.36556092 -0.2284253 -0.16973203 -0.053523526 0.039600786 0.3009482 0.055871833 0.46643707
0.3829077 -0.24403705 0.28314668 0.3477255 0.45859 -0.2567661 0.20641114 0.01331529
-0.43004403 -0.123292916 -0.3958757 0.23074764 0.003820174 0.2502228 0.06134539 0.38097337
00000000: b83a 6bbd fe2a 1a3e 23ee 993e 3624 293e
00000010: 283e df3e 7e8c a7be ef21 78be 0c7b 9bbe
00000020: 9bab 9ebd 7e19 7abe ce99 93be 835c b93d
00000030: c6dc d3be 01aa c83e 4cd3 8f3d 802c b5be
00000040: ce7a 0fbd 60df 14be 6ddd c43e 35cb 293c
00000050: 40af 3d3d e2c4 c93d 3be4 ebbc e30d 04bc
00000060: 825e 4abe 6038 503e 064d 93bd cd6d 533e
00000070: 94cb cfbd 0978 11be 86e5 83be 7de9 0e3d
00000080: f285 003d e372 9f3e a844 9bbe b359 a8be
00000090: 34df 9cbe 2332 f53d 5e5b 9f3d 4e6b b9be
000000a0: 288e 9cbe 3885 d13e ccb4 b8be 5104 be3e
000000b0: cc4e 4d3e 8178 a83e 063e 89be ea01 c5be
000000c0: afeb 2cbd 00c3 4ebd d145 2fbd 3277 a7be
000000d0: c12a 9bbe 360f c03d 4f2a 78be 1b2e 2fbe
000000e0: 44be 093d 1cca 5e3e 7e28 edbd c546 523e
000000f0: 1d9c c2bd 6983 3c3e 0055 91be 6241 af3e
00000100: 518f a3be 7df1 c93a c029 61be cb63 c6be
00000110: 7982 793e 9cb3 a33e 8bf7 02be a286 5c3b
00000120: ed40 1b3d 55c3 67be 003d 813d 65db 5e3e
00000130: 862a 22ba 5bf8 143e d5b8 8fbd bb8b 783e
00000140: 099b 363e 53bd d0be ed1d bbbe 5891 723e
00000150: b5a4 1bbe 5ddb 253d db44 ab3e 53a5 3abe
00000160: c4ec 9bbd 20d5 ad3e 7893 a7bc 4c04 a63e
00000170: 5a70 f7bd 56ae 8cbd 0529 cabe 371e c63e
00000180: f6b1 84be 1237 5dbc ae5b 583e cd68 1c3e
00000190: dfe9 7f3e 30bd 97be 9bbb 95be fc13 f33e
000001a0: 0b52 a3be 5882 203e 0b96 5b3d 8459 be3e
000001b0: 9d6e a4be 4e6d f6bc 5f73 753d 1a4d 46bb
000001c0: d2a8 adbe 544a a2bb 7396 87bc 9ab9 a1be
000001d0: 8cc4 1cbe 45f0 40bb 2fd5 abbd c693 a23e
000001e0: 3a55 16bd ef4e dd3d 17a0 533e 4931 2c3e
000001f0: c5f4 ba3e 1446 0abc 4768 8cbe 5c44 913e
00000200: 021d 6a3e cac8 e23d 60b9 69be 6631 7f3e
00000210: b8e1 95be abf2 db3e c955 403e 95c1 cbbe
00000220: a4bf 863e bd6d 683e 28fa 273e 64f2 703d
00000230: a814 bdbe 5842 b3bd 4440 c63d acd7 5abd
00000240: 08d7 15be 7ed7 97be 8fa3 80be fc6b 1bbe
00000250: 739c d43e 09bf 98be 4847 b7be bcbd 20be
00000260: 77ca eb3d a13c c4be c8c9 ca3d 1d70 9bbe
00000270: 8681 be3e 8f95 113e 9499 2bbe 6937 b4be
00000280: 72f8 8bbd 72b0 123d e51f 783e d389 563e
00000290: ca32 1fbe 4015 c83d bd47 5e3e 52ce 883e
000002a0: faf0 2d3c 5eed e13d f799 b33d 4194 b6be
000002b0: fb36 59be b1cd 3e3e a3ae 613d be5a ef3d
000002c0: e3e3 0bbe 6c89 bf3e 2ba8 303d 06e9 f93d
000002d0: 39fc 0dbd a59b a4bd 8b36 bdbd b48f 4a3e
000002e0: 3a63 e93c b372 db3c 6619 3fbe c7fe 74be
000002f0: bccb 913e 1e81 013e ea9f e2bd cd96 a73d
00000300: 7614 c93d 1a46 fbbc c3a5 743d aa0d 2c3e
00000310: e18a a23e 26eb 843e c927 aa3e 7df9 b4bd
00000320: 1a6a 393e a55e 0a3e a8a7 94be 9b6c 313e
00000330: f3d8 fabd 0e8d 67be dc4b cc3e 99b4 92be
00000340: 5e0b 1bbe 6246 12be 6d09 ba3e 71d8 54be
00000350: ee9f c5bd fc20 afbe 010f 68bc 1ea7 90be
00000360: 7c16 adbb fd58 d83d 1d30 32be 98bc 2a3e
00000370: 4368 aebe 4e77 523c 91b9 7dbb 876a 92be
00000380: 112c f0bd be26 c6be cee4 b9be 1ca8 aabe
00000390: 297c 8f3e 39b1 a5be ef0d cb3d f41a c33e
000003a0: cd2a bbbe 52e8 69be 3cce 2dbe 7c3b 5bbd
000003b0: 6f34 223d e215 9a3e ddd9 643d d7d0 ee3e
000003c0: 7a0c c43e d9e4 79be 9af8 903e 1409 b23e
000003d0: 4fcc ea3e d976 83be 715d 533e 6028 5a3c
000003e0: bb2e dcbe ff80 fcbd 38b0 cabe 1c49 6c3e
000003f0: e25b 7a3b 341d 803e 4e45 7b3d f10e c33e

ode_func.net.0.bias f4 [100]
-0.007823281 0.2726945 0.24088821 0.22593987 0.102558345 -0.11839439 0.052778486 0.3528776
0.28999808 0.007576971 0.38181037 0.09821985 -0.0100496635 -0.3325638 0.2757594 0.010258113
0.2400631 0.073067166 0.31302896 0.18549648 -0.014699503 -0.34007242 -0.27918002 -0.12836759
-0.23591262 0.0037472274 0.21071132 -0.062998004 0.28366122 0.28807032 0.040157504 -0.2451505
-0.24077204 0.17923169 -0.37237898 0.18674222 -0.2756346 -0.008649347 0.15412773 -0.36679742
-0.36365998 -0.09617005 -0.26155683 0.336993 -0.1397343 -0.040363908 -0.2344631 -0.022015784
0.15206467 0.09413295 0.029672878 0.054898158 0.11314123 0.29282248 -0.22095715 -0.12961462
0.011890061 0.20867491 -0.0488864 -0.0864209 -0.3076861 -0.2808518 0.2898681 -0.2677268
0.3702105 0.40954176 0.16336466 -0.31473175 0.02389894 0.16576794 -0.39271042 0.2258921
0.021111624 -0.22690533 0.26607567 0.092431664 -0.15460448 0.39984778 0.10390743 -0.101589434
-0.16394599 -0.07142224 0.2313373 -0.050752323 0.34779397 -0.12113002 -0.37578505 -0.1602058
0.22333771 -0.071589164 0.33503345 -0.034514755 0.11059511 -0.19235033 -0.022888258 0.030402709
0.19663258 -0.3563379 0.016094314 0.19077043
00000000: 382d 00bc 9d9e 8b3e 66ab 763e c85c 673e
00000010: 1c0a d23d c278 f2bd 412e 583d 5fac b43e
00000020: a17a 943e 3d48 f83b a67c c33e 7d27 c93d
00000030: 58a7 24bc cd45 aabe 5630 8d3e a511 283c
00000040: 1ad3 753e 3da4 953d 5545 a03e caf2 3d3e
00000050: 2fd6 70bc f91d aebe aff0 8ebe cb72 03be
00000060: 1493 71be 0b94 753b b5c4 573e 1905 81bd
00000070: 0b3c 913e f47d 933e 327c 243d bc08 7bbe
00000080: f28c 76be 8388 373e 75a8 bebe 5a39 3f3e
00000090: fa1f 8dbe feb5 0dbc a9d3 1d3e dfcc bbbe
000000a0: a431 babe cef4 c4bd c7ea 85be 598a ac3e
000000b0: 8216 0fbe a054 25bd 1817 70be 725a b4bc
000000c0: d7b6 1b3e c7c8 c03d 8914 f33c e4dc 603d
000000d0: 97b6 e73d d4ec 953e 9742 62be b2b9 04be
000000e0: 88ce 423c e0ae 553e 1b3d 48bd 71fd b0bd
000000f0: 0889 9dbe cfcb 8fbe 9769 943e 7d13 89be
00000100: 3b8c bd3e 75af d13e 1149 273e 8524 a1be
00000110: b6c7 c33c 12bf 293e 5711 c9be 4250 673e
00000120: 49f2 ac3c df59 68be 123b 883e d04c bd3d
00000130: a350 1ebe d9b8 cc3e 6bcd d43d 1f0e d0bd
00000140: 75e1 27be d345 92bd afe3 6c3e abe1 4fbd
00000150: 0d12 b23e 0413 f8bd e666 c0be fd0c 24be
00000160: a4b2 643e 579d 92bd 8189 ab3e 585f 0dbd
00000170: b07f e23d 7cf7 44be 2880 bbbc 1a0f f93c
00000180: 0d5a 493e ec71 b6be 39d8 833c 5359 433e

ode_func.net.2.weight f4 [100, 100]
0.09412619 -0.08836948 -0.06746739 0.049011886 0.012339783 0.0043579102 -0.01426357 0.0660964
-0.010837602 -0.0057040574 0.004758823 -0.06886395 -0.03425565 0.043616604 -0.09710051 -0.06215912
0.06404413 -0.03703606 0.023926735 0.04643649 0.066700496 -0.025143195 -0.032443643 -0.05061251
0.0161412 -0.07603385 -0.04121976 -0.07017928 -0.06486255 -0.059424605 -0.053645898 0.005469966
-0.072116666 0.08823305 0.049932837 -0.008689321 -0.080116205 -0.04750481 -0.08340221 0.030693913
0.09190126 -0.0032514334 0.040667903 -0.027339851 0.03685824 -0.00894059 -0.031906523 0.053617407
-0.08486592 0.08580603 0.072212055 -0.08264811 -0.040578187 -0.041957583 -0.015675997 0.015221369
0.094136275 -0.09779092 0.08643013 0.06607814 0.03284185 -0.060124326 0.014209747 0.098254494
-0.008907176 -0.069090486 -0.051473774 0.008234322 -0.09687567 0.000601542 -0.077674724 -0.094151996
0.049259603 -0.09974628 0.07619981 0.05110699 -0.046959557 -0.09046429 -0.066087976 -0.0907254
0.074940376 -0.017411042 -0.05459839 -0.01784476 0.002705443 0.06706852 0.022190487 0.01434766
-0.08998382 0.03775842 0.025916386 -0.09060325 -0.0057836412 0.052216113 -0.0721397 0.06377975
-0.040120542 0.031767096 -0.031496 0.083502345 0.05361258 0.078393675 -0.029281981 0.018925492
0.06679775 0.053470995 0.02648554 -0.02100731 -0.04665038 -0.0863273 0.084539786 -0.034652013
0.02418671 0.06888493 -0.08214899 0.09564254 0.026474347 0.08766375 -0.046729203 -0.048832532
0.03058351 -0.10772373 -0.022390187 0.13412789 0.011767905 0.006301216 0.07428431 0.07290219
-0.07369644 0.0111009665 0.060754597 -0.005276348 -0.09084865 -0.040451474 -0.01083944 -0.081415504
0.043765027 0.0066250786 -0.10245472 0.035912044 0.00089441857 0.012854294 -0.10059269 0.08840293
-0.14248504 -0.003827896 -0.13555118 0.013153807 0.026687473 -0.10620377 -0.045056455 0.029996997
-0.018136414 -0.06449912 -0.034748614 0.016189381 -0.09095027 -0.009402729 -0.24006653 0.03978424
-0.051066797 -0.058079936 0.09645274 -0.1427601 0.09929982 0.034728736 -0.020758398 0.11910622
0.057702094 0.015854497 0.14096011 0.013553076 -0.0031708204 -0.084072016 0.06926115 -0.008310802
-0.13622786 0.0040109535 -0.052340828 0.08478354 0.11882474 -0.069309294 0.062695645 0.011484265
-0.043884467 0.0064947307 0.053363528 -0.06587888 -0.05152469 -0.013205563 0.023495635 0.11164242
-0.06905318 -0.04799387 -0.06960985 -0.09591602 0.03472694 -0.15292889 -0.06194312 0.04286725
0.0039466475 0.010558644 -0.047572814 0.05178995 0.07567858 0.0013335824 -0.05800824 -0.01934929
0.0026101358 0.010902191 0.05162357 0.0018237949 -0.05518335 0.0394485 0.071361326 0.00024415256
0.07223871 0.018414544 0.0090402905 0.015551856 0.04895293 0.010412479 0.051543407 0.029867867
0.0588182 0.06247044 -0.08952978 -0.012104848 -0.06465936 0.054888036 0.00061038736 -0.07502508
-0.029582722 -0.016432872 -0.088332325 0.043300156 -0.08094957 0.10005698 -0.019530391 -0.018351818
-0.033176996 0.07943123 -0.08866277 -0.08826739 -0.077866554 -0.02649567 -0.008693266 -0.0015938359
0.071813054 -0.037460234 -0.055200424 0.013640928 0.05678615 -0.08640794 0.009770107 0.0017704294
00000000: 3bc5 c03d 0ffb b4bd 582c 8abd b0c0 483d
00000010: cd2c 4a3c cdcc 8e3b c0b1 69bc 8d5d 873d
00000020: 3390 31bc 1ae9 babb e7ef 9b3b 8b08 8dbd
00000030: a74f 0cbd 53a7 323d a2dc c6bd 909a 7ebd
00000040: 9229 833d 20b3 17bd 0002 c43c 3034 3e3d
00000050: 459a 883d 1af9 cdbc a0e3 04bd 104f 4fbd
00000060: 8d3a 843c a3b7 9bbd 0dd6 28bd 28ba 8fbd
00000070: a8d6 84bd 3767 73bd cdbb 5bbd 673d b33b
00000080: e7b1 93bd 88b3 b43d 6086 4c3d a75d 0ebc
00000090: f713 a4bd 6794 42bd c7ce aabd cd71 fb3c
000000a0: ba36 bc3d 0016 55bb 6393 263d d3f7 dfbc
000000b0: aaf8 163d 8d7b 12bc 6ab0 02bd ed9d 5b3d
000000c0: 2fce adbd 12bb af3d eae3 933d 6a43 a9bd
000000d0: 5035 26bd b7db 2bbd f36a 80bc 0d63 793c
000000e0: 85ca c03d 9b46 c8bd 4802 b13d fa53 873d
000000f0: 2d85 063d ed44 76bd 00d0 683c a739 c93d
00000100: 67ef 11bc 507f 8dbd 2ad6 52bd 40e9 063c
00000110: c066 c6bd cdb0 1d3a ed13 9fbd c3d2 c0bd
00000120: 70c4 493d c747 ccbd a50e 9c3d 9055 513d
00000130: aa58 40bd 5745 b9bd 2259 87bd 3dce b9bd
00000140: 577a 993d 9aa1 8ebc 90a2 5fbd 2d2f 92bc
00000150: cd4d 313b 385b 893d d3c8 b53c 7312 6b3c
00000160: 7049 b8bd 93a8 1a3d 9a4e d43c 328e b9bd
00000170: b384 bdbb 90e0 553d fbbd 93bd f59e 823d
00000180: 7055 24bd 371e 023d f301 01bd 4703 ab3d
00000190: dd98 5b3d dd8c a03d c4e0 efbc a209 9b3c
000001a0: 42cd 883d 6704 5b3d 34f8 d83c 8617 acbc
000001b0: 7814 3fbd 5ecc b0bd 3223 ad3d 45ef 0dbd
000001c0: 3523 c63c 8b13 8d3d bb3d a8bd 3ce0 c33d
000001d0: bbe0 d83c 0d89 b33d 1f67 3fbd 9f04 48bd
000001e0: 458a fa3c 429e dcbd a06b b7bc d258 093e
000001f0: 2cce 403c 6e7a ce3b 5f22 983d be4d 953d
00000200: 29ee 96bd d4e0 353c d0d9 783d 37e5 acbb
00000210: db0e babd 72b0 25bd e897 31bc 2cbd a6bd
00000220: f542 333d 3017 d93b c8d3 d1bd 8218 133d
00000230: 6a77 6a3a d19a 523c 8a03 cebd 980c b53d
00000240: 99e7 11be 70dd 7abb eecd 0abe 1183 573c
00000250: b09f da3c 5d81 d9bd 1e8d 38bd 43bc f53c
00000260: d192 94bc 1d18 84bd 9054 0ebd 989f 843c
00000270: 2344 babd e70d 1abc 00d4 75be cdf4 223d
00000280: 6b2b 51bd 3ae5 6dbd 0489 c53d b42f 12be
00000290: b45d cb3d b83f 0e3d 840d aabc f6ed f33d
000002a0: 0859 6c3d 4ae1 813c d957 103e b90d 5e3c
000002b0: 8acd 4fbb f32d acbd cad8 8d3d 082a 08bc
000002c0: 517f 0bbe 516e 833b 5663 56bd fea2 ad3d
000002d0: 635a f33d 08f2 8dbd 9366 803d 8028 3c3c
000002e0: 33c0 33bd c0d1 d43b b793 5a3d 82eb 86bd
000002f0: 8e0b 53bd 255c 58bc eb79 c03c c8a4 e43d
00000300: c16b 8dbd 3895 44bd 9c8f 8ebd 9e6f c4bd
00000310: d63d 0e3d 6499 1cbe 12b8 7dbd 9295 2f3d
00000320: e152 813b 2afe 2c3c b6db 42bd b321 543d
00000330: 5ffd 9a3d 9acb ae3a 0c9a 6dbd 6782 9ebc
00000340: d00e 2b3b 1a9f 323c 3d73 533d 670c ef3a
00000350: f007 62bd c094 213d e325 923d 9a01 8039
00000360: e4f1 933d 19da 963c ba1d 143c 36cd 7e3c
00000370: de82 483d 1a99 2a3c 2e1f 533d 75ad f43c
00000380: 5aeb 703d 01e1 7f3d 645b b7bd 6a53 46bc
00000390: 206c 84bd 47d2 603d 6702 203a c0a6 99bd
000003a0: 7757 f2bc 3b9e 86bc 94e7 b4bd 815b 313d
000003b0: e3c8 a5bd adea cc3d 33fe 9fbc 8d56 96bc
000003c0: 9ae4 07bd d7ac a23d d494 b5bd 89c5 b4bd
000003d0: 8078 9fbd 730d d9bc 336e 0ebc 42e8 d0ba
000003e0: b912 933d e76f 19bd d719 62bd 337e 5f3c
000003f0: 9898 683d a5f6 b0bd cd12 203c c10d e83a

ode_func.net.2.bias f4 [100]
-0.06101942 0.060435828 -0.054322165 0.0018023029 -0.079744555 0.03743327 -0.030543922 -0.037170164
-0.009751418 0.052128237 -0.09663502 0.009646453 0.0901778 -0.03267738 -0.005505504 0.07175941
-0.00026686807 0.02658953 -0.034504175 0.097469755 -0.055832975 0.049527965 0.0849397 -0.02891736
0.042246122 0.043901175 -0.08865079 0.019767608 0.045365598 -0.03701577 0.05819822 -0.038140196
0.093587875 -0.07293094 -0.019050993 0.003621459 0.08791749 0.026087293 0.031606466 -0.09604584
-0.07824297 0.014797083 0.08558625 -0.06853326 0.058352645 -0.052320864 0.048970696 0.0020971964
0.0538198 -0.04374821 -0.032822307 0.02581961 0.0716834 -0.03226937 0.07550942 0.014264193
0.08368455 -0.06628223 -0.104376726 0.032995075 0.036496643 0.08670309 -0.064778805 0.032649226
-0.0032850525 -0.068320975 -0.03711289 -0.026822455 0.07777673 -0.07022713 0.013047082 -0.088947356
0.05235152 -0.04671066 -0.047576897 -0.040979438 -0.09957546 -0.08662179 -0.03293926 0.077612594
-0.094849 0.045909427 0.05119157 -0.089300714 0.029430246 -0.08349338 -0.019447487 -0.063180596
0.015504154 -0.030927395 0.001885871 -0.09063518 -0.0044360063 0.04180511 0.03795407 0.06925584
0.0033501515 -0.0008677484 -0.06293707 0.017537486
00000000: 80ef 79bd 8f8b 773d eb80 5ebd 403b ec3a
00000010: 1d51 a3bd a153 193d 3f37 fabc be3f 18bd
00000020: 69c4 1fbc 6b84 553d 95e8 c5bd 280c 1e3c
00000030: 23af b83d b7d8 05bd 8467 b4bb 99f6 923d
00000040: 6dea 8bb9 49d2 d93c 4054 0dbd 399e c73d
00000050: 1eb1 64bd d6dd 4a3d def4 ad3d 19e4 ecbc
00000060: 450a 2d3d b8d1 333d 8c8e b5bd aeef a13c
00000070: 47d1 393d d99d 17bd 4261 6e3d e538 1cbd
00000080: 00ab bf3d d15c 95bd d410 9cbc 0056 6d3b
00000090: 160e b43d 05b5 d53c c875 013d aeb3 c4bd
000000a0: da3d a0bd 776f 723c d847 af3d 2a5b 8cbd
000000b0: 2f03 6f3d 674e 56bd 7f95 483d 1e71 093b
000000c0: 2772 5c3d 5331 33bd af70 06bd a683 d33c
000000d0: bfce 923d e32c 04bd afa4 9a3d 5db4 693c
000000e0: ce62 ab3d fabe 87bd 77c3 d5bd d825 073d
000000f0: 817d 153d 6491 b13d c0aa 84bd 32bb 053d
00000100: 094a 57bb deeb 8bbd b003 18bd c4ba dbbc
00000110: 6849 9f3d 3ed3 8fbd 6ec3 553c 082a b6bd
00000120: 8c6e 563d ad53 3fbd fedf 42bd 0eda 27bd
00000130: 38ee cbbd c466 b1bd 51eb 06bd 5af3 9e3d
00000140: 3140 c2bd 860b 3c3d 40ae 513d 4be3 b6bd
00000150: b317 f13c 94fe aabd 5650 9fbc d464 81bd
00000160: 2305 7e3c 735b fdbc 552f f73a f09e b9bd
00000170: eb5b 91bb d63b 2b3d ba75 1b3d 01d6 8d3d
00000180: 378e 5b3b 9c79 63ba 27e5 80bd c6aa 8f3c

ode_func.net.4.weight f4 [3, 100]
-0.07972951 -0.07281185 0.09204196 -0.0035410863 0.018716222 0.082205765 -0.08880334 -0.056997776
-0.014936848 0.082573906 -0.042112578 -0.06545608 0.015060124 -0.07190773 -0.029471725 0.13790865
-0.043430794 -0.09000969 0.0077826465 -0.03607715 0.0774244 0.08458386 0.027596707 -0.0009633164
-0.090208575 0.028622385 -0.018074164 -0.004602733 0.032971893 0.08729493 -0.06876677 0.013812878
0.07487743 -0.06937371 0.07259238 0.05649153 0.08759654 -0.115301885 0.089947745 0.10915159
-0.06348979 -0.018167542 0.03302462 -0.091745 -0.05453765 0.007858099 0.06860483 -0.013372539
0.08980565 -0.10828679 0.030305283 -0.028448017 -0.046773985 0.0330117 0.058490694 -0.09208401
0.046459783 -0.030580359 0.00872389 0.04145122 0.06579997 0.10368825 0.05819926 -0.04561301
0.042902604 0.019698452 -0.0018376351 -0.012575788 -0.025740422 0.038934603 0.04006742 -0.0195279
-0.037667826 -0.016929016 -0.08381357 0.031924933 0.056328338 -0.06498143 -0.046524215 0.009776177
-0.10248578 0.004271644 -0.035415545 -0.06492519 -0.062233295 -0.07477067 0.10704048 -0.083113186
-0.023501214 -0.023785938 -0.07643619 0.010931158 -0.0012551737 -0.019881459 -0.031235185 -0.07438784
0.097928874 0.055713 0.06235632 0.082459316 0.03411311 -0.0075772745 0.06933408 0.094323516
-0.063065015 -0.0066672023 -0.0043711592 0.06723627 -0.022630084 -0.093589894 -0.08093363 0.041145675
-0.048354343 -0.018873448 -0.10565955 -0.0586212 -0.026195187 -0.039083414 0.03886079 0.040493324
-0.05382109 -0.017514031 -0.050050687 0.008879942 -0.021589087 -0.014416258 -0.03928486 0.03402099
-0.08180598 0.06182616 -0.08516482 0.059351113 -0.02717311 0.047647044 0.09330485 0.008203233
0.09376953 -0.081904545 -0.0583664 0.04373155 0.07048904 0.047960397 -0.038811192 0.059311062
-0.0436802 -0.00082959834 -0.07192947 -0.021931851 -0.0031435145 0.02542142 0.027082616 -0.06822751
-0.06558989 0.012194325 -0.0131180575 0.055077992 0.10210324 0.035084803 -0.031101808 -0.0069617415
-0.08972015 -0.028840085 0.07233994 0.08311265 0.012990622 -0.015626261 -0.056819808 -0.051275827
-0.028014403 0.08202828 -0.056629453 0.018735481 0.018302029 0.054568738 0.025145855 0.08267559
-0.061393403 -0.09760602 0.075369254 -0.040053606 0.025108162 -0.0814873 -0.019055463 0.09957048
-0.07646388 0.08775177 0.04213757 -0.08449471 0.038545784 -0.0071291565 -0.040428784 -0.059016444
-0.063957736 -0.09553777 0.06808697 0.060629427 0.027695699 0.032198094 0.0015242457 0.033942424
0.046878815 0.21310611 0.08615708 -0.006006274 0.15560964 0.100642435 0.13409509 0.075195186
0.05014677 -0.03463638 0.025475442 -0.23720987 -0.03585551 0.10948247 -0.03545172 -0.15817043
0.15757598 0.15119404 0.086611055 -0.067437254 -0.08651955 -0.122140765 -0.04726173 0.05013362
0.122086875 -0.16851911 0.037949283 0.08562168 -0.034815475 0.0837028 0.014245649 -0.05233738
0.064947315 -0.24734235 -0.004802762 -0.0804752 0.05020684 0.1231283 -0.07128266 0.018812146
0.09936905 -0.0077475146 -0.068531394 -0.19139107 -0.18570769 -0.2795788 0.030881526 0.23342875
-0.008981918 -0.07081061 0.019891594 0.028812747 -0.045717333 -0.11291424 -0.14198156 0.08977523
00000000: 3a49 a3bd 611e 95bd 7f80 bc3d 9211 68bb
00000010: c352 993c 7f5b a83d 87de b5bd 8076 69bd
00000020: aeb9 74bc 821c a93d 3d7e 2cbd d60d 86bd
00000030: bdbe 763c 5c44 93bd b06e f1bc ed37 0d3e
00000040: 7de4 31bd 0057 b8bd 9205 ff3b a2c5 13bd
00000050: af90 9e3d 4e3a ad3d 7d12 e23c 1287 7cba
00000060: 46bf b8bd 7e79 ea3c 4510 94bc 86d2 96bb
00000070: 890d 073d afc7 b23d 98d5 8cbd 694f 623c
00000080: 5759 993d ce13 8ebd 50ab 943d aa63 673d
00000090: d165 b33d 6523 ecbd 8636 b83d de8a df3d
000000a0: ef06 82bd 19d4 94bc d344 073d cde4 bbbd
000000b0: df62 5fbd 42bf 003c b080 8c3d 7e18 5bbc
000000c0: 06ec b73d 77c5 ddbd c942 f83c d10b e9bc
000000d0: 1496 3fbd 4737 073d f093 6f3d 8b96 bcbd
000000e0: 9d4c 3e3d a983 fabc a6ee 0e3c c1c8 293d
000000f0: 22c2 863d 815a d43d 5962 6e3d b5d4 3abd
00000100: a4ba 2f3d a65e a13c cddc f0ba ae0a 4ebc
00000110: 94dd d2bc e479 1f3d bc1d 243d f9f8 9fbc
00000120: 9449 1abd b8ae 8abc 73a6 abbd b8c3 023d
00000130: 8bb8 663d fc14 85bd 2d90 3ebd 422c 203c
00000140: 11e4 d1bd 26f9 8b3b e40f 11bd 7ff7 84bd
00000150: 57e8 7ebd 5d21 99bd 0a38 db3d 3f37 aabd
00000160: 9e85 c0bc bada c2bc 948a 9cbd 9a18 333c
00000170: a484 a4ba 71de a2bc eee0 ffbc a758 98bd
00000180: ef8e c83d 5133 643d 5769 7f3d 6ee0 a83d
00000190: 30ba 0b3d c94a f8bb 07ff 8d3d b02c c13d
000001a0: 3b28 81bd 8c78 dabb f13b 8fbb 2bb3 893d
000001b0: ba62 b9bc 0fac bfbd 88c0 a5bd 5e88 283d
000001c0: 340f 46bd 7d9c 9abc 0964 d8bd c91c 70bd
000001d0: 4a97 d6bc ee15 20bd 7e2c 1f3d 54dc 253d
000001e0: 8173 5cbd 9679 8fbc f301 4dbd 2d7d 113c
000001f0: 99db b0bc 2b32 6cbc 29e9 20bd 9859 0b3d
00000200: e589 a7bd 6d3d 7d3d e56a aebd 271a 733d
00000210: 249a debc 8c29 433d 9d16 bf3d da66 063c
00000220: 3d0a c03d 92bd a7bd 9b11 6fbd db1f 333d
00000230: 8f5c 903d 1f72 443d 7cf8 1ebd 28f0 723d
00000240: 02ea 32bd 6779 59ba c24f 93bd 6daa b3bc
00000250: 6c03 4ebb 9540 d03c 5ddc dd3c ddba 8bbd
00000260: fe53 86bd b5ca 473c 1fed 56bc 7699 613d
00000270: 811b d13d 15b5 0f3d 38c9 febc 521f e4bb
00000280: 33bf b7bd 0b42 ecbc f626 943d f736 aa3d
00000290: 9ed6 543c a502 80bc e3bb 68bd 9a06 52bd
000002a0: 767e e5bc 71fe a73d 49f4 67bd 277b 993c
000002b0: 23ee 953c 7883 5f3d aefe cd3c d251 a93d
000002c0: a677 7bbd aae5 c7bd 325b 9a3d 400f 24bd
000002d0: a2af cd3c d0e2 a6bd 341a 9cbc 9ceb cb3d
000002e0: 1899 9cbd 33b7 b33d 7298 2c3d 900b adbd
000002f0: 2fe2 1d3d b39b e9bb a798 25bd 3abb 71bd
00000300: 46fc 82bd 4ea9 c3bd 2e71 8b3d 9056 783d
00000310: 17e2 e23c 26e2 033d 33c9 c73a 3607 0b3d
00000320: 0004 403d 7d38 5a3e 2073 b03d 47d0 c4bb
00000330: 2258 1f3e 9f1d ce3d 3950 093e efff 993d
00000340: b366 4d3d e0de 0dbd e0b1 d03c 25e7 72be
00000350: 3add 12bd 5838 e03d d335 11bd 6ef7 21be
00000360: 995b 213e 9cd2 1a3e 2361 b13d 8b1c 8abd
00000370: 2931 b1bd f024 fabd 8495 41bd e958 4d3d
00000380: af08 fa3d 4690 2cbe b570 1b3d 6b5a af3d
00000390: ac9a 0ebd 606c ab3d 9566 693c b85f 56bd
000003a0: 1903 853d 5047 7dbe 7d60 9dbb 2fd0 a4bd
000003b0: b0a5 4d3d b12a fc3d a5fc 91bd ee1b 9a3c
000003c0: 0082 cb3d ddde fdbb 305a 8cbd 05fc 43be
000003d0: 282a 3ebe f424 8fbe 41fb fc3c f207 6f3e
000003e0: e528 13bc 2705 91bd b2f3 a23c b608 ec3c
000003f0: 1942 3bbd 953f e7bd 9d63 11be 13dc b73d

ode_func.net.4.bias f4 [3]
-0.011829806 0.0026213652 -0.10523028
00000000: cdd1 41bc 36cb 2b3b f982 d7bd
