checkpoint/ode_rk4/pushing_5_steps_ode_rk4_dynamics_model.pt (torch, 47614 bytes, 6 tensors)

ode_func.net.0.weight f4 [100, 6]
0	0xbe07c9ac	-0.13260525
1	0x3e75a8eb	0.23990218
2	0xbe5d4e77	-0.21611963
3	0x3e986b1a	0.29769212
4	0x3cc09bf7	0.02351187
5	0x3ecc1104	0.39856732
6	0x3e0406d9	0.12893237
7	0x3dc84f65	0.09780768
8	0x3e7762fb	0.24158852
9	0xbeacc236	-0.3374192
10	0xbe12a521	-0.14320804
11	0xbea7e5a5	-0.32792392
12	0x3df92ac2	0.121663585
13	0x3dc005f0	0.093761325
14	0xbe9f1689	-0.3107188
15	0x3b3b395d	0.0028568127
16	0x3e924120	0.2856531
17	0xbe9dcdb6	-0.30821007
18	0x3e52ae1a	0.20574227
19	0x3dbf5cfd	0.09343908
20	0xbe6554bf	-0.2239561
21	0x3e0e231e	0.13880584
22	0x3ec15756	0.37761945
23	0xbe790891	-0.24319674
24	0x3dff45d6	0.12464492
25	0x3ea923c3	0.33035097
26	0x3d152c73	0.036419343
27	0x3db26e85	0.08712486
28	0x3e41546a	0.18879858
29	0x3ea6caf9	0.3257673
30	0x3e5c8d63	0.2153831
31	0x3ab043f8	0.0013447991
32	0xbde00bf0	-0.10939777
33	0xbe7e056e	-0.24806759
34	0x3dea2b65	0.11434058
35	0x3e7742c3	0.24146561
36	0xbe0fdaa4	-0.14048249
37	0x3dfb6dbe	0.12276791
38	0x3e8981aa	0.26856738
39	0x3dc255dc	0.094890326
40	0x3e845e3f	0.25853154
41	0xbe6c3fd6	-0.23071226
42	0xbc86d1b9	-0.016457425
43	0x3d52a196	0.05142363
44	0x3e597de1	0.21239425
45	0xbec07bf4	-0.3759457
46	0xbd3f15b8	-0.046651572
47	0xbe4bc9c9	-0.19901194
48	0x3d4f35da	0.050588466
49	0x3e23e6a9	0.16005959
50	0x3e2c555b	0.16829436
51	0x3d5713b6	0.052509032
52	0xbdf878b8	-0.121324
53	0xbc88dbd3	-0.016706383
54	0x3d3ddcae	0.046353035
55	0xbe13b6af	-0.14425157
56	0x3e55d8b6	0.2088345
57	0x3ec66475	0.38748518
58	0x3e372f5e	0.17889163
59	0xbeb4d2f1	-0.35317186
60	0x3ebb1ad0	0.36543894
61	0x3e8cef5c	0.27526367
62	0xbcae49e5	-0.02127547
63	0x3dfb4997	0.122698955
64	0x3eb6217d	0.35572425
65	0xbe332f6c	-0.17498559
66	0xbe066a97	-0.13126598
67	0xbe4007d3	-0.18752985
68	0xbea26a93	-0.31721935
69	0xbe6c8ca6	-0.23100528
70	0xbe29f126	-0.16595897
71	0xbea2d545	-0.31803337
72	0xbecada01	-0.3961945
73	0x3ec9b26c	0.39393938
74	0x3e9cd8b5	0.30634084
75	0xbe8fc5aa	-0.28080493
76	0x3e2703e1	0.16310073
77	0x3eb4b1f7	0.35292026
78	0x3e370ff3	0.17877178
79	0x3e1d87af	0.1538379
80	0x3eb64059	0.35595968
81	0x3d4b6170	0.04965347
82	0x3ec3ee9b	0.3826798
83	0x3ec5fc94	0.38669264
84	0x3ebe7ab3	0.37202987
85	0xbe90dd8f	-0.28294036
86	0xbe1f2e60	-0.15545034
87	0xbeaec9c3	-0.34138307
88	0xbd769305	-0.060198803
89	0xbd89c2a1	-0.06726576
90	0xbe106818	-0.14102209
91	0x3e3e4ee1	0.18584777
92	0xbd2d9768	-0.04238072
93	0x3edae2c2	0.42751127
94	0xbb9ef7c9	-0.0048513156
95	0x3dd7393a	0.10508962
96	0x3e88a6b3	0.2668968
97	0x3ed098c2	0.40741545
98	0xbe185145	-0.14874752
99	0xbe38daf9	-0.18052281
100	0xbe9cd502	-0.30631262
101	0x3eb74649	0.3579581
102	0x3e37bffe	0.17944333
103	0x3dbc2b1a	0.091879085
104	0x3e94f926	0.29096335
105	0xbeb7426b	-0.3579286
106	0x3e920d1a	0.2852562
107	0x3ec84216	0.3911292
108	0xbe62607c	-0.22107118
109	0x3e918b6a	0.28426677
110	0xbd2e4e45	-0.042555112
111	0x3e8cba81	0.2748604
112	0x3ed1a6ca	0.40947562
113	0x3c86df30	0.016463846
114	0xbe691be0	-0.2276454
115	0x3eb10206	0.34571856
116	0xbeafbfec	-0.34326112
117	0xbe960e50	-0.29307795
118	0xbebd1c2f	-0.36935565
119	0x3e03aa56	0.12857947
120	0xbe4326b7	-0.19057737
121	0x3e2ecdd8	0.1707071
122	0x3d7f08bd	0.062264193
123	0x3dd1d2d3	0.1024529
124	0x3ea08dd7	0.31358215
125	0x3e4e4676	0.20144066
126	0xbe6812a4	-0.22663361
127	0xbe295162	-0.16534951
128	0x3ebb2db1	0.36558297
129	0xbd858b50	-0.065207124
130	0xbea0652d	-0.3132719
131	0xbd4a1d6e	-0.049344473
132	0x3ea30613	0.31840572
133	0x3e8e9081	0.27844623
134	0x3ebfce99	0.3746231
135	0xbd253d2c	-0.04034154
136	0x3e992625	0.29911914
137	0xbe5ac660	-0.21364737
138	0xbd794364	-0.060855284
139	0xbe7a6d62	-0.24455789
140	0x3e9bc8b1	0.30426553
141	0xbd1170a1	-0.035507802
142	0x3d46c496	0.048527323
143	0x3e71de94	0.23620063
144	0xbd367d3f	-0.044553038
145	0x3ebb03be	0.36526293
146	0x3ec70ca5	0.38876835
147	0x3e3b0e85	0.18267258
148	0x3e768939	0.24075784
149	0xbdaafa79	-0.08348555
150	0xbeb8e884	-0.36114895
151	0x3e95fda9	0.2929509
152	0xbe3da63c	-0.18520445
153	0xbe50037f	-0.20313834
154	0xbe133843	-0.14376931
155	0xbd505911	-0.05086619
156	0x3e4cbb5c	0.19993347
157	0xbe329bf4	-0.17442304
158	0xbea62c1e	-0.32455534
159	0xbd490a2d	-0.04908197
160	0x3db8153d	0.08988426
161	0xbe911a12	-0.28340203
162	0xbd1fb6dc	-0.038992748
163	0x3e4891e6	0.19586906
164	0x3ec60d56	0.3868205
165	0xbe97811e	-0.29590696
166	0x3eb1dbd0	0.34738016
167	0x3e00d72c	0.12582082
168	0xbe0b0a8c	-0.13578242
169	0x3dd2df31	0.10296477
170	0x3d842ad8	0.06453484
171	0x3dc82487	0.09772592
172	0x3e0772ea	0.1322743
173	0x3e01bcf6	0.12669739
174	0xbd64166e	-0.055685453
175	0xbd662c34	-0.0561945
176	0x3dd30bf5	0.10305015
177	0xbe611bb9	-0.21983232
178	0x3d8b85f3	0.06812658
179	0xbe1ae479	-0.15126218
180	0x3e6368ef	0.22207998
181	0xbea62f05	-0.32457748
182	0xbe86361f	-0.26213166
183	0x3eab02ee	0.33400673
184	0x3c2251c3	0.009907189
185	0x3d37555f	0.04475915
186	0xbec9c657	-0.39409134
187	0x3df557bf	0.11979627
188	0x3e580ade	0.21097896
189	0xbe80d21d	-0.25160304
190	0xbe5fdea7	-0.21862279
191	0xbe96535e	-0.2936048
192	0x3ea577be	0.3231792
193	0xbdf69b95	-0.12041394
194	0x3eae3aa2	0.34029108
195	0x3d783fc7	0.060607698
196	0xbed05489	-0.40689495
197	0xbec331f8	-0.3812406
198	0xbe184764	-0.14870983
199	0x3ebd8c67	0.3702118
200	0x3ecc718d	0.39930382
201	0x3e99ed30	0.30063772
202	0x3de5b660	0.11216426
203	0xbe9b83a1	-0.30373862
204	0xbea84a11	-0.32869008
205	0x3e99d886	0.30048007
206	0xbdfd5832	-0.123703375
207	0xbe97d52f	-0.29654834
208	0x3d9165a4	0.070994645
209	0x3e7c5b9f	0.24644326
210	0xbe82b5b1	-0.25529245
211	0xbec3e981	-0.38264087
212	0x3ec67222	0.3875895
213	0x3e14dcb4	0.14537317
214	0xbe316a0a	-0.17325607
215	0xbd7b8b58	-0.061412185
216	0xbeb51674	-0.35368693
217	0xbe11f9b6	-0.14255413
218	0xbe3bc9d1	-0.18338706
219	0x3e4f0b9e	0.20219275
220	0xbde1bfc8	-0.110229075
221	0xbea8b6c3	-0.32951936
222	0x3ecd6877	0.40118763
223	0xbe4d6a79	-0.20060147
224	0xbec44790	-0.38335848
225	0x3eb085b2	0.34477
226	0x3ec5785b	0.38568386
227	0x3e261e77	0.16222559
228	0xbe8721a9	-0.26392868
229	0xbdb366ea	-0.08759864
230	0x3dc92622	0.098217264
231	0xbed8ad0a	-0.42319518
232	0x3d074a32	0.033029743
233	0x3e650293	0.22364263
234	0xbe35a3c6	-0.17738256
235	0xbcb3d234	-0.021950819
236	0x3eca3555	0.39493814
237	0x3eaffd0d	0.3437275
238	0x3e03de68	0.1287781
239	0xbe08ee30	-0.13372111
240	0x3df344a1	0.11878324
241	0x3e5cd2b8	0.21564758
242	0xbe1a70f9	-0.15082158
243	0x3e294a2e	0.16532204
244	0xbe4f3ed4	-0.20238811
245	0xbe8e4fe8	-0.2779534
246	0x3ea3f1a7	0.32020304
247	0x3e6b021c	0.22950023
248	0x3e329a67	0.17441712
249	0xbe683cf7	-0.22679506
250	0x3ec52803	0.3850709
251	0xbe1f6ce0	-0.15568876
252	0xbebd995e	-0.37031072
253	0x3c703974	0.014662135
254	0xbd516bb8	-0.05112812
255	0x3ecd8517	0.40140602

ode_func.net.0.bias f4 [100]
0	0x3d0b8007	0.034057643
1	0x3df8220b	0.12115868
2	0x3ed01acb	0.4064544
3	0xbdf1e12f	-0.118105285
4	0x3bf375ac	0.007429799
5	0x3c6e0f6d	0.014530045
6	0x3e5227d9	0.20523013
7	0x3ea3ecad	0.32016507
8	0xbe2b6a9e	-0.1673989
9	0x3ea32e4a	0.31871253
10	0x3e0e9d1a	0.13927117
11	0x3eba8666	0.36430663
12	0x3e74d9a0	0.23911142
13	0xbde96874	-0.11396876
14	0x3e06c34b	0.13160436
15	0xbe6214fb	-0.22078316
16	0xbeb32513	-0.34989223
17	0x3eca0bf8	0.39462256
18	0xbe51fe27	-0.20507108
19	0xbe602347	-0.21888457
20	0x3ea0b300	0.31386566
21	0x3e85408e	0.26025814
22	0x3e525e1e	0.20543715
23	0xbe5698a0	-0.2095666
24	0x3e6ed522	0.23323491
25	0x3e5c18f4	0.21493894
26	0x3e3765bb	0.17909901
27	0xbe4ffc86	-0.20311174
28	0x3e828db2	0.2549873
29	0x3ed04cc2	0.40683562
30	0x3eb4be22	0.3530131
31	0xbe5b423c	-0.21411985
32	0x3def825b	0.11694785
33	0xbea33e34	-0.31883395
34	0x3e8b4a02	0.272049
35	0xbe8ded4e	-0.27720112
36	0xbe14e31f	-0.14539765
37	0xbe8d634c	-0.2761482
38	0xbdd0a43a	-0.10187574
39	0xbe666b1d	-0.22501798
40	0xbde2572a	-0.110517815
41	0xbeaea9be	-0.34113878
42	0x3e0ef2c1	0.13959791
43	0xbe7f34fa	-0.24922553
44	0xbe367509	-0.17818083
45	0xbeb82378	-0.3596456
46	0xbc2b2003	-0.010444644
47	0xbdab6c8d	-0.08370314
48	0x3e198df8	0.14995563
49	0xbec8a941	-0.3919163
50	0xbe82c888	-0.25543618
51	0x3e64faac	0.22361249
52	0xbeb4e8af	-0.35333773
53	0xbd8dfcfe	-0.0693302
54	0x3dda894d	0.10670719
55	0x3ec10d14	0.3770529
56	0xbe796cdc	-0.24357933
57	0x3d4f16ca	0.050558843
58	0x3ec77790	0.38958406
59	0x3eb60b70	0.355556
60	0x3ce36bd7	0.027761383
61	0x3e62d6a1	0.22152187
62	0x3e9172ef	0.28408
63	0xbc6b4dd5	-0.014361818
64	0xbe878240	-0.2646656
65	0x3e2e8de0	0.17046309
66	0xbd829e25	-0.0637782
67	0xbd5b88db	-0.053597312
68	0xbbbc0927	-0.0057383957
69	0xbe8950b2	-0.26819378
70	0x3ea6e5d4	0.3259722
71	0xbdde3c26	-0.10851316
72	0xbe91fb3f	-0.28511998
73	0x3e396668	0.18105471
74	0xbd1d9cc1	-0.03847957
75	0x3da0bb8a	0.0784827
76	0xbd815cc1	-0.063165195
77	0x3db9bdba	0.090693906
78	0x3eabd899	0.33563688
79	0x3c2ad41a	0.0104265455
80	0xbc82ec19	-0.01598172
81	0xbe3f3d56	-0.18675742
82	0x3ec381a5	0.38184848
83	0xbec3cf58	-0.38244128
84	0x3d85a52d	0.065256454
85	0x3da678b4	0.08128491
86	0xbe90d619	-0.28288344
87	0xbe2ab38c	-0.16670054
88	0xbe1abc90	-0.15110993
89	0xbeaf2219	-0.34205702
90	0x3e9eae43	0.30992326
91	0x3e727cea	0.23680463
92	0x3e46b76c	0.19405907
93	0xbe79c853	-0.24392824
94	0xbd85ec29	-0.065391846
95	0x3df0f759	0.11765928
96	0x3eb45bba	0.35226232
97	0x3eba8e16	0.36436528
98	0xbeac9b54	-0.33712256
99	0xbd78b811	-0.060722414

ode_func.net.2.weight f4 [100, 100]
0	0x3daa5fbc	0.08319041
1	0xbd00f47f	-0.03148317
2	0x3b8e1a11	0.0043366035
3	0xbd714967	-0.058907893
4	0x3da0c20a	0.0784951
5	0x3afb36da	0.0019166127
6	0x3d765ad6	0.06014522
7	0x3d93fa14	0.07225433
8	0x3d27d2b2	0.04097242
9	0x3ccbf7c2	0.024898414
10	0xbd245c6b	-0.0401272
11	0xbdabc224	-0.08386639
12	0x3d9e2664	0.07722166
13	0xbd47eac5	-0.048807878
14	0x3dba9f02	0.091123596
15	0x3dda9a12	0.10673918
16	0x3d903235	0.07040826
17	0xbd2b3dff	-0.04180717
18	0xbe88a0cb	-0.26685175
19	0xbcb1e6db	-0.021716526
20	0xbd4909fb	-0.049081784
21	0xbcae73ba	-0.021295417
22	0xbd540525	-0.05176272
23	0xbd5c4cf5	-0.05378433
24	0x3d7ebccc	0.06219177
25	0xbbb95a77	-0.005656536
26	0x3d37ebe6	0.044902705
27	0x3cda5975	0.026653985
28	0x3cc031c5	0.023461232
29	0xbdbf81fe	-0.09350966
30	0x3d8b2694	0.067944676
31	0xbcddf19a	-0.027092744
32	0xbd6840c2	-0.056702383
33	0x3cd6bedb	0.026214054
34	0x3d829007	0.06375127
35	0xbd910a78	-0.07082075
36	0xbda026a2	-0.078198686
37	0xbd4557c4	-0.048179403
38	0xbdc9c582	-0.09852125
39	0xbd4c0092	-0.04980523
40	0xbd0afbef	-0.03393167
41	0xbd48b7ad	-0.049003292
42	0x3dbeec34	0.09322396
43	0xbc5a4d8e	-0.013324155
44	0xbc81516c	-0.015785895
45	0xbc82f11a	-0.015984107
46	0xbd55340e	-0.052051596
47	0xbe228b17	-0.15873371
48	0xbcf57e38	-0.029967412
49	0xbcfd6766	-0.030933093
50	0xbdb2a8cd	-0.087236024
51	0xbc6a2956	-0.014292082
52	0xbdc246a9	-0.094861336
53	0x3c9334ca	0.017969508
54	0xbcb2f333	-0.021844482
55	0xbc6cdf05	-0.014457469
56	0x3d3986e7	0.04529467
57	0xbc262d85	-0.010142689
58	0xbd2ac79d	-0.041694272
59	0x3d839e71	0.06426705
60	0x3d6d1ad3	0.05788691
61	0x3d9efb47	0.07762771
62	0x3d0811aa	0.03321997
63	0x3ccec40d	0.025239969
64	0x3dce0042	0.10058643
65	0x3d43f240	0.04783845
66	0xbdc0a2b2	-0.09406032
67	0x3da8799c	0.0822632
68	0x3d8753d9	0.066077895
69	0xbd47a1c5	-0.04873826
70	0xbd19e9a5	-0.037576336
71	0xbcf31e13	-0.029677426
72	0xbc34a3e7	-0.0110254055
73	0x3db8f32f	0.090307586
74	0xbc642e74	-0.013927091
75	0x3d931c8e	0.07183181
76	0x3d21dcd1	0.039517228
77	0xbddf0942	-0.10890438
78	0xbd9238a6	-0.07139711
79	0x3d255458	0.04036364
80	0x3dbc659f	0.0919907
81	0xbdb54b07	-0.08852201
82	0x3cc43279	0.023949848
83	0x3e41401f	0.18872117
84	0x3bcf0e05	0.00631881
85	0x3c0cebee	0.008601172
86	0x3d3c893e	0.04602932
87	0xbcde7855	-0.027156988
88	0xbda3cd18	-0.07998103
89	0x3d82502e	0.06362949
90	0xbd617472	-0.05504269
91	0xbc6b230b	-0.014351617
92	0x3dce9582	0.1008711
93	0x3d595768	0.053061873
94	0xbd2f0d99	-0.042737577
95	0xbd5f3fc0	-0.054504156
96	0xbc353526	-0.011060035
97	0xbdadd638	-0.084881246
98	0x3e7004d5	0.23439343
99	0x3d8a4d16	0.06752984
100	0xbd5ddaea	-0.05416385
101	0xbd533ccc	-0.051571652
102	0x3da78230	0.08179128
103	0x3b88292c	0.0041552987
104	0xbdbf9684	-0.093548805
105	0xbceb08b2	-0.02869067
106	0x3d38239b	0.04495583
107	0x3cf1e4da	0.02952807
108	0xbcc8d3ec	-0.024515115
109	0x3d6760bb	0.056488734
110	0xbdc5219a	-0.096255496
111	0x3d6bab3c	0.05753635
112	0xbd041962	-0.03225077
113	0x3d6b4f90	0.057448924
114	0x3d6393e2	0.055560954
115	0x3d61d0b3	0.05513067
116	0xbcb4656d	-0.02202102
117	0x3dc80ca5	0.09768037
118	0xbd07fd01	-0.033200268
119	0x3d2ef53a	0.042714335
120	0x3d6dbeef	0.058043417
121	0xbd428562	-0.047490485
122	0x3c351f6b	0.011054854
123	0xbd8e11dc	-0.06937
124	0x3d0812bc	0.03322099
125	0x3dbeca89	0.09315974
126	0xbd9e23fd	-0.07721708
127	0x3da8e5c6	0.08246951
128	0xbcdecbb8	-0.02719675
129	0x3d73e80c	0.05954747
130	0xbd9bad10	-0.076013684
131	0x3d251f38	0.040312976
132	0x3dc0288d	0.093827344
133	0xbdc871d0	-0.09787333
134	0xbc3dfcf9	-0.011595958
135	0x3dbe25ee	0.09284578
136	0xbca27c87	-0.01983477
137	0xbd225402	-0.039630897
138	0xbda2477f	-0.07923793
139	0x3dc4ff88	0.09619051
140	0xbd47b9f5	-0.048761327
141	0xbceb5945	-0.02872909
142	0xbcc00ff2	-0.023445103
143	0x3cef1658	0.029185459
144	0x3d81745a	0.063210204
145	0xbd640cea	-0.05567638
146	0xbbcd50ec	-0.00626575
147	0x3da76d8b	0.081751905
148	0xbc9eda26	-0.01939113
149	0xbda00cbe	-0.078149304
150	0x3ca5804e	0.020202782
151	0xbd635df2	-0.055509515
152	0x3d70c394	0.058780268
153	0x3d905521	0.07047487
154	0x3d69ba47	0.057062414
155	0x3d61a9b8	0.055093497
156	0x3b04f554	0.0020287829
157	0xbdaf621a	-0.08563633
158	0x3dc96655	0.098339714
159	0xbd1af620	-0.03783238
160	0x3c218a97	0.009859703
161	0xbcd24abd	-0.025670404
162	0xbcc9bbec	-0.024625741
163	0x3d9ab988	0.075549185
164	0x3c81ddb8	0.015852794
165	0xbdb88619	-0.09009952
166	0xbd6f6a6c	-0.0584511
167	0xbd9580b2	-0.07299937
168	0x3d8d4a92	0.06898989
169	0x3d953568	0.07285577
170	0x3bc0777d	0.005873619
171	0x3dd2b9f2	0.102893725
172	0x3b348100	0.002754271
173	0x3db93391	0.09043039
174	0x3d19e8b0	0.037575424
175	0xbdaf964e	-0.0857359
176	0x3dbfdae7	0.09367924
177	0x3d338050	0.04382354
178	0x3bbb34e1	0.0057130908
179	0x3c5eb962	0.013594003
180	0xbd838ea5	-0.06423692
181	0xbd1156c4	-0.035483137
182	0xbc969af2	-0.01838443
183	0xbe6d1f4c	-0.2315647
184	0x3bf5fd14	0.007506976
185	0xbc23a457	-0.009987912
186	0xbd852e13	-0.065029286
187	0x3db2bd5d	0.087275244
188	0xbcacebba	-0.021108497
189	0x3da13ff0	0.07873523
190	0xbca79feb	-0.020461997
191	0xbd44bc07	-0.04803088
192	0xbdbe9a26	-0.09306745
193	0xbd99fe00	-0.0751915
194	0x3d73b714	0.05950077
195	0x3d4c2a56	0.049845062
196	0x3c18b550	0.009320572
197	0x3d6e1bff	0.058132168
198	0x3bb5e8f1	0.0055514504
199	0x3d86432e	0.06555782
200	0x3d9bc5c3	0.076060794
201	0x3db2ef7d	0.08737085
202	0xbd07c588	-0.033147365
203	0x3dbd5ded	0.092464305
204	0x3d211bcc	0.03933315
205	0xbd168633	-0.036749076
206	0xbca601cb	-0.020264527
207	0xbcd89dc4	-0.026442416
208	0x3d894e03	0.06704333
209	0xbd453048	-0.048141748
210	0x3da8d6e9	0.08244116
211	0xbd82dd96	-0.063899204
212	0x3da4e4c2	0.080514446
213	0x3d849e21	0.06475473
214	0xbcd65444	-0.026163228
215	0x3d0b5bf1	0.03402323
216	0xbdb9654f	-0.09052526
217	0x3db6fef2	0.08935346
218	0xbda75774	-0.08170977
219	0x3cd6a56d	0.026201928
220	0x3b0eb38d	0.00217745
221	0xbdb6cac1	-0.08925391
222	0xbd97c7df	-0.07411169
223	0xbd5d57e4	-0.054038897
224	0x3dadda23	0.08488872
225	0xbd5827a0	-0.052772164
226	0xbd603479	-0.05473754
227	0x3d01c93d	0.031686056
228	0xbda321b2	-0.07965411
229	0xbdc06c8c	-0.09395704
230	0x3d95e0b6	0.07318251
231	0x3d64f9b9	0.055902217
232	0xbd766a69	-0.060160074
233	0xbd77e0c2	-0.06051708
234	0x3d1b0eda	0.03785596
235	0x3d72a862	0.059242614
236	0xbce9b087	-0.028526558
237	0x3da086ef	0.078382365
238	0x3d0f2daa	0.034955658
239	0x3c1c96ab	0.009557406
240	0xbdf7e2c3	-0.12103798
241	0x3cdccbc4	0.026952632
242	0xbc875bee	-0.016523328
243	0x3d92e816	0.07173173
244	0x3db61450	0.08890593
245	0x3d01c810	0.031684935
246	0x3bce34c9	0.0062929136
247	0x3dc0f7f1	0.09422291
248	0x3cbf3431	0.023340316
249	0x3d0e3852	0.03472168
250	0xbd2f411b	-0.0427867
251	0xbc4ad5bb	-0.012380059
252	0x3d7fc235	0.06244107
253	0x3c7ae93b	0.015314396
254	0x3ca2da09	0.019879358
255	0xbd168396	-0.036746584

ode_func.net.2.bias f4 [100]
0	0x3da1ef60	0.07906985
1	0xbc8f492c	-0.017490946
2	0x3d90e723	0.07075336
3	0x3b74d81c	0.0037360257
4	0xbce39833	-0.027782535
5	0x3dc6b44a	0.09702356
6	0x3d1a53cc	0.03767757
7	0x3c4dfb94	0.012572188
8	0xbd2bed8a	-0.04197458
9	0x3d298d21	0.041394357
10	0xbdaf14c6	-0.08548884
11	0xbc7a793c	-0.015287694
12	0xbdafed1b	-0.08590146
13	0xbda58e43	-0.08083775
14	0x3d33c43d	0.04388832
15	0x3ce460ad	0.02787813
16	0xbdbdc6f2	-0.092664614
17	0x3ce7c4ec	0.028292142
18	0xbbb13735	-0.0054081925
19	0xbdc27dc6	-0.09496646
20	0x3d9c7b0f	0.07640659
21	0xbd10c59c	-0.035344705
22	0xbd905fdb	-0.07049533
23	0xbd648401	-0.05578995
24	0x3da04ed5	0.07827536
25	0xbd14b9c8	-0.036309987
26	0xbc3e2a72	-0.011606799
27	0x3d77f428	0.06053558
28	0xbd3584af	-0.04431599
29	0xbd8197a5	-0.06327752
30	0x3da3370c	0.07969484
31	0x3cadcc56	0.021215599
32	0xbbc4cbbb	-0.006005732
33	0xbd8a5090	-0.06753647
34	0xbbf3be00	-0.0074384212
35	0xbd4ef1fe	-0.05052375
36	0x3cc123eb	0.023576697
37	0x3d192265	0.037386317
38	0x3cd0d9d7	0.0254945
39	0x3daf8a15	0.08571259
40	0x3b7f4d5b	0.003895602
41	0xba80ebf1	-0.0009835941
42	0x3dd6e3bf	0.10492658
43	0xbcb11b62	-0.021619502
44	0xbd80cb7f	-0.06288814
45	0xbceb9985	-0.028759727
46	0x3c806f97	0.01567821
47	0xbd18b2b0	-0.037279785
48	0x3cbf5139	0.02335416
49	0x3c3e8a74	0.0116296895
50	0xbdad28ce	-0.084550485
51	0x3c921df8	0.017836556
52	0xbd946b82	-0.07247068
53	0x3afaeba7	0.0019143716
54	0x3c163045	0.009166782
55	0xbd19c339	-0.037539694
56	0x3ce36794	0.02775935
57	0x3d42c1e0	0.047548175
58	0x3d17d770	0.03707069
59	0xbd5d5903	-0.054039966
60	0x3da0d36e	0.07852827
61	0x3d845a5b	0.064625464
62	0x3c1222af	0.008919402
63	0x3cf31139	0.029671298
64	0x3d87c92d	0.06630168
65	0x3c61528d	0.013752592
66	0x3cb47d3e	0.022032376
67	0xbcfd0c60	-0.03088969
68	0xbd654fb2	-0.055984206
69	0x3bbeb144	0.0058194716
70	0x3d800926	0.06251745
71	0x3dc97397	0.098365
72	0xbc05f5de	-0.008176295
73	0x3d5e396b	0.054253977
74	0x3d1a9d40	0.03774762
75	0xbcccb790	-0.024989873
76	0xbdc7c476	-0.09754269
77	0xbd2558d4	-0.040367916
78	0xbdb751c4	-0.089511424
79	0x3b2c6b59	0.0026309101
80	0x3d29b943	0.041436445
81	0xbc1f7057	-0.009731374
82	0x3cf3f61b	0.029780438
83	0xbacf8a9a	-0.0015834153
84	0x3cfef9b7	0.031124933
85	0x3dc21124	0.094759256
86	0xbd9c929d	-0.07645152
87	0x3db9c1de	0.0907018
88	0xbd55aeab	-0.05216853
89	0xbcf512d2	-0.0299162
90	0xbd830a77	-0.063984804
91	0x3d1a5b9e	0.03768503
92	0xbd1f6fc7	-0.03892496
93	0x3caeeb95	0.021352569
94	0x3cb4bd73	0.022062993
95	0xbdc1f5be	-0.094707
96	0xbd1a5265	-0.037676234
97	0xbdb61ad6	-0.08891837
98	0x3d892d59	0.066981025
99	0xbd530c47	-0.05152538

ode_func.net.4.weight f4 [3, 100]
0	0x3c9ad4f3	0.01890037
1	0xbc56dafd	-0.013113734
2	0xbd8515e1	-0.06498314
3	0x3d8052af	0.06265771
4	0x3cefaf02	0.029258255
5	0x3d810acb	0.06300887
6	0xbd9b8334	-0.075933844
7	0x3c9d38fa	0.019192208
8	0xbc38b637	-0.011273912
9	0x3dbafc5d	0.09130166
10	0x3de786ba	0.11304994
11	0xbd8ec628	-0.06971389
12	0xbe1b350c	-0.15156955
13	0x3d1c0d3a	0.03809855
14	0x3d533fa9	0.051574383
15	0xbd9a3dfd	-0.075313546
16	0xbd71327d	-0.05888604
17	0xbd51d141	-0.05122495
18	0x3d526506	0.051365875
19	0x3cad309a	0.02114134
20	0xbd92f16b	-0.07174953
21	0x3c725417	0.014790556
22	0x3d3caa71	0.046060983
23	0xbc92c8c2	-0.017917994
24	0xb9e3dfa1	-0.0004346343
25	0x3d28d667	0.041220095
26	0x3d84b23f	0.0647931
27	0x3c9a9636	0.018870454
28	0x3d31bb53	0.043391537
29	0x3da219a8	0.0791505
30	0xbd78fa7b	-0.06078575
31	0x3d19b4b8	0.037525862
32	0x3c8a3e71	0.016875478
33	0xbc1b2175	-0.009468426
34	0xbd669c6a	-0.05630151
35	0xbbc743f8	-0.0060811006
36	0x3d8cdadd	0.06877682
37	0xbd0e8f35	-0.03480454
38	0x3c560e05	0.013064866
39	0xbdbbd26c	-0.09170994
40	0xbd90916d	-0.07058988
41	0xbc363af3	-0.011122453
42	0xbd4ad873	-0.04952283
43	0xbc2de3d7	-0.010613403
44	0x3cc32955	0.02382342
45	0xbcd89c4b	-0.026441714
46	0x3d806371	0.06268967
47	0xbd860bee	-0.06545244
48	0x3dad903b	0.084747754
49	0xbd58cebe	-0.05293154
50	0xbe05cdaf	-0.13066743
51	0x3d06428a	0.0327783
52	0x3d84b6eb	0.06480201
53	0xbd56e0f5	-0.05246063
54	0xbcbf6f0f	-0.023368387
55	0x3a8f9337	0.0010953908
56	0x3d0d90f5	0.03456207
57	0x3cfee3b6	0.03111444
58	0x3aa64d66	0.0012687861
59	0xbd9a72b6	-0.075414106
60	0xbc86c958	-0.01645343
61	0xbd957877	-0.072983675
62	0x3db7bbe0	0.08971381
63	0xbcd7817d	-0.026306862
64	0x3d2ebb8c	0.042659327
65	0xbd833a8f	-0.064076535
66	0x3d5eff39	0.054442618
67	0x3dbf5a38	0.0934338
68	0xbd12b9a2	-0.035821564
69	0x3dba6aa2	0.0910237
70	0xbb5565e4	-0.0032561952
71	0x3cfcb72b	0.03084906
72	0x3ca382c2	0.019959811
73	0x3dafbb42	0.085806385
74	0x3db01575	0.085978426
75	0x3d0268d7	0.031838264
76	0xbd042a0b	-0.032266658
77	0x3cc1a8e8	0.023640111
78	0x3cb12b24	0.021627016
79	0xbd17f32a	-0.037097134
80	0x3c88b424	0.01668746
81	0x3cf4fd2e	0.029905882
82	0xbd87d617	-0.06632631
83	0x3d6f6ff1	0.058456365
84	0x3d4dc9b1	0.050241176
85	0xbc8103e5	-0.015748927
86	0xbda316f6	-0.07963364
87	0xbc10261f	-0.008798151
88	0x3d8dcc15	0.06923691
89	0xbc2c827f	-0.01052916
90	0x3d002969	0.03128949
91	0x3ad1b602	0.0015999677
92	0x3d2b077d	0.04175519
93	0x3c996d87	0.018728985
94	0xbbb0ae42	-0.005391867
95	0xbdafec53	-0.08589997
96	0x3abd1301	0.0014425219
97	0x3d804d98	0.062648
98	0xbcfd4de1	-0.030920925
99	0x3da620f5	0.08111755
100	0x3d41d45f	0.047321673
101	0x3dac467c	0.08411881
102	0xbd92b49b	-0.07163354
103	0x3d18098e	0.037118487
104	0x3d8a9536	0.06766741
105	0xbcd4602d	-0.025924766
106	0xbda56cff	-0.0807743
107	0xbd9ab33d	-0.07553718
108	0xbc0428eb	-0.008066396
109	0x3d779742	0.060446985
110	0x3c349adc	0.0110232495
111	0xbdb1356e	-0.08652769
112	0xbc314e8a	-0.010821948
113	0x3da26aaa	0.07930501
114	0x3d5f6e99	0.054548834
115	0xbdd4a38c	-0.103827566
116	0xbd9ce64b	-0.076611124
117	0x3db93931	0.090441115
118	0xbd3fcae8	-0.046824366
119	0xbcd0fa85	-0.025510082
120	0x3d236dfa	0.039899804
121	0xbd8c0b65	-0.06838111
122	0xbd881686	-0.06644921
123	0x3cffa6a4	0.03120739
124	0xbe01ff33	-0.12695007
125	0xbcda1a70	-0.026623935
126	0xbc12b305	-0.008953814
127	0xbda15fe2	-0.07879616
128	0xbdb09239	-0.0862164
129	0xbcded82f	-0.027202694
130	0x3dbcc59a	0.09217377
131	0xb87d8c89	-6.0450784e-05
132	0xbc591021	-0.013248474
133	0xbc8c9a88	-0.01716353
134	0xbcfd8b64	-0.030950256
135	0xbd37289d	-0.044716466
136	0x3dc3bae3	0.0955713
137	0x3ccf95b7	0.025339944
138	0xbd515cfe	-0.051114075
139	0xbc4e8ae9	-0.012606361
140	0x3d5fec27	0.05466857
141	0xbd98ab62	-0.07454564
142	0x3d9cfc73	0.07665338
143	0xbd711c2f	-0.05886477
144	0x3d71e309	0.05905441
145	0xbd48977f	-0.048972603
146	0xbdc62e81	-0.09676839
147	0x3dae5e23	0.08514049
148	0xbda244de	-0.079232916
149	0xba95051d	-0.0011369322
150	0xbd369237	-0.044573035
151	0xbd2a5ee7	-0.041594412
152	0x3d35f9a8	0.044427544
153	0x3d317c23	0.043331277
154	0xbd8758f6	-0.06608765
155	0x3d4d845e	0.050175063
156	0xbcf88acd	-0.030339623
157	0xbcce8534	-0.02521
158	0x3d374ab2	0.04474897
159	0x3d84e97f	0.06489848
160	0xbd58c605	-0.05292322
161	0x3d96fa37	0.073719434
162	0xbd01a5ba	-0.03165219
163	0x3da08c7d	0.07839296
164	0xbcd38d69	-0.025824266
165	0xbd101f23	-0.035185944
166	0x3d5b3e0f	0.05352598
167	0xbd10ac7b	-0.03532074
168	0xbc5523bc	-0.013009008
169	0x3d9c7216	0.07638948
170	0x3d9cc98e	0.07655631
171	0x3c20124b	0.009769986
172	0x3c6b6449	0.014367172
173	0xbcf612eb	-0.030038318
174	0xbd0fa580	-0.035069942
175	0x3da6bd7b	0.08141609
176	0xbc744349	-0.01490862
177	0x3dacab30	0.08431089
178	0xbd649e4e	-0.055815034
179	0x3babd752	0.005244174
180	0x3d853a54	0.06505266
181	0x3c811abe	0.015759822
182	0x3c86f036	0.016471963
183	0x3ca2021b	0.019776395
184	0x3bb3a6b8	0.005482521
185	0x3c5568c7	0.013025469
186	0xbd1aad5b	-0.03776298
187	0xbdbfb6c8	-0.09361035
188	0xbdbd7593	-0.09250941
189	0xbd9cc805	-0.07655338
190	0xbd04bb2c	-0.032405064
191	0x3d62ea86	0.05539944
192	0x3caeb650	0.021327168
193	0x3d1c5da3	0.038175236
194	0x3d93e136	0.0722069
195	0xbd8c3610	-0.06846249
196	0x3d1da325	0.038485665
197	0xbd8f798b	-0.07005604
198	0x3d8dbb0f	0.06920444
199	0xbd91db2d	-0.071218826
200	0xbd3555a3	-0.044271123
201	0x3da395e3	0.07987573
202	0xbd0a2a53	-0.03373177
203	0x3c18da08	0.009329326
204	0x3da35dda	0.07976885
205	0xbcd2294f	-0.025654463
206	0xbdc16543	-0.09443142
207	0x3d889a1b	0.06670018
208	0xbce2cdf5	-0.027686099
209	0x3b16d1a7	0.0023013146
210	0x3db2ba99	0.08726997
211	0x3d91b9f9	0.071155496
212	0x3d767d48	0.06017807
213	0xbc51e480	-0.012810826
214	0x3d55e9b0	0.052224815
215	0x3d85bcc1	0.065301426
216	0x3d9265a8	0.07148296
217	0xbdc7837f	-0.09741878
218	0xbc90d81b	-0.017681172
219	0x3dbc8718	0.092054546
220	0xbce298c6	-0.027660739
221	0x3d230f04	0.039809242
222	0x3d56c19e	0.05243074
223	0xbe6ee080	-0.23327827
224	0x3de3a1ea	0.11114867
225	0xbd53e9cd	-0.05173664
226	0x3b881d7c	0.0041539054
227	0xbd44dc72	-0.048061796
228	0xbe0d2d98	-0.13786924
229	0xbdacb9ec	-0.08433899
230	0xbdb69915	-0.08915917
231	0x3e72ce57	0.23711525
232	0xbe730b61	-0.2373481
233	0x3ee58d10	0.44834185
234	0x3d611909	0.054955516
235	0x3e99cf68	0.3004105
236	0xbda36e63	-0.07980039
237	0x3dbef588	0.09324175
238	0x3e39895b	0.18118803
239	0xbd85f77d	-0.06541345
240	0xbbb8e244	-0.0056422073
241	0xbc8ecd6a	-0.017431933
242	0x3e27707c	0.16351503
243	0xbe3b5e4e	-0.18297693
244	0x3e28d1a5	0.16486223
245	0xbc088f77	-0.008334986
246	0xbc31041b	-0.0108042015
247	0x3de6f9a7	0.11278086
248	0x3dc0d5da	0.09415789
249	0x3e29444f	0.16529964
250	0x3bea129c	0.0071433317
251	0xbd5d6b17	-0.054057207
252	0xbc43c4d6	-0.011948785
253	0xbc9f3fcb	-0.019439599
254	0xbe47eac6	-0.19523153
255	0x3e203711	0.15646006

ode_func.net.4.bias f4 [3]
0	0x3bf14dfe	0.0073640337
1	0xbdb0ff4f	-0.08642446
2	0x3bbb6299	0.005718541
