checkpoint/ode_dopri5/pushing_1_steps_ode_dopri5_dynamics_model.pt (torch, 47574 bytes, 6 tensors)

ode_func.net.0.weight f4 [100, 6]
000000 9d fe 56 3e 87 43 9c 3e c4 d7 a7 be bd 82 be bd
       0.20995565 0.3052027 -0.32781804 -0.0930228
000010 e3 29 18 3e 4e a7 6e 3e b3 c1 b5 be 30 5d 90 bd
       0.14859729 0.23306009 -0.35499343 -0.07049024
000020 00 56 b6 3e 35 8e 34 3e e1 49 55 3e 8e 0b b3 3e
       0.35612488 0.17632373 0.20828964 0.34969753
000030 8f 79 c0 be 0e ab ba be 20 d2 0b be b9 ce 8e 3e
       -0.37592742 -0.3645863 -0.13654375 0.27892092
000040 f8 ba 90 3d cc 32 cb 3e a2 e4 a1 bd 69 48 16 3e
       0.070669115 0.39687192 -0.079049364 0.1467606
000050 4a f9 d0 be 1b 63 5a 3e f7 d2 2b be 8d c1 88 3d
       -0.40815192 0.21326868 -0.16779695 0.06677542
000060 74 d9 50 be 84 88 51 be 28 79 73 be 76 4a 79 be
       -0.20395452 -0.20462233 -0.23776686 -0.24344811
000070 06 e0 05 3f 55 fb 8f be 2b e4 35 3d d1 c2 71 be
       0.5229496 -0.2812144 0.04440705 -0.23609473
000080 c3 5f d1 3d 7e fb af be a2 b3 f3 bd 0f 51 b3 bc
       0.10223343 -0.3437156 -0.118994966 -0.021889238
000090 55 ed 8d 3e 5a 54 9f 3e ee f1 5f 3e ba d9 c1 3d
       0.27720132 0.31119043 0.21869633 0.09465356
0000a0 40 5b bf 3e 17 09 92 be f7 b4 12 bd 16 10 cc bd
       0.37374306 -0.2852256 -0.035817113 -0.09964006
0000b0 4b 4e 8b 3c 94 ff a5 3e c1 39 0c 3d 68 ac a5 3e
       0.017005106 0.32421553 0.034234766 0.32358098
0000c0 fc 7c 97 3e aa 20 ba bd 2a c4 e3 bc a5 e4 64 3e
       0.29587543 -0.090882614 -0.0278035 0.22352846
0000d0 a2 35 cd 3e fa 87 1d 3e 51 99 a4 3e 14 d1 08 be
       0.4007998 0.15383902 0.3214822 -0.13361007
0000e0 d4 c6 f6 be c4 f2 8f 3e a3 c3 47 be d1 bb 12 be
       -0.4819857 0.28114903 -0.19508223 -0.14329459
0000f0 cb 4e 2c 3d 79 f3 80 be 49 d6 ee 3c 6b a3 46 be
       0.04206733 -0.25185755 0.029154913 -0.19398277
000100 c6 ff 9d be 4a e6 07 3d 55 3e f5 3d 77 11 44 3d
       -0.30859202 0.033178605 0.119747795 0.04786822
000110 f5 56 7e 3e 77 80 98 3e 54 38 c1 3d ca a1 c0 be
       0.24837859 0.2978551 0.09434572 -0.37623435
000120 e5 44 71 3d 70 8b 8b 3e e4 29 05 3e ba ae 54 be
       0.058903594 0.2725482 0.13004261 -0.20769778
000130 96 03 87 be a4 64 55 be 4c cd c4 3e b1 b1 76 3d
       -0.26369923 -0.20839173 0.3843788 0.060228053
000140 e1 92 02 3e ed c6 03 be ef 4f db 3e 3c c2 a3 be
       0.12751342 -0.12868853 0.42834422 -0.31984127
000150 de 73 44 be 95 cd 0f bd 1a 4a 1f 3e e9 52 99 be
       -0.19184825 -0.035108168 0.15555611 -0.29946068
000160 b7 a6 c2 3e e3 5a 62 be 2b 03 24 bd fc ed 8f be
       0.38017818 -0.22104983 -0.040042084 -0.28111255
000170 52 94 9b 3e 54 58 82 3e 81 b3 f5 bd b9 90 6a 3e
       0.30386597 0.25458014 -0.11997128 0.2290677
000180 44 91 7d 3b ac 2d 54 3e 9c ad ed 3d f0 66 a7 3e
       0.0038691321 0.20720547 0.11605379 0.32695723
000190 44 ac 01 be 72 ac a7 3e 99 e3 f7 bc 02 d8 1e be
       -0.1266337 0.32748753 -0.030259894 -0.15512088
0001a0 4b e3 54 3e f9 2e 0b be 71 e3 4a be 83 0d 30 bd
       0.2078983 -0.13592137 -0.19813325 -0.042981636
0001b0 20 59 b9 bd af d1 9f be bb 79 64 3e 17 84 ba be
       -0.09050202 -0.31214663 0.22312061 -0.36428902
0001c0 d9 17 d9 3d a5 89 c0 be 2d c4 8c bb 81 bc 6c 3e
       0.10600252 -0.37605014 -0.004295847 0.23118784
0001d0 a9 4f 2d 3e a2 f4 ca 3d 2e 1f ac be 7d da 6f be
       0.16924919 0.09909941 -0.33617538 -0.2342319
0001e0 e6 24 c4 3d ee 5e 83 be c0 06 81 3e 8d 5c 84 3e
       0.0957735 -0.25658363 0.25200462 0.2585186
0001f0 69 6f bf 3e 3b 76 89 be e0 2c 9d 3c 3e 97 03 3e
       0.37389687 -0.26848015 0.019186437 0.12850663
000200 c1 f1 07 be b3 91 a0 be d5 eb 45 be 4c 77 42 be
       -0.13275816 -0.3136116 -0.19328244 -0.1899082
000210 80 8d b1 be e0 3f 9b 3e 98 0f a2 bd 7b d8 77 be
       -0.34678268 0.3032217 -0.079131305 -0.24203674
000220 47 e6 63 3e f4 9d c6 3e bb 99 dd bd e1 ef aa 3e
       0.22255813 0.38792384 -0.108203374 0.33386138
000230 33 3b 14 3e ef a2 42 be 91 f8 ab bd 64 fb e8 3d
       0.14475708 -0.19007467 -0.0839702 0.11376074
000240 7b a9 57 be 4c 71 38 bd 5e 48 44 3e 55 5f c0 be
       -0.21060745 -0.045029923 0.19168231 -0.37572733
000250 bc 3e 30 3e b5 11 8c be b9 ee 4b 3e 2e b4 89 3e
       0.17211431 -0.2735726 0.19915284 0.2689528
000260 98 0d b6 3e 2f 1a 32 be 69 b2 c3 3c 5d a4 4d 3e
       0.35557246 -0.17392801 0.023888784 0.20082231
000270 c5 2d c5 3d 7a 74 1e 3e 87 cd 08 bf c6 09 8e bc
       0.096278705 0.1547412 -0.5343861 -0.017338645
000280 8e 45 da bd 47 1a d9 3d 2e 6a b1 be 60 4f 66 3e
       -0.10657798 0.10600715 -0.3465132 0.22491217
000290 9e de cb 3d fe 3f 3b 3e 63 0b 0b be 7b fe 7b be
       0.0995457 0.1828613 -0.13578562 -0.24608795
0002a0 b7 f7 4b bd 60 c4 a6 3b 9f 09 2c 3e 5b cd 34 be
       -0.049796786 0.0050893277 0.16800545 -0.17656462
0002b0 26 04 59 3d 54 cc 16 be c3 58 3b 3e 7f 3d 89 be
       0.052982472 -0.14726382 0.18295579 -0.2680473
0002c0 4d da b6 be 03 ff e8 3d c4 90 d0 3e e4 be e3 3e
       -0.35713425 0.113767646 0.40735447 0.44481575
0002d0 75 57 53 be 15 da 82 be 1e ae dd be 7e 50 b1 3d
       -0.20638831 -0.25557008 -0.43296903 0.08657931
0002e0 14 3d 88 3d 77 7c 07 3e 35 87 65 3e 5e 74 ae 3e
       0.06652275 0.13231073 0.22414859 0.34073156
0002f0 6c 44 aa 3e b8 1d 93 be 52 bd 95 3e 88 4d a1 3e
       0.33255327 -0.2873361 0.29246002 0.31504464
000300 9b d9 3c 3e 03 81 62 be de 2d 61 be 1c ce 38 3e
       0.18442385 -0.22119527 -0.21990153 0.18047374
000310 8c 71 61 bd 06 99 c2 bc 44 f8 c6 bd 3c a4 9c be
       -0.055039927 -0.023754608 -0.09715322 -0.3059405
000320 51 e8 2e bc 80 1d c5 be c4 4f 79 3e c0 70 c6 3e
       -0.010675506 -0.3849907 0.24346834 0.38757896
000330 ee ab f4 bd 87 6f fc bd df 15 b7 3e 7b 4f ff 3c
       -0.119468555 -0.1232596 0.35758874 0.031165829
000340 9d 35 6e bd ac 61 82 3e 41 f1 bf bd c8 95 8c 3e
       -0.0581566 0.25465143 -0.093721874 0.27458024
000350 bd aa 47 3e 7f d1 df 3e 22 87 ca 3e bd b8 c2 bd
       0.19498725 0.4371452 0.39556223 -0.09507892
000360 c5 b0 33 3e 3d 08 c6 be 1d fd 81 be 2c 1f 88 3e
       0.17547901 -0.3867816 -0.25388423 0.26586282
000370 9c dc aa be 36 21 8c bd 2b 3b 36 be 53 ed 05 3e
       -0.33371437 -0.06842272 -0.17796008 0.13078813
000380 07 6f 5c be 3a 59 a0 3e 83 96 17 3e fa 9c 06 3d
       -0.21526729 0.31318074 0.1480351 0.03286455
000390 26 3a 86 3e 37 a5 47 3e 35 01 e0 3c f9 ec d6 3b
       0.2621624 0.19496618 0.027344326 0.006559011
0003a0 db ae b1 3e f1 94 9f 3d 9a 70 16 3e 25 bb b1 bd
       0.34703717 0.0779208 0.14691392 -0.08678273
0003b0 27 ce c0 3d d7 26 c3 3e 56 86 49 be 87 e7 6b 3e
       0.094143204 0.3811557 -0.19680151 0.2303754
0003c0 4f d7 77 be 69 7d b1 bc df 91 be bc 4b 42 cc 3c
       -0.24203227 -0.021666246 -0.023262916 0.024933955
0003d0 7e 33 11 bc dc 6b 47 3e 5d be cc 3e dc 36 9b bd
       -0.008862374 0.19474739 0.39988986 -0.07578823
0003e0 89 3d 83 be f2 cc 9e 3e 60 4d 91 be ea 73 a2 3d
       -0.25632885 0.31015736 -0.28379345 0.07932265
0003f0 ee 2d ff 3d 8b e1 cc be ad 73 de 3d 22 de c3 3d
       0.12459932 -0.40015826 0.10861907 0.09563853

ode_func.net.0.bias f4 [100]
000000 f6 13 8a 3e 3c 96 5b 3e 08 c5 22 3e 82 4d 1f bd
       0.26968354 0.21444029 0.15895474 -0.038892277
000010 5c 20 a9 3e 16 5b 6c 3e 30 57 a6 bd 21 62 cc 3e
       0.330325 0.23081622 -0.081220984 0.39918616
000020 72 62 1b bd 17 7b 71 3d b7 cc 97 be 4e 74 7f 3e
       -0.03793568 0.05895528 -0.29648373 0.2494671
000030 b0 19 8e 3e 28 8c f2 3d a0 f3 26 be 2b 5b 10 be
       0.27753973 0.11843139 -0.16303873 -0.14097278
000040 8c 5e aa 3d 4e fb 77 be 05 06 89 3e 76 5c 00 3e
       0.08318815 -0.24216959 0.26762405 0.12535271
000050 99 2b f1 bc 53 50 92 3e 03 dc 5f be 40 90 9d 3c
       -0.029439734 0.28576908 -0.21861272 0.019233823
000060 fa 58 05 be 04 d1 e7 bd ff ef 41 bd 9d 6a 9f be
       -0.13022223 -0.113191634 -0.04734802 -0.31136027
000070 20 99 e1 3d 43 f5 8b be c0 cc f7 3d 97 8e 6e be
       0.110155344 -0.27335557 0.120996 -0.23296581
000080 f3 1a 65 bd f4 c8 ce 3e 33 2a b8 3c 90 e8 d5 be
       -0.055933904 0.4038769 0.02248106 -0.41778994
000090 b6 0c 27 3e 24 a3 d5 3e 48 b0 a3 be 31 cc 71 3e
       0.16313443 0.4172603 -0.3197043 0.23613049
0000a0 0b b9 51 3d 51 30 3e 3e 63 62 38 bb 47 3f 0e 3e
       0.05120186 0.18573119 -0.0028134815 0.13891326
0000b0 a5 b2 c9 3e 3b 7b 88 be a3 67 c6 be f1 3d 99 be
       0.39394107 -0.26656517 -0.38750944 -0.2993007
0000c0 5e 5d a9 3d d9 43 aa bd 1c 6c 56 3e 69 73 a8 3e
       0.082697615 -0.08313722 0.20939678 0.3290055
0000d0 4b c5 a6 3e cf 67 49 3e b3 39 a1 bd c4 e1 7f be
       0.32572398 0.19668506 -0.078723334 -0.24988467
0000e0 1c fc a1 3c 60 ae 96 3e 47 8b a8 be 88 df 0e 3e
       0.019773535 0.29429913 -0.3291876 0.13952458
0000f0 6f 16 cb be d2 85 53 3e ff 64 30 3e 57 47 98 be
       -0.39665553 0.20656517 0.17226027 -0.29741928
000100 d7 30 b9 3e 31 47 d4 bd 4d 22 3a 3d a9 75 d5 bd
       0.36170074 -0.10365141 0.045442868 -0.104228325
000110 c3 30 8e 3e 91 5f 89 be ea 7c dc bd d5 35 e8 3d
       0.27771577 -0.26830724 -0.10766013 0.11338393
000120 21 0d 33 be 52 2f b3 3e b1 9c 76 be 56 4e d0 be
       -0.17485477 0.3499704 -0.2408321 -0.40684766
000130 eb 1f 12 be 0d 77 bc 3e 68 db 0d be 6b 70 d3 3e
       -0.14269988 0.3680958 -0.13853228 0.41296706
000140 c6 03 7e be b6 cc 99 3d 28 d6 9f 3e 3d d7 0a 3e
       -0.24806127 0.07509749 0.31218076 0.1355867
000150 2a a2 aa 3e 88 8e 4e be 66 22 e5 bd c3 e0 b3 3c
       0.33326846 -0.20171559 -0.111882016 0.02195776
000160 70 94 3f bd 15 5e e8 bd 9d 10 66 3e 8f 82 11 3e
       -0.04677242 -0.1134607 0.22467275 0.1420996
000170 a4 97 aa be eb 27 ec 3d 39 da aa bc d4 d7 8f 3e
       -0.33318818 0.11531051 -0.02085601 0.2809435
000180 7f 75 c8 bd 1a 22 14 be 17 ca 80 3e d8 8d c9 3d
       -0.097880356 -0.14466134 0.25154182 0.09841508

ode_func.net.2.weight f4 [100, 100]
000000 9f c2 84 bd 1f 30 ad 3d ae 40 bb 3d 7f 79 c0 3d
       -0.064824335 0.08456444 0.09143196 0.093981735
000010 b2 b6 91 bd 52 6c c5 bd 75 23 41 3d 6b ae a4 bd
       -0.071149245 -0.09639801 0.047152955 -0.0804108
000020 ed 20 bb 3b 58 17 74 bd 65 5b 7b 3d 0e 62 a8 bd
       0.005710712 -0.059592575 0.061366457 -0.082218274
000030 2b ce c7 3c be 25 cb bc 50 79 b4 bd 7f dc 98 3d
       0.0243903 -0.02479827 -0.08812201 0.07463931
000040 75 96 98 3d 2a d9 34 3d 97 86 95 bd f3 39 e7 bd
       0.074505724 0.044152416 -0.073010616 -0.1129035
000050 10 5e 91 bd 86 d0 d5 bd 93 de d9 3c 0d b5 0c bd
       -0.07098019 -0.10440163 0.02659539 -0.03435235
000060 f2 05 ad 3d d4 ba 9f 3d f4 90 bc 3d 1a 8b dc bc
       0.084483996 0.077993065 0.09207335 -0.026921798
000070 c3 a3 f1 bc dc d5 91 bd 37 f1 be bc 04 7c bd 3d
       -0.029497033 -0.071208686 -0.02330838 0.0925217
000080 dc 98 5f 3d cb 29 cc bd e6 ea 2d bb 75 0f 9c bd
       0.054589137 -0.09968909 -0.0026537715 -0.07620136
000090 2a 79 a0 3c 0e dd d0 3d 0f 5d 3d 3d 37 8d c5 bd
       0.019589026 0.10198413 0.046231326 -0.09646075
0000a0 d8 a8 88 3c 52 bb 24 3d db 50 85 3d bd ec 10 3d
       0.016682073 0.040217705 0.065095626 0.03538202
0000b0 d1 07 7d 3b 47 da 3a bc 85 c9 8a bc 69 8f aa bd
       0.0038609395 -0.01140458 -0.016941795 -0.083281346
0000c0 d0 69 20 bd fc c3 18 3d 38 6d 95 3d aa 4f bb bd
       -0.03916341 0.03729628 0.072962224 -0.09146054
0000d0 2c 92 d4 bc 44 d8 fb bc 10 04 b7 bc 18 76 39 3e
       -0.025948606 -0.030742772 -0.022340804 0.18111455
0000e0 1c 4a b7 bd fb 28 17 3d c5 31 61 bd 4d cc 50 bd
       -0.08949682 0.036904316 -0.054979105 -0.050976086
0000f0 e0 b8 c8 3d 4c cf 0f bc ab 02 b9 3c 49 eb 03 bd
       0.09800887 -0.008777451 0.02258428 -0.032206807
000100 d0 47 b9 bd d2 df de bc 19 e1 0e 3d 9d 34 b2 bd
       -0.090469 -0.027206335 0.03488264 -0.087014414
000110 47 9e 3c 3d 9a 4e 36 3c d4 5e 87 bd b4 09 0b bc
       0.046049383 0.0111271385 -0.06609884 -0.0084862
000120 aa 4e dc bd b9 1b bc 3a 71 da 7a bd 8d d2 7b bc
       -0.107571915 0.0014351524 -0.06124348 -0.015370023
000130 35 13 60 bd 14 9d 51 bd b2 32 9a 3c fe 7d 82 3d
       -0.054705817 -0.051175192 0.018823002 0.06371687
000140 b6 a6 d1 3d 67 42 86 3b 28 e6 a9 3d 6b 57 6e 3d
       0.10236876 0.0040972712 0.08295852 0.058188837
000150 9a fb 39 3c b5 82 ca 3d 27 2b 81 3d 96 d8 07 bd
       0.01135149 0.09888212 0.06307059 -0.033165537
000160 90 f3 41 3d 26 78 2b 3d d7 5b 08 bd f0 b4 b0 3d
       0.04735142 0.04186263 -0.03329071 0.08628261
000170 83 52 bf 3d 1d 95 9d bd da 71 4a 3d db ce 85 bd
       0.0934191 -0.07694457 0.049424984 -0.06533595
000180 c9 1e 4e bc 7c aa 29 bd 3f bb 7a bd 29 c1 17 bd
       -0.012580582 -0.041422352 -0.061213728 -0.037049446
000190 cd bd bf 3d 27 09 ba bc 9e 64 bb bd 41 df 84 bc
       0.093623735 -0.022709442 -0.091500506 -0.016219737
0001a0 f9 8b aa bd 04 db b1 3c f1 08 11 3d e0 07 d9 3c
       -0.08327479 0.02171088 0.035408918 0.026493013
0001b0 d0 63 88 3d e5 af 5d 3c 80 1d 18 3d 16 b9 54 3d
       0.06659663 0.013530706 0.03713751 0.051934324
0001c0 ec e7 ad bd 53 59 a8 bd cf 83 9b 3d 1f ef df bc
       -0.08491501 -0.08220162 0.075935 -0.027335702
0001d0 95 f9 71 bd 96 f5 92 3d bd a8 92 bd 52 2e 01 bd
       -0.05907591 0.07175748 -0.071610905 -0.031538315
0001e0 86 0b 99 3d 6a e6 9b 3c da 8f b6 bc a0 d3 a9 bc
       0.07472901 0.019030768 -0.02228539 -0.020730793
0001f0 09 53 c7 3c 15 f4 3a 3c db cd 88 3d a0 1f 93 bd
       0.024331586 0.011410733 0.06679889 -0.07183766
000200 33 b4 82 bd 86 94 60 bb c4 b7 2a bd bf 3d b3 3c
       -0.063820265 -0.0034268214 -0.04167916 0.021880029
000210 83 38 98 3d 27 b7 a1 bd 57 08 0d 3c bc 12 b9 bd
       0.07432654 -0.07896262 0.008607945 -0.090367764
000220 a0 0d 84 3d 15 98 5c 3d 7a 96 b8 bd b0 89 ce 3b
       0.06447911 0.053855974 -0.09013076 0.0063030347
000230 07 95 02 3d 99 14 24 3d 65 0e b7 bc 7d a6 89 bd
       0.031880405 0.040058706 -0.022345731 -0.06721208
000240 0f 4e c6 3d 63 aa b9 3d 3e 3e 8d 3c df a2 5b 3d
       0.09682857 0.09065702 0.017241593 0.053622123
000250 e3 0e cc bb 41 67 b3 3d a6 15 b0 bd 83 7c 87 bd
       -0.0062273606 0.087599285 -0.08597879 -0.066155456
000260 ca 54 8e bd 43 fc 8d 3d f9 1d 19 3d 06 56 82 bd
       -0.06949766 0.06932881 0.0373821 -0.06364064
000270 ad 0b 8f bd e6 c0 94 bc 34 68 a2 bd 5a 59 8c bd
       -0.06984649 -0.018158387 -0.079300314 -0.0685298
000280 fc 6f c1 3d 44 1b 0a bd 64 67 98 3d f1 e5 ac 3d
       0.094451874 -0.03371741 0.07441595 0.08442295
000290 57 4e 65 3c d1 92 01 3b bd d3 a0 bb 8a 60 6a bd
       0.013995728 0.0019771347 -0.0049080537 -0.057220973
0002a0 75 f9 7a bd 32 d5 c9 bd f3 b9 bd bd 3d 7b 0d 3d
       -0.061273057 -0.09855117 -0.092639826 0.034541357
0002b0 c9 f7 34 bd 1c 35 ab bc 28 16 ec bc e8 9d 99 3d
       -0.04418162 -0.020899348 -0.028819159 0.07500821
0002c0 0c 5a 8a bd e7 56 77 3d 1b 17 18 bd b4 ab 7f 3d
       -0.06755456 0.06038561 -0.03713141 0.06241961
0002d0 1d 98 8a bd 78 19 af 3d 53 f6 da 3a 14 b5 2c 3d
       -0.067672946 0.0854978 0.001670549 0.042164877
0002e0 a6 f9 5f bc f3 f2 b1 3d 2f 50 71 3d 65 df 50 bc
       -0.013670361 0.08688917 0.05891436 -0.012748574
0002f0 86 65 3b 3d 6d 0d ad bd 6b ef 2e bd e0 53 9e bb
       0.045751117 -0.084498264 -0.042708796 -0.004831776
000300 83 8c 60 bc ef 08 96 bd e5 49 c4 bd 79 bb 63 bc
       -0.013705376 -0.07325923 -0.09584407 -0.013899677
000310 a6 a0 85 3c 04 b2 0b bb 30 09 66 3d a5 ac 15 3d
       0.016311955 -0.0021315822 0.056161106 0.0365416
000320 7c 80 c6 3d f2 08 bc bd 9d 51 2c bd a5 d2 97 3d
       0.09692475 -0.09181394 -0.04207002 0.07413224
000330 f4 35 04 be a7 db 97 bd 0f a8 a0 bd e0 68 99 bd
       -0.12911206 -0.07414942 -0.07844555 -0.074907064
000340 ee eb 8d bc e4 4b 35 3d 28 fd 27 3d cc 59 24 bd
       -0.017324414 0.044261828 0.041012913 -0.0401247
000350 95 d3 49 bd 3a ca d7 bd fc 6b dd 3a 70 c8 a2 3b
       -0.049274046 -0.105366185 0.0016893144 0.0049677417
000360 d5 77 ca 3c d2 3d 18 3d 38 b1 00 3d 97 71 a4 bd
       0.024715343 0.03716833 0.03141901 -0.08029478
000370 ba c5 aa 3d 08 e2 8b 3c 09 ec 96 3d 79 83 dc bc
       0.083384946 0.017075554 0.07369239 -0.02691816
000380 fc a3 37 bd 34 80 98 bd 73 7a 49 3e ba 3b f0 3c
       -0.044834122 -0.07446328 0.19675617 0.029325355
000390 af 8e 97 39 37 37 2e 3d 9e df 7d 3e ba b4 cf bd
       0.00028907272 0.042533126 0.24792334 -0.10141893
0003a0 9d 17 a7 3d 9e fc c5 3c 1b c6 87 3a 9d 4a fc 3b
       0.08158801 0.024168309 0.0010358723 0.0076993243
0003b0 21 28 60 bd 1a 0d 98 bd a5 5c 0f be 44 d9 a2 bd
       -0.05472577 -0.07424374 -0.14000185 -0.079515964
0003c0 97 87 95 bd f4 32 0d 3c bd 5e 96 bd c6 b7 70 3d
       -0.07301252 0.008618105 -0.07342289 0.05876901
0003d0 d3 39 de 3d 6e 57 6b 3d 63 08 39 bd 6d da ab bc
       0.10850873 0.057456426 -0.045174014 -0.020978177
0003e0 59 4b bf 3d 2a d4 11 bc ce 15 8e 3d 33 42 61 bd
       0.09340543 -0.0089006815 0.06937753 -0.054994773
0003f0 15 93 a3 bd f4 b6 f7 bc e5 96 38 3d 21 ce b7 3d
       -0.07987038 -0.030238606 0.04506578 0.08974863

ode_func.net.2.bias f4 [100]
000000 a0 8a 99 3d 66 ad c8 3d 02 15 b3 3d 22 f2 93 3c
       0.07497144 0.09798698 0.08744241 0.018059794
000010 4d fb 2e 3d 40 82 80 3d ec 13 a5 3c 46 22 9a 3d
       0.042720128 0.06274843 0.020151101 0.075260684
000020 01 61 01 3d 04 d2 cd bd 99 22 9d bd ba d6 2e 3c
       0.03158665 -0.10049823 -0.076726146 0.010671312
000030 40 b0 02 3d 90 bb 68 bd 91 c0 ae bc ba 79 81 bd
       0.031906366 -0.0568195 -0.021332057 -0.063220456
000040 be 90 60 3d 0b 69 a7 3d db a9 26 3d 9f b3 65 3d
       0.054825537 0.08174332 0.04068933 0.056079503
000050 e3 fb 8e 3b 7c 34 f4 bc 34 bd 88 bd d6 fa cf 3c
       0.0043635233 -0.029810183 -0.06676713 0.025388163
000060 5e d2 11 bd 9a 47 07 bd 94 1e 21 bc 43 e4 8f bd
       -0.035601012 -0.03302727 -0.009833951 -0.07025959
000070 28 7a 57 3d 67 71 be 3c 20 3b 0c 3d bb 65 be 3d
       0.05260673 0.023247434 0.034236073 0.09296747
000080 5d 77 8d 3d 1f 95 7a 3c 19 1b 76 bd f6 57 a7 bd
       0.06907532 0.015294342 -0.060084436 -0.08171074
000090 14 15 b7 bd 95 f1 b2 bd 40 4e 8e bd ce 15 56 bd
       -0.08939567 -0.08737484 -0.06948519 -0.05226689
0000a0 8f 1e 8e bd 2d 10 46 3d 8b 18 4e 3d 2d 7b 01 3e
       -0.06939422 0.04835527 0.050316375 0.12644644
0000b0 16 11 91 3d 18 59 64 3d 78 58 d0 3d 24 1b a1 3d
       0.07083337 0.05574903 0.10173124 0.07866505
0000c0 1f 7f d1 3d ad 04 95 3d a5 f3 00 3d 79 ae b0 3d
       0.102293245 0.072762825 0.031482358 0.08627028
0000d0 ef ca 25 bc 1d f5 5d 3d 55 97 e3 3c a3 98 be bd
       -0.010119184 0.054188836 0.027782122 -0.09306457
0000e0 6a 50 e8 3c 1a 09 c1 bd 45 1e 41 3d fc 22 7a bd
       0.028358657 -0.09425564 0.047148008 -0.06106852
0000f0 03 69 d4 3c 20 5e 9f 3d f3 a5 8d 3d 5e 3c d8 bc
       0.02592898 0.07781625 0.06916418 -0.026395973
000100 c0 d9 41 3d d7 ab 93 bc 76 65 3c 3d 03 b5 bb 3d
       0.047326803 -0.018026276 0.0459952 0.091653846
000110 82 f5 ca 3d bf 33 99 3d 44 0d 05 bc 56 5b 88 3d
       0.09910108 0.07480573 -0.008120839 0.06658046
000120 72 54 a2 bc 63 7b 12 bd 0b 2d 9d bd 2d 57 b9 3d
       -0.019815657 -0.035762202 -0.07674607 0.090498306
000130 de 78 b2 3d 57 c5 f2 3b 8b 54 fe 3c 65 ed 71 bd
       0.0871446 0.0074087786 0.031046173 -0.059064288
000140 4f e7 8b bc be e1 97 3d 09 6b 91 bd 29 2a 31 3d
       -0.01707807 0.07416104 -0.071004935 0.043253098
000150 77 0d a5 3d ae 35 6e 3d 4f 7c 40 3b dd 70 ae bd
       0.08059209 0.05815666 0.0029370969 -0.08517621
000160 e2 36 8c bd ad bd c8 bd 32 1f 9a bd 2d bd e6 3c
       -0.068464056 -0.09801803 -0.07525481 0.028166378
000170 cd d6 cd 3c 17 31 ee bc 85 58 47 3d a9 37 91 3d
       0.025126839 -0.029076142 0.048668403 0.070906945
000180 fd ac 82 3c 8c e1 25 3c 16 a1 de 3d c9 6c a1 bd
       0.015951628 0.010124575 0.108705685 -0.07882077

ode_func.net.4.weight f4 [3, 100]
000000 6f e2 b4 bd 53 1c 9c 3d 50 a7 57 3d ed a1 8e 3c
       -0.08832251 0.0762259 0.052649796 0.017411197
000010 27 46 c0 bd c9 2c a0 3d c0 9e e0 3b 22 44 8d bc
       -0.093883805 0.07821042 0.006854862 -0.017244402
000020 dd af 37 bd 68 7c b2 bd df b7 f2 bd f6 ec 89 3d
       -0.04484545 -0.08715135 -0.11851477 0.0673465
000030 db 45 dd 3c 69 d5 b4 bb 0a 52 de 3c 60 b9 44 3d
       0.027010849 -0.0055186045 0.027138729 0.04802835
000040 2c 26 1f 3c 60 76 10 3d a3 35 d1 3c 31 77 00 bd
       0.009713691 0.03526914 0.025538271 -0.03136367
000050 83 e2 94 bc 2a a4 c2 3d d1 02 80 3d d0 a1 9e bd
       -0.018174415 0.09503968 0.06250537 -0.07745707
000060 7c d9 0b bd f2 b3 9e bd 75 4d 41 bc 50 9c c6 3d
       -0.034142956 -0.077491656 -0.011798252 0.09697783
000070 50 8f c5 bd 3b e5 b5 3d eb e7 19 3d 27 0d 9a 3d
       -0.09646475 0.08881613 0.03757469 0.0752204
000080 1b d2 ab bd 47 7f 6f 3d 17 b8 b4 bd c1 65 c5 bb
       -0.08389684 0.05847099 -0.08824175 -0.006024093
000090 e3 f5 1d 3d e5 13 91 bd c9 0f 4c 3d 3d 26 17 bd
       0.038564574 -0.07083873 0.04981974 -0.0369017
0000a0 0b 64 89 3d a3 e4 7c bd 68 41 2d bc 5e b3 99 3d
       0.06708535 -0.061741482 -0.010574676 0.07504915
0000b0 31 d2 75 3d 0d 0e cc bd 0c 70 44 3d 9c b0 ad bd
       0.060014907 -0.099636175 0.04795842 -0.08480951
0000c0 50 5b 07 bc 01 3f 0b bd 04 36 b1 bd 98 a7 ac 3d
       -0.008261517 -0.033995632 -0.08652881 0.084304035
0000d0 da ee a7 bc 58 c0 b9 3c b9 8f 66 3d f1 c3 b0 bd
       -0.020499635 0.022674724 0.05628941 -0.08631123
0000e0 b1 6f 55 3d 05 df bd 3d 74 0a b9 3d 08 2c 67 3c
       0.05210847 0.09271053 0.09035197 0.014109619
0000f0 45 0d 58 3d 32 97 46 3d 88 98 7f 3d be 3a 4b 3d
       0.05274703 0.048484035 0.062401325 0.049616568
000100 2e 35 9d bd 11 3f 74 bd 91 99 16 3d 67 1a 93 bd
       -0.07676159 -0.059630457 0.036767546 -0.0718277
000110 2b a7 27 bd 12 ff 93 3d dc ba c7 3c 27 5c 1e 3d
       -0.04093091 0.07226385 0.024381094 0.038662102
000120 00 a8 b2 3d af 30 d8 ba bc 35 84 3d 1c 14 89 bd
       0.0872345 -0.0016494001 0.064555615 -0.06693289
000130 7a da cd 3c 6d e9 a5 3d 50 ff 06 bd 78 11 84 bd
       0.025128592 0.08101163 -0.03295833 -0.064486444
000140 bc 1d 14 bd 99 dd 6b 3d b3 39 2b bd 57 98 7b 3d
       -0.03616117 0.05758438 -0.041803073 0.06142458
000150 b8 39 bd bd 08 5e d4 3a 40 ab 1c bc 2f db 82 3d
       -0.092395246 0.001620234 -0.009562314 0.06389462
000160 54 80 65 bd 6f 41 c3 3a cd 64 a3 3a cd c8 34 3c
       -0.056030586 0.001489682 0.0012465954 0.011034203
000170 49 9a 83 bd 86 c9 b0 bd b0 16 80 bc 4e 8c 8e ba
       -0.06425912 -0.086321875 -0.015635818 -0.0010875554
000180 b9 3d 9e bd c9 ad 20 3d 16 a9 7d 3c b3 47 e7 bd
       -0.077266164 0.039228234 0.015482208 -0.112929724
000190 df ec 6e bd f2 7c a0 bd ee b7 8c bb 31 bf eb 3c
       -0.058331367 -0.078363314 -0.004294387 0.02877769
0001a0 39 19 d6 3b 9f ef 40 bd fe 2f 12 3a 8b 30 16 bd
       0.0065337685 -0.04710352 0.00055766094 -0.036667388
0001b0 14 59 62 3c 14 e4 76 bd 01 03 f2 3c cc 7f 8d 3c
       0.013815183 -0.060276106 0.029542448 0.017272852
0001c0 cb 84 d8 3c 78 fb 63 3d b5 68 66 bd c1 77 37 bd
       0.026430508 0.05565974 -0.0562522 -0.04479194
0001d0 c4 d5 b2 bc bc 56 95 3d 62 7f 83 3d 0b 15 6b bd
       -0.021830447 0.07291934 0.06420781 -0.057393115
0001e0 2d 49 c0 3d cd 2b 37 bd 51 0d a7 3c e0 e1 2c bd
       0.09388957 -0.044719506 0.020392092 -0.0422076
0001f0 99 e0 9a bd 44 8f bf bd 6d c1 f1 bb f7 93 16 3d
       -0.0756237 -0.093534976 -0.0073777945 0.036762204
000200 9e a8 81 bd c4 36 e7 3b be 52 c5 bc c3 53 9b 3d
       -0.06330989 0.007056089 -0.024087306 0.07584336
000210 e3 01 ac bd 76 50 cb bc 5c 98 02 bd 93 55 99 3d
       -0.08398797 -0.02481864 -0.031883582 0.07487025
000220 f7 dc 95 3d 27 74 1f bc 2e 87 93 3d 0d 40 0a bd
       0.07317536 -0.009732283 0.07203518 -0.03375249
000230 12 e8 a1 bd 96 0f bc bd ae 15 e7 bc d0 59 a6 bd
       -0.07905592 -0.0918266 -0.02820858 -0.08122599
000240 93 75 de 3c 3c 19 a3 bc 15 47 97 bd 15 2a 2f 3d
       0.027155673 -0.019909494 -0.07386605 0.042764742
000250 e4 df 4b bd d6 b6 84 bd 2c ec 81 bd ce e4 1f bc
       -0.049774066 -0.06480186 -0.06343874 -0.009759141
000260 29 c2 83 bb 0b d3 57 bd ff 5f a1 bd d1 a7 ad bc
       -0.0040209484 -0.0526915 -0.07879638 -0.021198185
000270 01 c9 87 bc 2e 64 70 3d ba 2d be 3d 43 be 4e 3c
       -0.016575338 0.05868929 0.092860654 0.012618604
000280 28 5b 2a 3d 0a ec 1a 3d f2 82 c3 3d 01 7a ac bd
       0.04159084 0.03782276 0.0954646 -0.08421708
000290 23 3a c8 3b 04 84 be 3d c0 5b 90 3c cf e2 a8 3d
       0.006110446 0.09302524 0.017621875 0.08246385
0002a0 2b cb 88 3d aa 06 b7 bd 14 8a b1 3d ed b4 a8 3d
       0.06679376 -0.08936818 0.086689144 0.08237634
0002b0 ee 4a 95 bd c9 f7 97 3c da 63 ca 3c d1 0b a1 bd
       -0.07289682 0.01855077 0.024705816 -0.07863582
0002c0 d9 c0 90 3d 18 f9 8f 3d c9 26 d1 3c b1 74 82 3c
       0.07068033 0.07029933 0.02553119 0.015924783
0002d0 51 8a 95 39 b7 e6 c2 bb e2 7e 94 3d d9 aa a8 3c
       0.00028522548 -0.0059479135 0.072507635 0.020589279
0002e0 a2 43 2c bc b8 2b 88 bd 07 29 aa bd 2c 26 23 3d
       -0.010514172 -0.06648964 -0.083086066 0.039831325
0002f0 72 9a 55 3c 6f e4 c1 bc 05 46 80 bd 32 19 7e 3c
       0.013037311 -0.023668496 -0.06263355 0.015508937
000300 3f 1c 18 bd 9b ba 47 3d fe 30 b4 bc e2 91 dc 3c
       -0.037136313 0.048761945 -0.021996018 0.026925031
000310 20 33 88 bd f2 af 60 3d b1 2f 2b 3d b9 1d 95 bd
       -0.06650376 0.054855295 0.04179353 -0.0728106
000320 36 00 bc bd 02 e1 c0 bd 8a 6d 40 3e 2d 03 82 be
       -0.09179728 -0.09417917 0.18791786 -0.25393048
000330 9b 5d e4 3d af 0b 6e bd 02 79 3d be 87 7b 1f 3e
       0.11150666 -0.05811661 -0.18503192 0.15574466
000340 70 50 18 3e 6d d6 22 bc c3 18 57 3e d6 fd bc 3c
       0.14874434 -0.009938818 0.2100554 0.023070257
000350 5c 16 23 bd 17 ea 9c bd 4e 06 57 bd 34 76 53 3e
       -0.039816245 -0.076618366 -0.052496247 0.2065056
000360 65 38 c4 be 5c a2 82 be ca 2a c1 3d b3 ba 36 3d
       -0.38324276 -0.25514495 0.094319895 0.044611644
000370 5e 95 03 3d 92 ab 83 3e 84 f5 fb bd bd 5d d7 bd
       0.03212487 0.25716835 -0.12302688 -0.10515926
000380 a5 ce 71 3d f3 e1 8f 3d 24 7a 8a 3e 80 9d a3 bc
       0.059034962 0.07025518 0.2704631 -0.019972563
000390 00 b7 a5 bd cf d9 90 bd 02 5d ce 3e 84 bf 1e 3d
       -0.08091545 -0.07072794 0.40305334 0.038756862
0003a0 a7 2e 8f bd 4b 92 93 be dd 5d 50 3e e6 40 8e 3b
       -0.0699132 -0.2882255 0.20348306 0.0043412326
0003b0 67 4f d9 bd aa 56 18 bd 6c f2 5b 3d 0b 18 81 be
       -0.10610848 -0.037192024 0.05369799 -0.25213656
0003c0 77 af 04 3e a1 df 9e bd 6e 6a cc 3c 0a 24 82 be
       0.1295756 -0.077574976 0.024953093 -0.2541812
0003d0 43 97 f2 3b d0 b7 59 be 73 04 cd 3d 63 fa bd bd
       0.0074032857 -0.21261525 0.10010614 -0.09276273
0003e0 3e bc 3d 3e 15 7c 45 3b 8e a5 ed 3d 9c 95 16 3e
       0.1852884 0.0030133773 0.11603843 0.14705509
0003f0 d4 15 63 be c2 95 24 3e 26 b0 54 bd 71 de 5f 3e
       -0.22176296 0.16072753 -0.0519258 0.21862198

ode_func.net.4.bias f4 [3]
000000 3c 50 5a bd 93 d8 68 3d f1 fb ae bd
       -0.053299174 0.056847166 -0.08544148
