checkpoint/ode_dopri5/pushing_2_steps_ode_dopri5_dynamics_model.pt (torch, 47574 bytes, 6 tensors)

ode_func.net.0.weight f4 [100, 6]
0	0x38d3ee9f	0.00010105711
1	0x3c9dfec3	0.019286519
2	0xbf083fd3	-0.5322239
3	0xbd17b14a	-0.03703431
4	0xbe227907	-0.15866481
5	0xbe23672c	-0.15957326
6	0x3ec126e2	0.37724978
7	0xbe05015f	-0.12988804
8	0x3ea9c26f	0.33156154
9	0x3d3cf5a0	0.046132684
10	0xbec1e8a0	-0.3787279
11	0x3d286b2c	0.041117832
12	0x3e3e90f7	0.18609987
13	0xbeead01b	-0.45861897
14	0x3dcc9d94	0.09990993
15	0xbd996872	-0.074906245
16	0xbec2006a	-0.3789094
17	0xbe89afce	-0.2689194
18	0x3ddd8037	0.10815471
19	0xbd25ed05	-0.040509243
20	0x3e2cf9e4	0.168922
21	0xbe7d5958	-0.24741113
22	0x3eba5dc0	0.3639965
23	0x3e8c0605	0.27348343
24	0x3b86458e	0.004097647
25	0xbe64e35f	-0.2235236
26	0xbe792f8e	-0.24334547
27	0xbeb621c6	-0.35572642
28	0x3ea46a94	0.32112563
29	0xbe1944f2	-0.14967707
30	0xbe0f26db	-0.13979666
31	0x3ec684aa	0.3877309
32	0xbe849002	-0.2589112
33	0xbe8d9847	-0.2765524
34	0x3e0b4622	0.13600972
35	0xbe96a3eb	-0.29421934
36	0x3e95a437	0.29226848
37	0x3e09a221	0.13440754
38	0x3ec950d1	0.3931947
39	0xbe211b9b	-0.15733187
40	0xbdb283aa	-0.08716519
41	0x3e019075	0.12652762
42	0x3ec6aef4	0.38805354
43	0x3e6e0e19	0.23247565
44	0xbecbf42e	-0.39834732
45	0x3e4a25a9	0.19740929
46	0xbe7ee76d	-0.2489297
47	0x3daacf9d	0.0834038
48	0x3d12d5ac	0.035848305
49	0xbed18699	-0.40923002
50	0x3db2a20d	0.08722315
51	0x3e0ef863	0.1396194
52	0x3e7628e5	0.24039038
53	0xbe6b76b6	-0.22994503
54	0x3dbfd221	0.09366251
55	0xbd86e677	-0.065869264
56	0xbe95f5f1	-0.292892
57	0xbe75e869	-0.24014439
58	0x3e8c9f02	0.27465063
59	0xbeb6be47	-0.35692045
60	0xbeb8d95b	-0.3610333
61	0x3e01cd7d	0.12676044
62	0x3e41d930	0.18930507
63	0x3d00b312	0.031420775
64	0xbdfb193d	-0.12260673
65	0x3eb9dbde	0.36300558
66	0xbe9b434f	-0.3032479
67	0x3be1db54	0.006892601
68	0xbc942d03	-0.01808787
69	0x3e986346	0.2976324
70	0x3e918452	0.28421265
71	0x3e24a05c	0.16076797
72	0xbeca2747	-0.3948309
73	0xbc62c17e	-0.013840077
74	0x3de6b519	0.112650104
75	0xbeba9e26	-0.36448783
76	0xbeaf9fa1	-0.34301475
77	0x3e6975c8	0.22798836
78	0xbbb8447f	-0.0056233997
79	0x3e61667b	0.2201175
80	0x3d792d1e	0.060834043
81	0xbded8b46	-0.1159883
82	0xbebffa76	-0.37495774
83	0x3e41d3cd	0.18928452
84	0xbe912348	-0.2834723
85	0xbc897998	-0.016781613
86	0xbe835445	-0.2565023
87	0x3d8b737c	0.06809136
88	0x3ea24a55	0.31697336
89	0x3e7ee613	0.24892454
90	0x3e38fe08	0.18065655
91	0x3e7485ac	0.23879117
92	0x3de982f6	0.11401932
93	0xbdb7b25c	-0.08969566
94	0xbe5d4638	-0.21608818
95	0xbda8c7d3	-0.082412384
96	0xbe046eb9	-0.12932862
97	0x3e512041	0.2042246
98	0x3e6efb79	0.23338117
99	0xbeca5ba4	-0.3952304
100	0x3d91bcd3	0.071160935
101	0xbeac492a	-0.3364957
102	0xbd508b0a	-0.050913848
103	0x3ea2d270	0.31801176
104	0xbe8f6519	-0.2800682
105	0x3cd1ef5a	0.025626827
106	0x3e177b4d	0.1479313
107	0xbe9abc41	-0.3022175
108	0xbeb4bba4	-0.35299408
109	0xbd2cb391	-0.042163435
110	0x3ec587e0	0.38580227
111	0xbed0223a	-0.40651113
112	0x3e74f0ce	0.23919985
113	0x3e65d0f7	0.22442995
114	0x3e3961c2	0.18103698
115	0xbebb1cd9	-0.36545447
116	0x3cf6697e	0.0300796
117	0x3e6e4c2c	0.23271245
118	0x3ecf81d8	0.4052875
119	0x3ee657d3	0.4498888
120	0x3e8a7445	0.27041832
121	0x3ead197a	0.338085
122	0xbce8760e	-0.028376605
123	0xbcc4054b	-0.023928305
124	0x3e9f1459	0.31070212
125	0x3d908f23	0.07058551
126	0x3e9bd5b1	0.3043647
127	0x3e40c2a7	0.18824254
128	0xbeb94b92	-0.36190468
129	0x3e6b7e70	0.22997451
130	0xbcb132a4	-0.021630593
131	0x3e67fd53	0.2265523
132	0x3d4b855d	0.049687732
133	0x3e7868bb	0.24258702
134	0xbe8fd8c8	-0.28095078
135	0xbda0381d	-0.07823203
136	0xbecc427d	-0.39894477
137	0xbdccd543	-0.10001614
138	0xbddd7bf2	-0.10814656
139	0x3e8d9f6b	0.2766069
140	0xbd9d24fd	-0.076730706
141	0x3ebdf585	0.3710138
142	0x3ecb5885	0.39715973
143	0x3eb30732	0.34966427
144	0xbeb813f9	-0.35952738
145	0x3e9b709a	0.30359346
146	0xbd2721cf	-0.040803727
147	0xbdcff4c2	-0.10154106
148	0xbebe854a	-0.37211066
149	0x3e37d144	0.17950922
150	0x3eb4a7cb	0.35284266
151	0x3da7dd16	0.08196466
152	0xbdbdad16	-0.09261529
153	0x3ec1fde2	0.3788901
154	0xbe84f78a	-0.25970107
155	0xbea2f2e9	-0.3182595
156	0x3c934842	0.017978791
157	0x3e7c6e77	0.24651514
158	0x3e54b545	0.20772274
159	0x3ce712e1	0.028207244
160	0xbd5dfbf3	-0.054195356
161	0xbd930bd3	-0.0717999
162	0xbe3a031e	-0.18165252
163	0x3e20343d	0.15644927
164	0x3ec31c0f	0.38107345
165	0x3d1686b4	0.036749557
166	0xbc8ce9cf	-0.017201332
167	0x3e855637	0.2604234
168	0x3e3a27f4	0.18179303
169	0x3da46eda	0.08028956
170	0xbe9a2b23	-0.30111036
171	0x3df13b3b	0.117788754
172	0x3be5a177	0.0070077735
173	0xbe98137b	-0.29702362
174	0xbe2d99d3	-0.1695321
175	0xbd037542	-0.032094248
176	0xbe433a35	-0.19065173
177	0xbea2649b	-0.3171738
178	0x3ddbd6eb	0.10734352
179	0xbd6a8964	-0.057259932
180	0xbdb34909	-0.08754165
181	0x3e25e548	0.16200745
182	0x3dffdb49	0.12492997
183	0x3e86f7d2	0.26360947
184	0xbe07d9a2	-0.13266614
185	0x3d67d355	0.056598026
186	0xbe5e9431	-0.21736218
187	0x3d46742b	0.04845063
188	0xbcb7415b	-0.022370031
189	0x3ed7966e	0.42106956
190	0xbded8a95	-0.11598698
191	0x3cbd71db	0.02312558
192	0xbde0bf72	-0.10974015
193	0x3d2540bd	0.040344942
194	0x3ebe8198	0.37208247
195	0x3ed30452	0.41214234
196	0xbe352a69	-0.1769196
197	0x3dd37edf	0.10326933
198	0xbcf45d3b	-0.029829612
199	0xbebbcfd1	-0.3668199
200	0x3d91e04f	0.071228616
201	0x3e7ca11a	0.2467083
202	0xbdbd8fd9	-0.092559524
203	0xbe90ca40	-0.28279305
204	0x3ee2f53b	0.4432772
205	0xbe6579c5	-0.22409733
206	0xbe86d853	-0.26336917
207	0xbd377144	-0.044785753
208	0xbe712cb3	-0.23552208
209	0x3dec8c3f	0.11550187
210	0x3dabe534	0.083933264
211	0xbe1043f7	-0.14088427
212	0x3e3b7db3	0.18309669
213	0xbe271355	-0.16315968
214	0xbe1fed2f	-0.15617822
215	0xbd969b24	-0.073538095
216	0x3e17353b	0.147664
217	0xbeab8b1a	-0.33504564
218	0x3e962a24	0.29329026
219	0x3e76863e	0.24074647
220	0x3e2819f5	0.16416152
221	0xbe365216	-0.17804751
222	0x3eabdc36	0.33566445
223	0xbd6d5e68	-0.05795136
224	0x3e3ca305	0.18421562
225	0xbe3448cf	-0.176059
226	0xbe7f7d18	-0.24950063
227	0x3e8cfc97	0.2753646
228	0x3d8963f0	0.06708515
229	0x3e96fe41	0.29490855
230	0xbdc54e67	-0.09634095
231	0x3ec8da50	0.3922906
232	0x3deb1811	0.114792
233	0xbdb7e8c5	-0.08979944
234	0x3e26975e	0.1626868
235	0xbda20fed	-0.07913194
236	0xbdb625ab	-0.08893903
237	0xbecebfc5	-0.40380684
238	0x3e503110	0.20331216
239	0x3d2a55d7	0.04158577
240	0x3ed79f64	0.42113793
241	0xbde6c16a	-0.112673596
242	0xbc6de47f	-0.01451981
243	0x3ede8afd	0.43465415
244	0x3e9b64a5	0.30350223
245	0xbeada92f	-0.3391814
246	0xbe9ffe5a	-0.31248742
247	0x3d418cae	0.047253303
248	0xbe8fc90e	-0.2808308
249	0x3ee3cfaa	0.44494373
250	0x3ebe60fd	0.3718337
251	0xbdf1acba	-0.11800523
252	0x3e5b5e65	0.21422727
253	0xbbdb6da9	-0.006696422
254	0xbeebd231	-0.460588
255	0x3e9536b4	0.29143298

ode_func.net.0.bias f4 [100]
0	0x3b953d3b	0.0045544184
1	0xbe097d52	-0.13426712
2	0xbd80168e	-0.06254302
3	0x3ece4147	0.40284178
4	0x3dd7420b	0.105106436
5	0x3e0a0311	0.13477732
6	0x3ea56315	0.32302156
7	0xbe22d524	-0.15901619
8	0x3e0bcdb3	0.13652687
9	0xbececfab	-0.40392813
10	0x3e3384a7	0.17531072
11	0xbe90dd08	-0.28293633
12	0x3da58dd3	0.080836914
13	0x3dfc1357	0.12308376
14	0xbd8059d4	-0.06267133
15	0xbe8f3e17	-0.27977058
16	0x3c62964b	0.013829778
17	0xbe2fc0fe	-0.17163464
18	0xbdaa4b2d	-0.0831512
19	0xbea8bd60	-0.32956982
20	0xbd93e3f0	-0.0722121
21	0xbe85ff63	-0.26171407
22	0x3e425194	0.18976432
23	0x3e3a409e	0.18188712
24	0xbe5373c7	-0.20649634
25	0xbe8f7d8c	-0.28025472
26	0xbe898c5c	-0.26864898
27	0xbea1d23c	-0.3160571
28	0x3e98f84a	0.2987693
29	0xbda23872	-0.07920922
30	0x3da4988c	0.080369085
31	0xbdf4484f	-0.11927854
32	0x3daf5578	0.08561224
33	0x3e942724	0.28936112
34	0xbe6585e1	-0.22414352
35	0x3e1f7783	0.15572934
36	0x3d054b5b	0.032542568
37	0xbea15af3	-0.315147
38	0x3d249036	0.040176593
39	0x3c8c6095	0.017135898
40	0xbe73aa85	-0.23795517
41	0xbdd1536f	-0.10220992
42	0xbecb317b	-0.39686188
43	0xbeb58e33	-0.35460052
44	0xbec7e402	-0.39041144
45	0xbddeed40	-0.108850956
46	0x3ea2bdf1	0.3178554
47	0xbe2956c9	-0.16537012
48	0x3dfa607f	0.122254364
49	0xbea69713	-0.32537135
50	0x3ea46ed3	0.32115802
51	0x3e798977	0.24368845
52	0xbd91fbb2	-0.07128085
53	0xbea1545a	-0.31509668
54	0x3d0e4aa5	0.034739155
55	0x3e724a86	0.23661241
56	0x3e459b64	0.19297558
57	0xbd860497	-0.06543844
58	0xbe97a964	-0.29621422
59	0xbe02d336	-0.12775883
60	0xbebf7cc7	-0.37399885
61	0x3e839864	0.25702202
62	0xbe994c4c	-0.29941022
63	0x3ea23bd5	0.31686273
64	0x3d7ba858	0.061439842
65	0x3e509a1e	0.20371291
66	0xbca5fcf4	-0.020262219
67	0x3e7aec58	0.2450422
68	0xbe8893b9	-0.26675203
69	0xbed00425	-0.40628162
70	0xbe97399d	-0.29536143
71	0xbe463952	-0.19357803
72	0xbe47711d	-0.19476743
73	0xbeb79f9a	-0.35863954
74	0xbe52ebc4	-0.2059775
75	0x3e76cd7d	0.24101825
76	0xbde7677b	-0.11299034
77	0xba64ac97	-0.00087232277
78	0xbe986696	-0.29765767
79	0xbec9ce7e	-0.39415354
80	0x3eb57c4d	0.35446396
81	0x3e6dd2e4	0.2322498
82	0x3e153a27	0.14572965
83	0xbceb2d4e	-0.028708126
84	0xbe8b95bf	-0.27262685
85	0x3e1e1c32	0.15440443
86	0xbebd94a9	-0.3702748
87	0x3e4fe811	0.2030337
88	0xbdc9c9bb	-0.0985293
89	0x3e85ae25	0.26109424
90	0x3ead9321	0.33901313
91	0x3e91bdb4	0.28465044
92	0x3ec97429	0.39346436
93	0x3e4c7b96	0.1996902
94	0x3da41e12	0.08013548
95	0x3edf2eab	0.43590292
96	0x3e170aa8	0.14750159
97	0xbe9f3b5f	-0.31099984
98	0xbe09a403	-0.13441472
99	0x3ea36c69	0.31918648

ode_func.net.2.weight f4 [100, 100]
0	0x3d99d5a6	0.07511453
1	0x3d0d1fa9	0.03445402
2	0x3dd6ef98	0.10494918
3	0x3c49bb63	0.012312743
4	0xbc27354c	-0.010205578
5	0xbd1ba7bb	-0.038001757
6	0x3d8bdf38	0.06829685
7	0xbdc2156f	-0.094767444
8	0xbcd8f51d	-0.026484067
9	0x3cf88784	0.030338056
10	0xbd8a56b8	-0.067548215
11	0x3de8b1d3	0.11362042
12	0xbd646f37	-0.055770125
13	0xbc919734	-0.017772295
14	0x3d98998e	0.07451163
15	0x3db1d93b	0.086840115
16	0x3ce8d4ce	0.028421786
17	0x3d736afd	0.059428204
18	0x3da3c8b5	0.07997266
19	0xbb2697e2	-0.002542012
20	0xbcf73b76	-0.03017972
21	0xbd4b0731	-0.049567405
22	0x3cc7c5a2	0.02438623
23	0x3dcbd894	0.099534184
24	0x3d8b9c33	0.06816902
25	0x3c84d887	0.01621653
26	0x3cc6ac80	0.024252176
27	0xb970c7b5	-0.0002296258
28	0x3c9687ea	0.018375356
29	0xbda490d9	-0.0803544
30	0x3da43c59	0.08019323
31	0x3d901bbf	0.07036542
32	0xbbb1cb7a	-0.0054258676
33	0x3d19546e	0.037434034
34	0x3d2844c0	0.04108119
35	0xbd79d784	-0.060996547
36	0x3d450c87	0.04810765
37	0xbdaa6fc6	-0.083221
38	0x3d173876	0.03691908
39	0xbdb07e25	-0.0861781
40	0x3ce0ba76	0.027432662
41	0xbdccae00	-0.09994125
42	0x3b22e215	0.0024853994
43	0x3dcca11d	0.099916674
44	0x3d3ea5f4	0.046544984
45	0x3d17142f	0.036884483
46	0x3d668ef1	0.056288663
47	0x3c26eda0	0.01018849
48	0xbc389170	-0.011265144
49	0xbc23f19f	-0.010006337
50	0xbd365901	-0.044518474
51	0x3d8f1d46	0.06988005
52	0x3c1da47d	0.009621737
53	0x3e0f430b	0.13990419
54	0x3c97ecda	0.018545557
55	0xbd0938f3	-0.033501577
56	0x3d87f569	0.06638605
57	0x3c05dd0b	0.0081703765
58	0x3da2773a	0.07932897
59	0xbbc3cdee	-0.0059754765
60	0x3b814ca1	0.0039459025
61	0xbdd25988	-0.10270983
62	0x3e309583	0.17244534
63	0x3b0a2e93	0.002108489
64	0x3d095ed9	0.03353772
65	0xbcec6307	-0.028855814
66	0xbda66504	-0.08124736
67	0x3c63a3d7	0.013894043
68	0xbdda248b	-0.10651501
69	0x3de66684	0.11250022
70	0x3da4c8a8	0.08046085
71	0x3aaccd9a	0.0013183833
72	0x3c81d115	0.015846768
73	0xbdcb186c	-0.099167675
74	0xbd2da471	-0.04239315
75	0xbc649ad5	-0.01395293
76	0xbd3e5a3b	-0.04647277
77	0x3dab3304	0.0835934
78	0xbe8419cf	-0.2580094
79	0x3d59f635	0.053213317
80	0x3bd66fd8	0.0065440945
81	0xbba1abd4	-0.0049338136
82	0xbd4a08fa	-0.049324967
83	0x3dcfbdb4	0.10143605
84	0x3e1e4abb	0.15458195
85	0xbb4545e5	-0.0030101475
86	0x3d618999	0.055062864
87	0x3d01daf4	0.03170295
88	0x3bbd0958	0.005768936
89	0xbda00aac	-0.078145355
90	0xbdc6320b	-0.09677514
91	0xbe1ec583	-0.15505032
92	0x3da1a39e	0.078925356
93	0xbd49cb1e	-0.049265973
94	0xbccbc4aa	-0.02487405
95	0x3d59b18f	0.05314785
96	0xbc588cb6	-0.013217142
97	0xbdcf990d	-0.10136614
98	0xbe1a7ad8	-0.15085924
99	0xbd852677	-0.06501477
100	0x3d31a307	0.043368366
101	0x3de9ac4e	0.11409818
102	0x3d7fad6e	0.062421255
103	0x3c6f57d2	0.01460834
104	0x3db29342	0.087194934
105	0x3e61292a	0.21988359
106	0xbb157719	-0.0022806583
107	0x3d4aad1f	0.049481507
108	0x3d92959f	0.07157444
109	0x3d808f5c	0.06277344
110	0x3d9c0c09	0.07619483
111	0xbe099f52	-0.13439682
112	0x3d8a6563	0.06757619
113	0x3cd5d603	0.026103025
114	0x3c9121bf	0.017716287
115	0x3de4a5b7	0.1116442
116	0xbd315deb	-0.043302458
117	0xbe0eb0ae	-0.13934585
118	0x3cfdb160	0.030968368
119	0x3c9dc97a	0.01926111
120	0xbdaa2ecf	-0.08309709
121	0x3c665c9a	0.014060164
122	0x3d935ec6	0.07195811
123	0xbd9ef428	-0.07761413
124	0x3d3e62a9	0.04648081
125	0xbd734c05	-0.05939867
126	0x3dc72841	0.09724475
127	0x3e5e752b	0.21724384
128	0x3e214296	0.15748057
129	0x3dd64de3	0.104640745
130	0xbd3c874c	-0.046027467
131	0xbe287372	-0.16450289
132	0x3c0c51fa	0.008564467
133	0x3c8fe1d9	0.017563747
134	0x3e00ff12	0.12597302
135	0xbd6a1c33	-0.0571558
136	0x3dc4eb6b	0.09615215
137	0x3dd0e63c	0.10200164
138	0xbd18ae52	-0.03727562
139	0x3de0b880	0.109726906
140	0xbd058131	-0.03259391
141	0xbea9ed04	-0.3318864
142	0xbd840bb0	-0.06447542
143	0x3b9bf1bf	0.004759043
144	0xbe2a8dc1	-0.16655637
145	0x3e43f68e	0.19137022
146	0xbdb9338b	-0.09043034
147	0xbe54835c	-0.20753235
148	0xbdbe3c51	-0.09288848
149	0xbd303d16	-0.043027006
150	0x3bbaf9ac	0.0057060327
151	0x3d483e22	0.04888738
152	0xbd9c1529	-0.076212235
153	0x3db98c6a	0.09059985
154	0xbe32cb73	-0.17460422
155	0xbb12bb97	-0.0022389644
156	0xbd84013a	-0.064455464
157	0x3e4f34de	0.20235011
158	0x3e0af0db	0.13568442
159	0x3d9ef710	0.07761967
160	0x3d12b780	0.03581953
161	0x3daf2d71	0.08553589
162	0x3ddfd759	0.10929746
163	0xbd015775	-0.031577546
164	0xbe17e95c	-0.14835113
165	0x3dc486d7	0.09596031
166	0xbeb8299b	-0.35969242
167	0x3d865198	0.065585315
168	0x3e2b2c30	0.16716075
169	0x3da838b4	0.0821394
170	0x3e3c83a0	0.18409586
171	0x3dc3f69b	0.09568521
172	0x3cb0db58	0.021588966
173	0xbdfda413	-0.1238481
174	0x3ce75ed4	0.02824346
175	0xbd5016d8	-0.050803035
176	0x3cceae3b	0.025229564
177	0xbd57e21f	-0.05270588
178	0xbdd160b4	-0.10223523
179	0xbbceefdb	-0.006315214
180	0x3ce6621d	0.028122956
181	0x3be56e96	0.0070017083
182	0x3d1ec644	0.0387633
183	0x3df1596d	0.11784635
184	0x3df5419a	0.11975403
185	0xbdc7a285	-0.09747795
186	0xbd7c861f	-0.061651345
187	0xbcea5e28	-0.02860935
188	0xbc915982	-0.017742876
189	0x3caddfdb	0.021224907
190	0x3e15ca76	0.14628014
191	0x3d9cfaae	0.07665001
192	0x3e0b4ea3	0.13604216
193	0x3e91e602	0.28495795
194	0xbd2386fd	-0.039923657
195	0x3d226380	0.03964567
196	0x3d1ae799	0.037818525
197	0xbd84312e	-0.06454693
198	0x3d01de5d	0.031706203
199	0x3d2c4b65	0.04206409
200	0x3d109462	0.03529776
201	0xbd737f3a	-0.059447505
202	0xbc7c6aaa	-0.01540629
203	0x3d961bfa	0.07329555
204	0xbd27b0a3	-0.04093994
205	0x3d451d7f	0.048123833
206	0xbbe51db9	-0.0069920686
207	0xbd9151db	-0.07095691
208	0xbde5e24a	-0.11224802
209	0xbbece2af	-0.007229171
210	0x3dacd046	0.084381625
211	0xbd038f87	-0.0321193
212	0x3da020fe	0.07818793
213	0x3d83c5f3	0.0643424
214	0x3c831a61	0.01600379
215	0xbd07e1b6	-0.03317424
216	0xbc882622	-0.016619746
217	0x3e043067	0.12909089
218	0xbd80c746	-0.062880084
219	0x3b276b3a	0.002554609
220	0x3c0d68fa	0.008630985
221	0xba831854	-0.0010001757
222	0x3d8d84d7	0.06910103
223	0xbce304de	-0.027712282
224	0x3d4178ad	0.047234226
225	0xbdfba70a	-0.122877195
226	0xbd2a375f	-0.041556712
227	0x3cf31d4e	0.02967706
228	0x3d5495a4	0.05190052
229	0x3d97850d	0.07398424
230	0x3d4d16b5	0.050070483
231	0xbe3f5b03	-0.18687062
232	0xbd82f36a	-0.06394084
233	0x3c519af5	0.012793292
234	0xbd8e504f	-0.069489114
235	0xbcf29999	-0.029614257
236	0xbb2889ba	-0.0025716857
237	0xbd8a5c81	-0.06755925
238	0x3d54f9f1	0.051996175
239	0xbcc2ee15	-0.023795167
240	0x3d218990	0.03943783
241	0x3a6205f1	0.0008622101
242	0x3ddf2dba	0.108973935
243	0xbd58af0d	-0.052901316
244	0xbe57c533	-0.2107132
245	0x3bc6ffe6	0.006072986
246	0x3dcc24c6	0.099679515
247	0x3dc7bba8	0.097525895
248	0x3c3bb953	0.011457759
249	0xbd2ff7a8	-0.042960793
250	0x3d293bb9	0.04131672
251	0xbd8a9f85	-0.06768707
252	0xbd857234	-0.06515923
253	0xbdf1c13e	-0.11804436
254	0x3ddb768a	0.10715969
255	0x3ce63315	0.02810053

ode_func.net.2.bias f4 [100]
0	0xb9840e46	-0.00025187636
1	0xbc8e7801	-0.017391207
2	0xbd9c91c5	-0.07644991
3	0xbd00b5a9	-0.031423245
4	0x3d9a18cd	0.075242616
5	0xbb5df428	-0.0033867452
6	0xbd507a49	-0.05089787
7	0x3adfbf92	0.0017070642
8	0x3dd53706	0.104108855
9	0x3d90525c	0.07046959
10	0xbd4ef317	-0.050524797
11	0xbd5e1bde	-0.054225795
12	0xbc31ae1b	-0.010844733
13	0xbd2ec4b5	-0.042668063
14	0x3caa8477	0.020815117
15	0xbc8247d2	-0.015903387
16	0x3d24568d	0.040121604
17	0x3d223a9f	0.039606687
18	0xbc6e2edc	-0.014537539
19	0x3d0e2244	0.034700647
20	0x3d994480	0.074837685
21	0x3ddbaa7f	0.10725879
22	0x3d8028ee	0.06257807
23	0xbb7a19c5	-0.0038162332
24	0xbda1b40b	-0.078956686
25	0x3cdb4fe4	0.026771493
26	0x3db23a92	0.08702578
27	0xbd68eebc	-0.0568683
28	0xbdc1922d	-0.09451709
29	0x3ccfd44a	0.025369782
30	0x3d04fa1e	0.032465093
31	0x3d3c6299	0.045992468
32	0x3d7527df	0.059852477
33	0x3c6ad5b5	0.014333178
34	0xbd10c92a	-0.035348095
35	0xbb7b52d9	-0.0038348942
36	0x3dc8fe9c	0.09814188
37	0xbcac9086	-0.021065008
38	0xbd89433f	-0.06702279
39	0xbcfcd09c	-0.030861191
40	0xbd6c95e2	-0.057760127
41	0x3dadccc0	0.084863186
42	0x3b22a4b3	0.0024817407
43	0xbd946e75	-0.072476305
44	0xbdc063d5	-0.093940414
45	0x3da37f4e	0.07983266
46	0xbda7af8f	-0.08187782
47	0xbd33c30f	-0.043887194
48	0x3d9b2ff9	0.075775094
49	0x3c98bed6	0.018645685
50	0xbda21d64	-0.07915762
51	0x3da4aefb	0.080411874
52	0xbb2a53c8	-0.002598988
53	0xbd8fc7a0	-0.07020497
54	0x3d6c9195	0.057756025
55	0xbbd37363	-0.006452964
56	0x3d114b80	0.035472393
57	0x3dc79a50	0.0974623
58	0x3d0fba9c	0.035090074
59	0x3da184da	0.078866675
60	0x3d7b5d48	0.061368257
61	0x3ceada92	0.028668676
62	0x3d00a16e	0.03140395
63	0x3db4dd48	0.088312685
64	0xbd0c9017	-0.034317102
65	0xbdc57977	-0.09642308
66	0xbdc86cad	-0.09786353
67	0xbd5b403b	-0.05352805
68	0x3d2842fc	0.041079506
69	0x3d42e0bf	0.047577616
70	0xbd7e9c6e	-0.0621609
71	0xbbd7191e	-0.0065642735
72	0x3d05723a	0.032579638
73	0x3d5f23ef	0.05447763
74	0x3daeabb3	0.08528843
75	0xbdb5c9e1	-0.08876396
76	0xbc809052	-0.015693817
77	0x3db1c94d	0.08680973
78	0x3c1e240b	0.009652148
79	0x3c9ca5d0	0.019122034
80	0xbd6df8be	-0.058098547
81	0xbd732a03	-0.059366237
82	0x3d603fd6	0.05474838
83	0x3d91c37d	0.071173646
84	0xbd7531ee	-0.05986207
85	0xbd17c64d	-0.03705435
86	0xbd87b115	-0.066255726
87	0xbd8d5a15	-0.069019474
88	0xbd1260fa	-0.035737015
89	0xbc3320f6	-0.0109331515
90	0x3da11177	0.07864659
91	0x3abee974	0.0014565424
92	0x3d7d3280	0.06181574
93	0x3d99e158	0.07513684
94	0xbd78308d	-0.060593177
95	0x3d7beeca	0.061507024
96	0x3dd1898f	0.10231315
97	0xbd629155	-0.05531438
98	0xbdc75810	-0.097335935
99	0xbdca5668	-0.09879762

ode_func.net.4.weight f4 [3, 100]
0	0x3e0dcb97	0.13847195
1	0xbb6ddd46	-0.003629522
2	0x3ddc3b0a	0.10753448
3	0xbd4d8e90	-0.050184786
4	0x3db75f9f	0.08953785
5	0xbd68ed3b	-0.056866866
6	0x3d2ca0bc	0.042145476
7	0x3d9711fb	0.073764764
8	0x3d439604	0.047750488
9	0x3c4311e8	0.011906125
10	0xbcb8997a	-0.02253412
11	0xbd9e02cc	-0.07715377
12	0xbdb567eb	-0.088577114
13	0x3db6b10b	0.08920487
14	0xbd872ba3	-0.0660012
15	0xbd37e8fa	-0.04489992
16	0xbd5c6568	-0.053807646
17	0xbcccf0f6	-0.025017243
18	0xbdc83fec	-0.09777817
19	0xbd9961df	-0.074893706
20	0xbcb40f84	-0.021980055
21	0x3d3448cc	0.044014737
22	0xbd81a177	-0.06329625
23	0x3d08611c	0.033295736
24	0x3d7edd6d	0.062222887
25	0xbcd70e0e	-0.026251819
26	0xbccf40c2	-0.025299434
27	0xbb3f4a3d	-0.0029188537
28	0xbd869582	-0.06571485
29	0x3d4e7be7	0.05041113
30	0x3d5fdb57	0.05465254
31	0x3cb1bc13	0.021696126
32	0xbd9659f5	-0.07341377
33	0x3cecb607	0.028895391
34	0x3d371225	0.04469504
35	0x3daaf3a8	0.08347255
36	0x3c9e81bd	0.019348973
37	0xbd3079d5	-0.043084938
38	0xbd6722dd	-0.056429733
39	0x3d06bd58	0.032895416
40	0x3c8a5c34	0.016889669
41	0x3bcde281	0.006283105
42	0x3bd1601a	0.00638963
43	0x3d9cb7c6	0.076522395
44	0x3d79d220	0.060991406
45	0xbbb5fa86	-0.0055535464
46	0xbd5bf4e7	-0.053700354
47	0xbc057c20	-0.0081472695
48	0x3c07fd73	0.008300173
49	0xbcebd9cd	-0.028790379
50	0xbdb53f6f	-0.088499896
51	0xbd26dc73	-0.04073758
52	0x3c6a3146	0.014293974
53	0xbd6ad2e0	-0.057330012
54	0xb9ecf2b0	-0.00045194244
55	0x3d7502db	0.059817176
56	0x3daa9228	0.08328658
57	0xbd50e725	-0.051001687
58	0x3d2efcea	0.042721666
59	0x3d79ff7c	0.061034665
60	0x3d33e320	0.043917775
61	0xbd822d71	-0.063563235
62	0x3d46aaa3	0.048502576
63	0x3c4559cd	0.012045336
64	0xbd3b1481	-0.04567385
65	0xbd3e4a4b	-0.04645757
66	0x3cae68ee	0.021290269
67	0xbda8504c	-0.082184404
68	0x3d7b6bbe	0.061382048
69	0x3d4eb8cf	0.050469216
70	0xbd78e44a	-0.06076459
71	0xbd665130	-0.05622977
72	0xbca6c467	-0.020357324
73	0x3d44cd3f	0.0480473
74	0x3d25d1c3	0.040483247
75	0x3c6fd339	0.014637762
76	0xbd1bf84f	-0.038078602
77	0xbadfd7cb	-0.0017077861
78	0x3d92aed3	0.07162251
79	0x3c86e78e	0.016467836
80	0xbcc5f94d	-0.024166727
81	0x3caa9b95	0.02082614
82	0x3d74086e	0.05957835
83	0xbdb21e44	-0.08697179
84	0x3d5b3d34	0.053525165
85	0xbda302ac	-0.07959494
86	0xbcca2d62	-0.024679843
87	0xbd4f77ed	-0.05065148
88	0x3d097958	0.033562988
89	0x3d9a242e	0.07526432
90	0xbd10517a	-0.035233952
91	0x3d3b17ba	0.045676924
92	0x3b8f24ec	0.004368415
93	0x3de12907	0.109941535
94	0xbdc2847f	-0.09497928
95	0xbcaf173d	-0.021373386
96	0x3dc43bde	0.09581731
97	0xbd943616	-0.072368786
98	0xbc7886b4	-0.0151688345
99	0x3d25a080	0.040436268
100	0xbd9d3665	-0.076763906
101	0x3d059f58	0.032622665
102	0xbd4db904	-0.050225273
103	0xbcc0a317	-0.023515267
104	0x3d07e061	0.03317297
105	0xbd42d8d8	-0.04757008
106	0x3d3e1571	0.046407167
107	0xbd7ebd13	-0.062192034
108	0xbca6e48b	-0.02037265
109	0xbc7a7d9e	-0.0152887385
110	0x3cd3d4bc	0.025858276
111	0xbc86ae8a	-0.016440649
112	0x3c6ff7cc	0.014646482
113	0xbcd3ea0b	-0.025868436
114	0xbd6cf66f	-0.057852205
115	0x3d1dc30d	0.038516093
116	0xbcb25e87	-0.02177359
117	0x3d99293b	0.07478567
118	0xbc35857c	-0.011079188
119	0xbdaee7f8	-0.08540338
120	0xbdc8e6d9	-0.09809656
121	0xbd93758b	-0.07200154
122	0xbd8771e2	-0.06613518
123	0x3cee641f	0.029100476
124	0xbdb76f53	-0.0895678
125	0xbd2b8a01	-0.041879658
126	0x3da2ac90	0.0794307
127	0xbdbea1e3	-0.09308221
128	0xbd424b8d	-0.047435332
129	0x3bb3544e	0.0054726964
130	0x3cbf07ce	0.023319151
131	0x3b9b3c5c	0.00473742
132	0x3d39b8e7	0.045342352
133	0x3d0173ee	0.0316047
134	0xbdb7e2bf	-0.08978795
135	0xbd785413	-0.060627054
136	0x3da79613	0.08182921
137	0x3caced87	0.021109356
138	0x3d50632a	0.05087582
139	0x3b3f40b2	0.0029182849
140	0x3db02999	0.08601684
141	0xbc8c31fa	-0.017113674
142	0xbd416be9	-0.04722205
143	0x3d626bd9	0.055278633
144	0x3a96774d	0.0011479646
145	0x3da07178	0.078341424
146	0xbc0de833	-0.008661318
147	0xbcb74928	-0.02237375
148	0xbc073047	-0.008251256
149	0x3cdaa11d	0.026688153
150	0x3b356505	0.002767862
151	0xbd791e50	-0.060819924
152	0xbdc1202d	-0.09429965
153	0xbdbaaf02	-0.09115411
154	0x3d75b3a7	0.059985783
155	0x3c93e955	0.018055597
156	0x3da67dcb	0.08129462
157	0x3d9bade3	0.07601526
158	0x3d8b987b	0.06816193
159	0xbd622ccf	-0.055218514
160	0x3d33d550	0.043904603
161	0x3d2989c4	0.04139115
162	0xbdbd0a4e	-0.09230481
163	0x3c8ca9b2	0.01717076
164	0x3db8d494	0.09024921
165	0xbd096d3d	-0.033551443
166	0x3db95f62	0.09051396
167	0xbdb37cf9	-0.08764071
168	0x3cf0fec9	0.029418366
169	0x3d9ac7d8	0.075576484
170	0x3d013521	0.03154481
171	0xbcae4c7a	-0.021276701
172	0xbd9d8208	-0.07690817
173	0x3d817a92	0.063222066
174	0xbb94ae58	-0.004537385
175	0x3d01af61	0.031661395
176	0xbdcb1409	-0.09915931
177	0x3d4885c9	0.048955712
178	0xbd910f70	-0.070830226
179	0xba62ff0e	-0.0008659222
180	0xbd046195	-0.032319624
181	0x3cb932c6	0.022607218
182	0xbd62d05f	-0.0553745
183	0xbd693fa3	-0.056945454
184	0xbb99cb14	-0.0046933983
185	0x3c86d780	0.01646018
186	0xbc08e52a	-0.008355418
187	0xbda32457	-0.07965916
188	0xbd911f25	-0.070860185
189	0x3b99922a	0.0046866136
190	0x3d6a5e47	0.057218816
191	0xbc6e7fa4	-0.014556799
192	0xbd5a7516	-0.053334318
193	0x3d433eb3	0.047667217
194	0x3d063155	0.03276189
195	0x3c44bd48	0.012008019
196	0x3d874d67	0.0660656
197	0xbcd15847	-0.02555479
198	0xbd3e2f49	-0.046431813
199	0x3d15356d	0.036427904
200	0x3e422483	0.1895924
201	0xbe81cc25	-0.25351062
202	0xbd3acd47	-0.045605924
203	0xbda81191	-0.082064755
204	0x3cfdcd58	0.030981705
205	0xbd66b1eb	-0.05632202
206	0xbe07376f	-0.1320474
207	0xbe2d5908	-0.16928494
208	0xbd67feab	-0.056639355
209	0xbe440eee	-0.1914632
210	0x3e8b929a	0.27260286
211	0x3d61c337	0.055117812
212	0x3c4ef0c2	0.012630643
213	0x3dcf7d82	0.101313606
214	0xbd0b8330	-0.034060657
215	0x3e04f7f1	0.12985207
216	0x3d20f9a1	0.039300565
217	0xbe185329	-0.14875473
218	0x3e46ec0e	0.19425985
219	0xbe252cb9	-0.16130342
220	0x3d80f8db	0.062974654
221	0xbe50bee9	-0.20385326
222	0xbe1f75a3	-0.15572219
223	0x3d9b9bbe	0.07598065
224	0xbccc487a	-0.024936903
225	0xbd24a3ee	-0.040195398
226	0x3df76fde	0.12081884
227	0x3d27f6f4	0.041006997
228	0xbcb50c7a	-0.022100676
229	0x3e1dc627	0.1540762
230	0xbdeef276	-0.116673395
231	0x3e332e51	0.17498137
232	0xbe5fc77d	-0.21853442
233	0xbd27661b	-0.04086886
234	0x3df47749	0.11936814
235	0x3dfc9b3d	0.12334297
236	0xbd941d4c	-0.072321504
237	0x3e8eadbd	0.27866927
238	0xbdb0349b	-0.08603784
239	0x3e35be4a	0.17748371
240	0x3d1bd0a9	0.03804079
241	0x3e8f891f	0.28034303
242	0xbe1eea6c	-0.15519112
243	0x3e3415d0	0.17586446
244	0x3dfda224	0.123844415
245	0x3d847c2e	0.06468998
246	0x3c888013	0.016662633
247	0x3ed3c770	0.41363096
248	0xbf02e396	-0.5112852
249	0xbc0bbdaa	-0.008529106
250	0x3e397607	0.1811143
251	0x3b6e0aa8	0.003632227
252	0xbe3c1c0d	-0.18370076
253	0xbc1a15b7	-0.009404591
254	0xbe18b813	-0.14913969
255	0xbcb0eeb9	-0.021598207

ode_func.net.4.bias f4 [3]
0	0xb8ae0f45	-8.299811e-05
1	0xbd59737c	-0.05308865
2	0xbdfc8686	-0.12330346
