checkpoint/ode_dopri5/pushing_5_steps_ode_dopri5_dynamics_model.pt (torch, 47574 bytes, 6 tensors)

ode_func.net.0.weight f4 [100, 6]
0	0xbcc62ccd	-0.024191285
1	0xbe74f46b	-0.23921363
2	0xbe4ce3fc	-0.20008844
3	0x3ebadc1d	0.36496058
4	0xbdc1bd7e	-0.09459971
5	0x3de7f696	0.113263294
6	0xbd38e1c8	-0.045137197
7	0xbeb836d6	-0.35979337
8	0x3ea04174	0.31299937
9	0x3e79d2ff	0.24396895
10	0x3ca8e1a3	0.020615404
11	0x3ea1df71	0.31615785
12	0x3e2f123c	0.170968
13	0x3983516e	0.00025046937
14	0x3eb3eaba	0.3514002
15	0x3de45192	0.11148371
16	0xbe31ee96	-0.1737617
17	0x3dccae9b	0.09994241
18	0x3da8dbc5	0.08245043
19	0x3e8d449d	0.2759141
20	0xbebfd18c	-0.3746456
21	0x3d630848	0.05542782
22	0xbd878e19	-0.066189
23	0xbdbc4ffd	-0.09194944
24	0x3e95f195	0.29285875
25	0xbea70770	-0.32622862
26	0x3c541ebf	0.012946784
27	0x3e38de7c	0.18053621
28	0x3ebd9045	0.3702413
29	0xbe01688b	-0.12637536
30	0xbdb905a6	-0.090342805
31	0x3eb0f3ae	0.34560913
32	0x3aa04aff	0.0012229382
33	0x3d43f369	0.047839556
34	0xbec4ae91	-0.38414434
35	0x3d1b954f	0.03798419
36	0x3df893a0	0.12137532
37	0xbe0438ce	-0.12912294
38	0x3b06179b	0.0020460847
39	0x3dd2777d	0.10276697
40	0x3e6c04a8	0.23048651
41	0xbe30d33d	-0.17268081
42	0xbea88ab4	-0.32918322
43	0x3c93a219	0.01802163
44	0xbe8b1eee	-0.27172035
45	0xbe5420dc	-0.2071566
46	0x3e7d6f7f	0.24749564
47	0xbecf8939	-0.4053438
48	0xbdff78d1	-0.12474216
49	0xbea36210	-0.31910753
50	0xbe007a18	-0.12546575
51	0x3df60f91	0.12014688
52	0xbdf55536	-0.11979143
53	0xbebdd493	-0.37076244
54	0xbd3446be	-0.044012778
55	0xbeb53927	-0.35395166
56	0x3e3ad84b	0.18246572
57	0xbecaf8e1	-0.39643005
58	0xbbfbee5e	-0.0076883277
59	0x3eb004cc	0.3437866
60	0xbc02bec9	-0.007980057
61	0xbe614e6b	-0.2200257
62	0x3db9e555	0.09076945
63	0xbd894225	-0.06702069
64	0xbeb3f56e	-0.35148185
65	0x3e77fc83	0.2421742
66	0x3e9f7b28	0.31148648
67	0xbe2c96b6	-0.16854367
68	0xbe881f86	-0.2658655
69	0xbe7dc909	-0.2478372
70	0xbda79931	-0.08183516
71	0xbe5d4f67	-0.21612321
72	0xbe9caecd	-0.30602112
73	0x3ea5c2f6	0.32375306
74	0x3e0c1294	0.13678962
75	0xbeb700ef	-0.357429
76	0xbdb46973	-0.08809175
77	0xbea118f4	-0.3146435
78	0xbe9c5bee	-0.30538887
79	0xbc82dbef	-0.015974013
80	0xbe155128	-0.1458174
81	0xbe907053	-0.28210697
82	0xbe854586	-0.26029605
83	0x3ecfedbf	0.40611073
84	0xbebd8714	-0.3701712
85	0xbe5fa87d	-0.21841617
86	0x3e17ad70	0.14812255
87	0xb972662f	-0.00023116985
88	0x3e90c54e	0.28275532
89	0x3e8f6a2f	0.280107
90	0xbe0b3679	-0.13594998
91	0x3e09a2d7	0.13441025
92	0x3dd22b86	0.10262208
93	0x3de4ecf2	0.11178006
94	0xbda8abe3	-0.0823591
95	0x3e89eae2	0.26937014
96	0x3e01b6ae	0.12667343
97	0x3e428546	0.18996152
98	0x3db9b45a	0.090676025
99	0x3e7472f7	0.2387198
100	0xbc8bb3fb	-0.017053595
101	0x3d3d27ef	0.04618066
102	0xbc5d8f92	-0.013522999
103	0xbec07f31	-0.3759704
104	0xbd96f711	-0.07371343
105	0x3db1b480	0.08677006
106	0xbe1aab3d	-0.15104385
107	0x3ec99019	0.3936775
108	0x3ead3e27	0.3383648
109	0x3e4aeaee	0.19816181
110	0xbccfe8d5	-0.025379578
111	0xbe73d6c9	-0.23812403
112	0xbeed2039	-0.46313646
113	0xbeaa9ffb	-0.3332518
114	0x3eea60c8	0.45776963
115	0x3ecef252	0.4041925
116	0x3da095cc	0.078410715
117	0xbc816851	-0.015796812
118	0xbeeeecce	-0.46665043
119	0xbe846cc1	-0.25864223
120	0xbe907993	-0.28217754
121	0x3eb0c219	0.34523085
122	0x3ea4b28e	0.32167476
123	0x3e0a544a	0.13508716
124	0xbd8485e3	-0.06470849
125	0xbdb25eee	-0.08709513
126	0x3ec80550	0.39066553
127	0xbcd3cedb	-0.025855472
128	0x3dbec810	0.09315503
129	0xbe4513b7	-0.19245802
130	0xbc8b8422	-0.01703078
131	0xbebeb621	-0.37248328
132	0xbe6f1cae	-0.23350784
133	0x3db0b414	0.08628097
134	0x3ec8d321	0.3922358
135	0x3da1e483	0.07904913
136	0x3e1fd362	0.1560798
137	0xbda85e88	-0.082211554
138	0x3d399e29	0.04531685
139	0x3ea53abf	0.32271382
140	0x3e27bdcb	0.16380994
141	0x3e0d9e5a	0.13829938
142	0xbd3ee360	-0.04660356
143	0xbb07149b	-0.0020611647
144	0x3d8e0a7c	0.069355935
145	0xbe7b1b30	-0.2452209
146	0xbe7ba392	-0.24574116
147	0x3a0fdb7f	0.00054877246
148	0x3d341356	0.043963753
149	0xbe583325	-0.2111326
150	0xbca058eb	-0.01957365
151	0xbe4aec8c	-0.19816798
152	0x3cad62ea	0.02116533
153	0xbebdddbd	-0.37083235
154	0xbd9523ef	-0.072822444
155	0x3e73ffbe	0.23828027
156	0xbebe210b	-0.37134585
157	0xbe992734	-0.29912722
158	0xbe9a0892	-0.30084664
159	0x3e3bccfd	0.18339916
160	0xbdc7835c	-0.09741852
161	0xbe099657	-0.13436256
162	0x3e3fdd09	0.18736662
163	0xbe1adef7	-0.15124117
164	0xbe3599fd	-0.17734523
165	0x3eaae329	0.33376434
166	0xbdafa84e	-0.085770234
167	0xbeaa5b45	-0.33272758
168	0xbeaa0aeb	-0.33211455
169	0xbacad1b8	-0.0015473878
170	0xbe271e9a	-0.16320267
171	0xbd4083e8	-0.047000796
172	0x3dfe8c78	0.12429136
173	0x3ed79357	0.421046
174	0xbd77a338	-0.060458392
175	0x3d57a025	0.05264296
176	0x3e5b49aa	0.2141482
177	0x3e959351	0.29213956
178	0xbe50fc64	-0.2040878
179	0xbeb3b57c	-0.350994
180	0x3bc9e209	0.0061609787
181	0xbe27b15a	-0.16376248
182	0x3cefbc2f	0.029264538
183	0x3e8f3768	0.2797196
184	0x3cc954e7	0.024576617
185	0xbeb02390	-0.34402132
186	0x3ed35224	0.41273606
187	0x3e8ca7f9	0.27471903
188	0x3eb44c8f	0.3521466
189	0x3e680da3	0.22661452
190	0xbec181af	-0.37794253
191	0x3e208b82	0.15678218
192	0x3eb89721	0.36052802
193	0xbd379bfd	-0.044826496
194	0x3e896a76	0.26839036
195	0xbe716d31	-0.2357681
196	0xbe2ece33	-0.17070846
197	0x3dfe3ddb	0.12414142
198	0x3ea47ab3	0.32124862
199	0xbcbad1c0	-0.022805095
200	0x3e316dc8	0.17327034
201	0xbecc5572	-0.3990894
202	0x3db23285	0.08701042
203	0xbe53c81f	-0.20681809
204	0x3d85474e	0.06507741
205	0x3e958d6c	0.2920946
206	0xbe0c343f	-0.13691805
207	0x3dd95e9b	0.10613748
208	0xbe584c56	-0.2112287
209	0x3dadc2a0	0.084843874
210	0x3e9499de	0.2902364
211	0xbe347883	-0.17624097
212	0xbcb8c89b	-0.022556594
213	0x3e9b1dcc	0.3029617
214	0xbd2f291e	-0.04276382
215	0xbe59067b	-0.21193878
216	0xbea56436	-0.32303017
217	0xbe81ac58	-0.253268
218	0xbec4d3c4	-0.38442814
219	0x3ecc7c44	0.39938557
220	0xbe51f1c6	-0.20502385
221	0xbdef2f4e	-0.116789445
222	0x3eb4bf7d	0.35302344
223	0x3d6be4a4	0.057591096
224	0x3e050ba8	0.12992728
225	0x3e697eb9	0.22802247
226	0xbe27002e	-0.16308662
227	0x3ea84feb	0.32873473
228	0x3eb15ed2	0.34642655
229	0xbd8995e2	-0.06718041
230	0xbe052553	-0.1300252
231	0xbeaddfba	-0.33959752
232	0x3e90cb00	0.28279877
233	0x3e859ed3	0.26097736
234	0x3d8af297	0.067845516
235	0xbe25d8cc	-0.16195983
236	0x3e83816a	0.25684673
237	0xbe6051ed	-0.21906252
238	0xbe73b401	-0.23799135
239	0x3ce73392	0.028222833
240	0x3cc4cfa3	0.02402479
241	0xbe9eefb1	-0.31042245
242	0x3e0e64f4	0.13905698
243	0xbead431e	-0.3384027
244	0x3e415814	0.18881255
245	0x3bdbf4e8	0.0067125447
246	0x3e9d49dc	0.30720413
247	0xbe341013	-0.17584257
248	0x3e9032a6	0.28163642
249	0x3e8e0289	0.2773631
250	0x3e6e7ff0	0.23290992
251	0x3e8c72ea	0.27431422
252	0xbd8a0ed4	-0.067411095
253	0x3e5bee76	0.21477684
254	0xbdea5285	-0.114415206
255	0xbe5ab3fa	-0.21357718

ode_func.net.0.bias f4 [100]
0	0x3b55c3d0	0.0032617934
1	0x3e5ed646	0.21761426
2	0xbc9205ab	-0.017824968
3	0xbe087637	-0.13326345
4	0xbe4a3b6b	-0.19749229
5	0x3c4dba7e	0.01255667
6	0xbe4734b6	-0.19453701
7	0xbeb55445	-0.35415855
8	0x3ece6f2f	0.403192
9	0xbd54369d	-0.051809896
10	0x3e65f8d9	0.22458209
11	0x3eb48b61	0.35262588
12	0x3ec97164	0.39344323
13	0xbec3ebc1	-0.38265803
14	0xbd0ad680	-0.03389597
15	0xbe36fb29	-0.17869247
16	0xbe950492	-0.2910505
17	0xbe2f7b66	-0.17136917
18	0xbdd353fb	-0.103187524
19	0xbe8dd401	-0.2770081
20	0xbd1cc462	-0.038273223
21	0x3ebd50ce	0.36975712
22	0x3d3cc6ea	0.046088137
23	0x3e9789cc	0.29597318
24	0x3ddc068b	0.107434355
25	0x3e43c7a2	0.19119123
26	0xbe0a9952	-0.1353505
27	0xbe3be441	-0.1834879
28	0x3e77784d	0.24166985
29	0x3cb6ed16	0.022329848
30	0x3da277f9	0.07933039
31	0x3e07823f	0.13233279
32	0xbeb07881	-0.34466937
33	0xbeb2ce33	-0.34922943
34	0xbe171101	-0.1475258
35	0x3ebc66b4	0.36797106
36	0x3e9a6b14	0.3015982
37	0x3e5f74e4	0.21821934
38	0x3d6eaecf	0.05827218
39	0xbec707d2	-0.38873154
40	0x3ecc7b82	0.3993798
41	0xbea4286f	-0.32062098
42	0x3eb1912a	0.34681064
43	0x3eb1780f	0.3466191
44	0xbed98bdb	-0.42489514
45	0xbd12f5b2	-0.035878845
46	0xbdf1de37	-0.11809962
47	0x3e781147	0.24225341
48	0xbdabb9fc	-0.08385083
49	0x3dc02db8	0.0938372
50	0x3e4c271c	0.19936794
51	0xbe76541a	-0.2405552
52	0x3e97236e	0.29519218
53	0x3e2157f2	0.15756205
54	0xbdd4ddc7	-0.10393863
55	0x3e04cb77	0.1296824
56	0xbe73156f	-0.23738645
57	0x3e7821bd	0.2423162
58	0xbe9d2d60	-0.3069868
59	0x3e0dc7ac	0.138457
60	0xbe71b0ad	-0.23602553
61	0x3c0d5936	0.008627227
62	0x3d2057cc	0.03914623
63	0x3e2f0ef9	0.17095555
64	0x3ec1d708	0.37859368
65	0x3bec30e0	0.007207975
66	0x3eb7f2d2	0.35927445
67	0x3db092a0	0.086217165
68	0xbecd0f63	-0.40050802
69	0x3e3718d5	0.17880566
70	0xbed0d38e	-0.40786403
71	0x3e6d91a5	0.2320009
72	0xbe8f5d42	-0.28000838
73	0x3e8f8bd3	0.28036365
74	0x3d6766f9	0.056494687
75	0x3e0f4816	0.13992342
76	0x3eb8ecd0	0.36118174
77	0xbe2037c5	-0.15646274
78	0x3ebbdbd3	0.3669115
79	0x3c9776c2	0.018489245
80	0x3c84d82c	0.01621636
81	0xbe52b709	-0.20577635
82	0xbeb416b5	-0.35173574
83	0x3e55f45d	0.20893998
84	0xbe60bb8c	-0.21946543
85	0xbeba64d6	-0.36405057
86	0x3eae5fc9	0.34057453
87	0xbdb7d69d	-0.08976481
88	0xbd0489ff	-0.032358166
89	0xbec20ff4	-0.37902796
90	0x3e740764	0.23830944
91	0x3d5e76a8	0.05431238
92	0xbeba9f3f	-0.3644962
93	0x3ec66b74	0.38753855
94	0x3bdddf51	0.006771006
95	0x3e981681	0.2970467
96	0xbc955f1f	-0.018233834
97	0x3e94c204	0.29054272
98	0x3e82e4c9	0.25565174
99	0xbe60c9e4	-0.21952015

ode_func.net.2.weight f4 [100, 100]
0	0x3db0b000	0.08627319
1	0x3d968eec	0.07351479
2	0xbd78099a	-0.06055603
3	0xbc7b8d37	-0.015353492
4	0xbaeb6cde	-0.0017961522
5	0x3d53921e	0.05165302
6	0x3d6fbf50	0.05853206
7	0xbc66c773	-0.014085638
8	0xbb70b2ce	-0.003672767
9	0x3d61c765	0.055121798
10	0xbd39d2e1	-0.045367125
11	0x3b96f366	0.004606652
12	0xbda438dc	-0.080186576
13	0x3d17ad35	0.037030417
14	0xbda99fdb	-0.08282443
15	0xbdaddbf8	-0.08489221
16	0xbdb30712	-0.08741583
17	0x3d016b8f	0.031596716
18	0xbb08f272	-0.0020896462
19	0xbd887ac1	-0.066640384
20	0x3d547bb6	0.051875792
21	0xbc88e2d9	-0.016709732
22	0xbdbf0159	-0.09326429
23	0xbd5cedc9	-0.053937707
24	0x3dba608e	0.091004476
25	0xbccf46aa	-0.02530225
26	0x3d62dcf0	0.055386484
27	0x3d00e5d6	0.03146919
28	0xbda54ae1	-0.08070923
29	0xbd72b167	-0.059251215
30	0x3c8bc8c3	0.017063504
31	0x3d84aceb	0.06478294
32	0x3db99beb	0.09062942
33	0x3d94c434	0.07263985
34	0xbd341025	-0.04396071
35	0xbd005dca	-0.031339444
36	0x3d9eb760	0.0774982
37	0x3da52d8e	0.080653295
38	0x3d8ad4f4	0.06778899
39	0x3cd0cdf3	0.02548883
40	0xbd022064	-0.03176917
41	0x3d5364aa	0.051609673
42	0x3ce469eb	0.027882537
43	0xbd622189	-0.055207763
44	0x3d35fbc5	0.04442956
45	0x3cce6fa1	0.025199713
46	0x3cf20b4f	0.029546408
47	0x3d6ad95f	0.057336207
48	0x3d707fa1	0.058715466
49	0xbd834e11	-0.06411374
50	0xbdb156c2	-0.08659126
51	0xbc082339	-0.008309179
52	0xbcbb94d9	-0.022898125
53	0xbda5e877	-0.0810098
54	0x3d01831c	0.031619176
55	0x3d84616b	0.064638935
56	0xbd157dbf	-0.036496874
57	0x3da60335	0.081060804
58	0xbd973677	-0.07383435
59	0x3bc41e52	0.00598506
60	0xbd093970	-0.033502042
61	0xbca174d6	-0.019709032
62	0xbd9cde89	-0.07659633
63	0xbc1d775c	-0.009610977
64	0x3d243ce4	0.040097132
65	0x3d1c8a8f	0.038218077
66	0x3cbb4988	0.02286221
67	0xbd46cc46	-0.048534654
68	0x3cb63fe6	0.022247266
69	0x3dbd4482	0.092415825
70	0x3d4960b7	0.0491645
71	0xbc7f6848	-0.015588827
72	0xbd916cbc	-0.071008176
73	0x3dc347ef	0.095352046
74	0xbc0ad161	-0.008472771
75	0x3d9239c1	0.07139922
76	0xbda76e5f	-0.081753485
77	0x3d9bfda6	0.07616739
78	0x3d5f22e0	0.05447662
79	0x3d8de091	0.06927598
80	0x3cc84a8d	0.024449611
81	0x3d66fc24	0.056392804
82	0x3cbb0ed1	0.022834213
83	0x3d29953d	0.04140209
84	0x3bf6e2eb	0.007534375
85	0x3d86174d	0.06547413
86	0xbd0af185	-0.033921737
87	0xbd1d8390	-0.038455546
88	0xbde9c06d	-0.114136554
89	0x3a8ea9eb	0.001088438
90	0x3b9d6118	0.0048028342
91	0xbd19478e	-0.037421755
92	0xbdb93690	-0.0904361
93	0x3b9480da	0.004531962
94	0xbd696ad9	-0.056986663
95	0x3db10ea0	0.086453676
96	0x3d4a9fd2	0.049468823
97	0xbd1a00d5	-0.03759845
98	0xbd2c2d9f	-0.042035695
99	0x3c1c61b9	0.009544783
100	0x3d27b890	0.040947497
101	0x3b88f84d	0.0041799904
102	0xbdb6e38d	-0.089301206
103	0xbd97f8c8	-0.07420498
104	0x3db7d321	0.089758165
105	0x3db08441	0.086189754
106	0xbdb04711	-0.08607305
107	0xbd946c97	-0.07247274
108	0xbd8718d7	-0.06596535
109	0xbbc01a2f	-0.0058624963
110	0x3dc35903	0.09538462
111	0x3d87eec0	0.06637335
112	0x3d0f7f7a	0.03503368
113	0xbe317d44	-0.17332941
114	0x3d992dd7	0.074794464
115	0x3d0a6cbf	0.033795115
116	0xbd96eb9d	-0.073691584
117	0x3d1d3c75	0.038387734
118	0xbc88c7f6	-0.016696911
119	0xbe3b64ea	-0.18300214
120	0xbde8019b	-0.11328431
121	0xbcb5c501	-0.022188665
122	0xbd5cb3f5	-0.053882558
123	0x3d61ebd4	0.055156544
124	0xbd218464	-0.0394329
125	0xbd225033	-0.039627265
126	0xbb8b1f1a	-0.004245651
127	0x3d9f38a8	0.07774478
128	0x3cd43979	0.025906311
129	0xbdecae8c	-0.1155673
130	0xbdfbec13	-0.12300887
131	0xbcac04b7	-0.020998342
132	0x3deaf085	0.11471657
133	0x3cdf7d23	0.02728135
134	0xbe0b362e	-0.13594887
135	0x3bf72a0f	0.0075428556
136	0xbd90f8b9	-0.0707869
137	0xbc180c31	-0.00928025
138	0x3d82c5fe	0.0638542
139	0xbd909dfe	-0.070613846
140	0x3d15b3f5	0.036548574
141	0x3d45de1b	0.04830752
142	0xbdb4831f	-0.08814072
143	0xbd80df6e	-0.06292616
144	0xbd1f77de	-0.038932674
145	0x3cb39e99	0.021926211
146	0xbcf152bc	-0.029458396
147	0xbce1fd70	-0.027586669
148	0xbd60d205	-0.05488779
149	0xbbad876e	-0.0052956855
150	0xbd5b885b	-0.053596836
151	0x3cfb3f24	0.030669756
152	0x3d6190db	0.055069786
153	0x3d117c15	0.035518724
154	0x3dc9e55d	0.09858201
155	0x3c6963fe	0.014245031
156	0xbd77b83f	-0.060478445
157	0xbda529b8	-0.08064598
158	0x3e3eb10c	0.18622226
159	0xbd8519a0	-0.06499028
160	0xbd2e21cf	-0.04251271
161	0xbd2b9ca3	-0.041897427
162	0x3d35b4e5	0.044361968
163	0xbd2afec6	-0.041746877
164	0xbd193bda	-0.037410595
165	0x3db87bea	0.0900801
166	0xbc275843	-0.010213914
167	0xbd856f31	-0.06515349
168	0x3db4d8fa	0.088304475
169	0x3d136a32	0.035989948
170	0xbdc52dfa	-0.0962791
171	0xbc745a6e	-0.014914138
172	0x3dbe1b18	0.092825115
173	0xbc83d7a3	-0.016094035
174	0xbda0c0fe	-0.0784931
175	0x3d2c9665	0.042135615
176	0xbd8a0f79	-0.067412324
177	0x3d7cd7f4	0.061729386
178	0x3d393849	0.045219693
179	0x3bc92924	0.0061389375
180	0x3c97dc29	0.018537598
181	0x393f92c8	0.0001826986
182	0x3d87c3c5	0.06629137
183	0xbdccd05f	-0.10000681
184	0xbde1b3eb	-0.11020645
185	0x3d440fe2	0.04786671
186	0x3d8ba85d	0.06819222
187	0xbd7a19ff	-0.061059948
188	0xbcdf2731	-0.027240368
189	0x3d7c88bc	0.061653838
190	0x3d9ab980	0.075549126
191	0x3e2b1bc6	0.16709813
192	0xbd43f8d8	-0.047844738
193	0xbdbafb9c	-0.09130022
194	0x3d65eec3	0.056135904
195	0xbce5a943	-0.028034812
196	0x3b4d3367	0.0031311156
197	0x3dbb7881	0.09153844
198	0xbdeb327b	-0.11484238
199	0xbdd9ae37	-0.10628932
200	0x3dd1efa6	0.102507874
201	0x3ccc07a5	0.024905989
202	0xbdad1322	-0.08450915
203	0xbdc05b65	-0.09392432
204	0xbca0ef9f	-0.01964551
205	0xbcb69ed4	-0.022292532
206	0xbd812220	-0.06305337
207	0xbcb6f8d3	-0.022335446
208	0x3c432189	0.011909851
209	0xbdc19fd5	-0.09454314
210	0x3bb2b42b	0.0054536066
211	0x3da372b4	0.07980862
212	0x3d95aaa3	0.07307937
213	0xbd9900f2	-0.074708834
214	0x3b2bfae4	0.0026242072
215	0xbd540f69	-0.05177251
216	0x3d38d19e	0.04512178
217	0x3d0ff074	0.035141423
218	0xbd831611	-0.06400693
219	0xbc8858d0	-0.016643912
220	0xbd8b9a34	-0.06816521
221	0x3d4937d9	0.049125526
222	0x3d054286	0.032534145
223	0xbdc6fba7	-0.097159676
224	0xbd5a6eb2	-0.053328224
225	0xbce9b0f4	-0.02852676
226	0xbd32d60d	-0.043661166
227	0x3cef173e	0.029185887
228	0xbd98d079	-0.07461638
229	0x3dcb54e2	0.099282995
230	0xbd2b5d2a	-0.041836895
231	0xbd04663c	-0.03232406
232	0xbdb09ed9	-0.08624048
233	0xbcd2a52d	-0.025713528
234	0x3d7cb4ee	0.061695985
235	0xbd28a537	-0.041173186
236	0xbc89998d	-0.016796852
237	0xbc9ac1fc	-0.018891327
238	0x3d73a110	0.059479773
239	0x3caac28b	0.020844718
240	0xbd4ec544	-0.050481096
241	0xbd578020	-0.052612424
242	0x3d6d82f7	0.057986226
243	0xbcb732a7	-0.02236302
244	0xbd3a1c9e	-0.045437448
245	0x3d81ddb2	0.06341113
246	0x3d9e7741	0.0773759
247	0x3cc41c08	0.023939148
248	0x3c482cc2	0.012217702
249	0x3d8e3920	0.069444895
250	0x3d94d625	0.07267407
251	0xbdd78f64	-0.105253965
252	0x3c1be721	0.009515555
253	0x39ed025f	0.0004520593
254	0xbc652b7f	-0.013987421
255	0xbc4acd88	-0.012378104

ode_func.net.2.bias f4 [100]
0	0x3d3d9d0b	0.046292346
1	0x3db3dac2	0.08781959
2	0x3d81eb7c	0.06343743
3	0xbc146f5c	-0.009059753
4	0xbcdc6469	-0.026903348
5	0x3d9a3007	0.07528692
6	0x3d2056be	0.039145224
7	0x3da01d6e	0.07818113
8	0x3db61070	0.08889854
9	0x3db5396f	0.08848845
10	0x3d7cad9c	0.061689004
11	0x3d74af61	0.059737567
12	0x3c9bf9b2	0.019039962
13	0xbccddd7e	-0.02513003
14	0xbceaf16e	-0.028679576
15	0xbd400e86	-0.04688885
16	0xbd80e729	-0.0629409
17	0x3cf8701a	0.030326892
18	0xba7fd5ea	-0.00097593537
19	0x3d763290	0.060106814
20	0xbd78a2ad	-0.060702015
21	0x3d9857a0	0.07438588
22	0xbd8c0326	-0.06836538
23	0xbd165716	-0.036704145
24	0xbdb310e7	-0.08743458
25	0x3be46c83	0.0069709434
26	0xbda84969	-0.08217127
27	0xbd6e2035	-0.058136184
28	0xbd8f52f3	-0.06998243
29	0x3d2a06b8	0.041510314
30	0x3b8d07da	0.0043039145
31	0x3bb34a4e	0.0054715043
32	0xbd2f6f30	-0.042830646
33	0xbdb3a6fb	-0.08772083
34	0x3d1dde01	0.038541798
35	0x3cb1d112	0.021706138
36	0x3bcee19a	0.006313515
37	0xbc2f6c1d	-0.010706929
38	0x3d52dfc3	0.051482927
39	0x3d9fb117	0.07797449
40	0xbdba74c2	-0.09104301
41	0xbc89d0da	-0.016823221
42	0xbda256d5	-0.07926718
43	0xbd109316	-0.035296522
44	0xbd6dfb76	-0.05810114
45	0x3d80f4a3	0.06296661
46	0x3ca01eae	0.01954588
47	0xbd1510b5	-0.036392886
48	0x3dbe1b71	0.09282578
49	0xbcff83f1	-0.031190844
50	0xbaefdf0a	-0.0018300724
51	0xbda9084e	-0.08253537
52	0x3a4d4655	0.00078306097
53	0xbccfe6fb	-0.025378695
54	0xbcb88e4c	-0.02252879
55	0xbceef67d	-0.02917027
56	0x3cc16464	0.02360744
57	0x3d655f47	0.055999067
58	0xbdaf3da7	-0.08556681
59	0xbcd79277	-0.026314957
60	0x3dac181b	0.08403035
61	0x3ce9f85b	0.028560808
62	0x3c6e200c	0.014534008
63	0xbd57b000	-0.05265808
64	0xbd1c2dee	-0.03812974
65	0xbdc92179	-0.098208375
66	0xbdaabbcb	-0.083366
67	0x3daca94f	0.084307306
68	0xbdd64140	-0.10461664
69	0x3d73a301	0.059481625
70	0x3dc7cbc1	0.0975566
71	0xbd08da99	-0.033411596
72	0x3d87c8ac	0.06630072
73	0xbcb8ad02	-0.022543434
74	0x3d7fe69f	0.062475797
75	0x3d63aa6f	0.05558246
76	0xbd85efef	-0.06539904
77	0x3db447b4	0.08802739
78	0x3dd3663a	0.103222325
79	0x3dba83bd	0.09107158
80	0x3cb9c44c	0.02267661
81	0x3d3f7853	0.04674561
82	0xbc7407c0	-0.014894426
83	0xbd7c0b18	-0.061534017
84	0x3c39e1df	0.011345356
85	0x3d8909cc	0.06691322
86	0x3d45a0a0	0.048248887
87	0x3da1be6a	0.07897647
88	0xbdac3312	-0.084081784
89	0xbdb0497e	-0.086077675
90	0x3da438b6	0.08018629
91	0xbd9420d7	-0.07232826
92	0x3c3abe25	0.011397873
93	0xbd777044	-0.0604098
94	0x3d59c9bd	0.05317091
95	0x3bf6e4e2	0.007534609
96	0xbd9cd24f	-0.07657301
97	0xbd81092e	-0.06300579
98	0xbd9a04db	-0.07520457
99	0x3cac169c	0.021006875

ode_func.net.4.weight f4 [3, 100]
0	0xbdc5f47d	-0.09665773
1	0x392734be	0.00015946009
2	0x3d1ca252	0.03824074
3	0xbce163d8	-0.02751343
4	0x3d3ac8c5	0.045601625
5	0xbdc7ef49	-0.09762437
6	0xbd16ff56	-0.0368646
7	0x3bff362c	0.00778844
8	0xbd3e3f43	-0.04644705
9	0xbce08bbc	-0.02741038
10	0x3ca12640	0.01967156
11	0x3cabd3a5	0.020974943
12	0x3ccd46d4	0.025058188
13	0xbdc8a9f6	-0.097980425
14	0xbdbafd39	-0.0913033
15	0x3d168385	0.03674652
16	0x3c1f7444	0.00973231
17	0x3da2cc98	0.079491794
18	0x3d9577ad	0.07298217
19	0x3dbbe61c	0.09174749
20	0xbd9f9eda	-0.077939704
21	0xbb9023fe	-0.004398822
22	0x3d5b5eda	0.053557254
23	0x3d79b756	0.06096586
24	0x3d78e921	0.060769204
25	0xbd78dd3d	-0.060757864
26	0x3dc174ab	0.09446081
27	0xbd2292c9	-0.039690766
28	0x3dbd917e	0.09256266
29	0xba852d31	-0.0010160563
30	0xbdb77b8e	-0.08959113
31	0x3d6946ca	0.056952275
32	0xbce4f467	-0.027948571
33	0x3d195faa	0.037444748
34	0xbd5df772	-0.05419106
35	0x3da8187a	0.082077935
36	0x3d6af613	0.05736358
37	0xbd624363	-0.055240046
38	0xbda9b60d	-0.082866766
39	0xbd84a88e	-0.06477462
40	0xbc8a64f2	-0.016893838
41	0x3d87caac	0.066304535
42	0x3dcd01b8	0.100100935
43	0x3e0006a8	0.12502539
44	0xbd071c2f	-0.032985862
45	0xbdb06356	-0.08612697
46	0x3cc6716a	0.024224002
47	0x3bad3d8a	0.005286877
48	0x3dcb373f	0.09922647
49	0x3cea7a11	0.028622659
50	0x3d9dbf51	0.07702506
51	0x3ddb3b6a	0.10704692
52	0xbc90349a	-0.017603207
53	0xbc6ea76d	-0.014566285
54	0x3d6d0202	0.057863243
55	0x3c832c95	0.01601247
56	0x3d9fdd3f	0.07805871
57	0x3dbe833a	0.09302373
58	0xbcc47f1a	-0.023986388
59	0x3d05da16	0.032678686
60	0x3dc9ee05	0.09859852
61	0xbda9299b	-0.08259889
62	0xbd299977	-0.04140612
63	0xbd52b42f	-0.051441368
64	0xbd31be09	-0.043394122
65	0xbc73110c	-0.014835607
66	0xbdab6c29	-0.08370239
67	0xbda15091	-0.07876695
68	0x3bbe3639	0.0058048037
69	0xbd9adab8	-0.075612485
70	0x3c3caa0c	0.011515152
71	0x3c0eaf31	0.008708761
72	0xbd64ce9f	-0.05586111
73	0xbd54143d	-0.051777113
74	0x3dcc5597	0.099772625
75	0xbce692f9	-0.028146254
76	0xbb3f291b	-0.0029168788
77	0x3932f586	0.00017066867
78	0xbd3d4b02	-0.04621411
79	0xbd3a76cb	-0.045523446
80	0x3d8e5321	0.06949449
81	0x3c4aa493	0.012368339
82	0x3dae8987	0.08522325
83	0xbdadea84	-0.08491996
84	0xbd8e40f0	-0.069459796
85	0xbd9737e7	-0.073837094
86	0xbd1b901f	-0.03797924
87	0x3bba917a	0.0056936117
88	0x37af0000	2.0861626e-05
89	0x3d891a75	0.066944994
90	0xbd566943	-0.05234648
91	0xbc9bec6c	-0.019033633
92	0x3d643e8e	0.05572372
93	0xbd642e0c	-0.055707976
94	0x3d730dd4	0.05933936
95	0xbd21c968	-0.039498717
96	0x3cd5bed3	0.026091969
97	0x3d2ff957	0.0429624
98	0x3d194107	0.03741553
99	0xbc656945	-0.014002149
100	0x3db117aa	0.08647092
101	0xbae73a89	-0.0017641346
102	0x3d467f68	0.048461348
103	0x3c884165	0.016632745
104	0xbc52c928	-0.012865342
105	0x3d4ce39f	0.050021764
106	0xbd08bafc	-0.033381447
107	0xbbdcc2f1	-0.006737106
108	0x3db024e4	0.08600786
109	0x3cc6d19c	0.024269871
110	0xbd60e674	-0.054907277
111	0x3dbadaa9	0.09123737
112	0xbd01e935	-0.031716544
113	0xbc804648	-0.015658513
114	0x3cd9f30c	0.026605152
115	0x3d47af02	0.048750885
116	0x3d8a4cc3	0.067529224
117	0xbd25ec51	-0.040508572
118	0xbd66025c	-0.056154594
119	0x3dbd9b52	0.092581406
120	0x3d30337b	0.043017846
121	0xbd9e962d	-0.077434875
122	0xbdbe9f29	-0.09307701
123	0x3d73127a	0.059343792
124	0xbd40247f	-0.046909805
125	0xbd76bf03	-0.060240757
126	0x3cfbf585	0.030756721
127	0xbd6177b5	-0.055045802
128	0xbd83a27c	-0.06427476
129	0xbd4c147a	-0.049824215
130	0x3ced7c1f	0.02898985
131	0x3d9699bd	0.07353542
132	0xbd969ac0	-0.07353735
133	0x3d942282	0.07233144
134	0x3d2ea033	0.042633247
135	0x3cf1a343	0.029496795
136	0xbd2d8b60	-0.042369246
137	0xbda08d32	-0.07839431
138	0x3c87a926	0.016560148
139	0xbcdcb390	-0.02694109
140	0xbd9403a2	-0.072272554
141	0xbd092ecc	-0.033491895
142	0xbc5c7a5d	-0.013456908
143	0xbd5bd4d7	-0.053669777
144	0x3d6587be	0.056037657
145	0xbd6e5f07	-0.058196094
146	0xbdac524e	-0.08414136
147	0x3d12ef25	0.035872597
148	0x3d8a4537	0.06751483
149	0xbcecc201	-0.028901102
150	0x3dc3f845	0.09568838
151	0x3de97fb8	0.114013135
152	0xbdb0495e	-0.08607744
153	0x3d0cab65	0.034343142
154	0x3d669a03	0.05629922
155	0x3d4b60e3	0.049652945
156	0xbd63cb3e	-0.05561375
157	0x3d6ca152	0.057771035
158	0xbd8052e2	-0.06265809
159	0x3c902ad0	0.01759854
160	0x3d1c6b10	0.03818804
161	0x3cff354d	0.031153345
162	0xbaae0af6	-0.0013278413
163	0x3d97f4bc	0.07419726
164	0xbd56db01	-0.052454952
165	0x3cc5b49f	0.024133978
166	0x3c858568	0.016298965
167	0xbc4c408c	-0.012466561
168	0xbc364565	-0.011124943
169	0xbd8a918a	-0.067660406
170	0xbd0f3b7e	-0.034968846
171	0xbc432d85	-0.011912708
172	0x3d12ebc4	0.035869375
173	0x3d759213	0.05995376
174	0x3c59a11d	0.013283041
175	0x3cd19ee2	0.025588457
176	0xbe186a0a	-0.148842
177	0x3d296261	0.041353587
178	0x3d984190	0.0743438
179	0xbd031f18	-0.032012075
180	0x3dbab703	0.09116938
181	0x3c5f30ec	0.013622504
182	0x3a881800	0.0010383129
183	0xbd3f1619	-0.046651933
184	0xbda2e2b4	-0.079533964
185	0xbc6d9fc1	-0.01450342
186	0x3a90282f	0.0010998304
187	0x3d7aeebb	0.061262827
188	0x3d890d03	0.06691935
189	0xbcd3512d	-0.025795544
190	0x3ceb3a5b	0.02871435
191	0x3c4c5fc9	0.012474009
192	0xbd06ac51	-0.032879177
193	0x3da670c1	0.08126975
194	0xbbc1dd27	-0.005916256
195	0xbdc652cb	-0.0968376
196	0x3d1bfa0d	0.038080264
197	0xbcecb754	-0.028896011
198	0x3d71be2a	0.059019245
199	0x3d5c1b85	0.053737182
200	0xbb5ec454	-0.0033991532
201	0x3d66e740	0.05637288
202	0x3b1ad95e	0.0023628096
203	0x3d66d8ea	0.05635921
204	0xbc964676	-0.018344145
205	0xbdb0008c	-0.08593854
206	0x3aa34107	0.0012455293
207	0xbcdbf576	-0.026850443
208	0xbc46bdb0	-0.012130186
209	0xbe2fa48b	-0.17152612
210	0x3c6a5a3b	0.014303739
211	0xbde96236	-0.113956854
212	0x3e3cd0ff	0.184391
213	0x3e9421c0	0.28932
214	0x3e1c75c6	0.15279302
215	0xbdc1b1e1	-0.09457756
216	0x3c45c53a	0.012070948
217	0xbdad3ae3	-0.084584974
218	0x3da8fa10	0.08250821
219	0x3dbf7279	0.09348006
220	0xbc6eb3b5	-0.014569213
221	0xbdb4aa32	-0.08821525
222	0xbd4ccd93	-0.05000074
223	0xbdaf8b8e	-0.0857154
224	0xbe24f15a	-0.16107693
225	0xbd9d8a3e	-0.07692383
226	0xbdea024f	-0.114262216
227	0xbe07071f	-0.1318631
228	0xbe00bd1d	-0.12572141
229	0x3d812221	0.06305338
230	0x3c9d1e4d	0.019179488
231	0xbb65f10d	-0.0035086304
232	0xbb1a5fc5	-0.0023555618
233	0xbc864c1e	-0.016393717
234	0xbb6fc6cc	-0.0036586998
235	0x3dcd310a	0.10019119
236	0xbd3cfc9d	-0.04613935
237	0xbe080923	-0.13284735
238	0xbad39fd3	-0.0016145654
239	0xbdeda09d	-0.116029
240	0xbbf08cc9	-0.0073410016
241	0xbe1c495e	-0.15262362
242	0x3d7b5855	0.061363537
243	0x3e2d5ddb	0.16930334
244	0xbd8188dd	-0.06324933
245	0xbd84acae	-0.064782485
246	0xbe80ac40	-0.25131416
247	0x3eadd7a3	0.3395358
248	0xbe48ca13	-0.19608335
249	0xbd86a5ed	-0.065746166
250	0x3e09c777	0.13454996
251	0x3d95d04e	0.073151216
252	0x3dba59c0	0.0909915
253	0xbe919aa1	-0.28438285
254	0x3ccf4774	0.025302626
255	0xbd22a249	-0.03970555

ode_func.net.4.bias f4 [3]
0	0x3d9bf7b0	0.07615602
1	0xbd2a13d0	-0.0415228
2	0x3ccd023d	0.025025481
