checkpoint/ode_dopri5/pushing_3_steps_ode_dopri5_dynamics_model.pt (torch, 47574 bytes, 6 tensors)

ode_func.net.0.weight f4 [100, 6]
0.11130816 0.21692978 0.039022688 0.30262366 0.2728892 -0.042591944 -0.36116117 0.34501672
0.07486863 -0.029572748 -0.0288455 0.19374372 -0.20348108 0.0693081 0.36496702 0.18749797
0.28755844 -0.0023365547 0.31183755 -0.06462222 -0.15043978 0.2030589 0.48819324 -0.32483447
0.013165256 -0.14107274 0.1624719 0.17735139 -0.3053991 -0.27680382 -0.19075805 -0.41068602
0.18650244 0.26117286 0.45883545 -0.046252493 0.25045955 -0.12549509 -0.37341982 0.065956496
-0.30701753 0.25565574 0.136173 -0.3525505 0.15272272 -0.071471445 0.20296922 -0.04907758
0.2333751 0.37855694 0.16445607 -0.30248886 0.26098046 0.21642809 -0.40453205 -0.33494866
0.3133443 0.01882303 0.052971907 0.3083426 -0.32495928 0.08358439 -0.26722932 0.1810469
-0.03556418 -0.08072331 0.36065504 -0.1826642 0.2895033 -0.1546002 -0.03704825 0.0557201
-0.20491152 -0.013250419 -0.5281692 -0.15825087 0.36813372 0.09807753 -0.17566532 0.26123258
-0.19239159 0.19465826 0.25941676 0.23412502 -0.051469356 0.05739447 0.093023464 -0.04493188
-0.15483426 -0.046555374 -0.08111602 0.06560151 -0.010315628 0.4353314 0.265045 0.057580046
0.23558325 -0.24558458 -0.3885249 -0.081127465 -0.23217969 -0.059006214 0.17151013 -0.32695514
0.11213317 0.16907325 0.25042626 0.1564447 0.16550371 0.30245295 -0.021111177 0.26945385
-0.3744238 0.33633494 -0.3092251 0.2305086 0.05320344 -0.2414572 -0.010969748 -0.113870576
0.25127834 -0.26089865 -0.6317093 0.19614963 0.006994861 0.32539913 -0.28622398 -0.19783758
0.21513128 0.3195665 -0.34944785 0.087371685 -0.03540051 0.22754921 -0.33179995 0.15575878
0.23034449 -0.21555857 -0.08609702 -0.18873744 -0.10651785 -0.35658494 -0.19586743 0.271691
0.32534477 0.06070986 0.19748376 0.28608057 0.18857758 -0.25608718 -0.37845927 -0.0039311815
0.3671808 -0.2843442 0.0074552144 0.10316784 -0.112405576 0.11610812 -0.0059039686 -0.1562615
-0.26196843 0.026953492 -0.28260636 0.2989906 0.18347166 -0.4634303 0.39043522 -0.23415561
0.18248479 0.12770721 -0.15097892 0.36032173 -0.13884102 -0.20974277 -0.10320419 0.14874491
-0.0507367 -0.072894245 0.21640824 -0.0738161 0.14885709 0.25957698 0.03786586 0.053456336
0.15434106 0.24517776 0.13258593 0.1480511 -0.24038032 0.31873024 -0.15428232 -0.007604647
-0.37839723 0.050781243 -0.3282882 0.32887197 0.36127052 0.015111355 -0.12963426 -0.014877264
0.24745397 0.08646775 0.18925917 -0.2840197 0.22937039 -0.33108863 0.32514852 0.337209
-0.21701114 -0.39300537 -0.16288427 0.03296328 0.29957712 -0.08862972 -0.25248376 -0.06347223
0.38439384 0.25625002 -0.1837366 0.3536372 0.41384688 0.38033834 -0.37143445 -0.2366036
0.14299382 0.1868261 -0.020356594 -0.087262265 0.21496813 0.21651423 -0.067756765 -0.2705365
-0.39194793 -0.08476513 -0.22815652 -0.11040076 0.12444263 -0.019348962 -0.4144817 -0.013950776
-0.42230245 0.21754618 0.22348523 0.31147498 0.16348523 -0.00030419408 0.038965322 0.4318053
0.2792196 -0.3555185 0.2467802 0.12594014 0.044124383 -0.25632405 -0.06777129 -0.07749415
00000000: 88f5 e33d d722 5e3e 41d6 1f3d 7df1 9a3e
00000010: 22b8 8b3e e474 2ebd 1eea b8be 08a6 b03e
00000020: b954 993d 8c42 f2bc 664d ecbc c164 463e
00000030: 585d 50be 68f1 8d3d f5dc ba3e 78ff 3f3e
00000040: dc3a 933e e220 19bb 2ca9 9f3e a858 84bd
00000050: e30c 1abe acee 4f3e 77f4 f93e b450 a6be
00000060: 16b3 573c 5f75 10be 095f 263e 9a9b 353e
00000070: 455d 9cbe 3bb9 8dbe 1456 43be 7045 d2be
00000080: 7ffa 3e3e 73b8 853e 7bec ea3e 4173 3dbd
00000090: 3c3c 803e c981 00be e230 bfbe 3314 873d
000000a0: 6731 9dbe 4fe5 823e ef70 0b3e 8081 b4be
000000b0: 5863 1c3e 9f5f 92bd 2ad7 4f3e 9305 49bd
000000c0: e2f9 6e3e 37d2 c13e 2c67 283e d2df 9abe
000000d0: 3b9f 853e 539f 5d3e d31e cfbe 647e abbe
000000e0: aa6e a03e c132 9a3c 12f9 583d 15df 9d3e
000000f0: 1061 a6be 4b2e ab3d 48d2 88be 5c64 393e
00000100: bfab 11bd 4352 a5bd c7a7 b83e 530c 3bbe
00000110: c739 943e 844f 1ebe e8bf 17bd c23a 643d
00000120: 53d4 51be 4918 59bc 1936 07bf 840c 22be
00000130: 067c bc3e dfdc c83d 9ce1 33be 47c0 853e
00000140: 4d02 45be 7f54 473e 46d2 843e 78be 6f3e
00000150: 88d1 52bd 7716 6b3d 1683 be3d 7e0a 38bd
00000160: df8c 1ebe d9b0 3ebd 2820 a6bd 165a 863d
00000170: e102 29bc c2e3 de3e fab3 873e 0ed9 6b3d
00000180: bc3c 713e 867a 7bbe bcec c6be 2826 a6bd
00000190: 83c0 6dbe 80b0 71bd 5aa0 2f3e aa66 a7be
000001a0: 13a6 e53d 8a21 2d3e df37 803e 0a33 203e
000001b0: ce79 293e 1ddb 9a3e 59f1 acbc dbf5 893e
000001c0: 7ab4 bfbe 1834 ac3e c152 9ebe 720a 6c3e
000001d0: daeb 593d 8e40 77be 75ba 33bc fa34 e9bd
000001e0: 8ea7 803e 8294 85be b3b7 21bf 73db 483e
000001f0: 2635 e53b b79a a63e f38b 92be ef95 4abe
00000200: 604b 5c3e 389e a33e d4ea b2be edef b23d
00000210: 2000 11bd a902 693e afe1 a9be 3b7f 1f3e
00000220: 6ddf 6b3e 63bb 5cbe a253 b0bd 6344 41be
00000230: 0826 dabd 4d92 b6be 7991 48be 151b 8b3e
00000240: 9793 a63e e7aa 783d 2f39 4a3e 2779 923e
00000250: 7b1a 413e dc1d 83be 6ac5 c1be 24d1 80bb
00000260: 1fff bb3e 9095 91be df4a f43b a949 d33d
00000270: e534 e6bd 18ca ed3d 1476 c1bb 0403 20be
00000280: ba20 86be 92cd dc3c c8b1 90be 4c15 993e
00000290: ffdf 3b3e bc46 edbe 20e7 c73e 7dc6 6fbe
000002a0: 4bdd 3a3e aec5 023e 389a 1abe 177c b83e
000002b0: 572c 0ebe cfc6 56be b85c d3bd 9650 183e
000002c0: 49d1 4fbd 9449 95bd 1f9a 5d3e e52c 97bd
000002d0: fe6d 183e 46e7 843e 3b19 1b3d 08f5 5a3d
000002e0: 950b 1e3e e10f 7b3e 9bc4 073e b59a 173e
000002f0: 4226 76be 9c30 a33e 2ffc 1dbe 6730 f9bb
00000300: 48bd c1be feff 4f3d 6415 a8be e861 a83e
00000310: 73f8 b83e 9e95 773c d8be 04be c5bf 73bc
00000320: 9364 7d3e 0116 b13d 28cd 413e 086b 91be
00000330: 12e0 6a3e 7384 a9be de79 a63e a8a6 ac3e
00000340: 2b38 5ebe 0038 c9be 22cb 26be 8104 073d
00000350: 2c62 993e 8083 b5bd 8d45 81be bbfd 81bd
00000360: 45cf c43e 3433 833e 7325 3cbe ef0f b53e
00000370: bde3 d33e b5bb c23e a82c bebe 3748 72be
00000380: f96c 123e 574f 3f3e dfc2 a6bc 8fb6 b2bd
00000390: 9b20 5c3e e8b5 5d3e 0fc4 8abd c383 8abe
000003a0: 66ad c8be 5799 adbd dda1 69be cb19 e2bd
000003b0: c7db fe3d b781 9ebc f236 d4be cc91 64bc
000003c0: 0738 d8be 6dc4 5e3e 50d9 643e a679 9f3e
000003d0: ac68 273e 3d7c 9fb9 1a9a 1f3d 9615 dd3e
000003e0: dff5 8e3e 8506 b6be f3b3 7c3e 74f6 003e
000003f0: c5bb 343d e83c 83be adcb 8abd 41b5 9ebd

ode_func.net.0.bias f4 [100]
-0.33214393 -0.19053736 -0.1382518 -0.3095982 -0.018479379 -0.26048002 0.3896357 0.14562257
0.13957922 -0.16317457 -0.40552938 0.3996548 -0.19454606 0.39891705 0.2720105 -0.39968163
0.071930334 -0.2535095 0.05203305 0.35945737 -0.15436748 -0.31597552 0.30392137 0.4094911
-0.19986668 0.32852522 0.18249728 -0.24251446 -0.07331129 -0.3832767 0.37340304 -0.17061685
0.14662497 0.20823026 -0.24246903 -0.13529891 0.24065933 0.12012491 0.22079328 0.13703673
-0.20209138 -0.16919048 0.078132585 -0.1519963 -0.12618878 -0.16246447 -0.17899173 -0.08739251
0.35308516 0.2979028 -0.3566453 0.33000308 0.120066024 0.20860147 0.1288614 -0.21858503
0.01230511 0.3234295 0.1381578 -0.22473983 -0.06581943 0.08987393 -0.18864751 0.30336255
0.11226404 -0.27273056 -0.28266865 0.32740992 0.1492371 0.38374564 -0.29588857 -0.0498165
0.23785414 -0.12833385 -0.060037386 0.33074206 -0.22641648 -0.097816534 0.2774945 0.07652829
-0.08015821 0.14789198 0.4381799 0.050872914 -0.29933316 -0.116815396 0.29453653 -0.05826852
0.27203658 -0.3460698 -0.1974943 0.37824875 0.11384761 0.2784984 0.1451966 0.024632921
0.39894402 0.01206629 -0.172977 0.15953666
00000000: c50e aabe 3a1c 43be e191 0dbe a883 9ebe
00000010: 1162 97bc a35d 85be 557e c73e 151e 153e
00000020: dbed 0e3e 3c17 27be 8ca1 cfbe 8e9f cc3e
00000030: 1537 47be db3e cc3e f644 8b3e 12a3 ccbe
00000040: 3650 933d ffcb 81be 9c20 553d cc0a b83e
00000050: 8212 1ebe 8bc7 a1be 959b 9b3e d1a8 d13e
00000060: daa9 4cbe 7534 a83e 91e0 3a3e b655 78be
00000070: 3b24 96bd d83c c4be af2e bf3e 2fb6 2ebe
00000080: db24 163e 503a 553e cd49 78be cc8b 0abe
00000090: 666f 763e 0c04 f63d a217 623e 5b53 0c3e
000000a0: 0bf1 4ebe 4540 2dbe fa03 a03d eba4 1bbe
000000b0: a237 01be 165d 26be 9c49 37be d8fa b2bd
000000c0: 94c7 b43e b786 983e 369a b6be 2af6 a83e
000000d0: 2de5 f53d a09b 553e 3ef4 033e c1d4 5fbe
000000e0: 5f9b 493c 8d98 a53e 3d79 0d3e 3322 66be
000000f0: 56cc 86bd d30f b83d d02c 41be 5652 9b3e
00000100: b0ea e53d 57a3 8bbe f2b9 90be 46a2 a73e
00000110: 9cd1 183e 4f7a c43e b57e 97be 630c 4cbd
00000120: 0990 733e f369 03be c3e9 75bd 0657 a93e
00000130: b9d9 67be 0954 c8bd c213 8e3e ddba 9c3d
00000140: fd29 a4bd ff70 173e 1e59 e03e 1e60 503d
00000150: 3242 99be e93c efbd 7ecd 963e f9aa 6ebd
00000160: 6148 8b3e 1030 b1be f23b 4abe d2a9 c13e
00000170: f028 e93d 5897 8e3e 6bae 143e fbca c93c
00000180: 6442 cc3e b0b1 453c e220 31be 945d 233e

ode_func.net.2.weight f4 [100, 100]
-0.1246461 -0.010531812 -0.05315822 -0.14360496 -0.0929113 0.101335496 0.088381045 0.053073373
0.033689845 -0.11609345 0.08742477 0.005631247 -0.01674983 -0.0735509 -0.03883809 -0.115301
-0.03128751 -0.031634755 -0.06725555 0.009022603 -0.082633816 0.09207788 -0.05359411 -0.07784584
0.044373125 0.029806819 -0.012257785 0.23507226 0.07931623 0.054464318 -0.08138429 -0.042937186
-0.09736475 -0.023623733 -0.06163679 0.05278195 -0.057868578 0.033347636 -0.004452227 0.08827112
-0.041576765 -0.013798239 -0.09277388 0.01025405 -0.06050928 -0.10876624 0.08833847 -0.037862144
-0.056909546 0.07606259 -0.060626287 0.08618451 -0.0732575 0.0125058545 0.043578118 -0.121424556
-0.059479684 0.03309581 0.07323905 0.033955526 0.0914553 0.006327537 0.021063326 -0.06208304
0.05471787 0.05310895 0.12498206 0.06984858 0.021156956 -0.020872315 -0.06565663 0.010745748
0.07232955 -0.110612474 -0.012138505 0.08552835 0.09699206 -0.024417788 0.03895749 0.06475558
0.14167649 -0.042554587 0.052468073 0.056713324 -0.0068689557 0.0820275 -0.0382534 -0.08791114
-0.0924778 0.09490617 -0.09052819 -0.001138831 -0.08894993 0.036820892 0.07269737 0.083975725
-0.0011164203 0.11596703 -0.020466011 -0.045644358 -0.043200593 -0.036529224 0.08215486 -0.004131387
-0.07887356 -0.067300476 0.044537753 0.09291478 0.088671125 0.050520904 -0.090512075 -0.08281762
0.031370573 0.016034532 -0.050749723 -0.031218598 -0.037652656 -0.061536707 0.011022593 -0.034290306
0.09393633 -0.088071935 0.06429368 0.030050872 0.01286208 0.03459957 0.100942045 -0.004476951
0.020751836 -0.028788472 0.09620089 0.04853165 -0.026572054 -0.041100945 0.08289678 -0.010566837
0.038890168 -0.052421235 0.063056566 0.041855004 0.020500802 0.02555886 -0.011067036 0.012791173
0.02949213 0.03195692 0.030662386 0.010213136 0.054924447 0.11565348 -0.077018596 0.024823798
0.06385029 0.024686301 -0.06926682 0.06261093 0.049401455 0.04638953 0.081459716 0.08262972
0.045241244 0.025226336 -0.014892991 0.023897817 -0.09224751 -0.06440744 -0.026605641 -0.09785354
-0.061943952 0.06797542 0.021572204 0.07582444 0.035410985 0.025488697 0.052336175 0.09255686
0.09426721 -0.048486993 0.024550278 -0.023064535 -0.075209856 -0.08291915 -0.073574625 -0.058783367
-0.050596263 0.005565038 0.058902897 0.033258587 0.025181495 -0.027061453 -0.023230102 -0.061852142
0.025227567 -0.08467716 -0.0533112 0.09761753 0.0282329 -0.082073495 -0.06348617 -0.0073253177
0.039081167 -0.07322645 0.07153565 -0.057877444 0.08224893 -0.043613553 0.0722318 0.07301159
-0.03446864 0.08851452 -0.025975538 0.030047107 -0.036952093 -0.091397874 -0.08580565 0.0025917962
-0.03904628 -0.013935902 -0.094108894 -0.0023870044 -0.07110752 0.0723155 -0.022432989 0.068348125
0.03637895 -0.05890516 0.08378506 -0.07889559 0.00035672906 0.03390924 -0.011815241 -0.09306693
-0.009029268 0.083334 0.0010344157 -0.00073516945 -0.06280265 0.08994616 -0.06998309 -0.05643256
-0.0031972218 0.02817197 0.053619295 0.043265834 0.063052006 0.046151888 -0.08624031 -0.03771289
-0.07924932 -0.09164948 -0.018370269 0.059388913 0.024019213 -0.01820519 0.06271006 -0.0013119084
00000000: 7446 ffbd 9f8d 2cbc 6fbc 59bd 2e0d 13be
00000010: 4848 bebd fc88 cf3d 1f01 b53d 7763 593d
00000020: 5dfe 093d 67c2 edbd c20b b33d 5386 b83b
00000030: f136 89bc dba1 96bd b014 1fbd ee22 ecbd
00000040: 5527 00bd 7293 01bd 47bd 89bd 8ad3 133c
00000050: eb3b a9bd 5493 bc3d 7f85 5bbd a46d 9fbd
00000060: 98c0 353d 6e2d f43c e0d4 48bc c8b6 703e
00000070: 8c70 a23d fa15 5f3d ceac a6bd e7de 2fbd
00000080: 2c67 c7bd 8f86 c1bc dc76 7cbd e331 583d
00000090: 9a07 6dbd 8897 083d fde3 91bb 7dc7 b43d
000000a0: 664c 2abd 0212 62bc 3b00 bebd 9a00 283c
000000b0: 94d8 77bd d6c0 debd cdea b43d 5615 1bbd
000000c0: fc19 69bd b4c6 9b3d 4553 78bd 8181 b03d
000000d0: 0708 96bd 5be5 4c3c f87e 323d 70ad f8bd
000000e0: f8a0 73bd 798f 073d 5bfe 953d f314 0b3d
000000f0: eb4c bb3d 3a57 cf3b ff8c ac3c c94a 7ebd
00000100: d81f 603d c588 593d 98f6 ff3d c60c 8f3d
00000110: 5a51 ad3c 6bfc aabc fc76 86bd ef0e 303c
00000120: 8421 943d cb88 e2bd 94e0 46bc 7d29 af3d
00000130: c6a3 c63d d007 c8bc e491 1f3d 939e 843d
00000140: a413 113e b84d 2ebd c3e8 563d 3b4c 683d
00000150: fa14 e1bb 09fe a73d 99af 1cbd c10a b4bd
00000160: 0065 bdbd 2b5e c23d d866 b9bd d444 95ba
00000170: 622b b6bd 81d1 163d 5ce2 943d 77fb ab3d
00000180: d954 92ba 1f80 ed3d 56a8 a7bc 94f5 3abd
00000190: 1bf3 30bd ab9f 15bd cf40 a83d 9660 87bb
000001a0: 7688 a1bd d5d4 89bd 386d 363d 1b4a be3d
000001b0: 3599 b53d 02ef 4e3d 655e b9bd 499c a9bd
000001c0: 6e7e 003d da5a 833c f1de 4fbd 25be ffbc
000001d0: ac39 1abd ea0d 7cbd 1b98 343c fe73 0cbd
000001e0: b161 c03d 0f5f b4bd 68ac 833d 3f2d f63c
000001f0: 79bb 523c 47b8 0d3d b4ba ce3d 63b3 92bb
00000200: c1ff a93c cdd5 ebbc f904 c53d 20c9 463d
00000210: a3ad d9bc 7759 28bd c9c5 a93d 8720 2dbc
00000220: 4c4b 1f3d a6b7 56bd cd23 813d 2770 2b3d
00000230: 4cf1 a73c d060 d13c 8352 35bc 1192 513c
00000240: 7b99 f13c 42e5 023d af2f fb3c ff54 273c
00000250: 75f8 603d bbdb ec3d edbb 9dbd 475b cb3c
00000260: f1c3 823d ed3a ca3c c3db 8dbd 293a 803d
00000270: 2e59 4a3d f302 3e3d 5ad4 a63d c539 a93d
00000280: e24e 393d 76a7 ce3c bb01 74bc 5bc5 c33c
00000290: 43ec bcbd 0ce8 83bd 13f4 d9bc 7067 c8bd
000002a0: f1b8 7dbd b236 8b3d 31b8 b03c d849 9b3d
000002b0: 1c0b 113d accd d03c 755e 563d 738e bd3d
000002c0: 2b0f c13d 4c9a 46bd aa1d c93c d6f1 bcbc
000002d0: a007 9abd 84d1 a9bd 4bae 96bd d4c6 70bd
000002e0: 073e 4fbd ec5a b63b 2a44 713d 283a 083d
000002f0: 6c49 ce3c fbaf ddbc 0e4d bebc ac58 7dbd
00000300: 0baa ce3c 386b adbd d85c 5abd b3eb c73d
00000310: af48 e73c 2616 a8bd 0905 82bd 3809 f0bb
00000320: 9313 203d c0f7 95bd 4881 923d e610 6dbd
00000330: 2172 a83d 20a4 32bd 44ee 933d 1a87 953d
00000340: fd2e 0dbd 1a47 b53d a7ca d4bc 5a25 f63c
00000350: 145b 17bd cf2e bbbd dfba afbd 20db 293b
00000360: feee 1fbd 6953 64bc 2abc c0bd 4a6f 1cbb
00000370: d2a0 91bd 261a 943d 63c5 b7bc 1afa 8b3d
00000380: 1802 153d 8946 71bd 8097 ab3d 0394 a1bd
00000390: 5d07 bb39 6ae4 0a3d b694 41bc e099 bebd
000003a0: 7fef 13bc 04ab aa3d 3b95 873a 63b8 40ba
000003b0: ad9e 80bd b135 b83d 4b53 8fbd d425 67bd
000003c0: 7b88 51bb e7c8 e63c e89f 5b3d 8437 313d
000003d0: 6921 813d c309 3d3d c29e b0bd d578 1abd
000003e0: 784d a2bd b9b2 bbbd 3f7d 96bc ca41 733d
000003f0: f1c3 c43c 0d23 95bc 226e 803d 57f4 abba

ode_func.net.2.bias f4 [100]
-0.02852482 -0.024975037 -0.017024502 -0.07936493 0.0414613 0.07418756 -0.08844466 -0.041972112
-0.0029924724 0.01574317 -0.076773286 -0.042933695 -0.011046461 0.06913725 -0.07375869 -0.0066903657
-0.07658719 -0.014153551 -0.008902311 0.024933763 -0.07859465 -0.056852575 -0.022420347 -0.027030816
-0.042915627 -0.0015219771 -0.08183516 -0.02223302 -0.03793909 0.020820197 0.09856486 0.09340475
0.026437528 0.098819956 0.040169727 0.12833682 0.035469852 -0.062441316 -0.070663914 -0.095250964
0.02668437 -0.081920005 0.089636676 0.01786922 0.088658966 -0.033016644 0.0030806707 0.08063555
0.096748054 0.099656336 -0.035092622 -0.028923506 0.08496892 -0.03452174 -0.036705952 -0.08274733
0.07913937 -0.09431797 -0.06670128 -0.0920136 0.053955745 -0.012554997 -0.017149696 -0.056139614
-0.041587554 -0.04384758 -0.043341607 0.035830293 0.010651607 0.094896264 0.09693794 -0.009739575
-0.06470561 0.0056415275 0.025995571 0.07811872 0.0014074951 -0.049831502 0.026377121 0.037729762
0.042084385 0.07252111 -0.07350935 -0.09540711 0.043627616 0.035087958 -0.020606227 0.08825329
0.03637532 0.035931982 0.089071326 0.043284368 0.09135502 0.08269499 -0.07766067 0.056894448
0.00681436 0.060618307 0.05005827 -0.045695852
00000000: e2ac e9bc 7398 ccbc f876 8bbc 158a a2bd
00000010: 53d3 293d a6ef 973d 7922 b5bd f3ea 2bbd
00000020: 5b1d 44bb d2f7 803c 503b 9dbd 3edb 2fbd
00000030: 37fc 34bc d597 8d3d cc0e 97bd db3a dbbb
00000040: bfd9 9cbd 4ce4 67bc 00db 11bc e441 cc3c
00000050: 3bf6 a0bd 3fde 68bd e0aa b7bc bb6f ddbc
00000060: 4cc8 2fbd 147d c7ba 3199 a7bd 0622 b6bc
00000070: 0566 1bbd 1e8f aa3c 60dc c93d fd4a bf3d
00000080: 8493 d83c 1e62 ca3d 0389 243d ba6a 033e
00000090: d648 113d 77c2 7fbd 3eb8 90bd f012 c3bd
000000a0: 2e99 da3c adc5 a7bd 6f93 b73d 7862 923c
000000b0: d592 b53d 763c 07bd 14e5 493b 4024 a53d
000000c0: d823 c63d 9f18 cc3d 48bd 0fbd fdf0 ecbc
000000d0: 2f04 ae3d ab66 0dbd fb58 16bd 6f77 a9bd
000000e0: d213 a23d c829 c1bd ae9a 88bd a071 bcbd
000000f0: b300 5d3d 79b3 4dbc 857d 8cbc a7f2 65bd
00000100: b657 2abd 8599 33bd f886 31bd c9c2 123d
00000110: 1484 2e3c f958 c23d 6687 c63d bd92 1fbc
00000120: 6084 84bd 90dc b83b aaf4 d43c b5fc 9f3d
00000130: b37b b83a 1e1c 4cbd d514 d83c 868a 1a3d
00000140: ad60 2c3d f385 943d 128c 96bd ce64 c3bd
00000150: dfb2 323d 64b8 0f3d 64ce a8bc 24be b43d
00000160: 4afe 143d 6a2d 133d 076b b63d f34a 313d
00000170: 5718 bb3d fe5b a93d 8f0c 9fbd 270a 693d
00000180: ff4a df3b e74a 783d e709 4d3d 932b 3bbd

ode_func.net.4.weight f4 [3, 100]
0.06793111 -0.026968224 0.0054671033 -0.08710788 0.031517874 0.042163227 -0.07579962 -0.016444659
-0.060076006 0.07031839 0.06826832 -0.022612004 0.024096472 0.05374673 0.01524792 -0.00019196712
-0.033488218 -0.06283904 0.009073198 -0.025602749 0.024547005 -0.010471987 0.027917294 -0.05469336
-0.04026398 0.027473036 -0.007678202 0.03456849 -0.06092324 -0.027487932 0.016645798 -0.05294966
-0.05103613 -0.033325624 -0.03753845 0.02269974 -0.014362916 0.06358885 -0.09501189 -0.06958233
-0.074266545 0.0975409 0.019038001 0.0434873 0.028854888 -0.030518543 0.025415162 0.018505331
0.0075604673 0.026209388 0.015327048 0.050044753 -0.019075925 0.015250188 0.103395216 0.028092159
-0.014680785 -0.03640125 0.033224266 0.066771954 -0.001248002 -0.057914685 -0.048244026 0.031513084
0.08888247 0.013101323 -0.05488897 -0.08842385 -0.05669521 -0.044384558 -0.06888659 -0.048162982
-0.022928646 -0.039694674 0.07796927 -0.063963175 -0.034231372 -0.080170795 -0.03518065 0.083773516
-0.05064067 -0.08112993 -0.010047913 0.004668321 -0.01164343 0.01351425 -0.0052702 -0.09359495
-0.07433586 -0.041025918 -0.0066046654 0.0017447575 0.090274595 -0.0415565 0.014811396 0.06922912
0.07236405 0.07016518 0.0032159786 -0.024163984 0.0906305 0.06671247 -0.09437796 0.06670706
0.003323302 -0.09381921 -0.021457799 -0.09496158 -0.0922252 -0.05070853 -0.004873261 0.07534011
0.06486071 0.096510544 0.0074082892 -0.09171919 0.007522609 -0.035530314 -0.07647957 0.009437449
-0.06379304 0.069355324 -0.0005942911 -0.04246689 -0.030295687 0.0072156372 -0.061496064 0.021609372
-0.000668807 -0.021543643 -0.026776077 -0.08360926 0.045956153 0.037104923 0.054441594 0.018703777
0.0049981144 -0.0245162 0.018595677 -0.055912852 -0.036928672 -0.05166433 -0.08175625 -0.027916811
-0.07739197 -0.07809317 0.06450356 -0.03341801 -0.06345246 -0.029483978 0.10018488 0.078816935
-0.06074751 0.020502226 -0.027031414 -0.07630318 -0.023421424 0.050021823 -0.08665376 -0.031315792
0.0043625236 -0.05814386 -0.027533863 0.07684203 -0.0057038013 -0.016213177 0.048140254 0.0663921
0.07947977 -0.016607177 0.027086629 0.03747237 -0.0435962 -0.016328998 0.053746454 0.019377336
-0.06565372 0.010171809 0.09673298 0.022624845 -0.034538712 0.04140252 -0.087322704 -0.10637587
-0.08848745 0.027644424 0.010009726 -0.072336845 0.026552595 -0.053288087 0.06859838 -0.023780307
-0.004044886 -0.081762075 -0.078202285 -0.085254274 0.07945757 -0.008668939 0.009657634 -0.096349776
-0.047260903 0.053858712 -0.002968982 0.016836591 0.242265 0.09522865 -0.07922323 -0.039001085
0.011990977 0.06445485 -0.0033696785 -0.0095711965 0.14340648 0.09892075 -0.26500058 0.15228063
0.13234776 0.22579727 -0.006927526 0.10870123 -0.024081005 -0.14283697 0.115677044 0.07345554
0.052225016 0.066406846 -0.044784494 0.0074568223 0.07652464 0.04053682 0.5397028 -0.19278099
0.11621905 0.08353836 -0.22492397 -0.16544819 -0.3460393 -0.013915444 0.038845822 0.24969319
-0.1743697 -0.2092558 0.042436402 -0.01659606 -0.08220847 0.006958486 0.2245089 -0.21158828
0.122034356 -0.08575666 0.009378357 0.010225087 -0.043248188 -0.29989612 -0.141856 -0.06967967
00000000: 771f 8b3d 77ec dcbc 6325 b33b 9e65 b2bd
00000010: e318 013d 59b3 2c3d d53c 9bbd f3b6 86bc
00000020: 4212 76bd 1703 903d 43d0 8b3d cf3c b9bc
00000030: f765 c53c 8825 5c3d 69d2 793c c84a 49b9
00000040: f12a 09bd c1b1 80bd c0a7 143c dbbc d1bc
00000050: cd16 c93c b292 2bbc cfb2 e43c 2506 60bd
00000060: d8eb 24bd 220f e13c 6d99 fbbb b097 0d3d
00000070: a68a 79bd 5f2e e1bc c55c 883c bee1 58bd
00000080: 430b 51bd 7380 08bd ebc1 19bd cef4 b93c
00000090: 7052 6bbc df3a 823d 9895 c2bd 2e81 8ebd
000000a0: 0f19 98bd 86c3 c73d 95f5 9b3c bd1f 323d
000000b0: 1661 ec3c 0602 fabc 7533 d03c 7e98 973c
000000c0: ccbd f73b 12b5 d63c 4c1e 7b3c bafb 4c3d
000000d0: 1d45 9cbc eddb 793c dfc0 d33d 8721 e63c
000000e0: ad87 70bc 7a19 15bd 2b16 083d bcbf 883d
000000f0: 0094 a3ba f337 6dbd 879b 45bd dd13 013d
00000100: 0308 b63d eea6 563c 42d3 60bd 9017 b5bd
00000110: 3d39 68bd 95cc 35bd 6a14 8dbd 8c46 45bd
00000120: dbd4 bbbc e296 22bd 5aae 9f3d 20ff 82bd
00000130: 3236 0cbd 9630 a4bd 9619 10bd 7391 ab3d
00000140: 976c 4fbd 7327 a6bd 00a0 24bc b7f8 983b
00000150: 16c4 3ebc df6a 5d3c a4b1 acbb b6ae bfbd
00000160: 663d 98bd cb0a 28bd f36b d8bb 59b0 e43a
00000170: e3e1 b83d 2637 2abd 7fab 723c ffc7 8d3d
00000180: 9a33 943d c3b2 8f3d 2bc3 523b 8cf3 c5bc
00000190: 7c9c b93d 8ca0 883d 3b49 c1bd b69d 883d
000001a0: c1cb 593b 4924 c0bd 44c8 afbc 387b c2bd
000001b0: 91e0 bcbd bfb3 4fbd e0af 9fbb ea4b 9a3d
000001c0: b1d5 843d 52a7 c53d 3cc1 f23b 45d7 bbbd
000001d0: 3880 f63b 3c88 11bd 52a1 9cbd 889f 1a3c
000001e0: eda5 82bd 2a0a 8e3d 33ca 1bba c3f1 2dbd
000001f0: a92e f8bc 2771 ec3b 4ce3 7bbd 2306 b13c
00000200: e152 2fba 4b7c b0bc 8159 dbbc 553b abbd
00000210: 853c 3c3d 55fb 173d 26fe 5e3d aa38 993c
00000220: 39c7 a33b 33d6 c8bc f655 983c e004 65bd
00000230: 8542 17bd fa9d 53bd d26f a7bd ccb1 e4bc
00000240: ae7f 9ebd 50ef 9fbd 711a 843d 53e1 08bd
00000250: 5df3 81bd 6288 f1bc bb2d cd3d c66a a13d
00000260: 62d2 78bd 49f4 a73c fc70 ddbc d744 9cbd
00000270: 49de bfbc afe3 4c3d 8777 b1bd fd44 00bd
00000280: 80f3 8e3b 4228 6ebd b28e e1bc 5b5f 9d3d
00000290: f4e6 babb 7fd1 84bc b72e 453d 95f8 873d
000002a0: 4ac6 a23d c60b 88bc c7e4 dd3c a17c 193d
000002b0: ee91 32bd 64c4 85bc 3e25 5c3d 38bd 9e3c
000002c0: 7575 86bd a9a7 263c f11b c63d bd57 b93c
000002d0: 7778 0dbd b095 293d 3fd6 b2bd 98db d9bd
000002e0: e838 b5bd 8f76 e23c d5ff 233c 5725 94bd
000002f0: d484 d93c 9c44 5abd 4f7d 8c3d ebce c2bc
00000300: f78a 84bb e072 a7bd 8528 a0bd cb99 aebd
00000310: a7ba a23d 2a08 0ebc 0e3b 1e3c 0853 c5bd
00000320: a694 41bd f49a 5c3d 4193 42bb e4ec 893c
00000330: 5114 783e 3d07 c33d ca3f a2bd 9abf 1fbd
00000340: ce75 443c e800 843d d3d5 5cbb 82d0 1cbc
00000350: 26d9 123e f696 ca3d 28ae 87be 74ef 1b3e
00000360: 2c86 073e 6637 673e 4d00 e3bb c09e de3d
00000370: 8745 c5bc db43 12be 16e8 ec3d dc6f 963d
00000380: e6e9 553d 5000 883d f26f 37bd 5c58 f43b
00000390: f3b8 9c3d f009 263d f629 0a3f 6168 45be
000003a0: 4104 ee3d 2916 ab3d 7852 66be 406b 29be
000003b0: 102c b1be 9afd 63bc cc1c 1f3d 92af 7f3e
000003c0: f88d 32be 2747 56be cbd1 2d3d 76f4 87bc
000003d0: ea5c a8bd 0304 e43b a9e5 653e 99aa 58be
000003e0: 26ed f93d 30a1 afbd aea7 193c 2087 273c
000003f0: 0325 31bd fc8b 99be b342 11be 37b4 8ebd

ode_func.net.4.bias f4 [3]
0.07139839 0.030449884 0.0761309
00000000: 5239 923d 0972 f93c 84ea 9b3d
