checkpoint/pushing_multi_step_residual_dynamics_model.pt (torch, 47526 bytes, 6 tensors)

net.0.weight f4 [100, 6]
00000000: b009 313e abaf 503e 8ae1 bebe 46be d7be
00000010: 619b 94be 6301 36be bb6f bfbe 7f36 94bc
00000020: 7254 e5bb 3d0d c93d 33b1 12be 741d 8bbe
00000030: ae20 96be 1f4c f43d c233 b83e e70d 1cbe
00000040: 76af 27be 0169 1ebe 80ee 823e 0449 afbe
00000050: 7477 8a3e a206 723d 2aac 67be 6edc 1abb
00000060: 75e9 5bbc 59ff 91be 12ec 9dbe a810 b3be
00000070: 9865 19be 608a f2bd 62a5 3e3e 8bad a1bc
00000080: 19a0 563e 9914 9d3d 3b76 063e 3e54 533e
00000090: d07a 82bd 911a 943e cdb6 c8be 246f bd3e
000000a0: 8403 18be 9839 96bd 3004 03bd ba13 79be
000000b0: dbc3 193e 7027 a9be 53a6 93bc a4d8 abbe
000000c0: 980b c6be 44b4 2d3e e13d 143e c2f6 a1be
000000d0: 401d c9be 56ef 38bd a9d2 aa3e 8772 07be
000000e0: 78dc fdbd 2dff 983e a25c ca3e 83b4 783d
000000f0: 6422 b03e bdb4 8fbc 67d9 2b3e 198d 843d
00000100: bfb5 363e 6c47 8a3e 0c01 f9bd 4846 c1bd
00000110: f04d a4bc 785c c03d 7a18 78be f1aa 843d
00000120: e70d 8f3d ecf8 0abe 40ca adbd acd8 c73c
00000130: 054b c8bc decc 8c3e 6a5b 813e 5b01 a8be
00000140: ce68 c2be ff20 b23e 6b5f 013e 80c7 91be
00000150: 8e3e 41bd b2a8 e6bc c503 26bd 397d 8fbe
00000160: 1235 99be ebe3 443e 7ab6 ffbd 3529 4ebe
00000170: dc6f b83e 20e1 d6be 3bcd 2abc 0316 91be
00000180: cf37 be3e e46d b2bc 6c34 8d3e 1865 afbe
00000190: e704 26be a88a 97be cf66 c4bd e753 333e
000001a0: bb22 89be ba13 a93e 8d71 ce3e e675 babd
000001b0: b102 8dbd f647 263e 113b da3e bb1f 7b3d
000001c0: 9d26 5f3e aee4 45bc 3bcb d4bc e38a 9dbe
000001d0: 1d17 43be c394 dabd 80cb 853d 9698 cd3e
000001e0: a67f bb3e 052d a7bc 18d4 123e a430 2a3e
000001f0: 0b01 3b3e 8280 e5bd 777a 50bc 2a11 3d3e
00000200: b959 113e a01a 8b3e 27ee e33e 39ec 06be
00000210: ccd6 2fbe 4d04 bfbe eb9b cdbd ee43 703d
00000220: e53a d53e bf8c 7d3d 8389 bebd f64c 443e
00000230: 2e8d 623e a1bc b13e e459 6cbe 2cb8 85be
00000240: d3e7 993e 94c5 a23d 7165 493e aa55 fc3d
00000250: c60f 8b3e c19e b2be 2372 73be e7ec 243e
00000260: 6d57 5f3e 8f78 dfbe 155f 693e fd04 48bc
00000270: 391f d13e d0a4 66be 3280 a33e 6f53 bb3d
00000280: 325e c63d 212c 82be dcfd dc3d 09bb f53d
00000290: a62f fd3c c22e d03d 4af4 d13e a9c7 bd3e
000002a0: 6551 d13e e915 f93d 7a3e ec3d 74c8 9dbe
000002b0: ceae 99be 3ae6 9a3e d3f8 b43e 6957 9e3c
000002c0: 7015 84be dac0 123e d481 8dbe 7112 45be
000002d0: fbbd ecbc f233 3e3e c1d8 b0bd 4587 163e
000002e0: a5a2 c33e 024b bf3d 3d36 abbe 206c 07be
000002f0: 93db 053e 0724 22be b4ad ccbd 8218 a43e
00000300: 024f 893d e3b6 9cbd 5146 80bd b40c 913d
00000310: 7a23 863e d9fd aabe 8657 a83d f687 62bd
00000320: 7b9c 903d e428 0b3e a7cd 3e3e 0744 31be
00000330: b427 073e 5f7d e6bd dfa1 933e 4eba 2dbb
00000340: d268 d3be 25bc 86bd d494 ab3e da82 b23e
00000350: 9d9e 3ebd 7bcc 90be 943d 933e 0b9d b0be
00000360: 59aa 08be 6fb1 9abd a81d bf3e f430 b0be
00000370: b81b c3be 2ac5 1d3e 3697 9e3e 0df5 b1be
00000380: f6a3 e1be 72fb 47be 992a 253d da1f 06be
00000390: 6e1f 9a3e ffa3 a4be ad3c af3d c42e b3bd
000003a0: 8b20 65be d62b 8fbe 178a 02bd 58ef 113e
000003b0: 2891 973e 4142 fd3d 3fe0 24be fe04 a4bd
000003c0: d3fa 9fbe 6079 a23d 7ec1 38be df92 07be
000003d0: 25ae cfbd 72b9 69be 8f9b 4c3e ba16 083d
000003e0: 8fa9 c93d 816b 973e dba8 db3d e483 9a3d
000003f0: 44ab 713e b9d5 90be e379 c03e d0ec b13e
0.17288852 0.20379512 -0.37281448 -0.42137355 -0.29024795 -0.17773966 -0.3738993 -0.018092392
-0.006998592 0.09816978 -0.14325409 -0.27170908 -0.29321808 0.119285814 0.35976988 -0.15239678
-0.16375527 -0.15469743 0.25572586 -0.34235394 0.2704426 0.059088357 -0.22624269 -0.0023629921
-0.01342236 -0.28515127 -0.3084417 -0.34973645 -0.14980161 -0.11842799 0.18617776 -0.019736072
0.2095951 0.07669944 0.13131039 0.20637605 -0.06371081 0.2892652 -0.39201966 0.36998856
-0.14845091 -0.07335204 -0.031986415 -0.24323931 0.15016119 -0.330379 -0.018023646 -0.3356372
-0.3868072 0.16963297 0.1447673 -0.31633574 -0.39280128 -0.045150124 0.33363846 -0.13227282
-0.12395567 0.29882184 0.39523798 0.060719024 0.34401238 -0.017542237 0.16782151 0.06472225
0.17842768 0.27007616 -0.12158403 -0.09437233 -0.020056695 0.09392637 -0.24228087 0.06477917
0.069850735 -0.13571519 -0.08485842 0.02439531 -0.024449835 0.2750005 0.25265056 -0.32813534
-0.37970585 0.347908 0.12634055 -0.2847252 -0.047178797 -0.028156612 -0.04053094 -0.28025225
-0.29923302 0.19227569 -0.124859765 -0.20132907 0.36022842 -0.41968632 -0.010424907 -0.28337106
0.37151954 -0.021780916 0.27579057 -0.34256816 -0.16212808 -0.29597974 -0.09589922 0.17512475
-0.2678431 0.33022863 0.40321007 -0.091045186 -0.06885279 0.16238388 0.4262319 0.061309557
0.21792074 -0.012078447 -0.025975814 -0.30770025 -0.19051786 -0.10672905 0.06532955 0.40155476
0.36620826 -0.02040721 0.1433872 0.16620117 0.18262117 -0.112061515 -0.01272451 0.18463579
0.14194383 0.2716875 0.44517633 -0.1317605 -0.17171782 -0.3730797 -0.100395046 0.058658533
0.41646495 0.061901804 -0.09303572 0.19169983 0.22124168 0.34714225 -0.23081166 -0.26117074
0.3005968 0.07947841 0.19667603 0.123210266 0.27160472 -0.34886745 -0.23774008 0.16105996
0.21810694 -0.43646666 0.22790177 -0.012208221 0.40844133 -0.22523808 0.31933743 0.09146773
0.09685935 -0.25424293 0.10790607 0.11998565 0.03090651 0.10165168 0.4100669 0.3706639
0.40882412 0.12162382 0.11535354 -0.30816996 -0.30016178 0.30253774 0.35346088 0.01932879
-0.25797606 0.1433138 -0.27638113 -0.19245316 -0.028899183 0.18574503 -0.086350925 0.14700039
0.38210025 0.093404785 -0.33439818 -0.1322484 0.13072042 -0.15834056 -0.09994069 0.32049948
0.06704523 -0.076520704 -0.06263412 0.07082501 0.2619894 -0.33396795 0.08219819 -0.055305444
0.07061096 0.13589817 0.18633138 -0.17311107 0.1319874 -0.112543814 0.28834435 -0.0026508751
-0.4129091 -0.065788545 0.33511984 0.34865457 -0.046537984 -0.28281006 0.28757918 -0.34494814
-0.13346232 -0.07553374 0.37327313 -0.34412348 -0.38107085 0.15407243 0.3097474 -0.3475727
-0.44070405 -0.19529513 0.040323827 -0.13098088 0.30102104 -0.3215637 0.08556495 -0.08749154
-0.22375695 -0.27963132 -0.031869974 0.14251459 0.29602933 0.123661526 -0.16101168 -0.08008765
-0.3124605 0.07933307 -0.18042561 -0.1323962 -0.10140637 -0.22824648 0.19981216 0.0332248
0.09846794 0.29574206 0.10725566 0.075446874 0.23600489 -0.28288057 0.37592992 0.34750986

net.0.bias f4 [100]
00000000: 0424 fdbd 3892 ae3e d2b8 fd3d 6f1a b3bd
00000010: 6f0c ca3e 405b 503e f764 63bd d3f3 e1bd
00000020: c038 433e 314e b8be cbab b7be b949 8d3d
00000030: d7a6 c6be 73f7 e23d 8b85 a13d 9cda 39be
00000040: 440e 423e cba8 383e 46d9 42be daa4 18be
00000050: a373 6c3e 10ce 92be f8a1 913e 4b78 83be
00000060: b80d 7ebe 9067 35be d405 1dbd 1f1d 8ebe
00000070: a656 6a3d aa80 ab3e 9b64 123e cfca 983e
00000080: 4cd4 3a3c 7003 c53e 761c 70be 92f8 29be
00000090: 85b1 42be 58d2 773e 9e20 923e 3076 793d
000000a0: 95bc 723e 5ff8 003e 0d63 2fbe 61ad 943e
000000b0: b333 39bd 0a54 d9be efed 29be 75e6 af3e
000000c0: 953b 393e b218 1bbe aa76 8cbd 1c2a c33e
000000d0: 7957 003e 1e65 8dbe 72d5 c6bd 2775 c63e
000000e0: b568 6ebe 256a 2cbe 9d87 4bbe 26d0 c93e
000000f0: 15df 92be fc44 2cbe be9d 883e b68a a2be
00000100: ee84 933c f5dd 293d d3cf 973e ccbc adbe
00000110: dc0a b13e d489 ae3d 31d5 c13e 18b9 e6bd
00000120: d28f d5bd deb7 0ebe a15f 1fbe 306c 11be
00000130: db47 a63e 5713 6cbe 6e08 1fbe e668 283e
00000140: e73e 113e 4f0a 523e 0183 8b3e 5ecc 31bd
00000150: d854 71be e6e5 cfbe 193e 063e 2a16 c33e
00000160: 1712 c13e 692d 113c 058e 5ebd aebf c93c
00000170: 1225 d73d 0e78 26be 9d10 983e 68d9 bbbe
00000180: ab4d 0a3d 1fd0 813e 58ca 8c3e 4ec0 e7bd
-0.12360385 0.3409593 0.12388767 -0.08745276 0.3946261 0.20347309 -0.05551621 -0.11032834
0.19064617 -0.35997155 -0.35873255 0.06898827 -0.38799164 0.110823534 0.078867994 -0.18149799
0.18950754 0.1803314 -0.19028196 -0.14906636 0.23090987 -0.28672838 0.28443885 -0.25677714
-0.24809921 -0.17715287 -0.038335636 -0.27756593 0.05721154 0.334966 0.1429619 0.2984223
0.011403155 0.38479185 -0.23448357 -0.16598728 -0.19013031 0.24201334 0.2854051 0.060903728
0.23704751 0.12594746 -0.17127629 0.29038528 -0.04521532 -0.4244693 -0.1659467 0.34355512
0.18089135 -0.1514614 -0.06858571 0.38118064 0.12533368 -0.2761621 -0.0970868 0.38761255
-0.2328213 -0.16837366 -0.19875951 0.39416617 -0.28685823 -0.1682319 0.26682848 -0.31746453
0.018007722 0.04147144 0.29650745 -0.33933103 0.34578598 0.085223824 0.37857965 -0.112657726
-0.10427822 -0.13937327 -0.15563823 -0.14201427 0.32476696 -0.23054253 -0.1553056 0.16446266
0.14184152 0.20511745 0.27248386 -0.04340779 -0.23567522 -0.40605086 0.13109626 0.38102847
0.37709114 0.008860924 -0.05433466 0.024627533 0.105051175 -0.16256735 0.29700175 -0.36689305
0.033765476 0.25354096 0.27498126 -0.11315976

net.2.weight f4 [100, 100]
00000000: 937d 713d 0021 d8bc 4da0 143d 63ec 9abd
00000010: 1aaa 20bd eae0 c7bd fa08 09bd a018 c33d
00000020: a378 9abd 9ace cf3c 35eb c9bd 3327 f23a
00000030: 03a1 23bd 4d47 f23c ddd7 13bd bd2e 593d
00000040: c07c 26bc 4bc4 a33d b345 02bc 8dc3 583d
00000050: e7b5 ec3c 1311 2a3d 3810 af3d ad6f d73c
00000060: cd37 0abc e7a9 babc add2 15bd 000e 8cbb
00000070: d085 1cbd 6d03 eebc bb62 9cbd 33a3 043a
00000080: 4077 b0bc 60a0 2fbd 2061 553d 12a4 bfbd
00000090: 5a4d 2cbc e064 a2bd 1223 94bd 27d5 cabd
000000a0: bdb0 2cbd 4dc7 533c a787 cc3c 33c0 563d
000000b0: 2aef 0b3d f74e 6e3d ad93 5dbd ca21 4dbd
000000c0: 324f 90bd 7348 95bd 80ab e1bb 53d6 c6bd
000000d0: 67ec 9fbc fa15 0bbd 7a61 41bd 70ea 65bd
000000e0: 4793 953d 9ab6 6d3c 9ac7 e73a 2d25 65bd
000000f0: 9d36 92bd b3e6 a1bd aaab 9d3d 557d b1bd
00000100: 006a 313b f082 22bd 68c2 c3bd 8bd1 80bd
00000110: 0a0b 00bd 40cd 083d 6a94 81bd 87a0 ee3c
00000120: c8e1 83bd a3f2 19bd f88c cc3d 4b63 92bd
00000130: 3710 503d 0db7 3ebc 47f6 2ebd f35c 93bd
00000140: 875a 913d 5d5a ac3d ed70 133d 8ded 113d
00000150: 9a9d 26ba 2f16 bdbd 40da 733d 4d29 c83b
00000160: caeb 283d 1af0 f0bc 326e a23d a051 88bc
00000170: 27ec 003c e74b 053c a7ba 0bbc 4d33 fd3c
00000180: 43bf 27bd 32df 893d 976f 77bd f7c1 9ebd
00000190: b8fb c6bd 94be 393c c46e 413b ee0b cb3c
000001a0: 1d4f f6bc 9e73 87bc 9c6a 7fbd 59a4 093d
000001b0: 76d9 2fbd 4dd1 05bd 237d f7bd 696e b13d
000001c0: 9b1b dd3b 12e6 973c 60b4 963d 2d41 93bd
000001d0: dd5d ce3c f4e1 583d 42d5 29bd 057a 81bd
000001e0: ba38 2bba f20c 083d 0b43 563d f8bf 823c
000001f0: 74c4 8a3c cb8c 383d 53fd c13b db3a 45bb
00000200: 61b7 93bc 80bb 233d cbdf a03d 5267 3f3d
00000210: b11b ea3c d985 52bd 9274 263d 3b4b 56b9
00000220: 5ae8 bcbd 86ce 863d 0493 693d 6c88 503d
00000230: e4ba 85bd 1150 9e3c 27ce b13d bf5d c23d
00000240: c3f9 623c c17e 4a3e e3cc 37bc c851 4a3d
00000250: 05c9 24bd 8524 6aba fba7 903c c58a c73d
00000260: 7110 a83d f2e7 29be aa81 163d a2fa 02bd
00000270: 4005 54bd 0a3d b2bd 2c10 a83c 93d5 85bd
00000280: 0ea5 933d a693 e03b fa20 8bbc 5c7d 05be
00000290: e79f 07bc a3c7 99bd 7619 8ebd 8a56 a8bd
000002a0: 9532 c2bd 528c 9c3c 77e4 89bd 5d25 a73d
000002b0: 576f f43b 43bf 803d fd2a 89bd f475 d1bb
000002c0: 56e6 db3a 58ad 063d ab2e d13d 37d8 21bd
000002d0: a5d6 b8bd 3d50 04bd 4684 7d3c 2876 873d
000002e0: bae4 b63d b833 dd3c 7314 153a 13eb 1bbc
000002f0: 9069 9cbd e00a e1bd 45df a1bd 2f3c 8d3d
00000300: f392 b73b e53e dc3c d48a eb3c 8d69 42bb
00000310: 183f 48bc a6ca 613d 3934 b0bd 2832 a23d
00000320: 3381 fc3b 6d31 203d 4077 c1bc 86f7 86bc
00000330: 439d 9abd 59cd ae3d 139b c83d 7abe bb3d
00000340: c769 c8bd b51f 953d 3850 b33d e012 943c
00000350: 00cb bcbc c85f fe3c 1be1 84bd 7a81 84bd
00000360: c0f3 403c e4fb 65bd fb6d bbbd 78a5 7fbd
00000370: e500 5fbd 92f7 b6bd 68ad 013c fa9b 1a3d
00000380: 3db8 333d 67bf fb3b 3035 83bc 67eb b63b
00000390: e806 183d acff cdbc 7cbd 3c3d b7d3 833d
000003a0: dfd6 843d 941f 0ebd c7c7 31bd 681a c33d
000003b0: eab8 aabd 5aba 6a3d 90d8 a5bd 6a97 473d
000003c0: 0d3a 8cbd d8b5 883d 94c9 bb3c c026 a8bd
000003d0: facf 02bd cd5d 68bb 1aaf d13b 345d 9039
000003e0: c58b 93bd c722 673d f36d 1a3d a774 a83d
000003f0: 5e42 4b3c c093 98bd 73c4 503d 2a61 b2bd
0.058957648 -0.026382923 0.036285687 -0.075646184 -0.03922472 -0.09759696 -0.033455826 0.09526181
-0.07542541 0.02536707 -0.09859315 0.0018474817 -0.039948475 0.029575014 -0.036094535 0.05302309
-0.010161579 0.07996424 -0.007951188 0.052920867 0.028895332 0.04152019 0.08548015 0.026298368
-0.0084361555 -0.022786094 -0.03657787 -0.00427413 -0.03821355 -0.029054368 -0.07636019 0.0005059719
-0.021541238 -0.042877555 0.05209458 -0.09357466 -0.010516489 -0.07929397 -0.07233252 -0.09903937
-0.04216074 0.012925935 0.024967028 0.05242939 0.03416363 0.058180775 -0.054095913 -0.050081052
-0.07046355 -0.07289209 -0.0068868995 -0.09708848 -0.019521905 -0.033956505 -0.0472121 -0.05613178
0.073034815 0.014508868 0.0017683387 -0.055943657 -0.07139323 -0.079053305 0.07698758 -0.08666483
0.0027071238 -0.039675653 -0.095585644 -0.06289967 -0.031260528 0.033398867 -0.06327136 0.02912928
-0.06439549 -0.037584912 0.09987825 -0.07147845 0.050796714 -0.011640322 -0.042715337 -0.07195463
0.07097345 0.08415673 0.035996366 0.035626937 -0.0006355882 -0.09232747 0.05953431 0.006108439
0.04124049 -0.029411364 0.07931174 -0.016640484 0.007868803 0.008135772 -0.008528388 0.030908251
-0.040953886 0.06732024 -0.060409155 -0.077518396 -0.0971598 0.011336941 0.0029515484 0.024785962
-0.030067021 -0.016534623 -0.06235753 0.033604 -0.042931996 -0.032670308 -0.12084415 0.08663637
0.0067476756 0.018542323 0.073586226 -0.07190166 0.025191242 0.05294986 -0.041463144 -0.063221015
-0.0006531585 0.03321547 0.05231003 0.015960678 0.01693938 0.045056146 0.005920091 -0.0030094895
-0.018031778 0.039973736 0.07855185 0.046729393 0.028577657 -0.05139718 0.040638514 -0.00020436656
-0.09224005 0.0658236 0.05702497 0.050911352 -0.06529787 0.019325288 0.086818986 0.09490537
0.013853493 0.19774915 -0.011218282 0.0493944 -0.04023077 -0.00089318334 0.017658224 0.09743265
0.08206261 -0.16592386 0.03674475 -0.031977303 -0.05176282 -0.087030485 0.020515524 -0.06534877
0.07209216 0.0068535386 -0.016983498 -0.13036102 -0.00827787 -0.07508781 -0.0693845 -0.08219631
-0.09482304 0.019109879 -0.06733029 0.08161423 0.007459562 0.0628648 -0.066976525 -0.006392235
0.001677702 0.032880157 0.10213979 -0.03951284 -0.09025315 -0.032303084 0.015473431 0.066143334
0.08930345 0.0270022 0.0005686946 -0.009516495 -0.07637322 -0.10988402 -0.079039134 0.06896245
0.0056022345 0.02688546 0.028752722 -0.0029664964 -0.012222074 0.0551249 -0.08603711 0.07919723
0.0077058314 0.039109636 -0.023616433 -0.01647545 -0.075495265 0.08535261 0.09795203 0.0916719
-0.097858004 0.07281438 0.08755535 0.018075407 -0.023046017 0.031051531 -0.06488248 -0.06470008
0.0117768645 -0.056148425 -0.091518365 -0.062413663 -0.054444212 -0.08933939 0.007914878 0.037746407
0.043876875 0.007682729 -0.016016573 0.0055822614 0.03711596 -0.025146328 0.046079144 0.06436866
0.06486296 -0.034698084 -0.043403413 0.09526521 -0.08336051 0.057306625 -0.08097947 0.048728384
-0.0684701 0.06675309 0.022923268 -0.08210516 -0.031936623 -0.00354563 0.0063990476 0.00027535262
-0.07204393 0.05642965 0.037702512 0.08225375 0.01240596 -0.07450056 0.0509686 -0.08709939

net.2.bias f4 [100]
00000000: 30ea 8c3d ec5e a73d 3ec3 0dbd 7176 94bd
00000010: c83a e5bc 0b2d b1bb 5ff5 9abd 949c 7ebc
00000020: b5df 9ebd d873 d6ba d0a7 32bc c282 cf3d
00000030: 0410 ecbc 74a3 233d 362e be3c 2c03 2e3d
00000040: 5682 b83d 2d5f 173d 40ca 38bc 1ac0 a53b
00000050: 5c39 88bc bdb5 5c3a c1f6 a93d 2276 333d
00000060: 63a2 a53d a048 49bd eff1 723d 0fff 343d
00000070: 38a2 a13b b041 eb3c 6673 6ebc e3ea d0bd
00000080: e601 203d 131f 7f3d 83f8 3cbd 5fe4 8a3c
00000090: 1003 b03d 0a80 1a3d 8870 17bd 2d7f 553d
000000a0: 36c7 de3c 9b4a 1bbd 5daf 00bc f26d c93d
000000b0: ca55 8e3d a205 243d 5ec3 5c3d 3ac5 84bd
000000c0: ff0b a8bd 5f22 27bd ae3e 87bd fdee 47bc
000000d0: 14a1 f83d 35f8 91b9 c0b1 fd3c 2f0e 92bc
000000e0: 7bb5 8ebd 9957 d4bd bea0 ab3d 15b2 ba3d
000000f0: a04d 083d e311 c53d f1be 16bd 05d3 d73c
00000100: 3a84 a93d b386 76bc aadd c63d 0e59 41bd
00000110: 5ea1 de3a 2657 c03b 6ad4 97bc 9509 c13c
00000120: 5a7f bbbd 1f9b b7bc 53ee 9abd f3c3 41bd
00000130: 16d8 bfbd fe27 2b3d c1e5 dabc 2b4e d4bd
00000140: 912a 2cbd 445c ad3d 6a7a 3ebd c0c5 89bd
00000150: fb60 c43d a70f 02bb d3a2 9f3b 659e a53a
00000160: 18e0 52bd d3bb 65bd 97c5 f23c 3b9c 85bd
00000170: 0fb5 673c 9309 a13d 7506 e4bc 84d8 28bc
00000180: 76d2 073d bf32 09bd fd1a 1fbd 4b6b 37bd
0.06880605 0.08172402 -0.034610026 -0.072491534 -0.02798213 -0.005406981 -0.07566332 -0.015540261
-0.077575125 -0.0016361428 -0.010904267 0.10132362 -0.02881623 0.039950803 0.023215394 0.042483494
0.090092346 0.036956 -0.011278689 0.0050583007 -0.016628914 0.0008419415 0.08299018 0.043813832
0.080876134 -0.049141526 0.059312757 0.044188555 0.004932668 0.028717846 -0.01455388 -0.10201051
0.03906431 0.062285494 -0.046135437 0.016954599 0.08594334 0.037719764 -0.036972553 0.052123237
0.0271946 -0.037912946 -0.00785431 0.098354235 0.06949957 0.040044434 0.053897254 -0.064829305
-0.08205413 -0.040804263 -0.06603752 -0.012202975 0.12140098 -0.00027841484 0.030968547 -0.017829029
-0.069682084 -0.103682704 0.083802685 0.09115998 0.033277154 0.09622552 -0.03680319 0.02634574
0.08277173 -0.015046763 0.09710248 -0.04720407 0.0016985347 0.005869764 -0.018533904 0.02356414
-0.0915515 -0.022412835 -0.07564988 -0.047306012 -0.09367387 0.041786186 -0.026720883 -0.10366472
-0.042032782 0.08464864 -0.046503462 -0.06727171 0.0958881 -0.0019845755 0.004871705 0.0012635706
-0.051483244 -0.056087326 0.029635234 -0.06523939 0.014142289 0.07863154 -0.02783511 -0.010305528
0.033159696 -0.03349566 -0.038844097 -0.044780057

net.4.weight f4 [3, 100]
00000000: cdda eaba 376d 3fbd 358d ee3c 6605 afbd
00000010: c0c9 623d ecfd 5dbc bf1c a8bd cd21 313d
00000020: f952 76bc fc21 863d a19a 973d e249 86bd
00000030: 2b23 7abd ef5c b63d 67a7 033e e61c c7bb
00000040: 72c5 813c be0c 8fbd e0cf 1cbd b291 b73d
00000050: 0a9f 323d faba 9e3c fb87 05bd eae1 133d
00000060: a803 91bd 1a10 b93b c139 be3d e2cf ad3d
00000070: 123f 8d3d 7b7a 423d 3309 013c eaa3 d1bb
00000080: c836 623c 6597 c43d da2f 343d 33d7 f7bc
00000090: cf5e 803d 815b b03d 5c68 a4bd ca7c bcbd
000000a0: 37e4 a73d cc05 833b 573b 8bbd 515c d9bc
000000b0: f2f7 5cbd b723 03bd 8493 043d 6692 053d
000000c0: 7f47 ddbd 687e 893c 00a1 423c ba45 1fbd
000000d0: 2994 1b3b 9a55 98bd 12c1 4ebd 27fe 50bd
000000e0: 005f 93bc 0957 acbc a690 ae3d d537 883d
000000f0: b334 20bd c62e 08bd 7469 f03b 18e8 21bd
00000100: 716f 80ba 9640 d2bd b852 193d a5a5 ff3c
00000110: f4c1 733d d8a8 e83c ab51 b6bb d59f a7bd
00000120: a147 9fbd 8118 a43d f215 493d d630 913d
00000130: e18a 4cbd 4987 b5bd 2b19 36bd 9104 023d
00000140: a89c 22bd ce59 73bd 0808 c1bd 0461 30bd
00000150: 7dd9 93bb 24bf cc3b 859a b9bd 1cc1 3cbd
00000160: abd7 2fbd acaa 853d a4a7 6d3d ef91 103c
00000170: d1f6 4f3d 3b01 6bbd 51e0 b93c 89b8 a53d
00000180: 7404 8e3d cfa9 c33d a56b 18bd bf11 e83b
00000190: 9a32 6bbb 0275 38bd f95e bebd 106e 943d
000001a0: 3e47 4dbd e054 acbd a459 02bd f3f6 88bd
000001b0: e121 7fbd 3bc4 00bc ea33 de3c 3346 abbb
000001c0: cf0f 4fbd fc57 5cbd 55fc e83c e25d 23bd
000001d0: c13c 8c3d 380b c9bd 9736 35bd ebd3 90bd
000001e0: 1e58 1fbd 2970 0e3d 503f ab3d a42d c43c
000001f0: 6d33 87bd 5af3 23bc 2cfd d0bc ba88 b43d
00000200: 7dae 353d 12d8 abbb 196c 7d3d 2aa5 9cbd
00000210: e464 c83d 4a6c aebd e205 ba3c 4eed dd3b
00000220: a42c 65bd ab33 d83c c793 aebb b42d 6f3d
00000230: 2902 983d de99 96bd afd0 913d 2c59 903d
00000240: 450a 85bc a2c3 30bd 4a4c 9fbc abf6 523d
00000250: 653c f3bb 98f0 9d3c 7baa 5abd f327 6fbd
00000260: b09f 00bc aeb7 eb39 1563 873c 91a8 af3d
00000270: 03e3 96bd 7c33 23bc ee51 193d e68e b23d
00000280: d0e4 8f3c 6770 c83d b64c b1bc f63d 85bd
00000290: 5813 9cbb 1806 7bbd 5a91 b03d 345d 323d
000002a0: 2d5a 6ebd 39f7 b0bd 8ab2 a53b c53c 8ebd
000002b0: 0957 ce3c 36f1 0fbd cea2 bbbd b779 03bd
000002c0: 74cf 31bb 74a3 80bd 797c 0bbd 8a7b d3bd
000002d0: e897 d83c aef1 873d 30c4 7fbd d1d2 a73d
000002e0: 0573 3f3d 531e 35bd 657a c53d f5cd 63bd
000002f0: d5ec 233d 0e9d 433d 0fb8 8bbd 6649 9b3d
00000300: dffb 93bd 19d2 6dbd 76ec 14bd ce36 8abc
00000310: ebe2 88bc 63a9 b83c 4477 e7bc 63b8 14bb
00000320: 67fa 8bbd eded b2bd ab65 98bd 98ea 163e
00000330: fff0 203e d0f2 5e3c 7213 c73e 81dc 87bc
00000340: b3f8 e9ba 8289 5a3d 87f3 6d3e d9af 013e
00000350: bc4b 473d c0c5 543e 7fb0 64be a4b6 0dbd
00000360: e89d 6d3d e017 0e3d 3756 79bd d245 a4bd
00000370: b016 ec3d 642b 4b3d fca7 9b3d 7be6 15be
00000380: 003e 52be 784a c13d 37b1 213d 8eeb fcbd
00000390: c1bf 353e 4b6e 80bd e360 663e dba3 aabd
000003a0: 07c0 433c 7bc0 ca3d 54bd de3d 587a b5bd
000003b0: 9ba5 ad3d 7bb9 ca3d 13a5 e2bd febd 233d
000003c0: 2249 c5bc 32a7 063d 7412 e63d 1913 95bd
000003d0: b545 d8bd 7cb7 03be fc5c 3d3e df94 f33d
000003e0: 9048 113e bafb 013e 9a22 963e b959 85be
000003f0: 2d19 043e c69c 4fbe b435 77bd f140 89bd
-0.0017917991 -0.046735015 0.029120067 -0.085459515 0.055368185 -0.013549309 -0.08208608 0.043245126
-0.015034431 0.06549451 0.0740254 -0.06557061 -0.061068695 0.089044444 0.12856828 -0.006076443
0.01584122 -0.06984852 -0.038284183 0.08963336 0.043608703 0.019376267 -0.032600384 0.03610412
-0.070807755 0.0056476714 0.092883594 0.08486916 0.06896795 0.047480088 0.007875728 -0.006397714
0.013807006 0.09599189 0.043990947 -0.030253982 0.06268083 0.08611203 -0.080277175 -0.09203489
0.081978254 0.003998494 -0.067984276 -0.026533278 -0.053947397 -0.032016482 0.032367244 0.03261032
-0.108046524 0.016783908 0.011879206 -0.038884856 0.0023739433 -0.07438202 -0.050477095 -0.05102363
-0.017989635 -0.021037595 0.08523683 0.06651274 -0.039112758 -0.03324773 0.0073367897 -0.039527982
-0.0009798837 -0.10266225 0.037432402 0.031206915 0.05951114 0.028400823 -0.005563935 -0.081847824
-0.07777334 0.08012486 0.049093194 0.07089393 -0.049937133 -0.08863694 -0.044457596 0.031742636
-0.03970018 -0.059411816 -0.0942536 -0.04306127 -0.0045120106 0.0062483717 -0.090626754 -0.0460826
-0.042930286 0.06526694 0.058021203 0.008823856 0.05077249 -0.05737422 0.02268997 0.08091838
0.06934443 0.09553873 -0.037212033 0.0070821936 -0.0035888315 -0.045033462 -0.09295458 0.07247555
-0.05011677 -0.08414626 -0.03182377 -0.06687727 -0.06228817 -0.007859285 0.027124364 -0.0052268743
-0.050552186 -0.053794846 0.028440634 -0.039884456 0.068475254 -0.09816593 -0.044241514 -0.0707167
-0.038902394 0.034774933 0.08361685 0.023947544 -0.066016056 -0.01000675 -0.025511347 0.08815141
0.044355858 -0.0052442634 0.061870668 -0.0764869 0.09784868 -0.08516748 0.022707883 0.0067726737
-0.055950776 0.026391825 -0.005327675 0.058393195 0.07422287 -0.073535666 0.07119881 0.07048258
-0.016240248 -0.04315532 -0.019445557 0.051504772 -0.007422971 0.019279763 -0.05338524 -0.058387708
-0.0078505725 0.00044959545 0.016526738 0.08577073 -0.07367518 -0.009961005 0.03743165 0.08718662
0.017565161 0.09787064 -0.021643024 -0.06505959 -0.004763048 -0.06128511 0.086214736 0.043545917
-0.058191467 -0.08640904 0.005056684 -0.069451846 0.025187986 -0.035142146 -0.09161912 -0.0320985
-0.0027131708 -0.06281176 -0.034054253 -0.103262976 0.026439622 0.066378936 -0.06244296 0.08194507
0.04674055 -0.044218373 0.096424855 -0.055616338 0.040020783 0.0477572 -0.06822216 0.07582359
-0.07225775 -0.058061693 -0.03635832 -0.016871836 -0.016709765 0.022541707 -0.028255112 -0.002269291
-0.0683487 -0.08736787 -0.074412666 0.14737928 0.15716933 0.013607696 0.38882023 -0.016584637
-0.0017850607 0.053353794 0.2323743 0.12664737 0.04865621 0.2077856 -0.22332953 -0.034598008
0.05801192 0.034690738 -0.060873237 -0.0802113 0.11527765 0.049601927 0.076004 -0.14638703
-0.20531464 0.09438032 0.039475646 -0.12349616 0.1774893 -0.06271037 0.22497897 -0.08332034
0.011947638 0.09899994 0.10875955 -0.08861226 0.08478852 0.09898659 -0.11066642 0.039976113
-0.024082724 0.032874294 0.112339884 -0.07279033 -0.105601706 -0.12862962 0.18492502 0.11893629
0.14187837 0.12693682 0.29323274 -0.26045015 0.12900229 -0.20274648 -0.06035395 -0.0670184

net.4.bias f4 [3]
00000000: 0c9d 0e3c cd3a 61bd 3e56 a3bc
0.008704435 -0.054987717 -0.019938584
