checkpoint/pushing_residual_dynamics_model.pt (torch, 47352 bytes, 6 tensors)

net.0.weight f4 [100, 6]
000000 f3 7d a4 be 40 1c ef be 76 4a 3d be e3 b2 ba be
       -0.32127342 -0.4670124 -0.18485436 -0.36464605
000010 61 9c a1 bc 52 da 22 3e c0 eb bb bd 09 8c ac 3e
       -0.019727888 0.15903595 -0.09175825 0.33700588
000020 96 91 b3 3d 1b 8b fa bd 8d ad e3 3d ce 29 95 3e
       0.08768003 -0.122335635 0.111170866 0.29133457
000030 0b de 06 3e 6c 7d 86 3e 8a 93 03 be 5f 49 63 be
       0.1317064 0.26267564 -0.1284925 -0.22195958
000040 a1 2e 45 3e 59 cf 1b 3e 42 da cd 3e eb 00 b3 3c
       0.19256069 0.15215816 0.4020558 0.021851024
000050 32 5f 12 3e ab 06 37 be e3 77 cf be 42 cb 93 be
       0.14294127 -0.17873637 -0.40521154 -0.2886601
000060 9e 50 80 3e 06 f8 d2 3d 79 1d 62 3e 97 25 01 be
       0.25061506 0.10301213 0.22081555 -0.12611996
000070 8e 9c e0 bd 0e 0b ab 3e c7 8c b5 3e 9b 10 9a be
       -0.109673604 0.33406872 0.35458967 -0.30090794
000080 5f a3 0e 3d ef 7f 82 3e cf 91 ba 3e aa e3 9e be
       0.03482377 0.2548823 0.36439368 -0.3103307
000090 30 fe b0 3e 27 70 2d be bf 03 f1 bd 7c f1 26 3e
       0.3456893 -0.16937314 -0.11768293 0.16303056
0000a0 28 47 c4 3e 2a 8f 24 be 1e 4d 44 be 27 1b 51 3e
       0.38335538 -0.16070238 -0.19170043 0.20420514
0000b0 15 8d 57 3e ea ec 58 be 1a 76 c4 3d 79 d1 e1 be
       0.21049912 -0.21184126 0.095928386 -0.44105127
0000c0 59 8c c4 3d 3d 1d b7 bd ee 59 3a 3d 59 5f 1f 3e
       0.09597082 -0.08941124 0.04549592 0.15563716
0000d0 b5 00 39 3e 31 db ef bd 56 1e 76 be df 73 de be
       0.18066676 -0.11711729 -0.2403501 -0.43447778
0000e0 af 11 0e 3e f8 4f 6c 3e eb 23 62 be b9 a9 ef 3d
       0.13873933 0.2307738 -0.22084014 0.11702294
0000f0 33 ed b2 3e e6 5e 82 be 41 50 50 bd 65 85 47 be
       0.34946594 -0.25463027 -0.050857786 -0.1948448
000100 84 41 e7 3c c5 72 ab be 73 a2 41 be 07 85 4f 3d
       0.028229482 -0.33486 -0.18909626 0.050663974
000110 78 0b a0 3b c5 3d 9d 3e c1 1a 90 3e 8b 63 47 3e
       0.0048841797 0.3071119 0.28145412 0.19471566
000120 01 42 1c be 60 7f 56 3e 54 1e a9 bd ad c9 b1 bd
       -0.15259553 0.20947027 -0.08257738 -0.08681045
000130 0e e4 c7 be 0b 54 95 be ef 66 c1 3e b9 59 e9 bc
       -0.3904118 -0.29165682 0.37773845 -0.028485166
000140 fa e9 3a 3e 74 4c 6b be d8 59 ab be 0d e1 88 be
       0.18253317 -0.22978383 -0.33466983 -0.267342
000150 c9 4b 35 be 86 9b 76 3e 68 5a c4 3d 33 d7 b0 be
       -0.17704691 0.24082765 0.09587556 -0.34539184
000160 49 3f 03 bf fe 8c cc 3e 95 ba 0c be 0a 64 b2 3d
       -0.5126844 0.39951319 -0.1374305 0.08710487
000170 09 49 ee 3c 43 ba c2 3e 5d a1 9f 3e 73 4f 48 be
       0.02908756 0.3803273 0.31177798 -0.19561557
000180 58 62 3c be 8b 3d 4c bd 01 d9 22 be 8a bf e9 3e
       -0.1839689 -0.04986338 -0.15903093 0.45653945
000190 47 8c e3 3c 06 50 f7 bd 39 ee b7 bd 53 4f 89 3e
       0.02777685 -0.1207581 -0.08980984 0.26818332
0001a0 2c fa 60 be 4f 57 92 3e 71 59 9b be 9c 5a 36 bd
       -0.21970433 0.28582236 -0.30341676 -0.044520006
0001b0 b1 0d 96 3e 42 05 bc 3e 7a 22 d1 3e 54 70 c5 bc
       0.2930732 0.3672276 0.40846616 -0.024101414
0001c0 b4 51 c5 be 1e 40 48 be f1 2f 8b be f2 a4 03 be
       -0.38538897 -0.19555709 -0.27185014 -0.1285589
0001d0 9b a5 e1 be 73 7a ea 3e 60 c5 b0 3e 56 d7 dd 3d
       -0.4407166 0.45796546 0.34525585 0.10832088
0001e0 02 c9 1e be dd 1c 95 be ba e5 c5 3e 7f 9e 5b 3e
       -0.15506366 -0.29123583 0.3865183 0.2144718
0001f0 13 dd 8c 3e 60 c2 60 be b3 e7 b0 be 56 57 a6 3e
       0.27512416 -0.21949148 -0.34551772 0.32488507
000200 13 0a b0 be 89 77 94 3d 2c 49 a3 3e cf de 68 be
       -0.34382686 0.07249362 0.31891763 -0.22741245
000210 39 6d 87 3e 95 4b 4b 3e 92 ae 55 3e b9 5a 18 be
       0.26450518 0.19853051 0.20867375 -0.14878358
000220 d8 a5 c1 3e a1 0a 14 3e 20 a5 99 be 5d 52 98 3d
       0.3782184 0.1445718 -0.30008793 0.074375845
000230 10 cd ce 3e 00 eb 39 be f8 9a a8 3d 00 f7 7e 3d
       0.40390825 -0.18156052 0.08232683 0.062247276
000240 c4 3e 45 3e c1 7a c9 3e b7 4d c0 3e 4a 65 77 3e
       0.19262224 0.39351466 0.37559292 0.24159732
000250 50 c4 17 3e 42 dd 61 be 3b 88 c1 3e 3d bd 87 3e
       0.14820981 -0.2205706 0.37799248 0.26511565
000260 ee 52 47 be 63 ba 7f bd 4e e2 8a bd db 31 b3 be
       -0.19465229 -0.06243361 -0.067814454 -0.34998974
000270 cf a1 90 3e 6a dd 8a bc 0f d7 7c be 67 1d ea 3c
       0.2824845 -0.016951282 -0.24691413 0.028578473
000280 7c 50 8c 3e 0e 66 94 bd 2f 01 7c be 96 4f b5 3e
       0.27405155 -0.07246028 -0.24609827 0.35412282
000290 c7 ed e8 be 1f 71 68 bd 12 bd a6 be 3b 1f d4 3e
       -0.4549391 -0.056748506 -0.32566124 0.41430077
0002a0 3a 7b 41 be 3c 93 ae bd 02 38 96 be 72 4c 1e 3e
       -0.18894663 -0.085241765 -0.29339606 0.15458849
0002b0 9b 3f 9d 3e 2e 8f 52 be e7 08 37 bb 46 6e 9e 3e
       0.3071259 -0.20562431 -0.002792889 0.30943507
0002c0 00 c4 bb be 35 70 b0 3e 5d da 12 be 12 14 b4 3e
       -0.36672974 0.34460607 -0.14341111 0.35171562
0002d0 53 33 9b 3d 52 6e c6 bd 60 a8 be 3e d7 53 a4 3e
       0.07578149 -0.09689011 0.37237835 0.32095215
0002e0 9a 6f e8 bd 1d 8b b6 bd 53 a1 04 3e 88 7c 4d be
       -0.11349411 -0.089132525 0.12952165 -0.20067036
0002f0 b9 d6 9e be d8 1f c0 be c5 b5 11 bd 8b df 33 be
       -0.31023195 -0.37524295 -0.03557374 -0.17565744
000300 9a 37 20 bd d6 f9 9f bd 5b 4d 73 3d 47 0b 4d be
       -0.039115526 -0.07811324 0.059399944 -0.20023833
000310 0f 77 55 be d5 8f 8e 3e cf 25 9a bd 81 91 86 3e
       -0.20846198 0.2784411 -0.07526743 0.26282886
000320 cf dc 4e bf 23 60 7f 3e 3d e5 7a bd fa 93 83 be
       -0.8080568 0.24939017 -0.061253775 -0.25698835
000330 b2 84 ae 3d b8 63 9d 3e f7 28 9f bd 08 24 a6 be
       0.08521403 0.30740142 -0.07771485 -0.32449365
000340 02 b8 88 3e 2e bb 9a bd 7b ee 89 be 31 31 a8 3d
       0.26702887 -0.07555233 -0.2693976 0.082125075
000350 eb 6c 9d 3c bb 93 16 3e 2d a3 8f 3e e6 23 80 3e
       0.019216975 0.14704792 0.2805418 0.25027388
000360 82 0a 7d be 6b 4b ab be cc 19 d2 bd f7 09 3a be
       -0.2471104 -0.33455977 -0.102588266 -0.18167864
000370 50 18 8a 3d 83 86 97 be 52 5c 47 be cc d6 6b bd
       0.067429185 -0.29594812 -0.19468811 -0.057577893
000380 06 70 b2 be e0 20 cc 3e e7 63 6e be 6e ff 98 bd
       -0.34851092 0.39868832 -0.23280297 -0.07470594
000390 f2 7d ec 3d dc 73 25 3e b1 0f aa 3e 2a 9a 97 be
       0.1154746 0.16157478 0.33215097 -0.29609805
0003a0 17 db 68 be 00 32 1f 3e a7 c0 8d 3e 0e d4 0d 3e
       -0.22739826 0.15546417 0.27686045 0.13850424
0003b0 56 7f de bd 44 2b 58 3e 39 76 1a be 15 56 c3 be
       -0.10864131 0.21110255 -0.15084161 -0.38151613
0003c0 04 8d 1c 3e 58 f0 ad bc b0 b7 d6 3e 37 a0 d8 be
       0.15288168 -0.021232769 0.41937017 -0.42309734
0003d0 b3 36 ab be 49 08 e5 be 17 ad 95 be c5 05 9d be
       -0.3344017 -0.44732884 -0.2923362 -0.30668464
0003e0 ce df c2 be 71 3c a1 bb ef b5 07 be 27 ce c5 3e
       -0.38061374 -0.0049205353 -0.13252996 0.38633844
0003f0 39 24 4c be 39 37 45 3e 1e f7 88 bc b3 b0 b1 bc
       -0.19935693 0.19259347 -0.016719397 -0.021690702

net.0.bias f4 [100]
000000 7f 9b d8 3d f0 27 40 be be e9 21 3e d0 7d ba 3d
       0.105765335 -0.18765235 0.15811822 0.09106028
000010 b0 52 8e be af a3 cb 3e 02 4d 56 3e 8f 8a ad bd
       -0.2779746 0.39773318 0.20927814 -0.084736936
000020 39 e7 00 be 1d 4c 24 be 1d 0e 74 3e 01 b9 cb be
       -0.12588204 -0.1604466 0.23833509 -0.39789584
000030 a2 e9 bc bd d8 95 40 be a9 6d d6 be b8 bf 5c be
       -0.092242494 -0.18807161 -0.4188054 -0.2155751
000040 2d 65 1e bd 6c 45 1b bd 83 40 ae be 2c 9d 83 bd
       -0.038670707 -0.037908003 -0.34033594 -0.064264625
000050 12 bd cc be 85 fc b4 be 83 38 a7 3e 66 12 4f be
       -0.39988 -0.35348907 0.32660303 -0.20221862
000060 58 ab 4e 3d b4 cc 43 3d 76 b3 a5 3d 90 dc 19 be
       0.050456375 0.047802642 0.0809087 -0.15025544
000070 18 08 e8 3d 31 23 0a 3e 3e 44 6f be a1 85 55 be
       0.11329669 0.13489987 -0.23365876 -0.20851757
000080 b8 19 0f be e3 0d 0d be 5b 14 bf be de 30 9e be
       -0.13974655 -0.13774829 -0.37320217 -0.30896658
000090 1a 23 a0 be a6 20 e8 3d d2 9a 47 3e a3 94 ba 3e
       -0.3127678 0.11334352 0.19492653 0.36441526
0000a0 92 12 3c 3e d6 b3 f1 3c 9e bd 9c 3e ef 4f f6 bd
       0.18366459 0.029504698 0.30613416 -0.12026965
0000b0 93 69 de 3b 30 03 86 3d ad f2 2b bd db 0b d0 3e
       0.006787488 0.06543577 -0.04197948 0.40634045
0000c0 d3 19 d6 bd 23 98 d5 bd 40 3c 94 bd 8c 44 3b be
       -0.10454144 -0.104294084 -0.07238054 -0.18287867
0000d0 0b b2 1a be c6 6e 37 3e dd 12 a7 3e f5 dc a5 bd
       -0.1510698 0.1791335 0.3263158 -0.08098785
0000e0 a0 f2 5b 3d 78 17 c0 3e 67 ab b2 3e 9b 97 ad bd
       0.053698182 0.37517905 0.34896395 -0.08476182
0000f0 95 54 9f 3d 77 1b 71 3e 01 a5 a4 bd 9e 51 71 be
       0.077798046 0.23545633 -0.080392845 -0.2356629
000100 4b be 11 3d e3 b3 6d 3e ed 1e c9 3e 3e bc bb bd
       0.03558187 0.23213153 0.39281407 -0.09166764
000110 6f 26 77 3e 7f 67 ba 3e 55 a6 90 be dd 60 58 3e
       0.24135755 0.36407086 -0.282519 0.211307
000120 15 3a 5e 3e c7 86 1a be e0 de 24 3c b3 92 b0 3e
       0.21701844 -0.15090476 0.010062903 0.34486923
000130 13 7c be 3e bb a9 16 be 6b 8f bf be e5 a6 6f be
       0.37204036 -0.14713185 -0.37414107 -0.23403509
000140 6d 51 21 be a2 f6 38 3e 6a 49 66 3e 28 97 f3 bd
       -0.15753718 0.18062833 0.22488943 -0.11894065
000150 6d b7 96 3d ab 4b a2 3e 1b 68 24 3d 8b cb 62 3e
       0.073592044 0.31698355 0.040138345 0.22147958
000160 79 cd a1 3c ac ce 38 be d5 1d c9 3d 05 c4 a6 3d
       0.019751297 -0.18047589 0.09820143 0.081428565
000170 0c 33 80 be 15 dd 99 bc 50 20 62 be 7a 44 a4 3e
       -0.25038946 -0.018782178 -0.22082639 0.32083493
000180 9e e2 39 3e 98 ca ce 3d b6 57 b4 be 3e 01 8d 3d
       0.18152854 0.100972354 -0.35223168 0.068850026

net.2.weight f4 [100, 100]
000000 81 d5 ae 3d 09 63 a2 3e 47 9f 13 3c 5c ba cc 3c
       0.085368164 0.31716183 0.009010143 0.024991207
000010 98 0c 1c 3d 24 d8 ac 3d 1a 40 ee 3c 92 2e 53 3d
       0.038097948 0.08439663 0.0290833 0.051558085
000020 7a ba 9b bb 55 b0 b1 bd 5c 8d b0 bd 39 95 73 3d
       -0.0047524543 -0.08676211 -0.08620712 0.05946848
000030 f0 bb 7d 3d 4f b3 0c 3d 43 90 c5 bd 6c de 10 bd
       0.06194681 0.03435069 -0.09646656 -0.035368368
000040 3f bd bb 3e 0f fa b5 3d 9c 14 fc bc e4 4a b5 ba
       0.3666782 0.088855855 -0.030771546 -0.0013831523
000050 10 88 58 bd a0 c9 80 bc c7 65 bb 3c 01 58 26 3d
       -0.052864134 -0.015721142 0.02287568 0.04061127
000060 bf e8 a0 3d 8b bc 3f 3e 4e 7c 85 bd cb 24 e6 bb
       0.07856893 0.18724267 -0.0651785 -0.007023429
000070 90 7e b5 be 25 f3 92 bc 90 56 d3 3d 38 a6 91 3d
       -0.35448122 -0.017938206 0.10319245 0.07111782
000080 1c 03 68 3e d1 5b 57 3e 47 a4 5b 3e 13 ae 83 3c
       0.22657436 0.21031119 0.21449386 0.016074216
000090 b0 d9 c3 bd a5 b2 cb 3b f7 d8 f7 bd bc 96 fa 3c
       -0.09563005 0.0062163644 -0.1210193 0.030589454
0000a0 47 a9 94 3d b4 b1 bf 3d 3b 5f f2 bd e4 93 1c be
       0.072588496 0.09360066 -0.1183457 -0.15290791
0000b0 6b 45 ae 3d ac 75 9f be ab ac 68 3e 65 53 29 3c
       0.08509334 -0.31144464 0.22722118 0.010334824
0000c0 70 4c 1c 3c 9d 07 12 3d 67 bf 44 bd 01 b7 f1 3d
       0.0095397085 0.03565179 -0.048034098 0.11802483
0000d0 3f 29 d6 3b 53 7f 25 be e2 6f 6c 3d e5 c8 5e 3d
       0.0065356786 -0.16161852 0.057723887 0.054390807
0000e0 70 fc 9b bc 97 fe 7c 3c f1 0e 26 3d 4a e3 67 3e
       -0.01904127 0.015441558 0.040541593 0.22645298
0000f0 01 09 67 bd 63 0a 1b 3d 01 04 3b be 51 73 ab bc
       -0.05640507 0.037851702 -0.18263246 -0.02092901
000100 ad 89 e9 3c 82 68 10 bd 53 ca a3 bc f6 b3 4a bc
       0.028508032 -0.035255916 -0.019993937 -0.012372008
000110 cf c9 07 3e 7f 4e d2 3c 4e cf c0 bc 1d dd d1 bd
       0.13260578 0.025672195 -0.02353635 -0.10247252
000120 94 dc 68 3d a8 e3 99 3c db 43 af bc c3 61 27 bd
       0.056850985 0.018785313 -0.02139466 -0.040864717
000130 45 d0 74 3d 80 00 6b 3d 53 d2 5a 3d 6f 00 16 bf
       0.059768934 0.057373524 0.053423237 -0.5859441
000140 35 2d 7b 3e a8 b0 06 be 51 9d 5d 3c c1 f0 f3 bd
       0.24528964 -0.13153327 0.013526277 -0.119111545
000150 9f 6c d6 bd 01 92 f7 bc 35 bd ca 3c ae ba 24 bd
       -0.104699366 -0.030220987 0.024748424 -0.040217094
000160 3b f3 d1 3b 40 d2 17 3e 8a 08 3a bd 74 c2 33 3e
       0.006407169 0.14826298 -0.0454183 0.17554647
000170 e1 f5 92 be 3d d6 44 bd de 70 8f bd 23 a8 9c bd
       -0.28703216 -0.048055876 -0.070039496 -0.07649257
000180 a1 db 7f 3a eb ff 3a 3e e6 57 00 3d f9 60 81 3d
       0.0009760205 0.18261687 0.031333826 0.06317324
000190 78 b8 15 3d 00 41 74 3b fd 07 27 bd a0 46 1a 3d
       0.036552876 0.0037270188 -0.040779103 0.03766501
0001a0 89 b8 c8 bd e9 33 7c bd 35 61 61 3c 08 54 1c bd
       -0.09800822 -0.061572943 0.013756086 -0.038166076
0001b0 67 b7 65 bb 20 78 b4 3d 68 68 7a bc 8a 9c a4 bd
       -0.0035051943 0.088119745 -0.015283681 -0.0803767
0001c0 3b fd c1 bd 34 53 bb bd a4 dc db bd 75 a2 ae 3d
       -0.09472128 -0.09146729 -0.10735443 0.0852708
0001d0 b8 48 82 3c 29 9b b6 3d d5 81 32 bc 3d fc 73 bd
       0.015903816 0.08916313 -0.010895212 -0.059566725
0001e0 10 a1 99 3d 47 e5 db bc 55 bf 8d bc 67 8a 23 bb
       0.07501423 -0.026842726 -0.017303148 -0.002495432
0001f0 51 e2 29 bd bf 38 40 3d 05 53 4b bb df 8e b3 bd
       -0.041475598 0.046929117 -0.0031024825 -0.08767485
000200 4c a5 41 3d 08 a5 a7 39 14 3b 5d 3d c4 6b a3 3d
       0.04727678 0.0003197568 0.05401142 0.07979539
000210 0a 93 9e bd e8 d5 82 bd 12 46 91 3d 4d 1b 5e 3d
       -0.07742889 -0.06388456 0.07093443 0.054225255
000220 ea 71 bc 3d 64 35 dd bd 09 4b ac bb a1 89 13 3d
       0.09201415 -0.10801199 -0.0052579683 0.036019925
000230 95 02 2e 3d c3 bc 68 3d c3 28 85 bd cf 87 a8 3d
       0.04248293 0.056820642 -0.06501915 0.082290284
000240 53 d4 4c bd 2d d9 95 bc 22 40 82 3d d7 31 8c bd
       -0.050007176 -0.018292034 0.063598886 -0.06845444
000250 c5 0e d4 b8 63 ce 8a bd a5 d1 fd 3a a9 8a c6 bd
       -0.00010111699 -0.067776464 0.0019364847 -0.09694416
000260 cc ff 03 bd 72 fa f3 3b ae 49 b9 bd db 62 4c 3b
       -0.03222637 0.007445627 -0.090472564 0.0031186852
000270 b2 8e 83 3c 11 83 54 bb b3 fe 8f 3d e3 55 85 bc
       0.016059253 -0.0032426754 0.07031002 -0.016276306
000280 99 4f 9e bd 70 0b 15 3b 27 5e 3c bc e1 50 2a bd
       -0.07730026 0.0022742413 -0.011497057 -0.04158104
000290 94 2c 7f bc 37 22 e5 bb 47 0b 59 3d f0 75 b7 3d
       -0.015574593 -0.006992604 0.05298927 0.08958042
0002a0 64 04 ea 3c c9 c7 ad 3d f9 cc 9f bd b5 34 08 3d
       0.028566547 0.084853716 -0.07802767 0.03325339
0002b0 72 e0 fe bb 28 8b 90 3d 8b 76 6e 3d 0d 9b cc bd
       -0.007778221 0.07057792 0.05821852 -0.09990511
0002c0 b9 76 f3 3c 0d 77 b8 bc 5a e3 50 3d d7 cc b8 bd
       0.029719697 -0.022517705 0.05099807 -0.09023445
0002d0 9a c1 c4 bd 6b 8c 0f b9 da d1 e8 bc ff 58 a9 bc
       -0.09607239 -0.00013689852 -0.028420378 -0.02067232
0002e0 b6 ba 8e 3d d3 bc 25 bd 35 c8 b8 3d 6c 32 d7 bd
       0.06969206 -0.04046328 0.090225615 -0.10507664
0002f0 ad 20 12 bd b4 f9 dc bd 9e 0b 87 3d de 5e b8 3b
       -0.035675693 -0.107898146 0.06594013 0.0056265434
000300 ab 3b c2 bd 0b ce 9d bd 09 2c 6a bd 58 18 e2 3b
       -0.09484037 -0.07705315 -0.0571709 0.0068998747
000310 6e 11 3d bc 1e f4 f0 3b 37 64 86 bd db ca a8 bd
       -0.0115398 0.00735332 -0.06562083 -0.082418166
000320 52 df 9f 3d 15 04 23 bd 54 dc 4f bd 93 6d 2b 3d
       0.07806267 -0.039798815 -0.05074723 0.041852545
000330 94 39 f2 bc 8a 61 9d bd ce 92 1e 3d 52 96 75 bd
       -0.029568471 -0.0768462 0.038714223 -0.05995781
000340 5f 90 eb bc a9 48 f5 bd 71 19 c1 bd 77 a3 73 3d
       -0.028755365 -0.119767494 -0.09428681 0.059482064
000350 50 85 1e 3e 2b e9 f8 3a d5 48 19 bd 30 cf b2 3d
       0.15480542 0.0018990388 -0.037422974 0.08730924
000360 1d b6 da 3d 17 98 77 3d ae 70 98 3d 34 e5 28 3e
       0.106792666 0.06044778 0.07443367 0.16493684
000370 02 dc 85 3d 87 58 d2 bd 1f f4 bb 3d d3 eb 85 3c
       0.06536104 -0.102707915 0.09177422 0.016347801
000380 62 a2 d2 3d 5b ac 8c bd 8e e7 dc 3c 00 c7 00 be
       0.10284878 -0.06868812 0.026965883 -0.12575912
000390 16 75 84 3d df a7 80 bd bb d6 ca 3c 50 73 2c 3d
       0.06467645 -0.06282019 0.024760595 0.042102158
0003a0 cf d4 02 3e f0 e4 c1 3d 2e b3 81 bd 52 ea d7 3d
       0.12776493 0.094674945 -0.06333004 0.1054274
0003b0 ed 11 1e bd 19 e9 4b bd 63 63 ab 3d e5 ed bf 3d
       -0.038591314 -0.049782846 0.08368566 0.09371547
0003c0 8b 17 ef bc 36 bf 31 3d 36 37 4e 3d 6e bd 10 3e
       -0.02918603 0.043395244 0.050345622 0.14134762
0003d0 bd ec 3e 3d 08 aa e7 3c 0b bc cb 3d 43 88 fa bc
       0.04661249 0.02827932 0.09947976 -0.030582553
0003e0 a1 13 a4 bc 70 fd 58 bd de df 97 3d 9b e9 0b bc
       -0.020028891 -0.05297607 0.07415746 -0.008539583
0003f0 e8 61 3c 3d 24 e7 46 3d d0 7b 9e bc 33 ae 21 bd
       0.04599181 0.048560277 -0.019346148 -0.03947277

net.2.bias f4 [100]
000000 90 8b 81 bd e7 2b 2b bd f5 b9 fc 3b f8 7a ea 3c
       -0.063254476 -0.041789915 0.0077125975 0.02862309
000010 36 69 37 bc 8d e0 07 bd 3e 18 ac bc a9 31 1d 3d
       -0.011194518 -0.033173133 -0.021007653 0.038377438
000020 86 fd a4 3d f2 98 f1 3c c0 c2 80 3d 1e 75 bd 3d
       0.08056168 0.029491875 0.062871456 0.09250854
000030 3f 8a 05 bc 66 04 ec 3c 23 c8 dc ba 3d 28 e9 3b
       -0.008150636 0.028810691 -0.0016844313 0.0071153925
000040 35 72 95 3d 78 e3 5c bc 82 20 51 3d 71 7f ba 3c
       0.07297174 -0.013481967 0.051056392 0.022765847
000050 c0 64 69 3d d1 d7 b8 bc fd b8 00 3d 35 a5 bd 3d
       0.05698085 -0.022563847 0.03142642 0.09260026
000060 b6 c0 92 3d 98 d1 1f bc ff 50 60 3d 76 a9 26 3d
       0.07165663 -0.009754561 0.054764744 0.040688954
000070 6d 0b c6 bd b7 32 b1 3d c3 28 dc 3d 32 73 1d 3d
       -0.09670148 0.08652251 0.10749962 0.038439937
000080 f6 07 ce 3d e2 24 9f 3d c5 48 ca 3d 53 91 8c 3d
       0.10060112 0.07770707 0.09877161 0.06863656
000090 27 d5 ad 3d 61 f2 c3 3d 6c bd 9f 3c dc be ec bc
       0.08487921 0.095677145 0.019499503 -0.028899603
0000a0 5a 6a fa 3b d3 a3 65 bd b5 aa 11 3c 84 d9 4c 3d
       0.0076420726 -0.056064438 0.008890797 0.050012127
0000b0 69 a7 d6 3c 16 3a 15 3b 4b 76 a3 3d d0 8c 21 bd
       0.026202874 0.0022770218 0.07981547 -0.03944093
0000c0 b4 91 62 bd cd 7f 41 39 d6 94 de 3c ed 97 89 bd
       -0.055314735 0.00018453524 0.02717058 -0.06718431
0000d0 72 55 fb 3a 29 40 1c 3d 07 4f a9 3d c9 7a b5 bd
       0.0019175245 0.038147125 0.082670264 -0.0886131
0000e0 52 42 39 bd 28 09 52 bd 4a 2e 8b 3d 29 e8 63 3d
       -0.045229264 -0.051278263 0.06795938 0.055641327
0000f0 8d 34 4a bd 86 ef 39 bd 77 95 a3 3d f4 17 81 bc
       -0.049366523 -0.045394443 0.079874925 -0.015758492
000100 20 4e e1 3c d5 06 a3 bd 89 91 59 3d f2 bb 55 3c
       0.027503073 -0.079602875 0.05311731 0.013045298
000110 43 d9 d4 bd b3 4b 97 3b 20 2e 9b 3b bb 43 83 bd
       -0.10393002 0.0046171783 0.004735723 -0.06409403
000120 50 02 9a bd b9 51 d3 bd 41 f4 9c 3d cd da 32 bd
       -0.07519972 -0.10318322 0.07663775 -0.043665696
000130 30 1f 34 bb c0 64 30 3d 25 1d b9 3d f3 d8 04 3d
       -0.002748441 0.043064833 0.09038762 0.03243346
000140 03 a2 67 3c 6c 48 f1 ba af 11 9d bd 2e 52 c2 bb
       0.014137748 -0.0018408424 -0.076693885 -0.0059302067
000150 d4 45 d9 3c 60 bd b8 3d 0c a3 13 bd 33 1b 16 bb
       0.026522554 0.090204954 -0.036044165 -0.0022904396
000160 22 8d 96 3d 15 b4 ff 3c 04 65 48 bc 1f 84 76 bd
       0.07351138 0.0312138 -0.012231115 -0.060184594
000170 65 9f de 3b f2 c3 bc 3d 33 fa 89 bd d5 a4 94 bd
       0.0067939037 0.09217061 -0.06737175 -0.07258002
000180 bc 8f 0e 3d b4 ef 56 b8 41 cb 67 b9 ca c0 a6 3c
       0.034805045 -5.1244817e-05 -0.00022105595 0.0203556

net.4.weight f4 [3, 100]
000000 e1 62 5c 39 da d7 9e 3d 1c 97 d5 bc a0 12 a1 bd
       0.0002101767 0.07756014 -0.026073031 -0.078648806
000010 09 ef a8 3d b7 14 92 bd d4 97 90 bd ce a9 8b 3d
       0.08248717 -0.07132857 -0.07060209 0.06819497
000020 6e 0c e8 3c 9e 20 c0 bc b2 0d 96 b9 37 bc b7 3d
       0.02832624 -0.023453053 -0.00028620433 0.08971446
000030 1a 2f 6c bc 95 bf b8 bd b3 23 4c bc fb 83 c8 3c
       -0.014415527 -0.090209164 -0.012459683 0.024476996
000040 c7 a0 b3 3d b2 91 38 3d 36 27 23 3d a9 e7 86 3d
       0.087709 0.04506082 0.039832316 0.065871544
000050 33 d7 4f bd b4 63 82 bb 83 ac bf bc a9 81 32 bd
       -0.05074234 -0.0039791707 -0.02339769 -0.043580685
000060 cc c4 24 3d 13 a6 68 bd 59 eb 9c 3d 3b 82 94 bd
       0.040226743 -0.056799006 0.076620765 -0.07251402
000070 8d 2d 51 bd 6b 39 d6 bc ad 14 9d 3d d8 f8 d4 bc
       -0.05106883 -0.026150426 0.07669959 -0.025997564
000080 ad 4d 58 bc 84 bc ad 3d 2c cf 76 bd 4e b2 de 3c
       -0.013202113 0.08483222 -0.06025617 0.027184632
000090 85 17 80 3d d2 99 3a 3d a2 23 3c bd 1e 54 ef bc
       0.06254486 0.04555685 -0.04593242 -0.029214915
0000a0 d4 a0 2f bd 61 51 15 3c bf ad 2a bd 10 b4 47 3d
       -0.042877987 0.0091136405 -0.041669603 0.048755705
0000b0 d7 54 88 bd c0 f9 7f 3c 04 f7 95 3d 20 b0 4b 3a
       -0.06656807 0.01562351 0.07322505 0.000777008
0000c0 ca 11 6b bd fe 21 89 bc 83 1e dc 3a 24 af 70 3d
       -0.05739001 -0.016739842 0.0016793761 0.058760777
0000d0 20 91 c1 3c c6 c1 75 3d 55 54 74 bd ff 3c 80 bc
       0.023628771 0.05999925 -0.059650738 -0.015654085
0000e0 3c 0d 85 bd 30 4b 9a 3d 30 81 05 bb 76 61 65 3d
       -0.06496665 0.07533872 -0.0020371191 0.05600115
0000f0 3d f7 48 3d 60 6e 81 3d 4e 29 a7 bd 60 0f af 3d
       0.04906391 0.063198805 -0.08162175 0.085478544
000100 0a 35 fa 3c 73 e0 03 bc 07 85 a6 3b c9 a8 42 bd
       0.03054287 -0.008049118 0.005081776 -0.047524247
000110 2d ca bb bc 19 c2 8d bc 1f 13 95 3d 81 2b 8c 3d
       -0.022923553 -0.017304467 0.07279038 0.06844235
000120 42 fd a5 3d 08 c5 79 3d 41 da 3c 3d 03 8b 7b bd
       0.08104946 0.06097892 0.04610658 -0.06141187
000130 22 f8 c1 bd 00 3a 1f bc 28 7c ca bc d5 54 92 bd
       -0.09471156 -0.009718418 -0.024717405 -0.07145087
000140 24 de a0 3d 6a 13 cf bc 34 71 e1 bd 7b 48 9c bd
       0.0785487 -0.025277812 -0.1100792 -0.07631012
000150 88 94 9a bd 5d 86 e4 bc 3c 06 ca 3d 15 3d 83 3d
       -0.07547861 -0.0278961 0.0986447 0.06408135
000160 bb eb 19 3c 29 62 6e bc 8c 28 2c bd aa 99 86 bb
       0.009394581 -0.01454977 -0.042030856 -0.0041076737
000170 22 b7 3f 3d fd 28 95 3d 79 de 81 bd f2 f1 13 3c
       0.04680551 0.072832085 -0.063412614 0.009029852
000180 26 39 84 bd c0 b8 6d bd ac c6 4c bc 71 06 56 3d
       -0.06456213 -0.05803752 -0.012498539 0.052252237
000190 1b 34 4b bd ce b3 6b bd af 18 7f 3d 2e 82 2a bd
       -0.04961024 -0.057544522 0.0622794 -0.041628055
0001a0 db 34 b6 3c d5 4a 53 3c 4c 67 fd ba 0d 43 cb bc
       0.022242 0.012896259 -0.0019333153 -0.024812246
0001b0 4b ed f5 ba eb d7 00 3d 64 89 8d 3d c8 1c 90 bc
       -0.0018762735 0.031455915 0.06910971 -0.017591849
0001c0 7e ac 95 3d da fa 70 3d 2d 09 9e 3d 79 7b 84 3b
       0.07308291 0.05883298 0.07716594 0.0040430394
0001d0 4a 44 ac 3c 66 1b 54 3d d3 76 c5 3d 63 ee 61 bd
       0.021028657 0.05178394 0.096418045 -0.055158984
0001e0 87 3f dc bc b4 d9 bb 3d a5 d2 9e bd 53 48 bb 3d
       -0.026885761 0.09172383 -0.07755021 0.09144654
0001f0 c1 17 90 bd c8 37 84 3c 12 21 a3 3d be 61 8b bd
       -0.07035781 0.01613988 0.07965292 -0.06805752
000200 63 02 8c bd a7 d4 85 3d db 72 d2 3c 7d 0c 22 bc
       -0.06836393 0.06534701 0.025689533 -0.009890673
000210 9d ac 99 bd 4e 0f 8b bd 0e fc ae 3d 5f e7 e0 3c
       -0.075036265 -0.067900285 0.08544169 0.027454076
000220 3a ba 6a 3c 86 54 66 3d dd a1 89 3d a5 b0 16 3d
       0.014326626 0.05623295 0.06720326 0.036789555
000230 69 5d 40 bd 84 fe 93 bd 82 12 22 3d b3 30 8a 3d
       -0.046964083 -0.072262794 0.03956843 0.0674757
000240 c6 90 cd bc 33 73 b8 3b 54 5e 81 3c 8d 53 8e bd
       -0.025093447 0.005628967 0.01579205 -0.0694953
000250 5e 1a 92 bc 3f 22 13 3c 95 09 7a 3c 8a bf c5 3d
       -0.017834838 0.008980333 0.015261074 0.09655674
000260 0a 61 aa bd 02 01 69 bd 5f a4 f6 3b 52 ab b1 bd
       -0.0831929 -0.056885727 0.007526919 -0.08675255
000270 45 47 2a 3d ff c7 0b 3c e8 27 88 bc 0b 17 d3 bc
       0.041571874 0.0085315695 -0.016620591 -0.025767824
000280 5d 86 b1 bc c0 39 9f 3d 81 cd 35 3d 58 a4 83 bd
       -0.021670515 0.07774687 0.044385437 -0.064278305
000290 c7 9b ac bd 33 42 c3 bb 88 01 b5 bd 80 86 68 3d
       -0.0842815 -0.0059588193 -0.08838183 0.056768894
0002a0 a0 68 da 38 cc b3 9b bd 6a 27 8d 3d 66 85 32 3d
       0.00010414538 -0.07602653 0.06892283 0.04358425
0002b0 31 da 2b 3d 2b 0e 68 3d 77 a6 a2 bd 92 12 80 3c
       0.04195613 0.056654137 -0.07941907 0.015633855
0002c0 42 6c 31 bd 17 0e 6f bd b3 84 25 3d 0b b0 84 3d
       -0.043316133 -0.058363046 0.040409755 0.0647889
0002d0 6b 1a 1c 3c c5 27 19 3d aa 09 36 3d 20 2e 8a 3c
       0.009527783 0.037391443 0.04444281 0.016867697
0002e0 bb 1a 41 bd 20 86 47 bc 7d 7a 96 3c 27 3b 58 3d
       -0.047144633 -0.012177974 0.018368954 0.052790787
0002f0 be b2 15 3c 8b 51 30 bc 41 e6 69 3d 7a fa 84 bc
       0.009136854 -0.010761629 0.057104353 -0.016232718
000300 21 64 88 bd 2c 83 96 3d 45 64 a1 3d f9 b6 6f 3d
       -0.06659723 0.07349238 0.07880453 0.058524106
000310 81 b6 fe bc 72 dd e3 b8 40 9e ab 3c 8c b8 e8 bc
       -0.031092884 -0.00010865451 0.020949483 -0.028408311
000320 e4 d3 df 3e 90 b0 2c 3d c1 ec e7 3d 8c ef 13 3e
       0.43716347 0.04216057 0.11324454 0.14446849
000330 61 22 1f 3c de 5d f9 3c 61 ee df bd 7b 92 13 3e
       0.009712786 0.030440267 -0.10934139 0.14411347
000340 b3 a1 01 3e b9 9e cb 3d cc 2c a5 bd 36 ec 91 3e
       0.1265934 0.09942383 -0.08065185 0.28500527
000350 2d 27 e9 bc fa f8 cf bc d5 74 49 bd 8a e1 5e be
       -0.028461063 -0.025387276 -0.049183685 -0.21765724
000360 80 d4 0f 3d 84 20 73 3e 57 44 4d 3b cc 97 f8 bc
       0.035114765 0.23742872 0.0031321251 -0.03034582
000370 82 ab 9d bd 5a 32 ee bc 57 4f c4 3c 12 67 68 bd
       -0.07698728 -0.029076744 0.023963613 -0.05673892
000380 e4 b9 66 3d 4b d3 af 3e 6c e8 84 bd ac 2f 0f 3d
       0.056329623 0.3434089 -0.064896435 0.034957573
000390 55 86 e5 ba 35 6c e0 3c bb c1 d7 3c 27 9f 9c be
       -0.0017511348 0.027395347 0.026337495 -0.30590174
0003a0 13 c7 52 be 11 aa d9 bd d0 41 ae 3d 55 c3 63 bb
       -0.20583753 -0.10628141 0.085086465 -0.0034753878
0003b0 bf b4 df 3d 56 14 4b 3d e1 4b 41 bd 23 8c 04 3e
       0.109231465 0.04957994 -0.047191504 0.12944083
0003c0 0b a0 35 bd 06 72 cd 3c 7e d4 fe 3d f7 f7 25 3d
       -0.044342082 0.025078785 0.124428734 0.04051968
0003d0 c5 67 6f bd 45 76 76 be 49 55 02 bc c8 8e c5 ba
       -0.05844857 -0.24068554 -0.007954904 -0.0015072459
0003e0 c6 ba 42 3e 08 8b 9b 3e b7 fb 91 be 58 1d 12 3e
       0.19016561 0.3037951 -0.28512356 0.14269006
0003f0 37 cb ec 3d 01 02 34 3e 79 bc d3 bd 0b 24 1a bd
       0.11562198 0.1757889 -0.10338683 -0.03763203

net.4.bias f4 [3]
000000 cc cf 81 b9 ab fb 92 bd b0 dd bd 3d
       -0.00024759618 -0.07176908 0.09270799
