checkpoint/pushing_4_steps_residual_dynamics_model.pt (torch, 47590 bytes, 6 tensors)

net.0.weight f4 [100, 6]
0	0x3ec3d344	0.3824712
1	0xb89467bc	-7.076512e-05
2	0x3e179185	0.14801605
3	0x3ec4ce5b	0.38438687
4	0xbeb37c30	-0.35055685
5	0xbcf0cc95	-0.029394427
6	0x3e62bd96	0.22142634
7	0xbbb9d2e9	-0.0056708944
8	0xbeec1ae6	-0.46114272
9	0x3c635c2d	0.013876957
10	0xbdaedff6	-0.08538811
11	0x3ea429b2	0.3206306
12	0xbed005c4	-0.406294
13	0xbb95d306	-0.004572275
14	0x3be862d7	0.0070918608
15	0x3e9756de	0.29558462
16	0xbedad8a2	-0.42743403
17	0xbe810288	-0.25197244
18	0xbeaa6a0c	-0.33284032
19	0x3ea5444a	0.32278663
20	0x3eb53b7a	0.3539694
21	0x3d06dda2	0.03292621
22	0xbe92150a	-0.28531677
23	0x3e3bfbc1	0.18357755
24	0xbd02d2ce	-0.03193932
25	0x3e65a3d5	0.22425778
26	0xbe047a69	-0.12937321
27	0xbca196fc	-0.019725315
28	0xbc68de0d	-0.014213097
29	0x3d0aaa1c	0.033853635
30	0xbe413fff	-0.18872069
31	0x3e80c6c1	0.25151637
32	0x3e287e71	0.16454484
33	0xbe87a212	-0.26490837
34	0xbe0a0074	-0.13476735
35	0xbebebc87	-0.3725321
36	0x3ca9cae9	0.020726638
37	0x3ea3d844	0.32000935
38	0x3bed8eb5	0.007249678
39	0x3dbf1cd6	0.09331672
40	0xbca2f9f5	-0.01989458
41	0xbdea5f97	-0.114440136
42	0x3ebbfd20	0.36716557
43	0x3e8f7e31	0.28025964
44	0xbe989be5	-0.29806438
45	0xbec2d672	-0.38054234
46	0xbbee4885	-0.0072718286
47	0x3dce5660	0.100750685
48	0x3e63b556	0.22237143
49	0xbe2fbc70	-0.17161727
50	0xbe17788d	-0.1479208
51	0x3e251035	0.16119464
52	0x3eb1c687	0.34721777
53	0xbea8ae5c	-0.32945526
54	0x3eb780ef	0.35840556
55	0x3e02431f	0.12720917
56	0xbdcef710	-0.10105717
57	0xbea0897c	-0.31354892
58	0x3edd87d5	0.43267694
59	0x3e7f03fa	0.2490386
60	0xbc3a56f8	-0.011373274
61	0xbe795a59	-0.24350871
62	0x3eb03d63	0.34421834
63	0xbeaaff18	-0.33397746
64	0xbd834a3a	-0.06410642
65	0xbe8b4756	-0.27202863
66	0xbd08eba8	-0.033427864
67	0xbca0d2e5	-0.019631812
68	0x3d751671	0.059835855
69	0xbec8811d	-0.39161006
70	0xbe600ba0	-0.21879435
71	0x3e66a49d	0.22523732
72	0xbe2c444c	-0.16822928
73	0xbd261659	-0.040548656
74	0x3df463c6	0.11933093
75	0x3e83ce1b	0.25743183
76	0x3b22cd41	0.002484158
77	0xbe2905e8	-0.1650616
78	0xbe993252	-0.29921204
79	0x3dd47aeb	0.10375007
80	0x3dab1aff	0.083547585
81	0xbeb95dce	-0.3620438
82	0x3da8b667	0.082379155
83	0xbf0bf2bc	-0.5466726
84	0xbebae1d9	-0.36500433
85	0xbe9798c6	-0.29608744
86	0x3e719c1a	0.23594704
87	0x3eabe044	0.3356954
88	0xbe89e93f	-0.26935765
89	0xbe91e415	-0.28494325
90	0x3e5f4350	0.21803021
91	0xbe30cdb3	-0.17265968
92	0xbec320b5	-0.3811089
93	0x3ea065e7	0.31327745
94	0x3ec11971	0.37714723
95	0x3e6b5887	0.22982989
96	0xbd42e146	-0.04757812
97	0x3e94d996	0.29072255
98	0xbe4cd743	-0.20003991
99	0xbeb2b64f	-0.34904715
100	0xbc93e2cc	-0.018052481
101	0xbe9cb104	-0.30603802
102	0xbeb9051e	-0.36136717
103	0x3ed0536c	0.40688646
104	0xbd83beac	-0.06432852
105	0x3b28c4c2	0.0025752042
106	0xbd8f2d35	-0.069910444
107	0xbd92f249	-0.071751185
108	0xbec2fbb4	-0.3808266
109	0xbebe4cf1	-0.37168077
110	0x3ed71699	0.42009428
111	0xbe876ac6	-0.2644865
112	0xbe07325c	-0.13202804
113	0x3ec510fb	0.38489518
114	0xbea1ede4	-0.3162681
115	0xbdee2611	-0.11628354
116	0xbde789fb	-0.113056146
117	0x3e070bc5	0.13188083
118	0x3d46a413	0.048496317
119	0xbe926ff3	-0.28601035
120	0xbdcb457e	-0.09925364
121	0xbeb9648b	-0.3620952
122	0xbe9cb129	-0.30603912
123	0xbe86ff2f	-0.26366565
124	0x3d5fc548	0.0546315
125	0x3eb6682b	0.3562635
126	0xbda18bae	-0.0788797
127	0x3e809876	0.25116318
128	0x3e9f6622	0.3113261
129	0xbed162fa	-0.40895826
130	0x3eb0109d	0.34387675
131	0x3e6517bc	0.22372335
132	0xbe596c16	-0.21232638
133	0xbda0bc3b	-0.07848402
134	0xbe264ebe	-0.16240975
135	0x3e9d5c35	0.3073441
136	0xbe248652	-0.16066864
137	0x3d62ef18	0.0554038
138	0x3eb0c882	0.34527975
139	0x3e51ac65	0.2047592
140	0xbe01020f	-0.12598442
141	0x3e4ef033	0.20208816
142	0xbe92bdcc	-0.2866043
143	0x3ea88bc7	0.32919142
144	0xbe95cbc8	-0.29257035
145	0xbea8ac68	-0.32944036
146	0xbe5287fb	-0.20559685
147	0x3edc4988	0.4302485
148	0xbd0221d0	-0.031770527
149	0x3e09695e	0.134191
150	0xbe0f6012	-0.14001492
151	0xbeb4c6f6	-0.35308045
152	0x3e10dce3	0.14146762
153	0xbc59115c	-0.013248768
154	0xbed0b55e	-0.40763372
155	0x3c9f973b	0.019481292
156	0x3d4e7b60	0.05041063
157	0xbe744d8a	-0.23857704
158	0xbe534dcd	-0.20635147
159	0x3e8d0997	0.2754638
160	0x3ee46477	0.446079
161	0xbe93ce22	-0.28868204
162	0xbe812c86	-0.2522928
163	0xbc323b21	-0.010878355
164	0x3e8b1e65	0.27171627
165	0xbd44ced8	-0.048048824
166	0x3ee33161	0.4437361
167	0xbeaecdc7	-0.3414137
168	0xbe9d3435	-0.30703893
169	0x3e64bc07	0.22337352
170	0x3ed1a5d1	0.4094682
171	0xbe3466e3	-0.17617373
172	0x3d35866a	0.04431764
173	0xbe9eae16	-0.30992192
174	0x3e6ca43f	0.2310953
175	0x3e930a4b	0.2871879
176	0xbe7c98dd	-0.24667688
177	0xbe3381db	-0.17530005
178	0x3e9ae5fe	0.30253595
179	0xbe8e754e	-0.2782387
180	0xbe86bcf4	-0.26316035
181	0xbd9fd720	-0.07804704
182	0x3eb5d221	0.35511878
183	0xbb27d75a	-0.0025610537
184	0x3ebd3d01	0.36960605
185	0xbe1c3f50	-0.15258527
186	0xbeb76839	-0.35821703
187	0x3cb08286	0.021546613
188	0xbdad0c8a	-0.08449657
189	0x3e91d7b3	0.28484878
190	0xbe8aa8b7	-0.27081844
191	0x3ecb3448	0.39688325
192	0x3e34a699	0.17641677
193	0xbe870fed	-0.26379338
194	0xbd3162ca	-0.043307103
195	0x3e2f4cc5	0.17119129
196	0x3e1aaedb	0.15105765
197	0xbce3fdd8	-0.027831003
198	0x3e4278f8	0.18991458
199	0x3e994edc	0.29942977
200	0x3e93f46b	0.28897414
201	0x3d3e100f	0.046402033
202	0xbeabf4b0	-0.3358512
203	0x3ea4c8fe	0.32184595
204	0x3ec5ad9c	0.38609016
205	0x3e6fbd98	0.23412168
206	0xbcbbf3e3	-0.022943443
207	0xbc59c6ee	-0.013292057
208	0xbec4e160	-0.38453197
209	0x3ec6e3da	0.38845712
210	0x3e8e468e	0.27788204
211	0xbe9ae649	-0.3025382
212	0x3e8d10ce	0.27551883
213	0xbe8bd12a	-0.27308017
214	0xbea5eea0	-0.3240862
215	0x3d79a708	0.06095031
216	0x3d824fe2	0.06362893
217	0xbc54032a	-0.0129402075
218	0xbea698c5	-0.3253843
219	0x3e481977	0.19540964
220	0xbeb257a7	-0.34832498
221	0xbe6e63da	-0.23280278
222	0x3ec539a3	0.38520536
223	0xbd174aab	-0.036936443
224	0x3ecdc9c7	0.40193006
225	0x3ebf1003	0.37316903
226	0x3d208f14	0.03919895
227	0x3e545bfb	0.20738213
228	0x3e5d4d12	0.21611431
229	0xbe551040	-0.2080698
230	0xbea4ed20	-0.32212162
231	0x3e25bf51	0.16186263
232	0xbe1d1bd1	-0.15342642
233	0x3ea41c5a	0.3205288
234	0xbe424b71	-0.18974091
235	0xbe5268c1	-0.20547773
236	0xbf0671b0	-0.52517223
237	0x3e218975	0.15775092
238	0xbe95a6e3	-0.29228887
239	0x3eac56af	0.33659884
240	0x3e9c9b93	0.30587444
241	0x3e887cdc	0.2665776
242	0xbd5a237e	-0.053256504
243	0xbe169f31	-0.14709164
244	0xbdf86196	-0.12127988
245	0x3dbac2c5	0.091191806
246	0x3ebd90c6	0.37024516
247	0x3e85adb0	0.26109076
248	0x3e2257f8	0.1585387
249	0xbd0c3b69	-0.034236345
250	0x3e5fe7a1	0.21865703
251	0x3d2aaa88	0.041666538
252	0xbe41836b	-0.18897788
253	0xbd8cb990	-0.06871331
254	0xbe4a0874	-0.19729787
255	0xbe4e80a5	-0.20166261

net.0.bias f4 [100]
0	0xbe7426b4	-0.23842889
1	0xbe07eb81	-0.13273431
2	0xbbbf594a	-0.0058395015
3	0x3d812ded	0.06307588
4	0xbeac52f9	-0.33657053
5	0x3ead3b23	0.3383418
6	0xbec96770	-0.3933673
7	0xbe8f84a7	-0.28030893
8	0x3e775ac9	0.24155726
9	0xbe496a93	-0.19669561
10	0xbdcbaece	-0.09945451
11	0xbc97a1db	-0.018509796
12	0xbec15ca9	-0.37766007
13	0xbe19fe59	-0.15038432
14	0x3ec56b74	0.38558543
15	0x3e6b3003	0.22967534
16	0xbebe5572	-0.37174565
17	0xbce2b300	-0.027673244
18	0x3df69fe1	0.12042213
19	0xbeb5cabb	-0.35506234
20	0x3e64179e	0.22274634
21	0x3c4a35dc	0.012341943
22	0xbe71ecf1	-0.23625542
23	0xbe7e4bd3	-0.24833612
24	0xbb1fed7c	-0.0024403026
25	0x3e1c66a9	0.15273537
26	0xbe2a6424	-0.16639763
27	0xbeb1ab02	-0.3470078
28	0xbd3a2797	-0.045447912
29	0x3ce34c04	0.027746208
30	0x3d2620fe	0.040558808
31	0xbd1c7b3c	-0.038203463
32	0x3e6bfaee	0.23044941
33	0xbe1722c9	-0.14759363
34	0xbeb4c796	-0.35308522
35	0xbe913317	-0.2835929
36	0x3eded1b7	0.43519375
37	0x3dd2517f	0.102694504
38	0xbe848856	-0.25885266
39	0xbe87ea86	-0.26546115
40	0xbeadab35	-0.33919683
41	0x3e85ffdc	0.26171768
42	0xbdf2acc1	-0.118493564
43	0x3e92e956	0.28693646
44	0x3e42910f	0.19000648
45	0x3eb66fba	0.35632116
46	0xbd8cab15	-0.06868569
47	0xbea051cb	-0.31312403
48	0xbea0089d	-0.3125657
49	0xbe9284a2	-0.28616816
50	0xbd296a63	-0.041361224
51	0x3ea5f0ec	0.3241037
52	0xbe93f916	-0.28900975
53	0xbd9df1c0	-0.07712126
54	0xbd81b16e	-0.0633267
55	0xbebe3212	-0.37147576
56	0x3eb1a286	0.34694308
57	0xbea983a3	-0.33108243
58	0xbc5b1409	-0.013371476
59	0x3dc48fa8	0.09597713
60	0x3e4f249f	0.20228814
61	0x3d13660f	0.035986003
62	0xbdd71dda	-0.105037406
63	0x3e46fe67	0.19432984
64	0x3e010f07	0.12603389
65	0xbe8db77b	-0.27679047
66	0x3d1f3210	0.038866103
67	0xbeb8b5c1	-0.36076167
68	0x3ec0da85	0.37666717
69	0xbebf0952	-0.37311798
70	0xbe8079e7	-0.25093004
71	0xbd106db0	-0.035260856
72	0x3ea6fbfb	0.3261412
73	0xba1fb743	-0.0006092677
74	0x3ec8a880	0.39191055
75	0x3eb385ea	0.35063106
76	0x3e8cb29a	0.27480012
77	0xbea41236	-0.32045144
78	0xbd9bbdbd	-0.07604549
79	0xbba5a087	-0.0050545367
80	0xbe55f13a	-0.20892802
81	0x3e8ab18f	0.2708859
82	0x3e3f39ae	0.18674347
83	0x3ecc572a	0.3991025
84	0xbd58c78c	-0.052924678
85	0xbd9083a3	-0.07056358
86	0xbe7a9280	-0.24469948
87	0x3e385935	0.1800278
88	0x3e6c39ba	0.23068896
89	0x3e0dc127	0.13843213
90	0xbecc6d1c	-0.39926994
91	0x3e31f3f5	0.17378218
92	0xbeb3770e	-0.3505177
93	0xbdbd87a1	-0.09254385
94	0x3daf145a	0.08548804
95	0x3e0ed45f	0.139482
96	0x3e522e51	0.20525481
97	0xbdc5d85f	-0.0966041
98	0x3e198c96	0.14995036
99	0xbdcb5185	-0.09927658

net.2.weight f4 [100, 100]
0	0x3d4415f6	0.047872506
1	0xb9ee74ea	-0.00045482005
2	0x3d2b0d44	0.041760698
3	0x3ce33b5a	0.027738262
4	0x3da609b2	0.08107318
5	0xbcdb4326	-0.026765417
6	0xbc80a36d	-0.015702927
7	0xbd4a9aa4	-0.049463883
8	0xbcbf57d2	-0.023357306
9	0xbbe08ff9	-0.0068531004
10	0xba8eb5ad	-0.0010887884
11	0xbd3aa7e0	-0.045570254
12	0xbcd96460	-0.02653712
13	0xbe00efd6	-0.1259149
14	0xbd957077	-0.072968416
15	0x3d83be86	0.06432824
16	0xbd8647ca	-0.065566614
17	0x3da3b19f	0.07992863
18	0x3d72d5e4	0.059286013
19	0xbc1cf9c0	-0.009581029
20	0x3dd411c4	0.10354951
21	0xbd972f68	-0.07382089
22	0x3e0ba41d	0.13636823
23	0x3d40262b	0.0469114
24	0xbdaf5ece	-0.085630044
25	0x3db2583c	0.087082356
26	0xbdc54dfc	-0.09634015
27	0xbd77b902	-0.06047917
28	0x3c943650	0.018092304
29	0x3dadc7cb	0.08485373
30	0xbd88976f	-0.06669509
31	0x3d5dce70	0.054151952
32	0x3d84a749	0.064772196
33	0xbdcf2dc0	-0.10116148
34	0xbdae1d10	-0.08501637
35	0x3dbe51b7	0.092929296
36	0x3d4dee35	0.050276
37	0xbd9f0539	-0.07764668
38	0x3c8ab418	0.016931579
39	0xbd7f381b	-0.062309366
40	0xbd3161e1	-0.043306235
41	0xbdaeb8f7	-0.08531373
42	0x3cd19cfe	0.025587555
43	0x3dc0b3f4	0.09409323
44	0xbd084c9c	-0.033276185
45	0x3cbae48b	0.022814056
46	0x3d9f646f	0.07782828
47	0x3d2255c0	0.03963256
48	0xbd6ab136	-0.057297908
49	0x3d80c511	0.062875874
50	0xbcf6e1b4	-0.03013692
51	0xbbf279c0	-0.0073997676
52	0xbd93c31b	-0.07214948
53	0xbd8edd2b	-0.06975778
54	0xbcec4c92	-0.028845105
55	0x3d9830c2	0.07431175
56	0xbd3b5700	-0.045737267
57	0xbe19a933	-0.1500595
58	0xbd1736db	-0.03691755
59	0xbd73a33c	-0.059481844
60	0xbdd81450	-0.10550749
61	0x3d7d1269	0.061785135
62	0xbbf6cfa1	-0.0075320755
63	0x3dc28764	0.0949848
64	0xbd4b0496	-0.04956492
65	0x3d88c072	0.06677331
66	0xbd848c92	-0.06472124
67	0x3bcdd1a4	0.0062810946
68	0x3d2d8c55	0.04237016
69	0xbab7ee5d	-0.001403283
70	0xbc21b2eb	-0.0098693175
71	0xbc82fc88	-0.015989557
72	0xba942ce5	-0.0011304884
73	0x3bbae35c	0.005703373
74	0x3cc44013	0.023956334
75	0x3d1f9c36	0.038967334
76	0x3d93e6b7	0.0722174
77	0xbe0e0456	-0.13868842
78	0xbdb812e0	-0.08987975
79	0xbdd836a8	-0.105573
80	0xbc994b4e	-0.018712666
81	0x3d02b943	0.03191496
82	0x3d57d111	0.052689616
83	0x3d03d4aa	0.032185234
84	0x3dc9c135	0.098513044
85	0xbd9556f2	-0.07291974
86	0xbb453b85	-0.003009529
87	0x3d840ac9	0.064473696
88	0xbd27351a	-0.040822126
89	0x3d11df68	0.035613447
90	0x3d6916a7	0.05690637
91	0x3cabdc76	0.020979147
92	0x3da51466	0.08060531
93	0xbdd32ee7	-0.1031168
94	0x3d9d1861	0.076706655
95	0xbdc9766d	-0.09837041
96	0x3da1488d	0.07875166
97	0x3d7a53ae	0.06111496
98	0x3d855819	0.06510944
99	0x3e53edce	0.20696184
100	0x3d8f4fc6	0.069976375
101	0xbd420ce1	-0.047375564
102	0x3d833aa1	0.06407667
103	0xbd89d449	-0.06729943
104	0xbcd07fc7	-0.025451554
105	0xbd4d082c	-0.05005662
106	0x3dc235d8	0.09482926
107	0x3d561b0f	0.0522719
108	0x3da959c4	0.082690746
109	0xbdbc5556	-0.09195964
110	0x3d04e619	0.032446
111	0xbcc30e10	-0.023810416
112	0x3ce31e47	0.027724398
113	0xbdaefdc0	-0.08544493
114	0x3d8ad36d	0.067786075
115	0xbd86c4c1	-0.065804966
116	0x3d099c3f	0.033596274
117	0x3d24dab5	0.040247638
118	0xbd93b718	-0.07212657
119	0xbce00ced	-0.027349913
120	0x3cd4ab29	0.025960522
121	0x3d87c7da	0.066299155
122	0x3d88eb0a	0.06685455
123	0x3d8403e6	0.06446056
124	0xbcf27733	-0.029597854
125	0x3db12c43	0.086510204
126	0xbb776e67	-0.0037755014
127	0xbdb6c880	-0.08924961
128	0xbd366baf	-0.04453629
129	0xbdc654ae	-0.0968412
130	0x3ca9b90e	0.020718124
131	0xbda49545	-0.080362834
132	0xbd94ff9d	-0.07275317
133	0xbdbdbf29	-0.092649765
134	0x3d6dc46b	0.058048647
135	0xbd558001	-0.052124027
136	0xbd89cc86	-0.06728463
137	0xbb48f0d9	-0.0030661135
138	0x3d73bdf3	0.05950732
139	0xbd04d2b3	-0.0324275
140	0x3dbfb9ef	0.09361636
141	0x3d179de0	0.037015796
142	0xbdb8999f	-0.09013676
143	0xbc65d367	-0.014027453
144	0x3d44eb40	0.048075914
145	0x3d6af1c9	0.05735949
146	0xbd3998d4	-0.045311764
147	0xbd1367a4	-0.03598751
148	0x3d1b345c	0.03789173
149	0x3d700dc7	0.05860689
150	0xbd96f891	-0.07371629
151	0x3dae1b5d	0.08501313
152	0x3d95aa32	0.07307853
153	0xbdbe9d48	-0.09307343
154	0xbd7f502a	-0.06233231
155	0x3ccba482	0.024858717
156	0x3c848397	0.016176028
157	0x3dbfad6b	0.09359249
158	0xbc7d7ced	-0.015471679
159	0xbd9bcf57	-0.07607906
160	0x3be9f99e	0.0071403524
161	0xbd3471cb	-0.044053834
162	0xbc1f079a	-0.009706402
163	0xbd97bd62	-0.07409169
164	0xbc3bb6d3	-0.011457163
165	0xbd7926ad	-0.0608279
166	0xbc680471	-0.014161215
167	0xbc23dcd1	-0.010001377
168	0x3c3f15d0	0.011662915
169	0x3d759840	0.05995965
170	0xbcc3a9c5	-0.023884663
171	0xbd1e8ea0	-0.038710237
172	0xbbd8bcbf	-0.006614297
173	0xbdb20d8e	-0.086939916
174	0x3d4561bc	0.04818891
175	0xbcde42eb	-0.027131518
176	0xbdbfd0d1	-0.093660004
177	0xbd639ad3	-0.055567574
178	0xbbc198d8	-0.005908113
179	0x3d5dc3bd	0.05414175
180	0xbcf0409a	-0.02932768
181	0xbdc68602	-0.09693529
182	0xbaac4b64	-0.0013145027
183	0x3c26abb2	0.010172771
184	0x3dad54b1	0.08463419
185	0x3d6499e4	0.055810824
186	0xbd6674d8	-0.056263775
187	0xbb8009a0	-0.0039073974
188	0xbb3dcc99	-0.002896106
189	0x3dbc0192	0.09179987
190	0x3cac65c7	0.021044625
191	0xbca8333e	-0.020532247
192	0xbdcc5627	-0.0997737
193	0xbda80bd3	-0.0820538
194	0xbd629bc6	-0.05532434
195	0xbd6d8b36	-0.05799409
196	0x3d5e9712	0.05434329
197	0x3d921573	0.07132997
198	0x3ce403d8	0.027833864
199	0xbdc86dfb	-0.09786602
200	0xbd3f17a3	-0.0466534
201	0x3d3ea7d1	0.04654676
202	0xbe98047d	-0.29690924
203	0xbcc713b2	-0.024301384
204	0xbd8764cf	-0.066110246
205	0x3d5a7611	0.053335253
206	0xbd82a275	-0.063786425
207	0xbd58c205	-0.052919406
208	0x3d73596e	0.05941146
209	0x3d9ebd61	0.07750965
210	0xbd52e847	-0.05149105
211	0x3d15c076	0.0365605
212	0xbcf3c413	-0.029756581
213	0xbe5a8e81	-0.21343423
214	0x3c550377	0.013001314
215	0x3da4f1c3	0.08053925
216	0xbd974a3b	-0.07387205
217	0xb885d99a	-6.382466e-05
218	0x3cc0553a	0.02347814
219	0x3d92232f	0.07135617
220	0x3ddb2d08	0.107019484
221	0xbcf20118	-0.029541537
222	0x3e8f44ff	0.27982327
223	0x3cfaee0e	0.030631091
224	0x3d173d70	0.036923826
225	0x3d5c9ca5	0.053860325
226	0xbd5113ec	-0.05104439
227	0xbd919ec7	-0.071103625
228	0xbe16cc08	-0.14726269
229	0x3dc0946b	0.094033085
230	0xbd80a85f	-0.06282114
231	0x3ddbd73a	0.107344106
232	0xbdb5dc89	-0.08879954
233	0xbd05d2b4	-0.032671645
234	0xbdabd43f	-0.08390092
235	0x3da548df	0.0807054
236	0xbd2bd80b	-0.04195408
237	0x3cb332a5	0.021874735
238	0x3dae7757	0.08518856
239	0x3db47b8c	0.08812627
240	0xbe5d2240	-0.21595097
241	0x3dc3f070	0.09567344
242	0xbe63c8b3	-0.2224453
243	0x3db71aeb	0.08940681
244	0xbd9758c4	-0.073899776
245	0xbdc82cda	-0.0977418
246	0xbd8640ca	-0.06555326
247	0xbcd5a347	-0.026078833
248	0xbe97fcee	-0.29685158
249	0x3de253b4	0.11051121
250	0x3da22d26	0.07918768
251	0x3cbb7f35	0.022887805
252	0x3d090691	0.033453528
253	0xbe3d5911	-0.18491007
254	0xbe20181d	-0.15634198
255	0xbe2ce091	-0.1688254

net.2.bias f4 [100]
0	0xbd80dda2	-0.06292273
1	0xbdae449a	-0.085091785
2	0x3d671754	0.05641873
3	0x3d992fb1	0.074797995
4	0x3d4159a7	0.04720464
5	0xbd64c25d	-0.05584942
6	0xbc735db6	-0.014853885
7	0x3d1cca78	0.038279027
8	0xbcc4c8e5	-0.024021575
9	0x3db04c05	0.086082496
10	0xbc35e71a	-0.011102462
11	0xbd67963a	-0.05653975
12	0x3d4505ee	0.048101358
13	0xbdc29a62	-0.095021024
14	0x3dbbe1f6	0.09173958
15	0x3cfb98fa	0.030712593
16	0xbcc7e302	-0.024400238
17	0x3d489441	0.04896951
18	0xbd781563	-0.06056727
19	0x3ccc1800	0.024913788
20	0xbc239c75	-0.009986033
21	0x3db9e933	0.09077682
22	0xbdb814cd	-0.089883424
23	0x3a835385	0.0010019398
24	0xbd88cbb2	-0.06679477
25	0xbb8d0125	-0.004303115
26	0xbdc913d4	-0.09818235
27	0xbdb979ad	-0.09056411
28	0x3d8733dc	0.06601688
29	0x3d002f72	0.031295247
30	0x3a223294	0.00061873463
31	0x3b799bf2	0.0038087335
32	0xbdbd0347	-0.09229141
33	0x3d8189cc	0.06325111
34	0x3d886156	0.0665919
35	0x3da7d6d7	0.08195274
36	0xbdd305cc	-0.1030384
37	0x3d665dc4	0.056241766
38	0x3d2dfd55	0.042477924
39	0x3dac7310	0.08420384
40	0xbb255d85	-0.0025232744
41	0x3d3e7826	0.0465013
42	0x3d255a3e	0.040369265
43	0xbcf06499	-0.029344844
44	0x3dcfa61c	0.10139105
45	0xbc68cae3	-0.014208528
46	0xbc0ac00f	-0.008468642
47	0xbd808729	-0.0627578
48	0xbd19618a	-0.037446536
49	0x3d8f18c0	0.069871426
50	0x3d19acfc	0.037518486
51	0x3d9c6cef	0.07637965
52	0xbd4d5d84	-0.05013801
53	0xbd9a4d80	-0.07534313
54	0x3c7ac320	0.0153053105
55	0x3aa9db9e	0.0012959128
56	0xbd64560b	-0.05574612
57	0xbdade479	-0.08490843
58	0xbb12fdf3	-0.0022429198
59	0xbca259e3	-0.019818252
60	0x3c8eb7e6	0.017421674
61	0xbda9e7e4	-0.08296183
62	0xbd5982e3	-0.05310334
63	0x3d3f5aa5	0.046717305
64	0x3d369b7f	0.044581886
65	0xbd8aa2a7	-0.06769305
66	0x3d9eb77b	0.0774984
67	0x39db3470	0.00041810004
68	0xbd87af6e	-0.066252574
69	0x3d8a1012	0.067413464
70	0xbda5c35f	-0.08093905
71	0x3d988a54	0.07448259
72	0x3d813863	0.06309583
73	0xbcd9eb43	-0.02660144
74	0xbca5fde8	-0.020262673
75	0xbd3098ad	-0.043114353
76	0x3c5f3dce	0.013625575
77	0xbdad14be	-0.08451222
78	0xbd83fa3f	-0.06444215
79	0x3d3e41ec	0.046449587
80	0xbdab6802	-0.08369447
81	0x3db01b07	0.08598905
82	0xbd7f0c12	-0.06226737
83	0x3c8c0940	0.017094254
84	0x3d40bc58	0.04705462
85	0x3d7439d4	0.05962546
86	0x3d960721	0.073255785
87	0x3da978dd	0.08275006
88	0x3c8862b3	0.016648626
89	0x3d6bb524	0.057545796
90	0x3b90a5cb	0.0044142953
91	0x3dd19f00	0.10235405
92	0x3cc939d4	0.024563707
93	0x3d803614	0.062603146
94	0x3d737348	0.059436113
95	0xbc09a6ab	-0.008401553
96	0xbc3b7c94	-0.011443276
97	0xbd780191	-0.06054837
98	0x3b8fb1b6	0.0043851985
99	0x3d7ab9f8	0.06121251

net.4.weight f4 [3, 100]
0	0xbd316e06	-0.043317817
1	0x3cb6aad6	0.022298258
2	0x3c699aae	0.01425807
3	0x3d2ddf48	0.042449266
4	0x3cb8e036	0.02256785
5	0xbd8b7705	-0.068098105
6	0xbced1aa9	-0.028943377
7	0x3da4b0d2	0.08041538
8	0xbbfaab3b	-0.007649807
9	0x3ca17f5a	0.019714046
10	0x3cace703	0.021106249
11	0x3d4f7670	0.05065006
12	0x3c491207	0.012272364
13	0xbd2eb42a	-0.042652287
14	0x3c021867	0.007940388
15	0x3da7c1a7	0.08191233
16	0xbdc6c65e	-0.09705804
17	0x3d0841e7	0.033265974
18	0xbc262290	-0.010140076
19	0xbc39228f	-0.011299743
20	0xbd0f4b34	-0.03498383
21	0x3c34b5c2	0.011029663
22	0xbc6a70ef	-0.014309152
23	0x3dbe6c55	0.092980064
24	0xbd8a19f2	-0.0674323
25	0x3d75ddd7	0.060026016
26	0xbd5b1707	-0.053488757
27	0x3daba6ca	0.08381422
28	0xbcec95ab	-0.028879961
29	0x3ca16cfa	0.019705284
30	0x3dc9c19a	0.0985138
31	0x3d9f1e3f	0.07769441
32	0x3d793225	0.060838837
33	0x3d99c2a4	0.07507828
34	0xbdac1563	-0.08402517
35	0x3d37dc9c	0.044888124
36	0x3d66a93d	0.056313742
37	0x3d67fa64	0.056635275
38	0x3d3f6865	0.046730418
39	0xbdd734a5	-0.10508088
40	0x3ca429b9	0.020039426
41	0xbd1ba909	-0.038003
42	0xbc9ba6aa	-0.01900037
43	0xbd81eb6b	-0.063437305
44	0x3d507cf9	0.050900433
45	0x3d86b2b3	0.06577053
46	0xb95f4090	-0.00021290989
47	0xbdb3d2f4	-0.087804705
48	0x3d6a1c60	0.057155967
49	0xbd9bfa0d	-0.07616053
50	0x3d232e58	0.03983912
51	0xbc9ae510	-0.018908054
52	0xbd715c05	-0.058925647
53	0x3d098167	0.033570673
54	0xbc8bbb33	-0.017057037
55	0xbbef4815	-0.007302294
56	0xbd8b2545	-0.06794218
57	0xbda5b2a1	-0.080907114
58	0xbd052b2d	-0.03251188
59	0xbcebd43b	-0.028787723
60	0x3d90e7fd	0.07075498
61	0x3d329f87	0.04360917
62	0x3ca73ad4	0.020413794
63	0x3d000558	0.031255096
64	0x3e3a11b7	0.1817082
65	0x3da7481d	0.081680514
66	0x3d55fc3e	0.05224251
67	0xbd5fd451	-0.05464584
68	0xbd969fe7	-0.07354718
69	0x3ce1c72c	0.027560793
70	0xbc6d901c	-0.01449969
71	0xbd95473b	-0.07288977
72	0x3d8c2627	0.068432145
73	0x3d3cc956	0.046090446
74	0xbd55961f	-0.05214512
75	0x3db414f9	0.08793063
76	0x3da2f78f	0.07957374
77	0xbc07dfde	-0.00829312
78	0x3da0348a	0.07822521
79	0xbc13ab90	-0.009013072
80	0xbca1cc6e	-0.0197508
81	0x3d95dfe5	0.07318095
82	0x3c897386	0.016778719
83	0x3c04395d	0.008070317
84	0xbd97eda7	-0.074183755
85	0xbd51fd26	-0.05126681
86	0x3cc917b9	0.024547445
87	0x3dcedd4c	0.10100803
88	0x3bbc3c33	0.005744481
89	0xbd5e002d	-0.054199386
90	0xbd0b6a41	-0.03403688
91	0xbbfbf2f4	-0.0076888744
92	0xbc31fff0	-0.010864243
93	0xbd31ea56	-0.04343637
94	0xbd9f9c83	-0.07793524
95	0xbd64a11e	-0.055817716
96	0xbd0750ac	-0.03303592
97	0x3d8d522e	0.0690044
98	0xbd101b74	-0.03518243
99	0xbdbcaf2a	-0.092130974
100	0xbd1d000b	-0.03833012
101	0x3d0cec14	0.03440483
102	0x3bccb093	0.006246635
103	0xbcb1b9a8	-0.021694973
104	0x3d41764b	0.047231954
105	0xbdb1473d	-0.08656166
106	0xbb7b5d0c	-0.003835502
107	0xbd8f171f	-0.06986832
108	0x3ca069a4	0.019581623
109	0x3cd3d01f	0.025856076
110	0xbc9a324e	-0.018822815
111	0x3d15d4f3	0.036580037
112	0xbc5e6ef8	-0.013576262
113	0x3c6c6367	0.014427996
114	0x39b35f25	0.0003421243
115	0xbd6ae2cf	-0.057345208
116	0xbd874096	-0.06604116
117	0xbbff3b8e	-0.007789082
118	0x3dc98779	0.098402925
119	0xbdaae75d	-0.0834491
120	0xbdac8459	-0.08423681
121	0xbd90f78d	-0.070784666
122	0xbd9f943e	-0.07791947
123	0xbc0209d4	-0.0079369135
124	0x3da73583	0.081645034
125	0x3d1d2ef3	0.038374852
126	0x3cd71731	0.026256176
127	0x3c225d05	0.009909873
128	0xbd053e7d	-0.032530297
129	0x3c8dae44	0.01729501
130	0xba12f602	-0.0005606116
131	0xba55dc0a	-0.00081580936
132	0x3db67971	0.08909882
133	0xbdc18fcb	-0.094512545
134	0x3dc2206f	0.094788425
135	0x3d01c6da	0.03168378
136	0xbd5280d7	-0.051392402
137	0xbd0863cd	-0.033298302
138	0x3d975ef1	0.073911555
139	0xbcd8f614	-0.026484527
140	0xbdc2e636	-0.095165655
141	0xbc83d5b7	-0.016093118
142	0xbd87c85f	-0.06630015
143	0xbd1e1fa0	-0.03860438
144	0x3d117309	0.035510097
145	0xbd9d80ed	-0.07690606
146	0xbd318b02	-0.04334546
147	0x3cbe7223	0.023247784
148	0x3cf96940	0.030445695
149	0x3c6e777e	0.014554856
150	0xbd6e6bc6	-0.05820825
151	0x3db26796	0.08711164
152	0x3d915fcb	0.07098349
153	0x3d8d3d0a	0.06896408
154	0x3d2f2886	0.042763256
155	0x3c99d300	0.01877737
156	0x3bc55841	0.0060224836
157	0x3d1fc9e0	0.039010882
158	0x3d0b4347	0.033999708
159	0xbd22bfd2	-0.039733715
160	0x3d9054db	0.07047435
161	0x3db4ebb4	0.08834019
162	0x3cbc1d7b	0.022963276
163	0x3d758488	0.059940845
164	0xbd64d2f0	-0.05586523
165	0xbdbd6629	-0.09248001
166	0x3bf0008a	0.007324283
167	0xbb3ce6e0	-0.0028824136
168	0x3da7facb	0.08202132
169	0x3cd2011e	0.025635298
170	0xbdbb783b	-0.091537915
171	0x3d99e20a	0.07513817
172	0xbc79a34a	-0.015236685
173	0x3d94394e	0.072374925
174	0xbdad1299	-0.08450813
175	0x3d6241eb	0.055238646
176	0x3dd30c04	0.10305026
177	0xbbd13942	-0.0063849995
178	0xbd333974	-0.043755963
179	0xbd8d312b	-0.06894144
180	0xbcb32057	-0.021866007
181	0x3ae066b4	0.0017120452
182	0x3d8661e0	0.06561637
183	0x3d72f316	0.059313856
184	0xbdacc1e6	-0.08435421
185	0x3cdd1b53	0.026990568
186	0x3b9f4ceb	0.0048614643
187	0x3d321741	0.043479208
188	0x3d98dbaf	0.07463776
189	0x3d7fd405	0.062458057
190	0x3c9be0ae	0.019028034
191	0x3a160ddb	0.00057241105
192	0x3d69ed80	0.057111263
193	0xbcced10a	-0.025246162
194	0x3d437d70	0.04772705
195	0xbd91383a	-0.070908025
196	0x3db61fac	0.0889276
197	0xbdbbf828	-0.091781914
198	0x3d98ee76	0.07467358
199	0xbdac1698	-0.08402747
200	0x3db526c1	0.08845282
201	0xbd73195f	-0.059350368
202	0x3de68fcc	0.11257896
203	0xbe8b6a53	-0.27229556
204	0x3e40373b	0.18771069
205	0x3d4712f3	0.048602056
206	0x3ea828d4	0.3284365
207	0x3c94255e	0.018084224
208	0x3d528628	0.051397473
209	0x3d6d939f	0.05800211
210	0xbdd18c9f	-0.102318995
211	0x3ca65d41	0.020308139
212	0xbe8c1d07	-0.27365896
213	0xbd47bd50	-0.048764527
214	0x3e56c9cb	0.20975415
215	0x3e832822	0.25616556
216	0x3e38fd4f	0.1806538
217	0x3da116fc	0.07865712
218	0x3c1dd238	0.00963264
219	0xbb9fa4f4	-0.004871959
220	0x3e00c834	0.12576371
221	0xbe068a8b	-0.13138787
222	0x3e3a000f	0.18164085
223	0xbd52848c	-0.051395938
224	0xbea1e9cf	-0.31623694
225	0xbe93e879	-0.288883
226	0xbeae0301	-0.33986667
227	0xbc398060	-0.011322111
228	0xbc989d6b	-0.01862975
229	0xbeafd02e	-0.34338516
230	0xbdb23d3e	-0.08703087
231	0x3eac5027	0.336549
232	0xbe796549	-0.24355043
233	0xbe27f6e6	-0.16402778
234	0xbdc5366b	-0.0962952
235	0xbe5fe8fa	-0.21866217
236	0xbddcaad5	-0.10774771
237	0x3cb9a29c	0.022660546
238	0x3e3f8b84	0.18705565
239	0xbe048644	-0.12941843
240	0xbdbc64d3	-0.09198918
241	0xbe338812	-0.17532375
242	0xbd0c22e9	-0.03421298
243	0xbca3a2e7	-0.019975139
244	0x3dfc7490	0.1232692
245	0x3e0f9b7c	0.14024156
246	0x3ce656ff	0.028117655
247	0x3d8a274c	0.067457765
248	0xbbf89e33	-0.007587218
249	0x3d9f6f7c	0.07784936
250	0xbe764e12	-0.24053219
251	0xbd1bbadf	-0.03802001
252	0x3e8c8254	0.27443182
253	0x3d80bdcd	0.062862016
254	0x3bf21ba6	0.00738855
255	0xbcb7a4f3	-0.022417521

net.4.bias f4 [3]
0	0x3cb00e01	0.021491053
1	0x3ccbce3b	0.024878612
2	0xbd4a5e9a	-0.049406625
