checkpoint/ode_euler/pushing_3_steps_ode_euler_dynamics_model.pt (torch, 47698 bytes, 6 tensors)

ode_func.net.0.weight f4 [100, 6]
0.01315796 0.1704124 0.28097987 -0.21372753 -0.29093945 -0.045640692 -0.12608469 0.29427254
-0.06160875 -0.29039556 -0.3975151 0.27255926 0.16538654 0.15033954 0.190861 0.21977265
0.2917389 -0.040145002 0.033837035 -0.1407023 -0.41198495 -0.19799253 -0.29980472 0.279242
0.021846252 -0.09161148 -0.247626 0.24120018 -0.3329446 0.07637554 0.114923306 -0.25033662
-0.24918692 -0.36885375 0.24514778 0.35191107 -0.20151724 -0.12216352 -0.122994244 0.09847153
0.4119808 -0.26529807 0.40033674 0.20640366 0.36265695 0.21259804 -0.4064853 -0.34054178
0.17642312 -0.25974092 -0.46081024 0.10074051 -0.19108032 0.24882047 0.15425877 -0.15298015
-0.35046 -0.40620798 0.19651274 0.005549275 0.009610704 0.02634011 0.2071318 -0.3449076
-0.27134594 0.22347255 -0.34199417 -0.059300758 0.07379445 -0.28781372 -0.06238185 -0.04772497
0.32409704 -0.059141535 -0.14798577 0.183737 -0.056736395 0.18696713 -0.042258874 -0.20578401
-0.07796682 -0.32119125 -0.21270275 -0.3281609 -0.1248914 -0.30157694 -0.051289193 0.43359172
0.23416068 0.14234701 -0.17887321 0.21444282 -0.007909157 -0.14892259 -0.28328475 -0.1912567
0.3766258 0.2010301 0.32615528 -0.06876351 0.36666337 0.17122751 -0.05564437 -0.054371472
0.39182222 -0.033196766 0.03934778 0.21996509 0.024180388 -0.42083287 0.19746086 -0.14134838
-0.110193916 -0.06873015 0.22401093 0.091890715 -0.17276077 0.13180913 -0.32405984 -0.22765239
-0.007727609 0.25751135 -0.26769394 -0.23302951 -0.04792803 0.2143985 -0.13338225 -0.22142056
0.39397237 -0.17321785 -0.38120952 -0.051539224 0.05230115 -0.20613223 -0.07371345 -0.3676728
0.41536322 -0.09320259 -0.18384461 -0.4824958 -0.3583463 0.28493991 -0.04980809 -0.1222778
0.02311794 -0.094732866 -0.001478642 0.23934953 -0.13009442 -0.07212281 -0.1029438 0.29191682
-0.4561407 0.20645048 0.13418648 0.20913054 0.19557485 0.09607268 0.3447403 0.026797572
0.1391101 0.32441843 -0.0031787634 0.056083776 0.2790112 0.037230797 0.19557609 -0.14632691
-0.1057253 -0.1111387 0.095338315 -0.15984663 -0.41730914 0.16295569 0.33209085 -0.4710682
-0.30379078 -0.23057596 -0.07513671 0.44687364 -0.007611773 0.02393418 -0.048491105 0.067470096
-0.16772333 -0.12918472 -0.25245774 -0.3094314 -0.06694893 0.118219234 -0.034458973 -0.35661185
-0.2857861 0.22685923 -0.05863918 -0.3968742 -0.01621142 -0.08483798 -0.3042648 0.12085214
-0.0655285 0.15089135 0.3888486 -0.18123285 0.32962194 -0.33188587 0.39534524 -0.037504982
-0.2770301 -0.11731005 0.3306929 0.20047769 0.39014757 -0.26028922 -0.37203968 0.117214784
-0.27651864 -0.034898255 0.1317824 -0.3590532 0.06434427 0.23763292 -0.16146944 0.24430154
0.26323718 0.03670127 0.1048904 0.07094614 -0.21482669 -0.038354196 -0.21541892 0.15603928
-0.26666135 0.23860967 0.41758102 0.3274532 0.14774925 -0.075516 0.030048558 0.31396565
-0.1402664 0.015516595 0.23789161 0.35183936 0.11567862 -0.06047853 0.050342157 -0.174694
-0.31928086 0.09844841 -0.15057316 -0.25771436 -0.039835386 0.08854572 0.043920428 -0.3436462
00000000: 7c94 573c 9780 2e3e 98dc 8f3e 64db 5abe
00000010: 04f6 94be bcf1 3abd 581c 01be e4aa 963e
00000020: 7559 7cbd baae 94be 1987 cbbe e38c 8b3e
00000030: 175b 293e 9cf2 193e 1171 433e 150c 613e
00000040: cd5e 953e 166f 24bd b498 0a3d 4414 10be
00000050: b1ef d2be 8ebe 4abe 0180 99be cff8 8e3e
00000060: e9f6 b23c cd9e bbbd ac91 7dbe 2efd 763e
00000070: b777 aabe c76a 9c3d e95c eb3d 1f2c 80be
00000080: db2a 7fbe 66da bcbe 0508 7b3e b02d b43e
00000090: 895a 4ebe de30 fabd 68e4 fbbd 71ab c93d
000000a0: 26ef d23e 26d5 87be f0f8 cc3e 7b5b 533e
000000b0: 2cae b93e 4db3 593e d71e d0be 7e5b aebe
000000c0: 43a8 343e c3fc 84be 52ef ebbe 0a51 ce3d
000000d0: 8faa 43be cbca 7e3e 03f6 1d3e d4a6 1cbe
000000e0: 7e6f b3be 7efa cfbe a33a 493e b1d6 b53b
000000f0: 3776 1d3c 37c7 d73c 5c1a 543e bb97 b0be
00000100: dbed 8abe fdd5 643e dc19 afbe 5ae5 72bd
00000110: 8b21 973d 525c 93be 1c84 7fbd 427b 43bd
00000120: 0cf0 a53e 653e 72bd 9589 17be 8d25 3c3e
00000130: 6c64 68bd 5074 3f3e a417 2dbd 0bb9 52be
00000140: 11ad 9fbd 2e73 a4be c0ce 59be b504 a8be
00000150: 10c7 ffbd 4b68 9abe 9e14 52bd bcff dd3e
00000160: d1c7 6f3e 6ac3 113e 8a2a 37be e696 5b3e
00000170: 6995 01bc 2a7f 18be b30a 91be ccd8 43be
00000180: 19d5 c03e d6da 4d3e d3fd a63e e2d3 8cbd
00000190: 4dbb bb3e 4456 2f3e 5aeb 63bd 9fb4 5ebd
000001a0: ec9c c83e 55f9 07bd 232b 213d 873e 613e
000001b0: f315 c63c 6877 d7be 2e33 4a3e a1bd 10be
000001c0: 59ad e1bd 65c2 8cbd 1f63 653e 3331 bc3d
000001d0: 33e8 30be f9f8 063e 2ceb a5be b51d 69be
000001e0: e237 fdbb 87d8 833e 2e0f 89be 4a9f 6ebe
000001f0: 2f50 44bd 488b 5b3e 5b95 08be 12bc 62be
00000200: bfb6 c93e 0560 31be e52d c3be cb1a 53bd
00000210: bb39 563d 5414 53be 14f7 96bd 9c3f bcbe
00000220: 7daa d43e 00e1 bebd c341 3cbe b109 f7be
00000230: 2b79 b7be a5e3 913e 9103 4cbd c96c fabd
00000240: d661 bd3c 4e03 c2bd fece c1ba 0b18 753e
00000250: 7937 05be 20b5 93bd 33d4 d2bd 1f76 953e
00000260: 468b e9be c167 533e 2e68 093e 5126 563e
00000270: c644 483e c1c1 c43d cd81 b03e 9586 db3c
00000280: e172 0e3e 2c1a a63e cd52 50bb 1ab8 653d
00000290: 8eda 8e3e 527f 183d 1945 483e b9d6 15be
000002a0: 8286 d8bd b09c e3bd bc40 c33d d6ae 23be
000002b0: 8ba9 d5be dbdd 263e d007 aa3e da2f f1be
000002c0: 778a 9bbe 1b1c 6cbe 47e1 99bd 9fcc e43e
000002d0: 2e6c f9bb 9d11 c43c 9c9e 46bd c32d 8a3d
000002e0: aabf 2bbe 0049 04be 2442 81be cb6d 9ebe
000002f0: 851c 89bd ed1c f23d da24 0dbd d495 b6be
00000300: 8e52 92be c94d 683e a32f 70bd 1833 cbbe
00000310: d0cd 84bc 89bf adbd 99c8 9bbe 5481 f73d
00000320: ce33 86bd 4383 1a3e 2a17 c73e 1b95 39be
00000330: 35c4 a83e f2ec a9be b16a ca3e d39e 19bd
00000340: e4d6 8dbe 4040 f0bd 9450 a93e 064a 4d3e
00000350: 6cc1 c73e a144 85be fc7b bebe 4e0e f03d
00000360: da93 8dbe 79f1 0ebd f7f1 063e d2d5 b7be
00000370: eec6 833d 0b56 733e 3f58 25be 2f2a 7a3e
00000380: 06c7 863e 1254 163d c7d0 d63d 364c 913d
00000390: 87fb 5bbe 4a19 1dbd c796 5cbe c3c8 1f3e
000003a0: d687 88be 1856 743e 2ecd d53e f2a7 a73e
000003b0: 944b 173e 22a8 9abd 6528 f63c 1bc0 a03e
000003c0: ffa1 0fbe 5139 7e3c dc99 733e 4a24 b43e
000003d0: eae8 ec3d 56b8 77bd 9433 4e3d fce2 32be
000003e0: c878 a3be 529f c93d da2f 1abe 23f3 83be
000003f0: 6e2a 23bd 7557 b53d e8e5 333d 65f2 afbe

ode_func.net.0.bias f4 [100]
0.17647955 0.086761594 0.26652542 -0.05031879 -0.020255966 -0.15965965 -0.014466274 0.05810941
-0.13927567 -0.103444524 0.33894747 0.019728573 0.39515033 0.38901588 -0.16876382 0.11402697
-0.05390161 0.26728454 0.31181747 -0.06304209 0.14108957 -0.22031564 0.02578137 -0.1365812
0.21872096 0.01175393 0.37254465 -0.046129443 -0.06296149 0.077562 0.05698237 -0.0022666582
0.37386322 -0.12809482 -0.07553538 0.107445545 -0.0026302682 0.3399718 0.28944108 -0.314065
-0.052230682 0.39651978 -0.21905585 0.325633 0.2863784 -0.09935127 -0.19093552 -0.31318486
0.15832739 0.1690456 0.3906557 -0.37120125 0.0537808 -0.025377473 0.33608872 -0.180907
0.0995815 0.32829693 -0.29755017 -0.29679182 -0.109301835 -0.16031143 -0.047771875 0.17196359
0.15767892 -0.29558426 -0.36450475 -0.10982247 -0.40112442 0.23027346 -0.120531626 -0.30656537
-0.016402531 -0.0035372702 0.2077921 0.3304673 0.12551528 -0.10252401 0.33991942 -0.017697208
0.03205249 0.26610535 0.05193374 -0.038077075 -0.05318561 -0.0684551 -0.3645048 0.39455545
-0.21725772 0.3824067 0.23931351 -0.07679643 -0.10409676 0.085559845 0.23736739 0.3430075
-0.010545719 0.08551679 0.36407125 -0.15929194
00000000: 0eb7 343e 10b0 b13d 0576 883e 131b 4ebd
00000010: d7ef a5bc d27d 23be f303 6dbc 2204 6e3d
00000020: 489e 0ebe b9da d3bd 868a ad3e d19d a13c
00000030: 2551 ca3e 172d c73e 6cd0 2cbe f986 e93d
00000040: efc7 5cbd 85d9 883e 8aa6 9f3e 361c 81bd
00000050: c979 103e 6c9a 61be 7433 d33c f1db 0bbe
00000060: 63f8 5f3e 8e93 403c 2cbe be3e 3af2 3cbd
00000070: f4f1 80bd d3d8 9e3d 5866 693d 378c 14bb
00000080: 006b bf3e 4a2b 03be 4bb2 9abd 690c dc3d
00000090: 9460 2cbb c910 ae3e 9f31 943e 21cd a0be
000000a0: d7ef 55bd a404 cb3e 2d50 60be 5eb9 a63e
000000b0: 31a0 923e ae78 cbbd 9a84 43be c459 a0be
000000c0: 9320 223e 4a1a 2d3e 0604 c83e 170e bebe
000000d0: 4249 5c3d 6be4 cfbc d213 ac3e af3f 39be
000000e0: 63f1 cb3d 8916 a83e 7f58 98be 19f5 97be
000000f0: a4d9 dfbd ae28 24be 71ac 43bd 3917 303e
00000100: 9576 213e d256 97be 5ea0 babe 9aea e0bd
00000110: 2e60 cdbe cecc 6b3e 49d9 f6bd 23f6 9cbe
00000120: 9a5e 86bc 8cd1 67bb 74c7 543e 0333 a93e
00000130: 1487 003e 1cf8 d1bd eb09 ae3e bcf9 90bc
00000140: 7949 033d f63e 883e 79b8 543d b5f6 1bbd
00000150: 27d9 59bd 3032 8cbd 60a0 babe 2c03 ca3e
00000160: cf78 5ebe d0ca c33e 9a0e 753e 7247 9dbd
00000170: af30 d5bd 003a af3d 7010 733e ae9e af3e
00000180: f4c7 2cbc 6d23 af3d 8c67 ba3e 6d1d 23be

ode_func.net.2.weight f4 [100, 100]
-0.0819289 0.007481595 -0.07247708 -0.065185726 0.08468686 -0.06337862 0.15251455 0.08326693
0.04182553 -0.023103505 -0.08821101 -0.029928688 0.06442517 -0.08746442 0.04419412 0.17531641
0.008902353 0.03430852 0.09296329 -0.0061232694 -0.023152865 0.08147457 0.0713745 0.098010466
-0.050352607 -0.024988856 0.021229574 -0.10071213 0.0150084775 0.02899034 0.065193124 -0.048540838
-0.04373315 0.10458351 -0.10120562 0.0011164465 -0.07659941 -0.05624488 -0.07897804 0.06669649
0.07112186 -0.029890958 0.08589467 -0.09226498 -0.0706672 -0.029249761 0.028443297 0.0077055683
0.0197048 0.020045519 0.027896902 -0.121097095 -0.008337868 0.05215534 0.014182072 -0.04344713
-0.025018787 0.06772605 0.06046713 0.06552499 0.051046036 -0.06841803 0.020271024 -0.08594962
0.103789784 -0.09129448 0.070953906 -0.0813529 -0.04790001 0.025317669 0.13444597 -0.0071781226
-0.014367138 -0.008059743 0.031869646 0.0922889 -0.047622558 0.03821216 0.057016816 -0.081371285
-0.088032834 0.026257785 0.015944442 -0.027589576 0.018786535 -0.024344368 0.07627587 -0.00959567
0.033536624 0.080703184 -0.07109438 0.009943727 -0.07409137 0.06575932 0.10868838 0.044372
-0.081134886 -0.02974973 -0.0807241 -0.09111297 -0.07859573 0.009907048 -0.061558545 0.030714078
-0.021734362 -0.08546278 -0.088448666 -0.006518877 -0.028148947 0.087931775 -0.042715624 0.031197324
0.04527848 0.030761033 0.0020559626 -0.12149044 0.059754565 -0.05799439 0.07988596 -0.030955996
0.0909475 0.018219523 0.032367334 -0.09992922 -0.08801716 0.0885211 0.09260742 -0.10199444
-0.07607824 -0.04190229 -0.02018687 0.09389526 0.0028393182 -0.047096957 0.021710206 0.037738547
0.06546478 -0.09019652 0.05217434 -0.014072491 0.07430584 0.061946835 0.03797537 0.027932765
0.005768744 0.0050179586 -0.039034057 0.039186295 -0.0950216 0.06283556 0.02144714 0.03418114
0.04076484 -0.048179172 -0.07607993 0.07333946 0.08637435 -0.072126515 0.0832426 -0.07112173
-0.09343424 -0.032544844 -0.034854002 0.019232154 -0.048497193 -0.09861954 0.09727701 0.04081029
0.02498659 0.09794002 -0.015122323 0.00016849226 -0.07376431 -0.07428831 0.12087038 -0.063022286
0.09535494 -0.113941945 -0.054618485 0.010656111 -0.062438402 0.09164969 -0.01694155 -0.009482772
-0.08303174 -0.006330093 0.08026865 0.09140971 -0.16840672 0.09302619 0.054969948 -0.029013738
-0.006240882 0.052449446 0.06637361 -0.031805735 -0.038708225 0.0362288 0.029587442 -0.07322205
0.042571627 -0.043068964 0.047819998 0.103737906 0.017054332 0.024166279 0.027293202 0.10510829
0.014129133 0.036576994 0.06944101 -0.045321133 -0.05299782 -0.08399903 -0.13383444 0.009780737
-0.061350144 0.018298257 -0.02107257 0.063394405 0.0042386553 0.02650283 0.0629077 -0.21621422
0.057943907 0.121962376 0.021459205 -0.103053235 0.09942406 0.037213802 -0.036501616 -0.06781087
0.047386616 0.020577144 -0.019529829 0.018990792 -0.09644835 0.02135906 -0.06418308 -0.056399703
-0.028568735 -0.074861825 -0.090641126 0.08063696 -0.057408456 0.042743586 0.059741095 -0.0473186
-0.025792664 0.014006633 -0.09460487 -0.16936608 -0.049484193 0.023566322 0.03446815 -0.03965548
00000000: 57ca a7bd 2b28 f53b dd6e 94bd 1880 85bd
00000010: 4e70 ad3d a6cc 81bd c62c 1c3e da87 aa3d
00000020: 3f51 2b3d 9043 bdbc f9a7 b4bd 022d f5bc
00000030: 58f1 833d 8c20 b3bd e504 353d 2586 333e
00000040: 2ddb 113c 1787 0c3d 8a63 be3d b5a5 c8bb
00000050: 14ab bdbc 24dc a63d cb2c 923d b6b9 c83d
00000060: 893e 4ebd 6eb5 ccbc a5e9 ad3c 2942 cebd
00000070: 1ee6 753c 267d ed3c f983 853d c2d2 46bd
00000080: 8821 33bd e12f d63d e444 cfbd ba55 923a
00000090: 27e0 9cbd 0861 66bd 3dbf a1bd 2b98 883d
000000a0: 56a8 913d e2dd f4bc 8be9 af3d 6cf5 bcbd
000000b0: f7b9 90bd 329d efbc eb01 e93c fe7e fc3b
000000c0: f66b a13c 8036 a43c 0b88 e43c c101 f8bd
000000d0: 8e9b 08bc d6a0 553d ec5b 683c 9ef5 31bd
000000e0: 33f4 ccbc f5b3 8a3d 62ac 773d f731 863d
000000f0: a615 513d c11e 8cbd 6b0f a63c 5b06 b0bd
00000100: bd8f d43d 9af8 babd 4850 913d 599c a6bd
00000110: cd32 44bd 0067 cf3c 34ac 093e 7536 ebbb
00000120: 2564 6bbc 030d 04bc bf89 023d f601 bd3d
00000130: df0f 43bd 5b84 1c3d 778a 693d fda5 a6bd
00000140: 8f4a b4bd 911a d73c eb9d 823c 8903 e2bc
00000150: 38e6 993c d76d c7bc 8636 9c3d 2837 1dbc
00000160: b35d 093d b647 a53d ee99 91bd 04eb 223c
00000170: 37bd 97bd d3ac 863d 0398 de3d 6abf 353d
00000180: 0c2a a6bd b5b5 f3bc ad52 a5bd 7099 babd
00000190: ccf6 a0bd 2c51 223c d024 7cbd 179c fb3c
000001a0: 430c b2bc 1c07 afbd 9324 b5bd 4e9c d5bb
000001b0: 9f98 e6bc 9315 b43d 94f6 2ebd 8891 ff3c
000001c0: ed75 393d 90fe fb3c 54bd 063b fbcf f8bd
000001d0: 34c1 743d 878b 6dbd 409b a33d 6e97 fdbc
000001e0: af42 ba3d 1c41 953c 9c93 043d b1a7 ccbd
000001f0: 5742 b4bd 8d4a b53d f6a8 bd3d 76e2 d0bd
00000200: e9ce 9bbd bca1 2bbd ef5e a5bc 284c c03d
00000210: db13 3a3b bde8 40bd 9ad9 b13c bc93 1a3d
00000220: 6612 863d f4b8 b8bd c3b4 553d 4e90 66bc
00000230: a92d 983d f7bb 7d3d 108c 1b3d 41d3 e43c
00000240: bb07 bd3b b06d a43b 2de2 1fbd cf81 203d
00000250: af9a c2bd eeaf 803d eab1 af3c 8601 0c3d
00000260: 08f9 263d 8657 45bd cbcf 9bbd 0033 963d
00000270: 09e5 b03d 11b7 93bd 197b aa3d 45a8 91bd
00000280: 735a bfbd be4d 05bd 12c3 0ebd c08c 9d3c
00000290: fea4 46bd 0bf9 c9bd 2b39 c73d b128 273d
000002a0: adb0 cc3c c794 c83d 9fc3 77bc 4cad 3039
000002b0: be11 97bd 7824 98bd e48a f73d d411 81bd
000002c0: 7349 c33d 655a e9bd a2b7 5fbd f896 2e3c
000002d0: 69bf 7fbd d5b2 bb3d 01c9 8abc a15d 1bbc
000002e0: 8b0c aabd ab6c cfbb e463 a43d 0435 bb3d
000002f0: d072 2cbe 8484 be3d 2b28 613d 38ae edbc
00000300: 5080 ccbb 3bd5 563d e3ee 873d bb46 02bd
00000310: 848c 1ebd a664 143d 5d61 f23c 71f5 95bd
00000320: 965f 2e3d 1569 30bd e7de 433d 8a74 d43d
00000330: 87b5 8b3c 5cf8 c53c fe95 df3c 0443 d73d
00000340: e17d 673c c2d1 153d 1737 8e3d a7a2 39bd
00000350: 3e14 59bd af07 acbd e50b 09be 623f 203c
00000360: 4a4a 7bbd 3ae6 953c 62a0 acbc edd4 813d
00000370: 6be4 8a3b 771c d93c c1d5 803d 4367 5dbe
00000380: 9756 6d3d 69c7 f93d 37cb af3c 930d d3bd
00000390: d79e cb3d 806d 183d b882 15bd 6de0 8abd
000003a0: 7818 423d 6691 a83c 05fd 9fbc 9492 9b3c
000003b0: b686 c5bd 32f9 ae3c 6b72 83bd 6003 67bd
000003c0: fb08 eabc 2851 99bd 0ea2 b9bd fe24 a53d
000003d0: 2125 6bbd e613 2f3d 14b3 743d 26d1 41bd
000003e0: 234b d3bc 147c 653c 33c0 c1bd 4d6e 2dbe
000003f0: f0af 4abd 290e c13c 7a2e 0d3d c96d 22bd

ode_func.net.2.bias f4 [100]
0.07982957 -0.06949015 0.019156331 0.04573152 -0.05701708 -0.04735831 0.06670171 0.087000646
-0.025637334 -0.011126251 -0.05233574 0.0979984 -0.039490297 0.011584967 -0.05841603 0.08715438
0.085852325 0.054881204 0.09327141 -0.019720534 -0.0691198 -0.086621545 0.07060015 -0.0016050977
-0.07780207 0.011482098 0.087035336 0.08988881 -0.012908836 -0.0922506 -0.059239633 -0.027160097
-0.015309627 0.030991172 -0.048060723 0.084317185 0.0007513765 0.0966313 -0.053287853 -0.03848922
0.09356829 0.042570844 -0.013209254 0.017223353 0.020961313 0.04453765 0.027225213 0.06977175
0.0066741374 -0.04276935 0.059163 -0.051183168 0.010420454 0.048978694 0.0069662514 0.10244934
0.04315655 0.023353072 0.09340181 0.030680418 0.005017419 0.05189193 -0.03281597 0.04807774
-0.034073487 0.09096097 -0.007563884 0.01644004 0.05101736 0.06604356 0.045152754 0.031670526
-0.027960138 0.07131368 -0.06874879 0.03673075 -0.044781107 -0.029111646 -0.03840429 -0.07723956
0.093371704 0.08497087 -0.042799715 0.04407583 0.029470077 0.056136098 0.07805098 -0.089326546
-0.0038484882 0.08600321 -0.04702747 0.018256074 0.034612074 0.0032337946 0.03247865 -0.104538925
0.05274642 0.077442996 0.063834526 -0.017132245
00000000: b07d a33d da50 8ebd bded 9c3c f950 3b3d
00000010: be8a 69bd cafa 41bd e89a 883d 652d b23d
00000020: 6305 d2bc e14a 36bc 005e 56bd 63b3 c83d
00000030: 94c0 21bd e0ce 3d3c a645 6fbd ff7d b23d
00000040: 58d3 af3d 1dcb 603d 1505 bf3d f58c a1bc
00000050: af8e 8dbd a366 b1bd d096 903d 2462 d2ba
00000060: b156 9fbd 691f 3c3c 953f b23d a017 b83d
00000070: 957f 53bc e2ed bcbd 42a5 72bd da7e debc
00000080: 3bd5 7abc 33e1 fd3c 52db 44bd 7dae ac3d
00000090: 06f8 443a a2e6 c53d 5d44 5abd dfa6 1dbd
000000a0: bba0 bf3d c45e 2e3d a06b 58bc fd17 8d3c
000000b0: 0fb7 ab3c 1c6d 363d 6907 df3c 7ee4 8e3d
000000c0: b9b2 da3b ea2e 2fbd e754 723d 71a5 51bd
000000d0: 8dba 2a3c e29d 483d 2745 e43b f6d0 d13d
000000e0: ecc4 303d f14e bf3c 7349 bf3d 8055 fb3c
000000f0: 2969 a43b a28c 543d 0a6a 06bd 2aed 443d
00000100: a490 0bbd bf49 ba3d 75da f7bb 43ad 863c
00000110: 94f7 503d d941 873d 18f2 383d f4b8 013d
00000120: a90c e5bc e80c 923d 2acc 8cbd fc72 163d
00000130: 656c 37bd 8c7b eebc d14d 1dbd c62f 9ebd
00000140: aa39 bf3d 3505 ae3d c14e 2fbd dc88 343d
00000150: 3b6b f13c f7ee 653d 31d9 9f3d d6f0 b6bd
00000160: eb36 7cbb 7322 b03d e09f 40bd c38d 953c
00000170: 64c5 0d3d 12ee 533b 5508 053d 8118 d6bd
00000180: a10c 583d 6f9a 9e3d adbb 823d ec58 8cbc

ode_func.net.4.weight f4 [3, 100]
0.0870819 0.09659351 0.04889627 0.028110541 0.03942051 -0.029395754 0.010285014 -0.078621574
0.05878171 0.13290069 0.007810254 0.02078407 -0.074538335 -0.044295087 0.025531849 -0.0037662173
-0.076259114 0.03301926 -0.085655786 -0.007476498 0.013392961 0.087401174 -0.0761692 0.06837728
-0.07449006 -0.03540206 -0.01613927 0.02558601 0.03635283 0.09112064 -0.053024627 0.05099415
0.007634595 0.0377113 -0.01875785 0.021072393 0.06191871 0.033085342 -0.077797756 0.008539832
0.07705488 0.07814311 -0.0096144695 0.004732373 -0.07352336 0.095863745 0.017569063 -0.0931727
-0.010738902 -0.00842936 0.101357795 0.0524441 -0.009679091 -0.013953904 -0.0035486864 0.065500624
0.053342868 -0.031155169 -0.005899668 -0.04452538 -0.07657396 -0.04606732 -0.030472593 -0.066652834
0.009581338 -0.07727786 0.045315523 0.0029911394 -0.026227366 -0.033700317 0.058896318 0.016467629
-0.045043524 0.008333587 0.07853433 0.040091302 -0.056249578 -0.0022996156 -0.012688394 -0.051329084
0.09669552 -0.06842848 0.080101915 0.06915648 -0.09265263 -0.01973051 -0.06777149 0.05979609
-0.021146048 0.041733358 -0.013704159 -0.06511641 0.07731789 -0.08214509 0.0044741663 0.13625762
0.03798045 -0.029112877 0.041808464 0.029027198 -0.0555319 -0.01845721 -0.07445145 0.034614656
0.06822834 -0.03560165 0.028045401 -0.0627979 -0.073833354 -0.0052695265 -0.088775896 -0.047361013
-0.04682619 0.10054496 -0.09396841 -0.033547863 -0.018349892 0.014278396 0.0016192222 0.027613763
0.045361213 0.089341685 -0.012247181 0.030298391 0.043652803 -0.09758197 -0.032803573 -0.08704713
-0.010543638 0.0049075843 -0.03741915 0.022218427 0.067288846 0.0388496 -0.004691008 -0.06798698
0.0031916075 0.0051465407 0.028161518 -0.043459788 0.07126625 -0.039739348 -0.082552835 0.05385507
0.041378696 -0.022760885 -0.06878039 -0.06962857 -0.014564149 -0.0315441 -0.066189304 -0.02555374
-0.005207462 0.018066257 0.061233878 0.09887987 0.029288119 0.07480919 -0.027057339 0.09872713
-0.03661906 0.084989615 -0.1300703 -0.069736235 6.7824203e-06 0.0023340345 -0.077747405 0.017228926
-0.016125616 0.06901802 0.09703005 -0.031385817 -0.010277144 0.06210656 0.08929806 -0.07615785
-0.06293681 0.07087147 -0.027652418 -0.074946366 -0.096044086 0.04037428 -0.048311222 0.08356383
0.00084088306 -0.077333085 -0.0824913 -0.042593665 0.062282912 0.070493385 -0.095635705 0.015030903
0.09806545 0.061576612 -0.037686575 0.050085988 -0.080842905 0.05616331 -0.007350155 -0.02530603
-0.14292212 0.09535465 0.13927719 0.08132457 0.27753332 -0.2467462 -0.029072087 0.09926196
-0.19810176 -0.037999477 0.1123201 -0.001021511 0.10532049 -0.1347948 0.021827068 0.037813388
-0.21317814 0.109104976 -0.08998505 0.43215427 0.060294285 -0.069010675 0.038686655 -0.05754705
-0.08545092 -0.099993005 0.07454802 -0.07164718 0.25562394 0.055434715 0.28342935 -0.089980155
0.06370611 -0.026368892 0.3321217 -0.10226401 -0.016816966 -0.0003726208 -0.072628886 0.091489665
-0.10368316 0.10084559 0.034456223 -0.10778868 -0.080571264 -0.10618409 0.05515314 -0.0049979007
0.22172448 9.862482e-05 0.08885454 0.023785321 0.07898447 -0.106708385 0.13767672 -0.05968637
00000000: ff57 b23d d1d2 c53d 7547 483d 1448 e63c
00000010: 6777 213d 5dcf f0bc 7a82 283c 5904 a1bd
00000020: 17c5 703d 1e17 083e 29ed ff3b 5b43 aa3c
00000030: 8ea7 98bd c46e 35bd 2b28 d13c a4d2 76bb
00000040: bd2d 9cbd 343f 073d 4d6c afbd 69fd f4bb
00000050: 266e 5b3c 63ff b23d 99fe 9bbd 6309 8c3d
00000060: 3f8e 98bd c001 11bd 8136 84bc c199 d13c
00000070: b4e6 143d 759d ba3d 5a30 59bd 3edf 503d
00000080: a02b fa3b 2a77 1a3d 10aa 99bc 03a0 ac3c
00000090: 799e 7d3d 7f84 073d 6e54 9fbd a7ea 0b3c
000000a0: f3ce 9d3d 7f09 a03d 0286 1dbc 0612 9b3b
000000b0: 6a93 96bd 3654 c43d ffec 8f3c 54d1 bebd
000000c0: 38f2 2fbc 4c1b 0abc ad94 cf3d a0cf 563d
000000d0: 0d95 1ebc ea9e 64bc 1491 68bb 3125 863d
000000e0: 0d7e 5a3d 2039 ffbc 0152 c1bb 3f60 36bd
000000f0: cfd2 9cbd 16b1 3cbd a9a1 f9bc 4881 88bd
00000100: 0bfb 1c3c db43 9ebd c59c 393d fe06 443b
00000110: c6da d6bc 5809 0abd 443d 713d 1fe7 863c
00000120: 8f7f 38bd 9989 083c 9bd6 a03d c736 243d
00000130: f565 66bd 26b5 16bb fbe2 4fbc 723e 52bd
00000140: 4d08 c63d 3b24 8cbd 790c a43d eaa1 8d3d
00000150: a9c0 bdbd e1a1 a1bc c7cb 8abd bfec 743d
00000160: 7a3a adbc 99f0 2a3d 6987 60bc c15b 85bd
00000170: d858 9e3d af3b a8bd 079c 923b 1e87 0b3e
00000180: 6391 1b3d 217e eebc 5a3f 2b3d 72ca ed3c
00000190: 6b75 63bd 9333 97bc 007a 98bd 19c8 0d3d
000001a0: 4dbb 8b3d 09d3 11bd 78bf e53c 2f9c 80bd
000001b0: f135 97bd feab acbb 23d0 b5bd 9ffd 41bd
000001c0: d2cc 3fbd 84ea cd3d 8272 c0bd 7c69 09bd
000001d0: 8352 96bc efef 693c 153c d43a 4236 e23c
000001e0: aecc 393d c6f8 b63d 66a8 48bc 5534 f83c
000001f0: 48cd 323d 0ed9 c7bd 0a5d 06bd c445 b2bd
00000200: 39bf 2cbc cdcf a03b d344 19bd 6b03 b63c
00000210: bcce 893d c220 1f3d 07b7 99bb c23c 8bbd
00000220: 4a2a 513b 50a4 a83b fcb2 e63c e402 32bd
00000230: 0af4 913d bac5 22bd 7611 a9bd 2297 5c3d
00000240: b57c 293d 0975 babc bcdc 8cbd 6c99 8ebd
00000250: 789e 6ebc 6334 01bd 428e 87bd 1456 d1bc
00000260: 5ba3 aabb b0ff 933c 60d0 7a3d 8781 ca3d
00000270: a3ed ef3c 9035 993d 5aa7 ddbc 7331 ca3d
00000280: defd 15bd 090f ae3d 2631 05be dfd1 8ebd
00000290: 8c94 e336 9af6 183b 083a 9fbd ad23 8d3c
000002a0: de19 84bc 5259 8d3d b1b7 c63d 6a8e 00bd
000002b0: 7761 28bc 7363 7e3d e7e1 b63d a6f8 9bbd
000002c0: 04e5 80bd 1025 913d 5387 e2bc 7b7d 99bd
000002d0: c3b2 c4bd 805f 253d fde1 45bd 8323 ab3d
000002e0: b56e 5c3a cf60 9ebd 33f1 a8bd b276 2ebd
000002f0: 5e1c 7f3d d65e 903d a7dc c3bd 2d44 763c
00000300: 8ad6 c83d c237 7c3d 3d5d 1abd f726 4d3d
00000310: f790 a5bd 800b 663d 92d9 f0bb 974e cfbc
00000320: 2d5a 12be 4c49 c33d ae9e 0e3e 7f8d a63d
00000330: d918 8e3e 09ab 7cbe 9628 eebc db49 cb3d
00000340: 30db 4abe 57a5 1bbd 1508 e63d 39e4 85ba
00000350: 45b2 d73d a607 0abe aece b23c 36e2 1a3d
00000360: 5f4b 5abe 6e72 df3d 154a b8bd 5343 dd3e
00000370: 24f7 763d 7855 8dbd e675 1e3d 75b6 6bbd
00000380: e400 afbd 22c9 ccbd a2ac 983d c2bb 92bd
00000390: 24e1 823e 830f 633d a71d 913e 8447 b8bd
000003a0: 5978 823d 9303 d8bc db0b aa3e cb6f d1bd
000003b0: bcc3 89bc 515c c3b9 74be 94bd ef5e bb3d
000003c0: d657 d4bd 2288 ce3d f821 0d3d 50c0 dcbd
000003d0: 8c02 a5bd 0b77 d9bd 42e8 613d 6ec5 a3bb
000003e0: be0b 633e ccd4 ce38 5ef9 b53d 6fd9 c23c
000003f0: 9cc2 a13d ed89 dabd 20fb 0c3e b279 74bd

ode_func.net.4.bias f4 [3]
0.0007178438 0.030723102 0.0082599055
00000000: af2d 3c3a 04af fb3c 8e54 073c
