checkpoint/ode_euler/pushing_2_steps_ode_euler_dynamics_model.pt (torch, 47698 bytes, 6 tensors)

ode_func.net.0.weight f4 [100, 6]
0	0x3e85b8cb	0.26117548
1	0x3e9cab72	0.30599552
2	0x3eb70b03	0.3575059
3	0xbdc493f3	-0.095985316
4	0xbdaed400	-0.085365295
5	0xbe7ff925	-0.24997385
6	0xbda65542	-0.081217304
7	0x3dc06f47	0.093962245
8	0x3ea275ea	0.31730586
9	0xbd6d0d4e	-0.057874016
10	0xbe610b6b	-0.21977012
11	0x3e7951bf	0.2434759
12	0x3c0ceb11	0.008600966
13	0xbd07e23a	-0.03317473
14	0xbed033ea	-0.40664607
15	0xbde209c0	-0.11037016
16	0xbe8d88e2	-0.27643496
17	0xbe01d8a2	-0.12680295
18	0x3ec882c9	0.3916228
19	0xbdf7676e	-0.120802745
20	0x3e15c4a3	0.14625792
21	0x3eb0fe95	0.3456923
22	0xbde72086	-0.112855
23	0x3dce9aef	0.10088145
24	0xbe68e3d4	-0.2274316
25	0x3cc29743	0.023753768
26	0xbcdb97e5	-0.026805827
27	0xbd972d81	-0.07381726
28	0x3e8465ca	0.2585891
29	0xbe9b143f	-0.30288884
30	0xbe1d833a	-0.1538209
31	0xbea0d529	-0.31412628
32	0x3e9789b4	0.29597247
33	0xbe09c022	-0.13452199
34	0x3e054f8f	0.1301863
35	0x3cc105d0	0.023562342
36	0x3ebb02ee	0.36525673
37	0xbe23a769	-0.1598183
38	0x3df3b58f	0.11899864
39	0xbeb4dbb2	-0.35323864
40	0xbe4b4ffb	-0.19854729
41	0x3eca9088	0.39563394
42	0xbeae5f20	-0.3405695
43	0x3e2daca5	0.1696039
44	0x3e53a325	0.20667703
45	0x3dedf8a5	0.11619691
46	0x3e72eab5	0.23722346
47	0xbe07bab5	-0.13254817
48	0x3dbe68ce	0.09297334
49	0xbd921919	-0.07133693
50	0xbc9a214d	-0.018814707
51	0x3e1e0b18	0.1543392
52	0x3e6ddd7a	0.23229018
53	0xbeb22aea	-0.34798366
54	0xbe9c26d0	-0.30498362
55	0x3d74e2f6	0.05978676
56	0x3e8b9b70	0.27267027
57	0x3e639a0e	0.22226736
58	0x3d998515	0.074960865
59	0xbd34725a	-0.044054367
60	0xbde10579	-0.10987372
61	0xbe43958e	-0.1910002
62	0x3df2d0f3	0.1185626
63	0x3e349452	0.17634705
64	0xbed07bb2	-0.40719372
65	0x3e129c7d	0.14317508
66	0xbcc42aec	-0.023946248
67	0xbe6c25c4	-0.23061281
68	0xbdc1bb64	-0.0945957
69	0xbe223c0b	-0.15843217
70	0x3e931d33	0.28733215
71	0x3dfa7334	0.122290045
72	0xbc95fa93	-0.01830796
73	0xbe435c7c	-0.19078249
74	0xbf3f38f4	-0.7469628
75	0xbdde4a4e	-0.10854016
76	0x3d935fe3	0.07196023
77	0x3ea57ff7	0.32324192
78	0x3ec155d7	0.37760803
79	0xbec612ff	-0.38686368
80	0x3eac0c25	0.33603016
81	0xbde015cf	-0.1094166
82	0x3e431a6e	0.19053051
83	0x3ec371f2	0.3817287
84	0x3e6f0ae1	0.23343994
85	0xbe25dee6	-0.1619831
86	0xbeb030fa	-0.34412366
87	0xbea95d1e	-0.33078855
88	0x3ea93610	0.3304906
89	0x3e43ccda	0.19121113
90	0xbe293397	-0.16523586
91	0x3e6bfd5e	0.2304587
92	0x3aa9bc35	0.0012949767
93	0x3e67be7d	0.2263126
94	0x3eb398ad	0.3507742
95	0x3e000697	0.12502514
96	0xbe4dfbac	-0.20115536
97	0x3e71f215	0.23627503
98	0x3e265f01	0.16247179
99	0xbd31596c	-0.04329817
100	0x3dd726d5	0.105054535
101	0xbdd015a1	-0.101603754
102	0x3ea07fdb	0.31347546
103	0x3e2e3942	0.1701403
104	0xbe99b75c	-0.30022705
105	0x3e7bba32	0.24582747
106	0xbe247f5d	-0.1606421
107	0x3e894b16	0.268151
108	0xbec4587d	-0.3834876
109	0x3c74319f	0.014904409
110	0xbe87243f	-0.2639484
111	0xbe23506b	-0.15948646
112	0xbe37d402	-0.17951968
113	0x3db43335	0.087988295
114	0x3d273cf8	0.04082963
115	0x3e440ed5	0.19146283
116	0x3cd82397	0.026384158
117	0x3e411272	0.18854693
118	0x3ea894b6	0.32925957
119	0x3edad5fa	0.42741376
120	0xbd4522eb	-0.048129003
121	0x3da46488	0.08026987
122	0x3e79c8fd	0.24393077
123	0xbe4d1791	-0.20028521
124	0xbea5e8a9	-0.32404068
125	0x3e802e77	0.2503545
126	0xbd64255f	-0.055699702
127	0x3da53548	0.08066803
128	0x3eb1bc2e	0.34713882
129	0xbe851252	-0.2599054
130	0x3e1eb45b	0.15498488
131	0x3ec9c565	0.39408413
132	0xbebe84a2	-0.37210566
133	0xbd899938	-0.06718677
134	0xbe98a061	-0.2980986
135	0xbde09bae	-0.109671935
136	0x3e32a9f9	0.17447652
137	0xbd94cb95	-0.07265393
138	0x3e75953f	0.23982714
139	0xbe54c199	-0.20776977
140	0xbeafa874	-0.34308207
141	0x3edbdf90	0.42944002
142	0x3eb1a468	0.34695745
143	0x3d8eec71	0.06978691
144	0x3e1f13a7	0.1553484
145	0x3e57313a	0.21014872
146	0xbe24fdc6	-0.16112432
147	0xbcb55b05	-0.022138128
148	0xbda2e16a	-0.079531506
149	0x3ed1ceb7	0.40978023
150	0xbe3ccde3	-0.18437915
151	0x3e238eb6	0.15972409
152	0xbec172e2	-0.3778296
153	0x3dc0b0b2	0.09408702
154	0xbe6bd37f	-0.23029898
155	0x3e1ed561	0.15511085
156	0xbe3fe0a2	-0.18738034
157	0xbe128c50	-0.14311337
158	0x3cbcdaca	0.023053546
159	0xbda8f90f	-0.08250629
160	0xbe6d614b	-0.23181646
161	0x3e7896f6	0.24276337
162	0x3ed0d8d0	0.40790415
163	0xbec5d92a	-0.38642246
164	0x3dd37075	0.10324184
165	0x3e7cc507	0.24684535
166	0x3eb5a472	0.35477024
167	0xbe4fdc75	-0.20298941
168	0xbe35c602	-0.17751315
169	0xbea46718	-0.32109904
170	0xbdd49bec	-0.10381302
171	0xbdd29e8a	-0.10284145
172	0x3e79fd05	0.24412926
173	0xbd736940	-0.059426546
174	0x3d59d713	0.053183626
175	0x3e4b25cb	0.19838636
176	0xbd97d3d7	-0.07413452
177	0xbe22322f	-0.15839456
178	0xbc839bb6	-0.01606546
179	0xbe942a36	-0.28938454
180	0xbad2bbd2	-0.0016077703
181	0x3d94d5aa	0.07267316
182	0xbe0e62e8	-0.13904917
183	0xbd482389	-0.048862014
184	0xbde6451f	-0.112436526
185	0xbea53e6d	-0.3227419
186	0xbecc605d	-0.3991727
187	0xbc6ce2d6	-0.014458379
188	0x3c8c0de6	0.017096471
189	0xbc281dbe	-0.010260997
190	0x3d6b6793	0.057471823
191	0x3ea5aefc	0.32360065
192	0x3d77daf3	0.06051154
193	0x3eafb627	0.3431866
194	0xbe887a51	-0.2665582
195	0xbe7d09ac	-0.24710721
196	0x3e73279f	0.23745583
197	0x3941a718	0.00018468162
198	0xbe94bab3	-0.2904869
199	0x3ee5ccaa	0.4488271
200	0x3deef981	0.11668683
201	0xbc8742f4	-0.016511418
202	0x3dbfaf09	0.09359557
203	0x3ecebfb5	0.40380636
204	0xbe22e00a	-0.15905777
205	0x3e6014c9	0.21882929
206	0x3d70dca7	0.05880418
207	0xbd56c9da	-0.052438594
208	0x3e8b7157	0.2723491
209	0xbe89fc42	-0.2695027
210	0xbe962a0c	-0.29328954
211	0xbeb3d2dc	-0.3512181
212	0x3eb54f3f	0.35412022
213	0x3d24cf67	0.040236857
214	0x3eae9495	0.34097734
215	0xbe376a9b	-0.1791176
216	0xbdbd53ec	-0.092445225
217	0xbe7a9913	-0.24472456
218	0x3e33b6ae	0.17550156
219	0x3e40343e	0.18769929
220	0xbeb57a3c	-0.3544482
221	0x3e7fd802	0.24984744
222	0xbd7716ea	-0.060324587
223	0x3ed43e2e	0.4145369
224	0x3ec64a05	0.38728347
225	0xbcae8795	-0.021304885
226	0x3e99f0a5	0.3006641
227	0xbe94ced6	-0.29064053
228	0x3c5b5df0	0.013389096
229	0x3e252ae3	0.16129641
230	0xbf17cc11	-0.59295756
231	0x3ec1ccc9	0.3785155
232	0x3dd98b62	0.10622288
233	0xbd83f5a5	-0.06443337
234	0xbe84bf97	-0.2592742
235	0x3ee2be5d	0.4428586
236	0x3e95cbeb	0.2925714
237	0x3e8bc05b	0.27295193
238	0x3e418d02	0.18901446
239	0xbe58e80d	-0.2118227
240	0xbe9bb478	-0.30411124
241	0x3ee7a43c	0.45242488
242	0xbe715b71	-0.23570038
243	0xbe6e20e9	-0.23254742
244	0xbdbd8b4a	-0.09255083
245	0x3e86ec38	0.26352096
246	0x3e38d06a	0.18048254
247	0x3de88665	0.11353759
248	0x3d549c79	0.051907036
249	0x3e0505ec	0.1299054
250	0xbddce920	-0.107866526
251	0xbe988d14	-0.29795134
252	0x3e95f5da	0.29289132
253	0x3d8c1991	0.06840814
254	0xbe0f1521	-0.13972904
255	0xbcc36ef5	-0.02385662

ode_func.net.0.bias f4 [100]
0	0x3ea704c1	0.32620814
1	0xbd6c2e85	-0.057661552
2	0xbe7e03bc	-0.24806112
3	0x3e259f48	0.16174042
4	0x3d804501	0.062631615
5	0x3d5535dd	0.05205332
6	0xbd76f121	-0.060288552
7	0x3e9e123a	0.3087328
8	0x3ee12692	0.4397474
9	0x3e422575	0.18959601
10	0xbe663410	-0.22480798
11	0x3ea22e5f	0.31676003
12	0xbe7f45a2	-0.24928907
13	0x3e8cd215	0.2750403
14	0xbde9094a	-0.11378725
15	0xbe9fa752	-0.31182343
16	0x3e8bba1f	0.27290437
17	0xbaeb598a	-0.0017955762
18	0x3e9e8b39	0.30965593
19	0xbe903297	-0.28163597
20	0x3e4f8b0f	0.2026789
21	0x3e3bb025	0.18328913
22	0xbe47df16	-0.19518694
23	0xbea2fa4e	-0.31831592
24	0xbe42f8de	-0.19040248
25	0x3d992070	0.0747689
26	0x3db38bdf	0.08766913
27	0xbea6da12	-0.3258825
28	0x3e8a69be	0.270338
29	0xbe5b5c6e	-0.21421978
30	0x3e7e04f9	0.24806584
31	0xbed05173	-0.4068714
32	0x3e137068	0.14398348
33	0xbe9fbed3	-0.31200275
34	0x3e915257	0.28383133
35	0x3dc58a1d	0.09645484
36	0xbe6c804c	-0.23095816
37	0x3e58f828	0.21188414
38	0xbe820b1b	-0.25399098
39	0xbe9891ab	-0.29798636
40	0x3e78af0c	0.24285525
41	0xbe2f49de	-0.17118022
42	0x3e24928f	0.16071533
43	0x3e3354cf	0.1751282
44	0x3c7e898e	0.015535725
45	0xbeadcbb8	-0.33944488
46	0xbc31fc26	-0.0108633395
47	0x3e8011d4	0.25013602
48	0xbe9c1e55	-0.30491892
49	0xbd4f30cb	-0.050583642
50	0xbe6a1dcd	-0.2286293
51	0x3eacb343	0.33730516
52	0x3d79b606	0.060964607
53	0xbdded3a0	-0.10880208
54	0x3e49363b	0.19649594
55	0x3e0303c3	0.12794404
56	0xbeb823e9	-0.35964897
57	0x3da4b7ce	0.080428705
58	0x3e6fa634	0.23403245
59	0xbe69c3c9	-0.22828592
60	0xbe0a6ce4	-0.13518101
61	0xbeb0d461	-0.34537032
62	0x3d9aa565	0.07551078
63	0x3e309228	0.17243254
64	0x3dda7bd1	0.10668147
65	0xbeaaf203	-0.33387765
66	0xbea21442	-0.3165608
67	0xbe3a97f6	-0.18222031
68	0xbc03a91a	-0.008035922
69	0x3c921734	0.01783333
70	0x3c63fe4f	0.013915612
71	0x3eda094e	0.42585224
72	0x3e48d894	0.19613868
73	0xbeb67d69	-0.35642555
74	0x3e2527a5	0.16128404
75	0x3e4b41e8	0.1984936
76	0xbdb318a4	-0.08744934
77	0x3eba5515	0.36393037
78	0x3eb6bcad	0.35690823
79	0x3e2c8032	0.16845778
80	0x3e909b75	0.28243604
81	0x3e9502b1	0.29103616
82	0xbea2fb57	-0.31832382
83	0x3e044bac	0.12919492
84	0x3d3316f9	0.04372308
85	0x3e2cc690	0.1687262
86	0xbe425e16	-0.18981203
87	0xbe82e7fe	-0.2556762
88	0xbebc9d66	-0.36838835
89	0x3de4416a	0.11145289
90	0x3ebc00ed	0.36719456
91	0xbe0cbe02	-0.13744357
92	0x3bde2bf2	0.006780141
93	0x3e6de646	0.23232374
94	0xbde87ebd	-0.113522984
95	0xbe318463	-0.17335658
96	0x3e2511ef	0.16120122
97	0xbde42bed	-0.11141191
98	0x3e34394f	0.17599986
99	0xbe6214d2	-0.22078255

ode_func.net.2.weight f4 [100, 100]
0	0xbdc8d8ee	-0.09807001
1	0x3dc90d76	0.098170206
2	0x3db66dd4	0.08907667
3	0x3d0e3b60	0.034724593
4	0xbda37c2a	-0.07982667
5	0x3d8088cf	0.06276094
6	0x3cdacb37	0.026708229
7	0xbda6f453	-0.0815207
8	0xbd69ff04	-0.057127967
9	0xbd82e9c0	-0.063922405
10	0x3cce8e49	0.025214331
11	0x3db3a2cf	0.08771288
12	0xbe93d5c0	-0.28874016
13	0xbc9bae3a	-0.019003976
14	0xbbad9111	-0.0052968343
15	0xbe6f84fb	-0.23390572
16	0xbd10690c	-0.03525643
17	0xbdab66fb	-0.08369251
18	0x3ba939cf	0.005164362
19	0x3e26c118	0.16284597
20	0x3d2a715a	0.041612007
21	0xbd9b3139	-0.07577748
22	0xbce9b6b3	-0.0285295
23	0x3be7524a	0.00705937
24	0x3d8c03a7	0.06836634
25	0xbdc0fd60	-0.094233274
26	0x3cc0a285	0.023514995
27	0xbde8f58c	-0.11374959
28	0xbd0c002f	-0.034179863
29	0xbd1818b7	-0.037132945
30	0xbe04d680	-0.1297245
31	0x3d8698b2	0.06572093
32	0xbd238d00	-0.03992939
33	0xbdbff774	-0.0937337
34	0x3d5a1b12	0.053248473
35	0x3c2bcdea	0.010486105
36	0x3ce54695	0.027987758
37	0x3d89a1c9	0.06720311
38	0x3e1f522c	0.1555869
39	0xbdf62fc9	-0.12020833
40	0xbccb8d8f	-0.024847774
41	0xbd501d61	-0.050809268
42	0x3dd40a75	0.10353557
43	0x3c9b674b	0.018970152
44	0x3d7a0516	0.061040007
45	0xbd455df8	-0.04818532
46	0x3dbd4d10	0.09243214
47	0x3d122c73	0.03568692
48	0xb99f31ac	-0.00030363852
49	0xbc10b27f	-0.008831619
50	0xbd551649	-0.052023206
51	0xbdace840	-0.08442736
52	0xbd011cd4	-0.031521633
53	0xbd048add	-0.032358993
54	0x3c98f308	0.018670574
55	0xbd4112d1	-0.047137085
56	0xbc252291	-0.010079042
57	0xbbb9eb1d	-0.0056737796
58	0x3ccbd139	0.024880039
59	0xbd22f277	-0.039782014
60	0xbd3dda8f	-0.04635101
61	0xbe009c45	-0.12559612
62	0xbd0d9f2b	-0.034575623
63	0xbcbe0452	-0.02319542
64	0xbd91cadf	-0.07118773
65	0xbdc54ad8	-0.09633416
66	0x3d0324ea	0.032017626
67	0xbbef61c9	-0.007305358
68	0x3d0ddfae	0.034637146
69	0x3da494e1	0.08036209
70	0x3d5d529a	0.054033853
71	0x3c8fbe8b	0.017546913
72	0xbc87d2c9	-0.016580002
73	0xbd854086	-0.065064475
74	0xbcf005d3	-0.029299652
75	0xbd12a95a	-0.035806037
76	0xbd79ea99	-0.061014745
77	0x3d2d0b7f	0.04224729
78	0x3c04c4de	0.008103577
79	0x3b5c78d5	0.0033641357
80	0xbd81ead6	-0.063436195
81	0x3dcd4e57	0.10024708
82	0x3d93a244	0.07208684
83	0x3d107a8a	0.035273112
84	0x3c41c983	0.011827829
85	0xbd34f07a	-0.04417465
86	0xbdb7aa3a	-0.08968015
87	0x3da7c0b5	0.08191053
88	0x3c70ee85	0.014705305
89	0x3dcc6d0e	0.09981738
90	0x3dc21e0b	0.094783865
91	0xbdcc580a	-0.099777296
92	0xbc053db2	-0.008132385
93	0xbdbc591b	-0.09196683
94	0xbe205170	-0.15656066
95	0xbd157231	-0.036485855
96	0x3d03535e	0.032061927
97	0xbd4d3da6	-0.05010762
98	0x3d70c7ca	0.058784284
99	0xbc262721	-0.010141165
100	0x3dc1bca4	0.094598085
101	0x3c9fae42	0.019492272
102	0xbbaa7c3d	-0.0052027986
103	0xbb6bb23f	-0.0035964397
104	0x3d147c38	0.036251277
105	0xbbacdd39	-0.0052753952
106	0xbc027d02	-0.0079643745
107	0xbd29a71e	-0.04141914
108	0x3d99b71c	0.075056285
109	0x3c03bd0a	0.008040676
110	0x3d910e55	0.07082812
111	0x3d504fc4	0.05085732
112	0xbdcfee76	-0.10152905
113	0x3d9f9ff9	0.07794184
114	0x3d709d53	0.058743786
115	0xbe027c1c	-0.12742656
116	0x3dc3c01d	0.09558127
117	0x3db26e87	0.08712488
118	0x3db69854	0.08915773
119	0xbc4ada4a	-0.012381146
120	0xbcfeec32	-0.031118486
121	0xbd8875f0	-0.0666312
122	0xbd4b62fa	-0.04965494
123	0x3ba6af82	0.00508684
124	0x3d0b5130	0.034012973
125	0xbd368337	-0.04455873
126	0xbd9895df	-0.07450461
127	0x3cb34839	0.021885024
128	0x3cfabb5c	0.030606918
129	0xbcc7f580	-0.024409056
130	0xbcc55542	-0.024088506
131	0xbc62c61a	-0.013841176
132	0x3bdde5d2	0.0067717815
133	0xbdd6662d	-0.10468707
134	0x3d76451c	0.0601245
135	0xbd884c68	-0.06655198
136	0x3da4503f	0.08023118
137	0xbd492e6a	-0.04911653
138	0x3c8c66d9	0.017138885
139	0xbd2dcf4e	-0.04243403
140	0xbc1b3070	-0.009471998
141	0x3cefadaa	0.029257614
142	0x3d80dc29	0.06291992
143	0x3d8e3306	0.06943326
144	0x3ca2c3fe	0.019868847
145	0x3cce5c7c	0.025190584
146	0xbc804ff6	-0.015663128
147	0x3d36513d	0.04451107
148	0x3dd700df	0.10498213
149	0x3c0cb333	0.008587646
150	0x3d8ff9af	0.07030045
151	0xbb4a4f48	-0.003087001
152	0xbdb2dd35	-0.08733598
153	0x3dc3656d	0.0954083
154	0xbccad753	-0.024760878
155	0x3cfc9080	0.030830622
156	0xbd66f592	-0.056386538
157	0x3d382145	0.044953603
158	0x3c4068dd	0.011743751
159	0x3c0d9d65	0.008643483
160	0xba840ed8	-0.0010075225
161	0x3dc22d0e	0.0948125
162	0xbd6507ac	-0.05591552
163	0xbd5570ac	-0.052109405
164	0xbdbe5c71	-0.092949755
165	0xbcc46f6a	-0.023978908
166	0x3c52664d	0.012841773
167	0x3d731222	0.059343465
168	0x3c679677	0.014134995
169	0xbd40c7e2	-0.047065623
170	0xbd7736ef	-0.060355123
171	0x3dc6e4e1	0.09711624
172	0x3d9262e0	0.07147765
173	0x3d78c9d4	0.060739353
174	0xbcf8e922	-0.030384604
175	0xbda5fa2f	-0.08104359
176	0xbce95ef1	-0.028487654
177	0x3ac75b0e	0.0015209632
178	0x3d4f5833	0.050621223
179	0x3dd7cda7	0.10537272
180	0xbcac790f	-0.021053819
181	0x3dadefed	0.08493028
182	0x3d84b217	0.064792804
183	0x3d9b1a63	0.07573392
184	0x3b2444a5	0.002506533
185	0x3c7514b2	0.014958547
186	0xbdb0df79	-0.08636374
187	0x3c4852c1	0.012226761
188	0x3d9609ca	0.07326086
189	0x3d14a62c	0.036291286
190	0x3da962cb	0.082707964
191	0x3d0b52ce	0.034014516
192	0x3d66f929	0.05638996
193	0xbd7c9007	-0.061660793
194	0xbe17a7fa	-0.14810172
195	0xbde13e2b	-0.10998186
196	0x3d38d9a7	0.045129444
197	0x3da76d85	0.08175186
198	0x3d8f0af6	0.069845125
199	0xbd490285	-0.04907467
200	0xbc8f52f1	-0.017495604
201	0xba519f12	-0.00079964206
202	0xbdafa44b	-0.08576258
203	0xbb25b542	-0.002528504
204	0x3d3dabbf	0.046306368
205	0xbe05b8f2	-0.13058832
206	0xbe09c6de	-0.13454768
207	0x3db3548a	0.08756359
208	0x3dcf02fd	0.10107992
209	0xbc63a9fc	-0.013895508
210	0xbc8cc965	-0.017185876
211	0xbbdfb891	-0.006827422
212	0x3d1c450f	0.038151797
213	0xbae7a067	-0.0017671705
214	0x3d4aa4cc	0.04947357
215	0xbd515731	-0.051108543
216	0x3d87d97c	0.06633279
217	0x3d664f88	0.05622819
218	0xbdc891bf	-0.09793424
219	0xbb26968e	-0.0025419327
220	0xbde132a2	-0.109959856
221	0xbde14ead	-0.11001334
222	0xbd92979f	-0.07157826
223	0xbd93d7d2	-0.07218899
224	0xbc43a2f2	-0.011940705
225	0xbda0371b	-0.078230105
226	0x3cdde5a5	0.027087042
227	0x3b1236c8	0.0022310484
228	0xbdcd06cd	-0.10011063
229	0xbce5ffc7	-0.028076066
230	0x3a827ef9	0.0009956054
231	0x3cd49ae7	0.02595277
232	0xbdd4bfb4	-0.10388127
233	0x3ce7fb45	0.028318057
234	0xbd6a3acd	-0.057184983
235	0xbd38dfe9	-0.045135412
236	0x3d0098e7	0.03139582
237	0xbd57783a	-0.05260489
238	0xbd9454be	-0.07242726
239	0x3d241952	0.04006321
240	0x3d91d2b5	0.07120267
241	0xbda6753b	-0.08127829
242	0x3d2ba547	0.041905668
243	0x3dd6f0ec	0.10495171
244	0xbd45e39b	-0.048312765
245	0xbc9c3c36	-0.01907168
246	0x3d8e06b0	0.06934869
247	0x3cf3339a	0.029687691
248	0x3e06e0a0	0.13171625
249	0x3d7bcaea	0.06147281
250	0x3d9db83b	0.07701155
251	0x3dabf6c3	0.083966754
252	0x3d14fa41	0.036371473
253	0xbb472770	-0.0030388497
254	0xbcdd6ffe	-0.027030941
255	0x3d9bd811	0.07609571

ode_func.net.2.bias f4 [100]
0	0x3c818fab	0.015815577
1	0x3c306216	0.010765573
2	0xbdb265bb	-0.0871081
3	0x3d5eb6d9	0.054373596
4	0xbda58492	-0.080819264
5	0xbba82dca	-0.0051324116
6	0xbd949b6d	-0.072562076
7	0xbd9ae7e3	-0.0756376
8	0xbd904a72	-0.07045449
9	0x3d99a677	0.07502454
10	0x3c6b5e8b	0.0143658025
11	0x398f51f4	0.00027336145
12	0x3cc0580e	0.023479488
13	0x3c9daa3e	0.019246217
14	0xbdbaadf7	-0.091152124
15	0xbd606476	-0.054783307
16	0x3d36bfb2	0.04461641
17	0xbd409bb2	-0.047023483
18	0xbcca2103	-0.024673944
19	0x3db4851d	0.08814452
20	0x3c1bc366	0.009507036
21	0x3d13579d	0.035972226
22	0xbc4f87af	-0.012666627
23	0xbd91a36f	-0.071112506
24	0x3dd73a23	0.105091356
25	0xbc1f7a9f	-0.009733825
26	0x3cd992c4	0.026559241
27	0x3cec0f26	0.028815817
28	0xbd130e23	-0.035902154
29	0xbda76357	-0.081732444
30	0x3dbaf9c9	0.09129674
31	0x3d49765d	0.049185146
32	0xbd45968c	-0.048239276
33	0xbd99890b	-0.07496842
34	0x3c2323d0	0.009957269
35	0x3dca82b5	0.09888212
36	0xbd0f9296	-0.035051905
37	0x3d85feef	0.06542765
38	0x3dafbc67	0.08580857
39	0xbd6d3d22	-0.05791963
40	0x3d9d2f14	0.07674995
41	0xbbbdcf33	-0.0057925223
42	0x3d310d6c	0.04322569
43	0x3dc66cfe	0.09688757
44	0x3c205696	0.009786269
45	0x3c8ae3a7	0.016954256
46	0x3dc26968	0.09492761
47	0xbcf75733	-0.030192947
48	0x3730cbaf	1.0537841e-05
49	0xbdb0073e	-0.08595131
50	0x3c5fe1db	0.013664688
51	0x3c738542	0.014863314
52	0xbcc1b894	-0.023647584
53	0x3dafb492	0.08579363
54	0x3d6390c7	0.055557992
55	0x3cc7f81f	0.024410306
56	0x3bc75a63	0.006083773
57	0xba052c08	-0.00050801085
58	0x3d939bbd	0.07207439
59	0x3c8d3226	0.017235827
60	0xbd7165a2	-0.058934815
61	0x3d42c642	0.047552355
62	0xbd92c29d	-0.07166026
63	0x3c858d4d	0.016302729
64	0x3d89f982	0.06737043
65	0x3b8880f2	0.004165762
66	0xbc0d376e	-0.0086191725
67	0x3c88df85	0.016708145
68	0x3d83ff1d	0.06445143
69	0x3d190457	0.037357654
70	0x3d0ab48f	0.0338636
71	0xbda892da	-0.08231135
72	0x3daefbdd	0.08544133
73	0xbd8d96b9	-0.06913514
74	0xbaa8ba4e	-0.0012872906
75	0xbd35dc52	-0.044399567
76	0x3d01ea96	0.03171786
77	0xbdafb96c	-0.08580288
78	0xbd703eac	-0.05865352
79	0xbda894ca	-0.08231504
80	0x3c07b99f	0.008284002
81	0x3d2f8e7f	0.042860504
82	0x3d84d5f9	0.064861245
83	0xbc8f5342	-0.017495755
84	0xbb8dbf87	-0.0043258104
85	0xbd889a07	-0.066700034
86	0x3d9c8c6e	0.07643972
87	0x3daca100	0.08429146
88	0x3d5623d7	0.052280273
89	0xbce57e25	-0.028014252
90	0xbca53048	-0.020164624
91	0xbb90588d	-0.0044050873
92	0xbd1ea27f	-0.038729187
93	0x3cdde579	0.02708696
94	0x3d844585	0.06458572
95	0x3d1e2a93	0.03861482
96	0xbd2617e3	-0.040550124
97	0x3d49d0c3	0.049271356
98	0xbd2ace10	-0.041700423
99	0x3d849271	0.06473244

ode_func.net.4.weight f4 [3, 100]
0	0x3d846407	0.06464391
1	0x3db40c84	0.0879145
2	0xbd33bcd5	-0.043881256
3	0xbd7a5a3c	-0.06112121
4	0x3d769132	0.060197063
5	0x3dd928da	0.10603495
6	0x3ddad23c	0.1068463
7	0x3da468c4	0.08027795
8	0x3dc2e62f	0.0951656
9	0xbd6a05a5	-0.05713429
10	0xbca9e29c	-0.020737939
11	0xbd347eb2	-0.04406614
12	0xbd04dbb5	-0.03243609
13	0xbd0298ad	-0.031883884
14	0x3da8f4d5	0.08249823
15	0x3d6fd0a4	0.058548585
16	0xbda95f3a	-0.08270116
17	0xbd0d4960	-0.034493804
18	0xbcf60fdb	-0.030036857
19	0x3c7eef43	0.015559974
20	0xbdb0fb2b	-0.086416565
21	0x3d3d9606	0.04628565
22	0xbc7d6bb2	-0.015467571
23	0x3d857d7a	0.065180734
24	0xbdc1f17e	-0.09469889
25	0x3cb63ec9	0.022246735
26	0x3c5c2c7d	0.013438341
27	0x3c87a164	0.01655645
28	0xbd5651e7	-0.052324202
29	0x3b9fdd01	0.0048786406
30	0x3dbf8dc9	0.09353215
31	0x3daec0bd	0.08532856
32	0x3dbaa966	0.091143414
33	0xbda72842	-0.081619754
34	0x3cf30012	0.02966312
35	0x3dbd800b	0.09252938
36	0xbda5a320	-0.08087754
37	0x3cbf0790	0.023319036
38	0x3db931a9	0.09042675
39	0xbdac2e8d	-0.08407316
40	0x3d637d89	0.05553964
41	0x3d9ce1ec	0.07660279
42	0x3d74b488	0.05974248
43	0x3c52100d	0.01282121
44	0x3d8c3bc9	0.068473406
45	0xbd9c736f	-0.07639205
46	0x3d8999b2	0.06718768
47	0xbd5e85fd	-0.054327
48	0xbc96a706	-0.01839019
49	0xbda75a9d	-0.0817158
50	0xbd9338d7	-0.07188576
51	0xbdd1744c	-0.1022726
52	0xbccbb90b	-0.024868509
53	0xbd9cd50b	-0.07657822
54	0x3d455196	0.04817351
55	0xbda16f26	-0.07882528
56	0x3d5c3dd7	0.053769913
57	0x3d85077b	0.064955674
58	0xbbba9eec	-0.0056952145
59	0x3dc1584d	0.0944067
60	0x3d3d703b	0.04624961
61	0xbd2680af	-0.040650066
62	0xbccc852c	-0.024965845
63	0x3ca9316d	0.02065345
64	0xbd99add0	-0.07503855
65	0x3da2a383	0.07941344
66	0xbbb12b8a	-0.0054068016
67	0xbdee8ed8	-0.11648339
68	0xbd78dc4e	-0.060756974
69	0xbcd17f90	-0.025573522
70	0xbd8c6fba	-0.06857248
71	0xbcd2c3c1	-0.025728108
72	0x3d8da9af	0.0691713
73	0xbd9d5448	-0.07682091
74	0x3dccfea0	0.10009503
75	0xbb7870ee	-0.0037909108
76	0xbd76cd36	-0.0602543
77	0xbd9b665b	-0.07587882
78	0x3d577e3a	0.052610613
79	0xbc9be737	-0.01903115
80	0x3d94d4e6	0.0726717
81	0xbd59a260	-0.05313337
82	0xbd8d1e60	-0.06890559
83	0xbd883db7	-0.06652396
84	0x3cdce34b	0.02696385
85	0x3ce2a22d	0.027665222
86	0x3d807466	0.06272201
87	0xbbcbe8ca	-0.006222819
88	0x3cbc6a64	0.02299995
89	0x3c95fe1d	0.018309647
90	0xbc96ced9	-0.01840918
91	0x3d387c2b	0.04504029
92	0xbd37852b	-0.044804733
93	0xbc47444d	-0.01216228
94	0xbda3d865	-0.08000258
95	0xbd3e8d73	-0.046521615
96	0x3c5cbb34	0.013472367
97	0xbd328833	-0.04358692
98	0x3d0bae6a	0.03410188
99	0x3c49f30e	0.012326015
100	0xbb82ee00	-0.003995657
101	0x3d7364dc	0.05942236
102	0x3dd17da6	0.10229044
103	0x3dc477f6	0.09593193
104	0x3da49d71	0.08037842
105	0xbdb14084	-0.086548835
106	0xbd87bd5b	-0.066279136
107	0xbcef9ec4	-0.02925051
108	0xbca53700	-0.020167828
109	0xbc90d567	-0.017679883
110	0xbcdb4caf	-0.026769964
111	0xbde1cafe	-0.11025046
112	0x3d30ca7b	0.04316185
113	0xbd8091c5	-0.06277803
114	0xbd8dec5c	-0.069298476
115	0x3d6ecde8	0.058301836
116	0xbcb86c8a	-0.022512693
117	0x3c3a02d7	0.011353216
118	0xbd727ee8	-0.05920306
119	0xbd604fe3	-0.054763686
120	0xbd04c166	-0.032411
121	0xbd966b2c	-0.0734466
122	0x3db64c2f	0.089012496
123	0x3d24d901	0.040246014
124	0x3db4428b	0.088017546
125	0x3b7b1d19	0.0038316904
126	0xbbed6884	-0.0072451252
127	0xbc12bca3	-0.008956107
128	0xbdb1dac8	-0.08684307
129	0x3c8ab8ea	0.016933877
130	0x3c980a67	0.018559648
131	0xbdb56400	-0.08856964
132	0x3ddc337a	0.10752006
133	0x3d1c8bc4	0.03821923
134	0x3bce4312	0.0062946165
135	0x3cfa6edd	0.030570442
136	0xbd57ad7f	-0.052655693
137	0xbcbb1633	-0.022837734
138	0xbda9438f	-0.08264839
139	0x3db409da	0.087909415
140	0xbc7f3a82	-0.015577914
141	0xbd97975e	-0.07401918
142	0xbd1c04b7	-0.038090434
143	0xbd80743c	-0.0627217
144	0x3ddb0cac	0.10695776
145	0xbd46d067	-0.04853859
146	0x3cae1cbe	0.02125394
147	0xbd5b24c4	-0.05350186
148	0x3dbf8858	0.093521774
149	0xbd93aa73	-0.07210245
150	0xbdb58db8	-0.08864921
151	0xbc3c4429	-0.01149086
152	0xbd9749c9	-0.0738712
153	0xbd28c6d7	-0.041205253
154	0xbd4c5cc7	-0.049893167
155	0xbb57f850	-0.0032954402
156	0xbc8e2b72	-0.0173547
157	0x3c879026	0.016548228
158	0xbda5fb7d	-0.08104608
159	0xbd8ff209	-0.070285864
160	0xbd10a082	-0.035309322
161	0xbdb4370d	-0.087995626
162	0xbd8a4a01	-0.067523964
163	0x3dba43b4	0.090949446
164	0x3ac998db	0.0015380637
165	0x3d638103	0.055542957
166	0x3db73e9c	0.08947489
167	0xba3f8639	-0.00073060725
168	0xbc3d5076	-0.011554828
169	0xbd09c3bc	-0.033633932
170	0x3d8acfad	0.06777892
171	0x3dbadf76	0.09124653
172	0xbda961fd	-0.08270643
173	0x3d830c74	0.063988596
174	0xbad38adb	-0.0016139405
175	0xbd36927d	-0.044573296
176	0x3d53a4ec	0.051670954
177	0x3a325a4f	0.0006803618
178	0xbdaf5c84	-0.08562568
179	0xbc15c31d	-0.009140757
180	0x3a9571bc	0.0011401693
181	0xbd2f4307	-0.04278853
182	0x3d1c6474	0.038181737
183	0xbdc67b59	-0.096914954
184	0xbb950948	-0.0045482256
185	0x3d037c0b	0.03210072
186	0x3d3762d6	0.04477199
187	0xbc3262d6	-0.010887822
188	0xbd76ce14	-0.060255125
189	0xbd91e258	-0.0712325
190	0x3d4643f3	0.048404645
191	0x3d886b80	0.06661129
192	0xbd019d93	-0.031644415
193	0xbc8d5f34	-0.01725731
194	0xbc60d7ba	-0.013723308
195	0x3db07a5e	0.0861709
196	0xbc1673ed	-0.009182912
197	0xbcc0d710	-0.02354005
198	0x3c3f90b3	0.011692214
199	0x3d91fbce	0.07128106
200	0xbe5a911a	-0.21344414
201	0xbe02b86a	-0.12765661
202	0xbd99f229	-0.075168915
203	0x3d22413c	0.039612994
204	0xbd80e040	-0.06292772
205	0xbe49aac4	-0.19694048
206	0x3e386bcd	0.18009873
207	0xbdd5fbc6	-0.104484126
208	0xbd3006ee	-0.04297536
209	0x3dacbb03	0.08434107
210	0xbec0d406	-0.3766176
211	0x3bcb66ad	0.0062073083
212	0xbc7d25d6	-0.015450915
213	0xbded71df	-0.11593985
214	0x3dc87a04	0.09788898
215	0xbdf75add	-0.12077878
216	0x3c84553d	0.016153926
217	0xbcdf882a	-0.027286608
218	0x3d3743a5	0.044742245
219	0xba0a8c49	-0.00052851863
220	0xbe654365	-0.2238899
221	0xbd0a9e4d	-0.033842374
222	0x3c624e78	0.013812654
223	0x3d2f80fc	0.04284762
224	0xbdcd8691	-0.10035432
225	0x3ea500c0	0.32227135
226	0x3d7f5436	0.06233617
227	0xbbcbcb5e	-0.0062193116
228	0x3c51db40	0.012808621
229	0x3e9ce0d7	0.3064029
230	0x3c23772b	0.009977142
231	0x3c6cd64b	0.014455388
232	0x3e23293e	0.15933701
233	0x3d87e77b	0.06635948
234	0x3e6208ff	0.22073744
235	0xbe1bb3c8	-0.152053
236	0x3e21fc6a	0.15818945
237	0x3ec13ddc	0.37742507
238	0x3d9c1d46	0.07622771
239	0x3d4feb89	0.050761733
240	0x3e9d7780	0.30755234
241	0xbeaf25bd	-0.3420848
242	0x3dfdd871	0.123947985
243	0xbdc30118	-0.09521693
244	0xbd97bbc0	-0.07408857
245	0x3e374c03	0.1790009
246	0x3de73066	0.11288528
247	0xbb24a14a	-0.002512055
248	0x3df22ab5	0.11824552
249	0xbe63bc59	-0.22239818
250	0xbd8d0bf6	-0.06887047
251	0x3dd71b84	0.10503295
252	0x3df29c2b	0.11846193
253	0x3e156412	0.14588955
254	0xbe392621	-0.18080951
255	0xbe1289f2	-0.14310434

ode_func.net.4.bias f4 [3]
0	0x3d89aad3	0.06722035
1	0xbdaccc62	-0.084374204
2	0xbd9eca7f	-0.07753467
