checkpoint/ode_euler/pushing_4_steps_ode_euler_dynamics_model.pt (torch, 47698 bytes, 6 tensors)

ode_func.net.0.weight f4 [100, 6]
0	0xbec127dc	-0.37725723
1	0xbe31c985	-0.1736203
2	0x3e417d86	0.1889554
3	0x3e094f42	0.1340914
4	0xbedbf568	-0.42960668
5	0xbdbfe1c0	-0.0936923
6	0xbd0426e0	-0.032263637
7	0xbec4ccf9	-0.38437632
8	0xbe8eb3c2	-0.2787152
9	0x3ccabac3	0.024747258
10	0x3e218157	0.15771995
11	0xbd86b4e0	-0.06577468
12	0xbec31191	-0.3809934
13	0xbeab500e	-0.33459514
14	0x3e6f91b7	0.2339543
15	0x3ecbf1e9	0.39833
16	0x3e8bebeb	0.2732843
17	0xbeb16142	-0.34644514
18	0xbeb20725	-0.34771076
19	0x3da1237c	0.07868096
20	0x3e0f5628	0.1399771
21	0xbdb5bb2e	-0.08873592
22	0x3ea01d96	0.31272572
23	0xbc0fcf53	-0.008777457
24	0x3ec58ec5	0.38585487
25	0x3c8bec27	0.01708038
26	0x3e947096	0.28992146
27	0x3eb05b4f	0.34444663
28	0xbeacc63f	-0.33745
29	0x3dc7b127	0.09750586
30	0xbda4b3e5	-0.08042125
31	0xbdee9c8a	-0.11650951
32	0x3dba9d39	0.09112019
33	0x3eb24bf1	0.34823564
34	0xbae75470	-0.0017649066
35	0x3e05c05d	0.13061662
36	0xbe5b1e97	-0.21398388
37	0xbd36478a	-0.04450182
38	0xbe95d8fa	-0.29267102
39	0xbeb5cef5	-0.35509458
40	0xbe826bae	-0.25472778
41	0x3dcbdcda	0.099542335
42	0xbe50d33a	-0.20393077
43	0xbd7ff2cf	-0.06248742
44	0xbe1a2a99	-0.15055312
45	0xbe88cbb9	-0.26717928
46	0xbc7e484d	-0.015520168
47	0xbea5a8b7	-0.32355282
48	0xbe2e5c97	-0.17027508
49	0xbeb7b5a3	-0.35880765
50	0xbeb6f757	-0.3573558
51	0x3def9348	0.116980135
52	0x3ec04e7b	0.37559876
53	0xbeb4912f	-0.35267016
54	0xbd172fa5	-0.03691067
55	0x3d90572c	0.07047877
56	0xbe9100ef	-0.28321025
57	0x3e4590e3	0.19293551
58	0xbea51c0e	-0.32247967
59	0x3c313967	0.010816908
60	0x3e1aba14	0.15110046
61	0xbe60fb57	-0.21970879
62	0x3c9dd35e	0.019265827
63	0xbca8493b	-0.020542732
64	0x3e09653b	0.13417523
65	0x3d2912b8	0.041277617
66	0xbd8c9f8a	-0.06866367
67	0xbd341cef	-0.043972906
68	0x3df7f07a	0.12106414
69	0xbebd1659	-0.36931112
70	0x3e6789c6	0.2261115
71	0xbeb534f2	-0.35391957
72	0xbe8d8b78	-0.2764547
73	0xbe3c49d3	-0.18387537
74	0x3e67e698	0.22646558
75	0x3ec82b2b	0.39095435
76	0xbe338419	-0.1753086
77	0xbeadabcf	-0.33920142
78	0x3e600ef1	0.218807
79	0xbeb38fb8	-0.35070586
80	0x3eb74a10	0.35798693
81	0x3e0127ae	0.12612793
82	0xbddb371f	-0.10703873
83	0xbdcaf9f8	-0.09910959
84	0xbe5eb8c8	-0.21750176
85	0xbddaa158	-0.10675305
86	0xbb5cfc31	-0.0033719654
87	0xbee26296	-0.4421584
88	0xbd46105d	-0.04835545
89	0x3ec09845	0.37616172
90	0xbeaede4d	-0.34153977
91	0xbe605231	-0.21906354
92	0xbe449d35	-0.19200595
93	0x3cf11ec5	0.029433617
94	0xbd82ee87	-0.06393152
95	0x3e8cc2e7	0.2749245
96	0xbdb6026e	-0.08887182
97	0xbea31851	-0.3185449
98	0x3e11fb4e	0.14256021
99	0xbeb63adc	-0.3559178
100	0xbe80fad8	-0.2519138
101	0x3e4b4416	0.19850191
102	0xbca994f0	-0.020700902
103	0x3e97ce6a	0.2964967
104	0x3ecd5e10	0.40110826
105	0x3e361372	0.17780855
106	0x3eacc634	0.33744967
107	0xbe537fe1	-0.2065425
108	0xbe8dbdea	-0.27683955
109	0x3d3a5508	0.04549125
110	0xbd4e9345	-0.050433416
111	0x3e96777f	0.29388043
112	0x3e03dfa9	0.12878288
113	0x3ec9d642	0.39421278
114	0xbbe0e2e6	-0.006862986
115	0xbe29af90	-0.16570878
116	0x3d50ed41	0.051007513
117	0x3e533f64	0.2062965
118	0x3eb0f17d	0.3455924
119	0x3eab33b1	0.33437875
120	0x3e934ea4	0.28770936
121	0x3e957e6b	0.29198012
122	0xbebb8505	-0.36624923
123	0x3e98a50c	0.2981342
124	0x3e92f267	0.28700563
125	0x3eb87aa4	0.36031067
126	0x3eaafb86	0.33395022
127	0xbe88e358	-0.2673595
128	0x3eb60ed9	0.35558203
129	0xbb85ad37	-0.0040794867
130	0x3ebb5022	0.36584574
131	0xbe41a7a8	-0.18911612
132	0xbe36b7f5	-0.17843612
133	0xbe5cf83e	-0.21579072
134	0x3e7f2343	0.24915795
135	0x3eaa993f	0.33320042
136	0x3a95e403	0.0011435751
137	0x3e91a5d9	0.28446844
138	0xbe3b188b	-0.18271081
139	0x3d640645	0.05567004
140	0x3e604c34	0.21904069
141	0xbc070f31	-0.008243368
142	0xbe88151e	-0.2657861
143	0xbe664b98	-0.22489774
144	0x3e5025c9	0.20326914
145	0x3e05a8e3	0.13052706
146	0xbe0319db	-0.12802832
147	0x3bab963f	0.0052364166
148	0xbd1c9348	-0.038226396
149	0x3e98496f	0.29743525
150	0xbebf8d7f	-0.3741264
151	0x3e21a6bf	0.15786265
152	0xbd512e27	-0.051069405
153	0x3eb5a98b	0.35480914
154	0xbda72b1d	-0.0816252
155	0x3e914605	0.28373733
156	0x3eb98ae4	0.36238778
157	0xbc0c2472	-0.008553611
158	0xbe089504	-0.13338095
159	0xbe49f609	-0.19722761
160	0xbeded398	-0.43520808
161	0xbe171bb3	-0.1475666
162	0xbe1d192b	-0.15341632
163	0xbec7b283	-0.3900338
164	0x3e0f0b2a	0.13969103
165	0xbe9bbbea	-0.30416805
166	0x3e41542f	0.1887977
167	0xbea4db46	-0.32198542
168	0x3e192270	0.14954543
169	0xbdbc41a7	-0.0919221
170	0x3e618592	0.2202361
171	0xbe67af0a	-0.22625366
172	0xbeb3e46f	-0.35135219
173	0xbe919f5f	-0.28441903
174	0xbe5088bd	-0.20364662
175	0xbda31a37	-0.079639845
176	0x3e20ae67	0.15691529
177	0x3e46693f	0.19376086
178	0x3eaa59ee	0.33271736
179	0xbdd0d196	-0.10196225
180	0x3e3c3e43	0.18383126
181	0x3ea94ea6	0.33067816
182	0xbdc7cf0d	-0.09756289
183	0xbdd434e7	-0.10361653
184	0x3eaa87fc	0.33306873
185	0xbe2eb528	-0.17061293
186	0x3e81e8f2	0.25373036
187	0x3d98fa8b	0.07469662
188	0x3ebf70d7	0.37390777
189	0xbe0f9112	-0.14020184
190	0x3ea19680	0.31560135
191	0xbda0a858	-0.07844609
192	0xbd41eef9	-0.047347043
193	0x3e6a4b04	0.22880179
194	0x3e248183	0.1606503
195	0xbebff3d9	-0.37490728
196	0xbe3595b0	-0.17732882
197	0xbeca0107	-0.3945391
198	0xbe45ead9	-0.19327869
199	0xbe45f874	-0.19333059
200	0xbe81a20f	-0.25318953
201	0x3e3a1144	0.18170649
202	0x3e929352	0.2862802
203	0x3e218bff	0.1577606
204	0x3e336dab	0.17522304
205	0xbee0b5c1	-0.43888667
206	0xbc555e1e	-0.013022928
207	0xbd9b55e6	-0.07584743
208	0x3e67222a	0.22571626
209	0xbd2cb1d7	-0.04216179
210	0x3d8c3a8a	0.06847103
211	0xbe79a385	-0.24378784
212	0xbe94384e	-0.28949207
213	0xbe36bd1d	-0.17845578
214	0x3ea4ba46	0.32173365
215	0x3e88ffae	0.26757568
216	0xbe1eb82f	-0.15499948
217	0xbd3b2c4a	-0.045696534
218	0x3c430800	0.011903763
219	0xbec2b7ea	-0.3803094
220	0x3e0cecb0	0.13762164
221	0xbe94562e	-0.28972
222	0x3e888411	0.2666326
223	0xbe9a6671	-0.30156282
224	0xbe4a9e91	-0.19787051
225	0x3c43dbba	0.011954242
226	0x3e925d3f	0.28586766
227	0xbeb6b4be	-0.3568477
228	0x3ca04d7b	0.019568196
229	0xbdfb57bd	-0.12272594
230	0x3e729f5e	0.23693606
231	0x3e28f214	0.16498595
232	0x3e87ebdc	0.26547134
233	0xbea27342	-0.3172856
234	0x3d85010d	0.06494341
235	0xbec95756	-0.39324445
236	0x3eae8299	0.34084013
237	0x3e6a4a8c	0.2288
238	0x3e3873f7	0.18012987
239	0x3e382584	0.17983061
240	0xbe35ec86	-0.17766008
241	0x3ef92927	0.4866421
242	0xba0f8e6f	-0.00054762413
243	0xbe5af80d	-0.21383686
244	0xbe9a5ccc	-0.30148923
245	0xbe9fa9b5	-0.31184164
246	0x3e4e3caa	0.20140329
247	0xbe1cc72c	-0.15310353
248	0xbe039e25	-0.12853296
249	0xbedbe87b	-0.42950806
250	0x3ed175f9	0.40910318
251	0xbe91d1c1	-0.28480342
252	0x3ea76888	0.3269694
253	0x3dc89eee	0.097959384
254	0x3c089c88	0.008338101
255	0xbe8242b5	-0.25441518

ode_func.net.0.bias f4 [100]
0	0x3ea476b2	0.32121807
1	0xbdee6c03	-0.11641695
2	0x3cdff62b	0.027339062
3	0xbccd4670	-0.025058001
4	0xbe76cc83	-0.24101453
5	0x3e24794d	0.16061898
6	0xbe741339	-0.23835458
7	0x3db24a60	0.08705592
8	0x3e5a64dd	0.21327539
9	0x3e5f1f5f	0.21789311
10	0x3e95188a	0.29120284
11	0xbdeeb986	-0.116564795
12	0xbe21843a	-0.15773097
13	0xbdf6061c	-0.12012884
14	0xbe63de4a	-0.22252765
15	0x3e8e291c	0.2776574
16	0x3b3765a8	0.0027984176
17	0xbe86cc06	-0.26327533
18	0x3e1b6ca5	0.15178163
19	0x3df370d6	0.11886756
20	0x3ec515b3	0.38493118
21	0x3e531ff1	0.20617653
22	0xbccf4a20	-0.0253039
23	0x3e9a77ea	0.30169612
24	0x3d8edbcd	0.069755174
25	0x3d443dcb	0.047910493
26	0x3e9d09df	0.30671594
27	0xbdbc09c1	-0.09181548
28	0xbe6d84af	-0.23195146
29	0xbe25a45b	-0.16175978
30	0x3e0cd55f	0.1375327
31	0xbca26c96	-0.019827168
32	0xbe10378c	-0.1408369
33	0xbd87fe2c	-0.06640276
34	0x3e368d56	0.17827353
35	0xbe686b90	-0.22697282
36	0x3e6356fb	0.22201149
37	0xbe6c4cd9	-0.2307619
38	0x3c5f05f9	0.013612264
39	0x3e96d681	0.29460528
40	0x3de7cd64	0.11318472
41	0xbebb9774	-0.36638987
42	0x3e40d81a	0.18832436
43	0xbeb16a55	-0.34651437
44	0x3e58a9c2	0.21158507
45	0x3d66aed9	0.05631909
46	0xbed77122	-0.420785
47	0xbd947110	-0.072481275
48	0x3d050d79	0.03248355
49	0xbeccb525	-0.39981952
50	0x3d17df3f	0.03707814
51	0xbe183515	-0.14863999
52	0x3e725603	0.23665623
53	0xbe9cf82b	-0.30658087
54	0x3eb2d134	0.34925234
55	0x3e60673d	0.21914382
56	0x3e7e9851	0.24862792
57	0xbe819d8d	-0.25315514
58	0xbdb34431	-0.08753241
59	0x3ece1c09	0.40255764
60	0x3ea293de	0.3175344
61	0xbd8f523e	-0.06998108
62	0xbe4fb6b9	-0.20284547
63	0x3e39bb18	0.18137777
64	0xbdd8017f	-0.1054716
65	0x3e84dfc5	0.25951973
66	0xbde919a3	-0.11381843
67	0xbdbaff4d	-0.09130726
68	0xbebe8311	-0.3720937
69	0x3e34ef5b	0.17669432
70	0x3c23867c	0.009980794
71	0x3e0b024b	0.13575093
72	0xbe1f44b4	-0.15553552
73	0xbe8c0655	-0.2734858
74	0x3a758d17	0.00093670323
75	0xbe8990ce	-0.2686829
76	0xbc8e83f8	-0.017396912
77	0x3e84e7db	0.25958142
78	0xbea3c750	-0.31988
79	0x3ecea412	0.4035955
80	0x3d724cac	0.05915515
81	0xbeb42f4c	-0.35192335
82	0x3e93c720	0.28862858
83	0x3cc2386e	0.023708548
84	0xbeb6839f	-0.35647294
85	0x3e0dfc7f	0.13865851
86	0xbe4a7fc3	-0.197753
87	0xbe13e4f3	-0.14442806
88	0x3e1c7f01	0.15282823
89	0xbd2f3922	-0.042779095
90	0xbdea7c56	-0.114494964
91	0xbe553989	-0.20822729
92	0xbd92c726	-0.07166891
93	0x3e8b620e	0.27223247
94	0x3dc3584b	0.09538325
95	0x3ec49eb4	0.3840233
96	0xbd75730c	-0.05992417
97	0x3d6222d0	0.05520898
98	0x3da741c9	0.081668444
99	0x3df43189	0.119235106

ode_func.net.2.weight f4 [100, 100]
0	0x3d18d011	0.037307803
1	0xbd8b89c2	-0.068133846
2	0xbad72770	-0.0016414952
3	0x3e1f798c	0.1557371
4	0x3dba9561	0.09110523
5	0xbd57b12c	-0.0526592
6	0x3cf540de	0.029938158
7	0xbd13e4d1	-0.03610689
8	0x3dba4583	0.090952896
9	0xbba32e9e	-0.0049799224
10	0xbd60324b	-0.054735463
11	0x3ba02df6	0.0048882915
12	0x3b9f72c4	0.004865976
13	0xbcac0365	-0.020997712
14	0x3d563d17	0.052304354
15	0x3cc09a80	0.023511171
16	0x3db2bf54	0.08727899
17	0x3e2755dd	0.16341348
18	0xbcbe95ba	-0.023264755
19	0xbe0de7f2	-0.13858011
20	0xbc97b057	-0.018516703
21	0x3bee45f7	0.007271524
22	0xbbe6f0da	-0.0070477547
23	0x3d66f4ba	0.056385733
24	0xbd0b54c8	-0.0340164
25	0x3dcb3f8c	0.0992423
26	0x3dc456a9	0.095868416
27	0x3cc21d3f	0.023695586
28	0x3da9e46b	0.082955204
29	0xbd0150a3	-0.03157104
30	0xbc2ced49	-0.01055462
31	0xbd0c972c	-0.034323856
32	0xbbf5ff3b	-0.0075072325
33	0x3cc959b5	0.024578908
34	0xbd16e312	-0.036837645
35	0xbe55c1e5	-0.20874746
36	0x3c447e9c	0.011993077
37	0x3e06e570	0.13173461
38	0x3d5377bc	0.05162786
39	0xbcdec148	-0.027191773
40	0xbd88be1f	-0.06676888
41	0xbdb5f71a	-0.088850215
42	0x3d5db0d7	0.054123726
43	0xbc5e406a	-0.013565162
44	0xbb943b09	-0.004523639
45	0x3da0983d	0.07841537
46	0x3e364b18	0.17802083
47	0x3b33f5af	0.0027459671
48	0xbda065e8	-0.07831937
49	0x3cc0f6f1	0.02355525
50	0x3d14f1a4	0.03636326
51	0xbdb81750	-0.089888215
52	0xbc5b8a04	-0.013399605
53	0xbcaaac0d	-0.020833993
54	0xbd1547b7	-0.036445346
55	0xbd6b7368	-0.057483107
56	0x3d20c80a	0.039253272
57	0x3d77aab4	0.06046553
58	0x3e0f0354	0.13966113
59	0xbae731c2	-0.001763873
60	0x3d111e7a	0.035429455
61	0x3dd8bdc2	0.105830684
62	0xbd94b9c3	-0.07261994
63	0xbc49292b	-0.012277882
64	0xbd1e9f78	-0.0387263
65	0x3d5a804b	0.053345006
66	0x3c6dda99	0.01451745
67	0x3b93fc89	0.0045161885
68	0x3d16afad	0.03678863
69	0x3c05419b	0.008133317
70	0x3e312968	0.17300951
71	0xbdc3e45a	-0.09565039
72	0xbcd56ab0	-0.02605185
73	0x3d14fead	0.03637569
74	0x3c38038c	0.011231314
75	0x3db39839	0.087692685
76	0xbd9aa9b2	-0.07551898
77	0xbd0559c9	-0.03255633
78	0x3de9d062	0.11416699
79	0xbda937cf	-0.08262598
80	0xbddba517	-0.10724848
81	0x3d024ef5	0.03181358
82	0x3d3b9690	0.045797884
83	0x3ca4827b	0.02008175
84	0xbc7af787	-0.015317804
85	0x3bd115f1	0.0063807894
86	0xbd6ac46c	-0.05731623
87	0xbd5d3584	-0.054006115
88	0xbdafea30	-0.085895896
89	0xbb317b27	-0.002708146
90	0xbd211581	-0.03932715
91	0x3dfaaf71	0.12240494
92	0xbe0b45ea	-0.13600889
93	0x3d22f0c8	0.03978041
94	0x3d50260c	0.050817534
95	0xbd4f7fc3	-0.050658952
96	0xbd1530a5	-0.036423344
97	0xbdc7101c	-0.097198695
98	0x3e06a9ba	0.13150683
99	0x3d98d930	0.074633
100	0xbdcf4da0	-0.10122228
101	0x3db39837	0.08769267
102	0xbdc14f3f	-0.09438943
103	0x3c098740	0.0083940625
104	0xbd7b3e3d	-0.061338652
105	0xbdd14d3f	-0.10219812
106	0xbd173bed	-0.036922384
107	0xbce04f30	-0.02738151
108	0x3d852ab8	0.065022886
109	0x3d7d8498	0.06189403
110	0x3da4c397	0.08045118
111	0x3d951da9	0.07281048
112	0x3d8d6fcc	0.06906089
113	0x3d80c233	0.062870406
114	0x3d7940af	0.060852703
115	0xbd7647fc	-0.060127243
116	0xbc8ff7ac	-0.017574154
117	0x3d2b997b	0.041894417
118	0xbd3c9c6f	-0.046047624
119	0xbd33ae3a	-0.043867327
120	0xbc90ea2b	-0.017689785
121	0x389be2fa	7.4332536e-05
122	0xbdb55971	-0.0885495
123	0x3d62cca7	0.055370953
124	0x3dabda2a	0.08391221
125	0xbd079334	-0.03309937
126	0x3cc9d148	0.024635926
127	0xbd967455	-0.07346407
128	0x3c412d81	0.011790634
129	0xbd81a14a	-0.063295916
130	0xbd2424a8	-0.04007402
131	0x3d66e058	0.056366295
132	0x3d133607	0.035940196
133	0x3db30a49	0.08742196
134	0xbd8a5205	-0.06753925
135	0xbc93634a	-0.01799168
136	0x3d187f23	0.037230622
137	0xbdb6e47e	-0.089303
138	0xbd8d15db	-0.06888934
139	0x3d96005d	0.07324288
140	0xbdb5923c	-0.088657826
141	0x3d4e1e47	0.050321843
142	0x3da26983	0.07930281
143	0xbd9222ca	-0.07135542
144	0x3d73c78e	0.059516482
145	0xbd4b70ac	-0.049668
146	0x3d8f3385	0.069922484
147	0xbdb82fdc	-0.089935035
148	0xbdbbbfed	-0.09167466
149	0x3b02fcea	0.0019987174
150	0xbdb8d14e	-0.09024297
151	0xbdbeeece	-0.09322892
152	0xbcab7cdf	-0.020933567
153	0xbdb0e4e2	-0.08637406
154	0x3b9aec90	0.0047279075
155	0xbd9c48dd	-0.07631085
156	0xbda99fd2	-0.082824364
157	0x3db5224a	0.08844431
158	0x3db4c3f7	0.0882644
159	0xbd9b01ed	-0.07568727
160	0x3dbd5716	0.09245126
161	0xbdaca802	-0.084304824
162	0x3daa9603	0.08329394
163	0x3ba3e097	0.0050011384
164	0x3d9e63b1	0.077338584
165	0x3c836b92	0.016042504
166	0x3cf5994e	0.029980328
167	0xbdb35d5f	-0.087580435
168	0xbc12a5f7	-0.008950702
169	0x3d9451d7	0.07242172
170	0x3db84ac2	0.08998634
171	0xbd81ff72	-0.063475505
172	0x3ba2c7cb	0.004967665
173	0xbd264c44	-0.040600076
174	0x3cb904ca	0.022585291
175	0x3cc04705	0.023471365
176	0x3cf915ed	0.030405963
177	0xbd9c972a	-0.0764602
178	0xbd779c0f	-0.060451563
179	0xbda89bc9	-0.08232839
180	0x3daafe0f	0.08349239
181	0xbcf922cf	-0.030412106
182	0x3dab326b	0.08359226
183	0xbd106b6f	-0.035258707
184	0xbd44fbb7	-0.048091616
185	0x3d6fd42f	0.058551963
186	0x3d78e519	0.06076536
187	0xbd430280	-0.047609806
188	0x3bdbd8e3	0.0067092045
189	0xbd882424	-0.06647518
190	0x3d5f2c1d	0.05448543
191	0xbcd46e05	-0.025931368
192	0x3d452af6	0.048136674
193	0xbd0b14ee	-0.033955507
194	0xbb50ad7a	-0.0031841681
195	0x3d40e104	0.04708959
196	0xbd9e8db4	-0.077418715
197	0x3d94ca3b	0.07265135
198	0xbcde99dd	-0.027172977
199	0x3d40796e	0.046990804
200	0xbc36df08	-0.011161573
201	0xbdf1c5e0	-0.1180532
202	0xbc1c3f98	-0.009536646
203	0xbdb6a26a	-0.08917697
204	0x3da6f6ac	0.08152518
205	0x3d916efb	0.07101246
206	0xbdad4718	-0.08460826
207	0xbd408f17	-0.04701146
208	0x3c1368bb	0.008997138
209	0x3d930afa	0.07179828
210	0xbdb9202d	-0.0903934
211	0xbd42862f	-0.04749125
212	0xbd900875	-0.07032863
213	0x3d84893f	0.0647149
214	0x3e07f288	0.13276112
215	0x3dd4a527	0.10383063
216	0x3c0a2fc5	0.008434241
217	0xbdb24311	-0.08704198
218	0xbdb899f2	-0.09013738
219	0xbdbd6139	-0.092470594
220	0x3d1ef8b9	0.03881142
221	0x3c8b1cf6	0.016981583
222	0x3d837654	0.06419054
223	0x3da9be5d	0.08288262
224	0xbc316243	-0.01082665
225	0xbc99bb5d	-0.0187661
226	0x3d718b80	0.05897093
227	0xbcbe3d1f	-0.023222504
228	0x3d73cfbd	0.059524287
229	0x3d421d5e	0.047391288
230	0x3b8865d3	0.004162529
231	0xbd99cb86	-0.07509522
232	0xbc4aadbe	-0.012370525
233	0xbca3edce	-0.020010855
234	0x3d734e25	0.059400696
235	0xbd96d6e6	-0.073652074
236	0x3d2b311f	0.041794892
237	0x3d98b2c2	0.0745597
238	0x3da80982	0.082049385
239	0xbda1545a	-0.07877417
240	0xbe2c9c95	-0.16856606
241	0x3d0fe392	0.035129137
242	0x3d4184a0	0.04724562
243	0x3bf0a2a2	0.007343606
244	0xbd8fd44d	-0.07022915
245	0xbd5857d5	-0.05281814
246	0xbc35357a	-0.011060113
247	0x3d326765	0.043555636
248	0x3d09ce97	0.033644285
249	0x3d8b5056	0.06802432
250	0x3d2db04c	0.042404458
251	0x3caaf1f5	0.020867327
252	0x3af71a90	0.0018852521
253	0x3bc1254d	0.005894339
254	0x3d760ada	0.060068943
255	0x3d3b7445	0.04576518

ode_func.net.2.bias f4 [100]
0	0xbd41b171	-0.047288362
1	0xbd3ba261	-0.045809153
2	0xb9398e82	-0.00017696063
3	0x3d6960a4	0.05697693
4	0x3ce174ec	0.027521573
5	0x3d4dd8bd	0.050255526
6	0xbd3a0676	-0.045416318
7	0x3ce180a6	0.027527165
8	0x3b58df48	0.003309207
9	0xbb881f17	-0.004154097
10	0x3bd9d4f6	0.0066477014
11	0xbdb2999e	-0.087207064
12	0x3cff6737	0.031177146
13	0x3dc6bc49	0.09703881
14	0x3d0471bd	0.03233503
15	0x3d657e0c	0.05602841
16	0xbcca4edb	-0.024695804
17	0xbd8e4155	-0.06946055
18	0xbda64865	-0.08119277
19	0xbd4353a2	-0.04768718
20	0xbd4b9d21	-0.049710397
21	0xbd66927b	-0.05629204
22	0x3dc8a3d8	0.09796876
23	0xbdb78cb3	-0.08962383
24	0x3ae17a26	0.0017202541
25	0xbc474e62	-0.012164684
26	0x3d0ed191	0.034867827
27	0x3d5971a4	0.05308689
28	0x3d824f5d	0.063627936
29	0x3d4b195d	0.049584735
30	0xbc5ce2b8	-0.013481788
31	0xbd9d24f1	-0.07673062
32	0x3dc4ff8e	0.09619056
33	0x3bd13d69	0.0063854945
34	0x3c9a29c8	0.018818751
35	0x3c8065ec	0.0156736
36	0x3d602fe4	0.054733172
37	0xbdb4be4f	-0.08825361
38	0xbdccbc4b	-0.099968515
39	0x3dbfd9a7	0.09367686
40	0xbbe5a6da	-0.0070084156
41	0xbcc05691	-0.023478778
42	0xbd042670	-0.03226322
43	0x3dada55a	0.08478804
44	0x3cb5f355	0.022210756
45	0x3ccb9fcd	0.024856472
46	0x3d79c893	0.060982298
47	0x3c385e86	0.011253005
48	0x3dfb6b16	0.122762844
49	0xbca4b76c	-0.020106994
50	0x3cd4aba3	0.025960749
51	0x3da4ba1c	0.0804331
52	0xbdc604fe	-0.09668921
53	0xbc832f39	-0.016013728
54	0xbd618320	-0.05505669
55	0x3d974890	0.07386887
56	0x3c688d8c	0.014193904
57	0xbd96bcde	-0.07360242
58	0x3d939f58	0.07208127
59	0x3dcce7d9	0.10005159
60	0x3dbacdb2	0.091212645
61	0xbd70702d	-0.05870073
62	0xbb37169c	-0.002793706
63	0x3da4f413	0.08054366
64	0xbd9cb44c	-0.076515764
65	0x3d934c34	0.07192269
66	0x3dcb1ec6	0.09917979
67	0xbda776f2	-0.08176984
68	0x3c66f036	0.014095357
69	0xbdb0ce19	-0.0863306
70	0x3b9d3133	0.004797125
71	0x3d8fdd4b	0.0702463
72	0xbd70aaad	-0.05875652
73	0xbd3af283	-0.045641433
74	0x3db714e4	0.089395314
75	0xbd7af097	-0.0612646
76	0xbc7fd172	-0.0156139005
77	0xbd458b45	-0.04822852
78	0xbd8217bd	-0.06352184
79	0xbd2d9139	-0.042374823
80	0x3dc76af9	0.097372
81	0x3d555247	0.05208042
82	0x3db9c5a3	0.09070899
83	0xbb5ac0f1	-0.0033379162
84	0x3cc98f3e	0.024604436
85	0x3d86bb33	0.06578674
86	0xbb700154	-0.0036621885
87	0xbd0cc34e	-0.034365945
88	0x3d98bcdf	0.07457899
89	0xbd67bd36	-0.05657693
90	0xbd42dce3	-0.047573935
91	0x3d9a4a04	0.075336486
92	0xbcea8c3c	-0.028631322
93	0xbdc67fb2	-0.09692325
94	0x3c6bfb2f	0.014403149
95	0xbd97a9f7	-0.07405465
96	0xbd09d7a1	-0.033652905
97	0x3bbad648	0.005701814
98	0x3dc4ddcd	0.09612618
99	0x3cee3668	0.029078677

ode_func.net.4.weight f4 [3, 100]
0	0xbde0c8dd	-0.10975812
1	0x3da684b5	0.081307806
2	0xbcff3b33	-0.031156158
3	0x3d39a533	0.045323562
4	0x3d1c7f4a	0.03820733
5	0x3d34fb73	0.044185113
6	0x3d1284f9	0.035771344
7	0xbd92a61f	-0.07160591
8	0xbd4f5fea	-0.05062858
9	0xbda94710	-0.08265507
10	0xbc4a9147	-0.012363738
11	0x3d40ac86	0.04703953
12	0xbd03e0b0	-0.0321967
13	0x3cf607d0	0.030033022
14	0xbda40a20	-0.08009744
15	0x3d93300f	0.07186901
16	0x3da991cd	0.082797624
17	0x3cf35780	0.02970481
18	0x3d6add8d	0.057340194
19	0xbddcc986	-0.10780625
20	0x3d7f70b6	0.06236335
21	0xbdb7b715	-0.08970467
22	0xbdc2f63b	-0.09519621
23	0xbd9d3013	-0.07675185
24	0xbd23e6df	-0.040015098
25	0x3dce43f9	0.100715585
26	0xbd990737	-0.07472079
27	0xbd0e6036	-0.034759723
28	0x3d51f489	0.051258598
29	0x3d5720d7	0.052521553
30	0x3d915f7c	0.0709829
31	0x3d943196	0.0723602
32	0x3d37c8bd	0.044869173
33	0x39284697	0.00016048025
34	0xbd316bdd	-0.043315757
35	0x3d7b2dfb	0.061323147
36	0xbd72e488	-0.059299976
37	0xbd0e8c00	-0.034801483
38	0x3d6df446	0.058094285
39	0x3cbdce24	0.023169585
40	0xba1ccf71	-0.0005981839
41	0x3d5fda7b	0.05465172
42	0xbcc461a1	-0.023972334
43	0xbd50397f	-0.050836083
44	0x3dc074fa	0.093973115
45	0x3ced6117	0.02897696
46	0x3ce1ca6c	0.027562343
47	0xbda5df10	-0.080991864
48	0xbdddbb09	-0.1082669
49	0x3d516ef8	0.05113122
50	0xbd5dc318	-0.054141134
51	0x3c9a2fed	0.01882168
52	0xbd490f6d	-0.049086977
53	0xbd8d382a	-0.06895478
54	0x3d3e0197	0.046388235
55	0x3d96a4a0	0.073556185
56	0xbd9d1b40	-0.07671213
57	0x3c9ad41e	0.018899973
58	0x3cced93e	0.025250074
59	0x3b095a41	0.0020958337
60	0xbdcd52c4	-0.10025552
61	0x3d31c4bb	0.043400507
62	0xbdcecbff	-0.10097503
63	0x3d6de28d	0.058077384
64	0xbddf7aae	-0.10912071
65	0x3d3440b8	0.044007033
66	0xbdc00406	-0.093757674
67	0x3ca04ca8	0.019567803
68	0x3dc82b1e	0.09773849
69	0xbd225777	-0.039634194
70	0xbd278e10	-0.040906966
71	0x3dac97b0	0.084273696
72	0x3d87a245	0.06622747
73	0xbd5c62a3	-0.053805005
74	0x3c9888b4	0.018619873
75	0xbcc7c56f	-0.024386136
76	0x3d5a4816	0.053291403
77	0xbdd95a06	-0.10612874
78	0xbd2f2631	-0.04276103
79	0x3d9f9cf6	0.0779361
80	0x3d8c32e0	0.06845641
81	0x3d6bac99	0.05753765
82	0x3ce7869f	0.028262435
83	0xbda6b517	-0.08140009
84	0xbdbabcd5	-0.09118048
85	0x3d164537	0.036687102
86	0x3c684e3e	0.014178811
87	0x3d81e38a	0.06342228
88	0x3db357b2	0.08756961
89	0xbd4f8239	-0.0506613
90	0x3d3d8aa9	0.046274815
91	0x3dbe1187	0.09280687
92	0x3da00089	0.07812602
93	0x3cca98c7	0.024731053
94	0xbdb1182c	-0.086471885
95	0x3cc30f4c	0.023811005
96	0xbbcb8307	-0.006210688
97	0x3dd51ad4	0.10405508
98	0xbabe2fde	-0.0014510115
99	0xbda140bd	-0.07873676
100	0xbd1cba0e	-0.038263373
101	0xbd12fd33	-0.035886
102	0xbd0806dc	-0.033209667
103	0xbdb5154b	-0.08841952
104	0x3d4fa335	0.050692756
105	0xbd1e8d8c	-0.03870921
106	0x3cca1584	0.024668463
107	0xbc6712b5	-0.014103581
108	0xbdb689e8	-0.08913022
109	0xbd970280	-0.07373524
110	0x3ccc61d8	0.024949
111	0x3cf76a74	0.030202128
112	0xbc1d583a	-0.009603554
113	0x3dcdf574	0.10056582
114	0x3dad4542	0.084604755
115	0xbd9f77d9	-0.07786531
116	0x3d3a1ea2	0.04543937
117	0x3d5c7153	0.053819012
118	0x3cb90847	0.022586955
119	0xbc412092	-0.0117875505
120	0x3d049949	0.032372747
121	0x3d803a15	0.06261078
122	0x3daccc7b	0.08437439
123	0xbd729a20	-0.059229016
124	0xbda91605	-0.08256153
125	0xbd946714	-0.07246223
126	0x3d9a49d4	0.07533613
127	0x3d849e00	0.064754486
128	0xbcbcc737	-0.023044212
129	0x3d79b880	0.06096697
130	0x3d268f20	0.04066384
131	0xbd10df03	-0.03536893
132	0xbdaa557e	-0.083170876
133	0xbdc4371e	-0.09580825
134	0x3d427eb4	0.047484115
135	0x3d57ebc6	0.052715085
136	0xbc43f1d3	-0.011959511
137	0x3d82ede3	0.063930295
138	0xbd83a3da	-0.064277366
139	0x3d4d6303	0.050143253
140	0xbc8f11ec	-0.0174646
141	0xbd07fadc	-0.033198223
142	0xbd72ac97	-0.059246626
143	0xbd8fd61c	-0.0702326
144	0xbc0cfacb	-0.008604716
145	0xbc7db59a	-0.015485192
146	0x3d5cbeb3	0.053892802
147	0x3ca2cfe7	0.019874526
148	0x3c8ca172	0.017166827
149	0xbd814a4c	-0.06312999
150	0x3d8515c3	0.06498291
151	0x3d9c9c18	0.0764696
152	0x3d0d6b3f	0.034526106
153	0x3d1cc625	0.038274903
154	0xbc18755f	-0.009305327
155	0x3db3ac16	0.08773057
156	0x3d1f7413	0.038929056
157	0x3db5f7d5	0.08885161
158	0xbd9e33c1	-0.07724715
159	0x3d0a5017	0.033767786
160	0xbd85cd38	-0.06533283
161	0x3cfb9629	0.03071125
162	0x3cbb299f	0.022846995
163	0xbd394857	-0.045235004
164	0xbd0dee6b	-0.0346512
165	0x3d0ebbdf	0.034847137
166	0xbdcd0b7b	-0.10011955
167	0xbd285187	-0.041093376
168	0xbdb0b75f	-0.08628725
169	0xbcc46f98	-0.023978993
170	0xbd33ae10	-0.04386717
171	0xbd6623bf	-0.056186434
172	0x3d494efe	0.0491476
173	0xbbdc5c67	-0.0067248824
174	0x3d5920a5	0.053009648
175	0xbd321adf	-0.043482658
176	0xbcac6846	-0.021045815
177	0x3dcc5fbb	0.09979197
178	0xbd0a0a2a	-0.0337011
179	0x3db375ad	0.08762679
180	0xbd8442d4	-0.06458059
181	0xbd99f56e	-0.07517515
182	0xbd1f6839	-0.038917754
183	0xbc8dce4a	-0.01731028
184	0xbd9d5ca1	-0.07683683
185	0x3be65392	0.0070290053
186	0x3dabdf3e	0.083921894
187	0xbd5acfc2	-0.05342079
188	0xbdb4ad86	-0.088221595
189	0x3bb384d9	0.005478483
190	0x3d65ca7e	0.056101315
191	0xbc3cfad4	-0.011534411
192	0x3d1fb22b	0.038988274
193	0x3b83559a	0.0040080072
194	0x3d419773	0.047263574
195	0x39b9fe3f	0.00035475378
196	0x3d39888a	0.04529623
197	0xbd6e75fe	-0.058217995
198	0xbd876f46	-0.066130206
199	0x3dc06d55	0.093958534
200	0xbd84f39f	-0.064917795
201	0xbd23a065	-0.039947886
202	0x3dffbcbb	0.12487169
203	0xbd91bce5	-0.07116107
204	0xbe226675	-0.15859397
205	0xbe180390	-0.14845109
206	0x3e4df932	0.20114592
207	0xbd081412	-0.033222266
208	0xbe25865c	-0.16164535
209	0xbe287ce5	-0.16453893
210	0x3e0ca643	0.13735299
211	0xbc6a28f9	-0.014291995
212	0xbde970f3	-0.113984965
213	0xbce1b607	-0.027552618
214	0x3e24623a	0.16053095
215	0xbd988a48	-0.0744825
216	0xbd587081	-0.052841667
217	0x38054ccd	3.1781197e-05
218	0xbba594b3	-0.0050531267
219	0x3cd46904	0.025928982
220	0xbea5b09f	-0.32361314
221	0xbdbffb0e	-0.09374057
222	0xbd0c57e2	-0.0342635
223	0xbdbe77b8	-0.09300178
224	0xbe6f8481	-0.2339039
225	0xbe035c5b	-0.128282
226	0x3c3249a6	0.010881817
227	0x3d9f2da8	0.0777238
228	0xbdb5e0d0	-0.0888077
229	0x3e09e807	0.13467418
230	0x3d050edc	0.032484874
231	0xbd185a7e	-0.037195675
232	0xbe0f138f	-0.13972305
233	0xbd736e42	-0.059431322
234	0x3dbca47a	0.09211059
235	0x3d4d0c85	0.050060768
236	0x3d1c2d44	0.038129106
237	0x3cef5fdb	0.029220512
238	0x3d78bc4a	0.06072644
239	0xbec75fa1	-0.38940147
240	0x3ed5af78	0.41735435
241	0xbd81512b	-0.0631431
242	0x3e63cca2	0.2224603
243	0xbe133b48	-0.14378083
244	0x3c7fa114	0.015602369
245	0x3e942046	0.28930873
246	0x3c8cf242	0.017205361
247	0xbdd1d637	-0.10245936
248	0xbe370b8b	-0.17875497
249	0x3d3e748a	0.04649786
250	0xbce1883e	-0.027530786
251	0xbdd5c3d7	-0.10437744
252	0x3dd823ef	0.10553729
253	0x3e6afe01	0.22948457
254	0xbe589643	-0.2115107
255	0x3db6a5c9	0.0891834

ode_func.net.4.bias f4 [3]
0	0x3d738e15	0.05946167
1	0xbd16bb96	-0.03679999
2	0xbd242b5c	-0.040080413
