checkpoint/ode_euler/pushing_5_steps_ode_euler_dynamics_model.pt (torch, 47698 bytes, 6 tensors)

ode_func.net.0.weight f4 [100, 6]
0	0x3e7f05c6	0.24904546
1	0x3b2b58cc	0.0026145456
2	0x3e21a873	0.15786915
3	0xbeb7a57a	-0.35868436
4	0x3ead0213	0.33790645
5	0xbe4c082d	-0.19924994
6	0x3eea6831	0.45782617
7	0xbe65ad9f	-0.22429512
8	0xbdfa8a5b	-0.122334205
9	0xbe89383b	-0.26800713
10	0xbea26780	-0.3171959
11	0xbeca6a98	-0.3953445
12	0x3ebe394d	0.37153092
13	0xbaab8e0e	-0.00130886
14	0x3e56648e	0.20936796
15	0xbe168b0a	-0.14701477
16	0xbe80391d	-0.25043574
17	0x3c0a1fd2	0.008430438
18	0xbe0cc783	-0.13747983
19	0x3e384068	0.17993319
20	0x3ebfc9d9	0.37458685
21	0xbe903d43	-0.2817174
22	0x3ebc6565	0.36796108
23	0x3e547cb9	0.20750703
24	0xbe75e29b	-0.24012224
25	0xbe6b286f	-0.22964643
26	0x3e7f63ca	0.2494041
27	0xbea4e541	-0.32206157
28	0x3d975caa	0.07390721
29	0xbeb27bd5	-0.348601
30	0xbe0d39aa	-0.13791528
31	0xbe1ab6b1	-0.15108754
32	0x3d8cadd1	0.0686909
33	0xbd9f22a4	-0.07770279
34	0xbed1ea40	-0.4099903
35	0x3d9d974a	0.07694872
36	0xbe271041	-0.16314794
37	0xbdfe3afe	-0.124135956
38	0xbe7d436c	-0.2473275
39	0xbe231177	-0.15924631
40	0xbea1471f	-0.31499574
41	0x3ec179dc	0.37788284
42	0xbecd8602	-0.40141302
43	0xbe567fa1	-0.20947124
44	0x3e00d74d	0.1258213
45	0x3ccdd769	0.02512713
46	0x3daf29b5	0.08552877
47	0x3e7b91fa	0.24567404
48	0x3eb25614	0.34831297
49	0xbe337603	-0.17525487
50	0xbdbd23af	-0.09235322
51	0x3ea31649	0.3185294
52	0x3e0a3258	0.13495767
53	0x3ec67186	0.38758487
54	0x3d18284b	0.0371478
55	0xbe8413c0	-0.25796318
56	0x3ec91651	0.3927484
57	0x3e2c42bb	0.1682233
58	0x3d085dc1	0.033292536
59	0x3e0e8994	0.1391967
60	0xbe203dcb	-0.15648572
61	0x3e48db55	0.19614919
62	0x3d80a385	0.06281189
63	0x3deed7ae	0.116622314
64	0xbeaf29c2	-0.34211546
65	0x3ebb04b7	0.36527035
66	0xbec8c240	-0.392107
67	0x3edcda15	0.43135133
68	0x3e97a202	0.2961579
69	0xbe856307	-0.26052114
70	0xbe7e3aa3	-0.24827056
71	0xbe4fc06a	-0.20288244
72	0x3e804360	0.25051403
73	0xbeaf99cf	-0.34297034
74	0xbe79f0b4	-0.24408227
75	0xbd822ab7	-0.063558035
76	0x3ecaf322	0.3963862
77	0xbe48b210	-0.19599175
78	0xbd9257eb	-0.07145675
79	0x3e5f3bc6	0.21800146
80	0x3e0b76a0	0.1361947
81	0x3c3ef665	0.011655425
82	0x3e517e02	0.20458224
83	0xbe6d403e	-0.23169038
84	0x3e194592	0.14967945
85	0x3e10c6e8	0.14138377
86	0x3e13d19f	0.14435433
87	0xbe5909e5	-0.2119518
88	0xbe9d295e	-0.30695623
89	0xbe6778cc	-0.22604674
90	0xbd96e336	-0.07367556
91	0xbebb1bd5	-0.36544672
92	0x3da7def2	0.0819682
93	0xbdecd4d0	-0.11564028
94	0xbe8b691d	-0.27228633
95	0xbd0d7c4a	-0.03454236
96	0x3ddaaede	0.106778845
97	0xbd390b03	-0.045176517
98	0xbe8ac8d4	-0.27106345
99	0x3dc26d17	0.094934635
100	0x3ed0853c	0.4072665
101	0x3dbb5eae	0.09148918
102	0x3e726df6	0.2367476
103	0x3e5745e3	0.21022753
104	0x3eb631fb	0.35585007
105	0xbebf3ff8	-0.37353492
106	0x3e2443e7	0.16041528
107	0x3ea2e8d6	0.31818265
108	0x3e18561a	0.14876595
109	0x3d55e7c3	0.05222298
110	0xbe3507f0	-0.17678809
111	0x3e4d3dbd	0.20043083
112	0x3ea440a1	0.32080558
113	0x3e051e31	0.12999798
114	0xbea349dc	-0.31892288
115	0x3e7ad2c9	0.2449447
116	0x3de993b7	0.114051275
117	0x3eaa8490	0.33304262
118	0x3eaba084	0.335209
119	0x3dfbd552	0.12296547
120	0x3e786453	0.2425702
121	0x3e5e0af5	0.21683867
122	0x3ea6c7a0	0.32574177
123	0x3df5a612	0.11994566
124	0xbd09b54b	-0.03362016
125	0x3e2b9678	0.16756618
126	0xbe8648bb	-0.26227364
127	0xbea09f4c	-0.31371534
128	0x3da73ef4	0.08166304
129	0x3e00bdd2	0.1257241
130	0x3ebdfe3f	0.37108037
131	0xbdca0c46	-0.09865622
132	0x3b46a172	0.0030308631
133	0x3e109e75	0.14122947
134	0xbe3d193b	-0.18466656
135	0xbecf3bf1	-0.4047542
136	0xbd4bd215	-0.049760897
137	0xbe2d67a4	-0.16934067
138	0x3ecf4b9a	0.40487367
139	0x3e9ba00c	0.30395544
140	0xbee36065	-0.4440948
141	0xbe7ffac7	-0.24998008
142	0xbde21e76	-0.11040966
143	0xbe1d8c45	-0.1538554
144	0xbdbce867	-0.09224015
145	0x3e9da91a	0.30793077
146	0x3cd8c1c4	0.026459582
147	0xbe40aca6	-0.1881586
148	0x3d6c8174	0.057740644
149	0xbe388f41	-0.18023397
150	0xbdba94c1	-0.09110404
151	0xbd3bbf90	-0.045836985
152	0x3ebf57e8	0.37371755
153	0x3e9468e2	0.2898627
154	0x3eb30c63	0.34970388
155	0xbe9457d1	-0.2897325
156	0x3e10c387	0.14137088
157	0xbe00ca7e	-0.12577245
158	0xbe4dd167	-0.20099412
159	0x3e5e107a	0.21685973
160	0x3e335bfa	0.17515555
161	0xbe0e5fb8	-0.13903701
162	0xbe469fd8	-0.19396913
163	0x3c8ef019	0.017448472
164	0xbe2cd38e	-0.16877577
165	0x3c04928c	0.00809158
166	0xbd6de125	-0.058076043
167	0xbec9f6fe	-0.39446253
168	0xbd5b6eb8	-0.053572387
169	0x3e67d13a	0.22638407
170	0xbe264268	-0.1623627
171	0xbe624cb5	-0.22099574
172	0x3e553f7c	0.20824999
173	0xbcb5fda1	-0.022215666
174	0x3db9e8a3	0.09077575
175	0x3e2597e0	0.16171217
176	0x3dff4466	0.12464218
177	0x3e20e408	0.15711987
178	0xbe88b6be	-0.2670192
179	0x3e839348	0.25698304
180	0x3e8bb37f	0.27285382
181	0xbe39489d	-0.18094106
182	0x3ecd9158	0.4014995
183	0x3e5f470f	0.2180445
184	0xbe1f7705	-0.15572746
185	0xbe9922b6	-0.29909295
186	0x3ea2cb99	0.31795958
187	0xbdf64d60	-0.12026477
188	0xbd7d9098	-0.061905473
189	0xbe5d2b43	-0.21598534
190	0xbe922063	-0.28540334
191	0xbd617f25	-0.055052895
192	0x3dd51900	0.10405159
193	0x3d5ac377	0.053409066
194	0x3dd675cd	0.104716875
195	0xbe5a24ef	-0.21303152
196	0xbec4c41f	-0.3843088
197	0x3cfcf41b	0.030878117
198	0xbbda8ced	-0.0066696317
199	0x3ea64d5d	0.32480898
200	0x3c814b94	0.015783109
201	0xbda2351d	-0.07920287
202	0x3e243dc4	0.16039187
203	0x3ca586bf	0.020205854
204	0x3e1ad9f7	0.1512221
205	0x3e7879e3	0.24265246
206	0x3e87ffa1	0.26562217
207	0x3e4073d2	0.18794182
208	0xbd133d27	-0.03594699
209	0xbe849f0f	-0.25902602
210	0xbe79b96f	-0.24387144
211	0x3cbc4845	0.02298368
212	0x3afcb4f5	0.0019280004
213	0x3e59e1b5	0.21277507
214	0x3e959199	0.29212645
215	0x3d959980	0.073046684
216	0xbe09282e	-0.13394234
217	0xbe3811da	-0.1797556
218	0x3e56c33e	0.20972916
219	0xbe38303e	-0.17987153
220	0xbe46d8df	-0.19418667
221	0x3d9a9d03	0.07549479
222	0xbe3610dd	-0.1777987
223	0x3ed71b4d	0.42013016
224	0x3e92949a	0.28629
225	0xbcc081e0	-0.02349943
226	0xbdbb8c60	-0.09157634
227	0xbde9ba85	-0.11412529
228	0xbe0411eb	-0.1289746
229	0xbde2b4bb	-0.11069628
230	0x3e9275ba	0.28605443
231	0x3de160ea	0.11004813
232	0xbe9b78d6	-0.30365628
233	0xbea3b509	-0.31974056
234	0x3dc4b7e2	0.09605385
235	0xba0b4ece	-0.0005314172
236	0xbe94efc5	-0.2908918
237	0xbe4b147b	-0.19832031
238	0xbdc0fa55	-0.09422747
239	0x3e505cb0	0.20347857
240	0x3e6d3fd8	0.23168886
241	0xbea34ba1	-0.31893638
242	0x3ebfd646	0.37468165
243	0xbdd9533b	-0.10611578
244	0xbd1281ee	-0.03576844
245	0x3ec98668	0.39360356
246	0xbe2d2b8e	-0.16911146
247	0xbddae8bc	-0.10688922
248	0x3e24fbf6	0.1611174
249	0x3e1ff19b	0.15619509
250	0xbde31de6	-0.11089687
251	0x3eaadb80	0.3337059
252	0x3e8df364	0.27724755
253	0x3e62d4f3	0.22151546
254	0x3e86c13a	0.26319295
255	0x3e8c49b5	0.27399984

ode_func.net.0.bias f4 [100]
0	0xbe9985a5	-0.29984775
1	0x3d525b56	0.051356636
2	0xbd152076	-0.03640791
3	0xbe3b8460	-0.18312216
4	0x3ec51938	0.38495803
5	0xbe8a073d	-0.26958647
6	0x3ed0f0c1	0.4080868
7	0xbd5d2155	-0.053986866
8	0xbe93312c	-0.28748453
9	0x3cefd425	0.029275963
10	0x3e679663	0.22615962
11	0xbe2dc37b	-0.16969101
12	0xbe9c6761	-0.30547622
13	0x3ea5aabc	0.32356822
14	0x3e74c139	0.23901834
15	0xbbf347b4	-0.007424319
16	0x3ec8acde	0.39194387
17	0x3e032371	0.12806489
18	0xbe424570	-0.18971801
19	0x3ea12493	0.31473216
20	0x3eb6b488	0.3568461
21	0x3d75c7ab	0.06000487
22	0xbdac5642	-0.0841489
23	0xbeac2f70	-0.33629942
24	0x3e647750	0.22311139
25	0xbe9b4405	-0.30325332
26	0x3db55522	0.088541284
27	0x3ea0edc3	0.31431398
28	0x3e86b4f2	0.26309925
29	0x3db3d7a0	0.087813616
30	0xbe567670	-0.20943618
31	0xbea66fdc	-0.32507217
32	0x3e9376c5	0.2880155
33	0x3e6954f3	0.22786312
34	0xbe558597	-0.20851742
35	0xbe26149e	-0.16218802
36	0xbd410da5	-0.047132153
37	0xbd987649	-0.07444436
38	0x3ec47b71	0.38375428
39	0x3e9d33d1	0.30703595
40	0x3eca9c46	0.39572352
41	0x3d1779d2	0.03698141
42	0x3e3ff9b9	0.18747605
43	0x3e8912d7	0.26772186
44	0xbe96b592	-0.29435402
45	0xbe8b726f	-0.27235743
46	0x3e050141	0.1298876
47	0xbd2bf2ae	-0.041979484
48	0xbe43ea9a	-0.19132462
49	0x3e956b60	0.29183483
50	0x3e1d51a0	0.15363169
51	0x3ecb62a1	0.39723685
52	0xbe1af111	-0.15131022
53	0x3ebdd6a5	0.37077823
54	0x3e1daa13	0.1539691
55	0xbe65121e	-0.22370192
56	0x3e9f9cf9	0.31174448
57	0x3dca7aaa	0.098866776
58	0x3e718eb9	0.235896
59	0xbe492fb2	-0.196471
60	0x3eb21c20	0.34787083
61	0x3d96e52f	0.07367932
62	0x3e18b1a5	0.14911516
63	0x3df46a93	0.1193439
64	0x3ea223b9	0.3166788
65	0x3e93b185	0.28846374
66	0x3e7226ef	0.23647664
67	0x3e98a6ca	0.2981475
68	0x3eaeb69b	0.34123692
69	0xbd4bce64	-0.049757376
70	0x3eb21265	0.3477966
71	0xbd2562dd	-0.040377486
72	0xbe73d3e9	-0.23811306
73	0x3e6e405c	0.23266739
74	0x3ea02dcc	0.3128494
75	0x3eaad1ca	0.3336318
76	0x3eb583ea	0.35452205
77	0x3e309ed2	0.17248085
78	0x3d3a3ffd	0.04547118
79	0xbe469bf7	-0.19395433
80	0xbb4380c8	-0.0029831398
81	0xbe856723	-0.2605525
82	0x3e96bf4f	0.29442832
83	0xbe2d47e4	-0.16921955
84	0xbe409320	-0.18806124
85	0xbe073947	-0.13205443
86	0x3dbd85fb	0.0925407
87	0x3dcabefb	0.09899708
88	0x3d8ce886	0.06880288
89	0x3bd75522	0.006571428
90	0xbe2dd278	-0.16974819
91	0x3e0dff31	0.13866879
92	0xbd1be625	-0.03806128
93	0x3dea6ad5	0.11446158
94	0x3e517a2c	0.20456761
95	0xbe81ef1b	-0.25377735
96	0xbe941d73	-0.28928718
97	0x3e8941c4	0.26807988
98	0x3ccee288	0.025254503
99	0x3ec3882a	0.38189822

ode_func.net.2.weight f4 [100, 100]
0	0xbd9813b2	-0.074256316
1	0xbd1aeeed	-0.037825514
2	0xbd486100	-0.04892063
3	0x3c6d151a	0.014470363
4	0x3ce969e0	0.028492868
5	0x3b341a9a	0.0027481676
6	0xbbdf3100	-0.006811261
7	0xbcad6360	-0.02116555
8	0xba2dc333	-0.0006628513
9	0xbdc326a5	-0.09528855
10	0xbcc79f07	-0.024367822
11	0x3c3b87f3	0.011445987
12	0xbd9b8faf	-0.07595765
13	0xbda2b345	-0.07944349
14	0xbd0b2edd	-0.03398024
15	0x3d34570a	0.04402832
16	0xbd4fc51a	-0.05072508
17	0x3cb84307	0.022492899
18	0xbac18400	-0.001476407
19	0xbdbe131a	-0.09280987
20	0xbd898b2a	-0.067159966
21	0xbd0f4493	-0.034977507
22	0xbd7843ad	-0.060611416
23	0xbdc080d0	-0.09399569
24	0xbd568687	-0.05237439
25	0xbd5d5210	-0.05403334
26	0x3dac8455	0.08423678
27	0x3dc7945a	0.09745093
28	0xbc50f70d	-0.012754214
29	0xbd600713	-0.054694247
30	0xbd10d920	-0.035363317
31	0x3c49f6a7	0.012326873
32	0xbd499b6a	-0.04922048
33	0x3d180833	0.037117194
34	0xbccfa307	-0.025346292
35	0xbd2b765a	-0.041860916
36	0x3d53da1a	0.05172167
37	0xbd1e2260	-0.038607
38	0x3da60185	0.081057586
39	0xbd047b3d	-0.03234409
40	0xbc96ad60	-0.018393219
41	0xbd792e7a	-0.06083534
42	0x3c19705a	0.009365166
43	0xbc9a2607	-0.018816961
44	0x3d1a14b0	0.037617385
45	0xbd994ddf	-0.07485556
46	0x3d4eb38d	0.0504642
47	0xbc51da00	-0.012808323
48	0x3d695c8a	0.056973018
49	0x3d0824a3	0.033238064
50	0xbcfbb120	-0.030724108
51	0xbca5772d	-0.020198429
52	0xbd4f71ba	-0.050645567
53	0xbca44047	-0.020050181
54	0x3d22947a	0.03969238
55	0x3cbbc807	0.022922529
56	0xbd32b57a	-0.0436301
57	0x3ccd551a	0.025064994
58	0x3d2fbde0	0.04290569
59	0x3d68a1d7	0.056794968
60	0xbcfca280	-0.030839205
61	0xbd24ca0d	-0.040231753
62	0xbd479ee7	-0.048735525
63	0x3dc7c752	0.09754814
64	0xbd284df3	-0.041089963
65	0xbd37a80d	-0.044838
66	0x3ab6c800	0.0013945103
67	0x3dadca28	0.08485824
68	0x3d651960	0.055932403
69	0xbdadf57b	-0.08494087
70	0xbd85fb12	-0.065420285
71	0xbbb1cb00	-0.005425811
72	0x3d82376f	0.06358229
73	0xbc98da93	-0.018658912
74	0x3c6e0773	0.014528143
75	0x3be6cf33	0.007043743
76	0xbdbbd123	-0.09170749
77	0xbd3561cd	-0.044282723
78	0x3b2ade9a	0.0026072622
79	0xbc8c307a	-0.01711296
80	0x3c6e23f3	0.014534938
81	0x3d092467	0.03348198
82	0xbd3f790a	-0.04674629
83	0xbd93f305	-0.07224087
84	0x3ba56db3	0.0050484776
85	0xbbbd5e33	-0.0057790517
86	0xbd92bec7	-0.07165294
87	0xbd0bbbc3	-0.03411461
88	0xbdab2f77	-0.083586626
89	0x3b34a19a	0.0027562142
90	0xbcd9c9d3	-0.026585495
91	0xbc66faf3	-0.014097917
92	0xbdcbab60	-0.099447966
93	0xbd92f437	-0.071754865
94	0x3c919847	0.017772807
95	0x3dc64b3f	0.09682321
96	0xbdb68eb8	-0.0891394
97	0x3d42fa33	0.04760189
98	0xbbee2400	-0.007267475
99	0x3dc5268f	0.09626495
100	0x3cacb060	0.021080196
101	0x3d749287	0.059710052
102	0x3d6503a5	0.05591168
103	0xbdbad75c	-0.09123108
104	0xbd929cf1	-0.071588404
105	0xbca74930	-0.02042064
106	0xbd29c279	-0.04144523
107	0x3d4afdf1	0.049558584
108	0xbc537e1c	-0.012908485
109	0xbcd3056d	-0.025759423
110	0x3dd0be7b	0.10192581
111	0x3dd2a564	0.10285452
112	0xbd7404d1	-0.059574906
113	0x3dad6693	0.0846683
114	0xbca2996c	-0.019848548
115	0x3d72bd85	0.05926277
116	0x3c3fc853	0.011705476
117	0x3d01ba5b	0.031671863
118	0x3bd9d221	0.006647364
119	0xbd8e1141	-0.06936885
120	0xbd91d5d4	-0.071208626
121	0xbd78ede7	-0.060773756
122	0xbd5fb183	-0.054612648
123	0xb9cd43ea	-0.00039151247
124	0xbdab39a4	-0.083606035
125	0xbd86cdb1	-0.06582201
126	0xbe6fb9fc	-0.23410791
127	0xbe10f571	-0.14156128
128	0xbe154908	-0.1457864
129	0x3cdeb759	0.027187036
130	0xbda61f6e	-0.081114635
131	0x3d00c18e	0.031434588
132	0x3d9dcd57	0.07705181
133	0xbd4ac7ff	-0.049507137
134	0xbe0f6062	-0.14001611
135	0xbda87453	-0.08225312
136	0x3cc78fb6	0.024360519
137	0x3d010809	0.031501804
138	0x3bef007e	0.00729376
139	0x3cf57cdf	0.02996677
140	0xbd47e83b	-0.048805457
141	0x3ddd49ed	0.10805116
142	0x3dc8cc3d	0.0980458
143	0xbda18200	-0.07886124
144	0xbcb6b6da	-0.022303987
145	0xbda10919	-0.07863063
146	0x3d4e2f4c	0.050338075
147	0xbc4dc9ed	-0.01256035
148	0x3e6c479d	0.23074193
149	0x3d64c9a0	0.055856347
150	0x3d9eeac5	0.077596225
151	0x3daa798a	0.08323963
152	0x3d9fbbea	0.07799514
153	0x3d900f3b	0.07034155
154	0xbe27be29	-0.16381134
155	0xbd4a645c	-0.049412116
156	0xbda6ae37	-0.081386976
157	0xbd7648e3	-0.060128104
158	0x3c9ea0e6	0.019363832
159	0x3d03d86a	0.03218881
160	0x3bb7e1fc	0.0056116562
161	0x3bd6efc5	0.0065593445
162	0xbb287423	-0.0025703989
163	0x3b2a5054	0.002598782
164	0x3dc3fe46	0.09569983
165	0x3c6193f3	0.013768184
166	0x3d33b39a	0.043872453
167	0xbc0d49b6	-0.008623531
168	0xbe475344	-0.19465357
169	0x3b814cd6	0.003945927
170	0x3bf3c4d2	0.0074392343
171	0x3c7b858a	0.015351662
172	0xbd989958	-0.07451123
173	0x3dc8dd59	0.09807844
174	0x3db939bf	0.09044217
175	0xbcb7caa8	-0.022435501
176	0xbd71fac5	-0.059077043
177	0xbd7fb1cb	-0.062425416
178	0xbc18b79e	-0.0093211215
179	0xbbb5cf79	-0.0055484143
180	0xbde07d3d	-0.10961387
181	0xbd898257	-0.067143135
182	0x3ce3b8f1	0.027798148
183	0xbd6fb0f8	-0.05851838
184	0x3d0c2211	0.034212176
185	0xbcef8ea9	-0.02924283
186	0x3d8d618c	0.06903371
187	0x3cd73956	0.026272457
188	0x3db0954d	0.08622227
189	0xbe1a007c	-0.15039247
190	0x3e100905	0.1406594
191	0xbc416c58	-0.011805616
192	0x3dc17dd8	0.09447831
193	0xbd07260d	-0.032995272
194	0x3cc579b4	0.024105884
195	0x3c905bab	0.017621836
196	0x3e86f2fe	0.26357263
197	0x3dbc1331	0.09183348
198	0xbb99b720	-0.0046910197
199	0xbdac36bb	-0.084088765
200	0xbdad49d5	-0.08461348
201	0x3d0bd1df	0.034135696
202	0x3dbae7c1	0.09126235
203	0xbdabf8ec	-0.083970875
204	0xbd73ba0f	-0.05950361
205	0x3d477d05	0.048703212
206	0x3b96dd0c	0.0046039876
207	0xbb010521	-0.0019686895
208	0x3d02a2d3	0.031893563
209	0x3c71166c	0.014714818
210	0x3da98975	0.08278171
211	0x3d14a63c	0.036291346
212	0x3ccb9077	0.02484916
213	0xbbe2114b	-0.006899034
214	0x3d673cf2	0.056454606
215	0x3cce1f0b	0.025161287
216	0xbdcb2c69	-0.0992058
217	0x3d971754	0.07377496
218	0x3d060a5b	0.03272472
219	0xbd9715c8	-0.07377201
220	0xbcdcaa69	-0.026936727
221	0x3dd0088c	0.1015788
222	0x3c91998d	0.017773414
223	0x3d8d23aa	0.06891568
224	0x3c612b32	0.013743209
225	0x3dc34193	0.09533992
226	0x3d885246	0.066563174
227	0x3c45aab1	0.012064622
228	0xbd882ec9	-0.066495486
229	0x3dbc7c41	0.09203387
230	0xbd4e6e5d	-0.05039822
231	0xbd12b783	-0.03581954
232	0xbd7995fd	-0.060934056
233	0x3d9ea41e	0.077461466
234	0xbc4618cc	-0.012090873
235	0x3d96e593	0.073680066
236	0x3cb96846	0.02263273
237	0x3c818f98	0.015815541
238	0xbd2c483c	-0.042061076
239	0x3d0f5aba	0.034998633
240	0x3dbbf046	0.09176688
241	0x3d82020c	0.06348047
242	0xbd8a94bc	-0.0676665
243	0x3d3d7f3d	0.046263922
244	0xbdb3a182	-0.087710395
245	0x3db4c677	0.08826917
246	0xbd2d269e	-0.042273156
247	0x3db2d72f	0.08732449
248	0x3c64aa5d	0.013956633
249	0x3db38641	0.08765841
250	0x3ce4a18d	0.027909065
251	0xbd858eb0	-0.06521356
252	0xbdae327f	-0.08505725
253	0x3c2af203	0.010433677
254	0xbc8a9296	-0.0169156
255	0xbdabc1e3	-0.0838659

ode_func.net.2.bias f4 [100]
0	0x3d39b62a	0.04533974
1	0xbdaef3ae	-0.08542572
2	0xbd526b9b	-0.05137215
3	0x3dbbd972	0.09172334
4	0x3da05575	0.078288
5	0xbc883d9f	-0.016630946
6	0x3c1c0a3f	0.009523927
7	0xbdb3b1c5	-0.08774141
8	0xbd9b0331	-0.07568968
9	0x3cb7e58b	0.022448322
10	0xbdbcd0f4	-0.09219542
11	0xbcce38ad	-0.02517351
12	0x3d5aeaec	0.053446695
13	0x3dbe3abc	0.092885464
14	0x3da9d161	0.08291889
15	0xbd81d893	-0.063401364
16	0x3ca0ba6f	0.019620148
17	0xbd347dca	-0.044065274
18	0x3c4d9a9e	0.012549071
19	0xbd0d4e6a	-0.03449861
20	0xbdc21fb3	-0.094787024
21	0xbbbff4a0	-0.005858019
22	0x3c66b883	0.014082077
23	0xbd83f064	-0.06442335
24	0x3d29ed38	0.041485995
25	0x3dbd4eb6	0.092435285
26	0x3c7fe0b1	0.015617535
27	0xbc356d91	-0.011073486
28	0x3dcc52b0	0.09976709
29	0x3c915cc9	0.017744439
30	0x3cbc27f8	0.022968277
31	0x3d300cf2	0.042981096
32	0x3db66482	0.08905889
33	0x3d778df5	0.060438115
34	0xbceea5c5	-0.02913178
35	0xbdcb8d78	-0.099390924
36	0xbd12ce29	-0.03584114
37	0xbbf68031	-0.007522606
38	0xbd8b4f6c	-0.06802258
39	0xbd00ac4e	-0.031414323
40	0xbd8d57bb	-0.06901499
41	0xbd6be5d4	-0.057592228
42	0xbdc08b34	-0.09401551
43	0x3d095642	0.033529527
44	0xbdb2497a	-0.08705421
45	0xbdc99b43	-0.09844067
46	0x3ddba3cf	0.107246034
47	0x3cbff336	0.023431402
48	0x3b02277b	0.0019859958
49	0x3dbfc413	0.0936357
50	0xbd61d468	-0.055134207
51	0x3da7a1d5	0.08185164
52	0x3db81d84	0.08990005
53	0x3d5b4965	0.05353679
54	0x3dae00e9	0.08496267
55	0x3dc3e157	0.095644645
56	0x3ce3ee8b	0.027823707
57	0xbbf8f487	-0.0075975093
58	0xbdd2358e	-0.10264121
59	0xbd312ceb	-0.043255728
60	0xbdc1c47c	-0.094613045
61	0x3dae109e	0.08499263
62	0x3dc8791d	0.097887255
63	0x3da22e8b	0.079190336
64	0xbd12f410	-0.035877287
65	0xbd059295	-0.032610495
66	0x3d8ea357	0.06964748
67	0x3d49e48c	0.049290225
68	0x3d6191ec	0.055070803
69	0xbda4c3b5	-0.08045141
70	0xbdab8055	-0.08374087
71	0x3ccfa5f6	0.025347691
72	0x3c79f38b	0.015255819
73	0x3d2f779b	0.042838674
74	0xbac8d2e6	-0.0015321642
75	0x3d7eb501	0.062184338
76	0xbd294fc4	-0.041335836
77	0x3ca557f3	0.020183539
78	0x3c3b84cb	0.0114452345
79	0xbcf544f4	-0.029940106
80	0xbdb465be	-0.08808468
81	0x3d849af8	0.064748704
82	0xbb7820e7	-0.0037861408
83	0xbdb4757e	-0.08811472
84	0xbd349bd8	-0.044093937
85	0x3d8153d1	0.06314815
86	0x3bcc703f	0.0062389667
87	0x3bfe1b04	0.0077546854
88	0x3d8d05ac	0.068858474
89	0x3a26097a	0.00063338096
90	0x3d476baf	0.04868668
91	0x3d784221	0.06060994
92	0x3b6c8edf	0.00360959
93	0x3c93a62a	0.01802357
94	0xbc212cea	-0.0098373685
95	0xbda9d64f	-0.08292829
96	0xbdc301ae	-0.09521805
97	0x3c0627bd	0.008188185
98	0x3dca6cf2	0.09884061
99	0x3d854588	0.06507403

ode_func.net.4.weight f4 [3, 100]
0	0xbd831d42	-0.06402065
1	0x3d616ba5	0.0550343
2	0xbc72d669	-0.014821627
3	0xbcd0c77f	-0.025485752
4	0x3db8c190	0.09021294
5	0x3dbba156	0.09161632
6	0xbaded0ce	-0.0016999485
7	0xbd80d310	-0.06290257
8	0xbb01a053	-0.0019779399
9	0x3d76c957	0.060250606
10	0x3d904617	0.070446186
11	0x3c10db40	0.008841336
12	0xbcf46400	-0.02983284
13	0x3d8a8db0	0.06765306
14	0xbcca80bd	-0.02471959
15	0xbd3e3b5e	-0.046443336
16	0xbd6f529c	-0.05842839
17	0x3cba9616	0.022776645
18	0xbd45f0a7	-0.048325207
19	0x3d5b8967	0.053597834
20	0x3d9da6ca	0.07697828
21	0x3d6ff51b	0.05858336
22	0xbd37d46a	-0.04488031
23	0x3d7bf513	0.061513018
24	0xbb66a92e	-0.0035196054
25	0xbd0237cc	-0.031791493
26	0x3ccec1c8	0.025238886
27	0xbd474e64	-0.048658744
28	0xbb9abf8a	-0.0047225403
29	0x3d206bc6	0.03916528
30	0xbd621d8a	-0.055203952
31	0xbcb9e004	-0.022689827
32	0xbd313461	-0.043262843
33	0x3d7fa6c7	0.06241491
34	0x3d25dcde	0.04049384
35	0xbcf37ca0	-0.029722512
36	0xbd13ba3b	-0.036066275
37	0x3d90704f	0.07052671
38	0x3c1f6489	0.009728559
39	0xbd357870	-0.04430431
40	0x3c12053c	0.008912381
41	0xbda22cbf	-0.07918691
42	0xba0a7716	-0.00052820274
43	0xbdb3ac17	-0.08773058
44	0xbdc61fb1	-0.096740134
45	0x3d8ecceb	0.06972679
46	0x3d0408ca	0.032234944
47	0x3b4de2d6	0.0031415722
48	0xbd12b492	-0.035816737
49	0x3c956b55	0.018239656
50	0xbd2404f4	-0.040043786
51	0x3c9c920b	0.019112607
52	0xbd556643	-0.052099477
53	0x3da64ae1	0.08119751
54	0x3dbbcee9	0.09170324
55	0xbd0fa007	-0.035064723
56	0x3c41a4de	0.011819093
57	0x3da4ddf4	0.08050147
58	0x3d6acce5	0.05732431
59	0x3c9d4e33	0.019202327
60	0xbc5cc868	-0.013475515
61	0x3d682e10	0.056684554
62	0x3dc809d6	0.09767501
63	0x3b943ac0	0.004523605
64	0x3dbebd57	0.093134575
65	0x3d1ad24f	0.037798222
66	0xbc94a892	-0.018146787
67	0xbd6695fa	-0.056295373
68	0xbd9e2df5	-0.07723609
69	0x3d39201a	0.04519663
70	0x3d70db8a	0.05880312
71	0xbd41cfdc	-0.04731737
72	0xbdbd4432	-0.09241523
73	0xbc0f50b6	-0.00874727
74	0x3dbde504	0.09272197
75	0x3cc0b06f	0.02352163
76	0xbdc47926	-0.0959342
77	0xbda4bc69	-0.08043749
78	0x3c15434f	0.009110286
79	0x3d696ab9	0.056986544
80	0x3dade531	0.084909804
81	0x3d4ee03c	0.050506815
82	0xbda8bacd	-0.082387544
83	0x3d8f5a96	0.069997
84	0x3dd5c822	0.10438563
85	0x3c225630	0.009908244
86	0xbd6a9299	-0.057268713
87	0xbd49eedb	-0.049300056
88	0xbbdd0f8e	-0.006746239
89	0xbd45d542	-0.04829908
90	0x3d2f06b0	0.042730987
91	0xbd882932	-0.066484824
92	0x3b291e44	0.0025805393
93	0xbb9e479d	-0.0048303143
94	0x3c85655d	0.016283685
95	0xbd84452b	-0.06458505
96	0xbc9d8161	-0.019226732
97	0x3d51cd40	0.051221132
98	0x3d0f7a6d	0.035028864
99	0x3da62c9d	0.08113978
100	0x3dae27fb	0.085037194
101	0x3d02403a	0.031799532
102	0x3da6893e	0.081316456
103	0xbd389410	-0.04506308
104	0xbcf31c3e	-0.029676553
105	0xbd389a36	-0.045068942
106	0x3c80717a	0.01567911
107	0x3cf48ef9	0.02985333
108	0xbcbfdcfc	-0.023420803
109	0xbdaf6f8b	-0.08566197
110	0xbc995503	-0.018717295
111	0xbdb21108	-0.08694655
112	0x3d015596	0.03157576
113	0x3d96ce81	0.07363606
114	0xbdb0b481	-0.086281784
115	0x3d455662	0.048178084
116	0x3d473559	0.04863486
117	0xbcde8e10	-0.02716735
118	0xbc9fafda	-0.019493032
119	0x3d7094d0	0.05873567
120	0x3c66fbcd	0.01409812
121	0x3cf5d87a	0.03001045
122	0x3d8417da	0.06449862
123	0x3d091e1b	0.033475976
124	0xbdbbd6ec	-0.091718525
125	0xbbb64102	-0.0055619488
126	0xbd4c0e28	-0.049818188
127	0xbd7b0e3f	-0.061292883
128	0x3dc474dc	0.09592602
129	0xbcde8ed8	-0.027167723
130	0x3d8472c8	0.06467205
131	0x3c0a3dae	0.008437557
132	0xbd597ea2	-0.053099282
133	0xbda93211	-0.082615025
134	0x3d1897ce	0.037254147
135	0x3da57f78	0.08080953
136	0x3bff6308	0.007793788
137	0xbc100c2e	-0.008791966
138	0x3d8d5c9b	0.06902429
139	0x3ce3c4ae	0.027803745
140	0x3d1b4a8c	0.03791289
141	0xbdabb933	-0.08384933
142	0x3d315655	0.043295223
143	0x3c954b7e	0.018224474
144	0x3cf9df99	0.030502127
145	0x3bec6359	0.0072139916
146	0xbd6fbeab	-0.058531445
147	0xbd8b8c6e	-0.06813894
148	0xbd31f04e	-0.043442063
149	0xbdc45bc8	-0.095878184
150	0xbd8b341c	-0.067970484
151	0x3c9ed31b	0.019387772
152	0xbda6dbf6	-0.08147423
153	0xbbd8047f	-0.006592333
154	0xbd8de4fd	-0.06928442
155	0xbd8bfb2f	-0.06835019
156	0x3dc32ae3	0.09529664
157	0xbccbd7be	-0.024883147
158	0x3d5ecf08	0.05439666
159	0x3d92a517	0.07160395
160	0x3dc2bd5c	0.09508774
161	0x3d0d301a	0.0344697
162	0x3db942fe	0.09045981
163	0xbdb67670	-0.08909309
164	0xbc4d21a1	-0.012520225
165	0x3dcb6451	0.09931243
166	0x3d41923d	0.047258604
167	0xbd95e4a8	-0.07319003
168	0xbdc62384	-0.09674743
169	0xba160fb5	-0.00057243864
170	0x3ccf7f68	0.025329307
171	0x3c4c5725	0.012471949
172	0x3d31eade	0.043436877
173	0xbc698043	-0.014251771
174	0xbd567ba2	-0.052364
175	0x3d0a1b5e	0.033717506
176	0xbdbd1926	-0.09233312
177	0xbd9e8900	-0.077409744
178	0xbd352adb	-0.044230323
179	0x3daa5691	0.083172925
180	0x3d92d16f	0.071688525
181	0xbd641008	-0.05567935
182	0xba82c4af	-0.0009976829
183	0xbdf9d712	-0.121992245
184	0x3d7a5c3a	0.06112311
185	0x3c3f56be	0.011678396
186	0xbd345838	-0.044029444
187	0xbb876e4b	-0.004133021
188	0x3dc0f185	0.09421066
189	0xbc826d70	-0.015921324
190	0xbd8d2a58	-0.06892842
191	0x3d23cfd1	0.03999311
192	0x3d354c03	0.044261944
193	0x3d673ce0	0.05645454
194	0x3dc48f59	0.09597654
195	0xbdb179dd	-0.08665822
196	0xbcfb513e	-0.030678388
197	0xbd33f3cf	-0.043933686
198	0x3cb6cdb7	0.02231489
199	0xbcca72f7	-0.024713023
200	0xbab37933	-0.0013692736
201	0xbdd117b1	-0.10209597
202	0x3d167bf7	0.036739316
203	0x3dd8cb8c	0.105856985
204	0x3c08a4b4	0.00834005
205	0x3d9d06e6	0.076673314
206	0x3dd03775	0.101668276
207	0x3d54c896	0.051949106
208	0xbeb79b8c	-0.3586086
209	0x3d938634	0.072033316
210	0x3d77987a	0.060448147
211	0xba63919a	-0.0008681059
212	0x3d78391a	0.06060133
213	0x3d963c0e	0.07335673
214	0x3b3976a8	0.0028299484
215	0x3bbbe232	0.0057337517
216	0xbc73b53a	-0.014874751
217	0x3ce822b9	0.02833687
218	0x3d8528fb	0.06501957
219	0xbdad84a5	-0.084725656
220	0x3c8919ed	0.016735995
221	0xbd577f32	-0.052611537
222	0x3d3ca9f9	0.046060536
223	0xbda19126	-0.07889013
224	0x3d8a8644	0.067638904
225	0x3da92867	0.08259659
226	0x3e8fb20d	0.2806553
227	0xbe92c8cb	-0.28668818
228	0x3d96d00f	0.07363903
229	0x3da68f00	0.08132744
230	0x3dc05328	0.09390861
231	0xbdc34b48	-0.09535843
232	0xbd1a97f6	-0.037742577
233	0x3d5654be	0.05232691
234	0x3eb13ef1	0.34618333
235	0x3cb2e307	0.02183677
236	0x3d5b53f2	0.053546853
237	0x3e48a7d2	0.19595268
238	0xbe83be1e	-0.25730985
239	0x3c1c291c	0.009531286
240	0x3d0977f9	0.03356168
241	0xbdbea376	-0.093085214
242	0xbd326edd	-0.04356276
243	0x3ca829a6	0.020527672
244	0x3d3c4c87	0.04597142
245	0xbcd27556	-0.025690716
246	0xbe2e3fc7	-0.17016517
247	0x3d9efacf	0.07762682
248	0xbd5556f4	-0.052084878
249	0xbdf8ae10	-0.12142575
250	0xbdd522d6	-0.10407035
251	0x3dfcc2bf	0.12341832
252	0xbd0e5907	-0.03475287
253	0xbbd370ac	-0.0064526405
254	0x3cc042a9	0.023469286
255	0x3b227f87	0.002479525

ode_func.net.4.bias f4 [3]
0	0x3d6f4d50	0.05842334
1	0x3be4680d	0.0069704116
2	0xbcf2d254	-0.029641308
