checkpoint/ode_euler/pushing_1_steps_ode_euler_dynamics_model.pt (torch, 47698 bytes, 6 tensors)

ode_func.net.0.weight f4 [100, 6]
0.33838454 0.06897366 -0.3629884 -0.05499159 0.21688277 -0.22499105 0.35513994 -0.007840041
-0.35968196 -0.22558813 0.21933123 -0.020846834 -0.11529201 0.059675805 0.114394076 -0.23356004
-0.26750463 0.23863114 0.1981587 -0.12625922 0.0020675194 -0.029189348 -0.016329838 0.038229965
0.0032134985 -0.07665313 0.3484392 -0.091169596 -0.2573971 0.2903017 0.22104813 0.04199089
-0.14098491 0.10993579 -0.03693801 0.11307899 -0.2618968 -0.16681631 -0.14909649 -0.22821677
-0.33089674 0.35437316 0.26390928 -0.18206438 0.27373984 0.38537323 0.17677201 -0.25934997
0.1657957 0.12509358 0.04897139 0.00104573 -0.15591209 0.05746557 0.12445133 -0.011216904
-0.17744741 0.3317743 0.5286718 0.06559039 -0.2987309 0.24900551 -0.13583697 0.30721763
-0.2789042 0.08490354 -0.3384593 0.16551262 -0.0019135908 0.15939872 0.29152328 0.29774505
0.21306376 0.29409716 0.1474046 0.036313176 0.37353888 -0.35530624 -0.015143021 0.076643996
0.10823435 0.04924027 -0.11224412 0.17498845 0.2919294 -0.33808976 0.27269366 -0.15547408
0.3638102 -0.20355427 -0.085651524 -0.19633806 0.2377254 0.36339614 -3.4047593e-05 0.23357846
0.4176783 0.16362613 -0.28332102 -0.17470312 -0.29821646 0.06683443 -0.03842421 0.17057152
0.3320626 -0.13545704 -0.0389195 -0.09050547 -0.25634483 -0.25224546 -0.12202595 0.075138666
0.050501633 0.28651944 0.31103617 0.3907517 -0.056504507 0.123395145 0.25401792 -0.07394442
-0.22063924 0.31015393 -0.09837578 -0.25329223 -0.066911064 0.21413776 0.07147523 -0.34426346
0.19887586 -0.14988112 0.2854392 0.22128187 -0.26364803 0.26719368 0.23506235 -0.009160119
-0.27066657 0.16852772 0.060558192 0.40984136 0.099137925 -0.06611631 0.2691004 -0.070903555
-0.15927817 0.18174814 -0.11086471 -0.2763226 -0.2719424 0.305567 -0.21486767 -0.07586699
0.07466129 0.26448342 0.31412476 0.148628 0.10795813 -0.13021179 0.10667311 0.23525466
-0.3626089 -0.0363414 -0.20467253 -0.37659475 0.033064 0.23363382 -0.14161117 -0.07337964
-0.25497034 0.38332093 0.26317856 -0.20820326 -0.1734068 0.2606749 0.011249845 0.24335733
0.26945055 -0.12418012 -0.40875128 0.23885286 -0.3115009 0.21078686 0.39815068 0.28410298
-0.37908515 -0.2909106 -0.032051515 -0.14120823 0.08724064 0.27282977 -0.37768668 0.32020745
0.26041374 0.33828577 0.200299 -0.3586772 0.33806562 -0.2320097 0.32530263 0.17188196
0.14478682 -0.04707597 -0.1765198 0.114981174 -0.27414966 -0.30880034 0.10609761 0.37498292
-0.31603235 -0.3048118 0.38999277 0.09801562 0.073709615 -0.249324 -0.375059 -0.16063438
-0.29200554 -0.27412635 0.30935922 -0.37180707 0.34446806 0.090479165 0.41569602 -0.0069213402
0.009961418 -0.26742974 -0.1362816 0.2362144 -0.25935104 0.15087675 0.09760876 0.29189742
-0.24034818 -0.42315176 -0.3535889 0.015074352 0.306047 0.06107695 0.022130847 0.102977745
-0.3010861 0.062493395 -0.06928954 0.3626651 0.0058845826 -0.3922254 0.3724411 0.08491235
-0.27768385 0.33657196 0.06344591 -0.062954925 -0.012695746 -0.025949787 0.42891306 0.03355326
00000000: bd40 ad3e 1042 8d3d 9ed9 b9be dd3e 61bd
00000010: 8416 5e3e 0e64 66be e7d4 b53e 8473 00bc
00000020: 3c28 b8be 9300 67be 5e98 603e fbc6 aabc
00000030: 381e ecbd 9e6e 743d 7147 ea3d 5d2a 6fbe
00000040: 5ef6 88be b95b 743e 1dea 4a3e 194a 01be
00000050: 387f 073b 801e efbc 27c6 85bc 0697 1c3d
00000060: 8f99 523b 51fc 9cbd 9f66 b23e 20b7 babd
00000070: 8dc9 83be 6da2 943e 715a 623e a4fe 2b3d
00000080: 595e 10be 0426 e13d 504c 17bd f595 e73d
00000090: 5617 86be e5d1 2abe c0ac 18be a8b1 69be
000000a0: 4c6b a9be 6670 b53e 1e1f 873e 166f 3abe
000000b0: a127 8c3e a44f c53e b903 353e 85c9 84be
000000c0: 59c6 293e 8818 003e 3996 483d e010 893a
000000d0: 6ba7 1fbe 0461 6b3d 57e0 fe3d 1bc7 37bc
000000e0: c6b4 35be 52de a93e 0957 073f 4154 863d
000000f0: 42f3 98be 4dfb 7e3e d918 0bbe a14b 9d3e
00000100: 88cc 8ebe e8e1 ad3d 8a4a adbe 247c 293e
00000110: 74d1 faba 6b39 233e 8a42 953e 0a72 983e
00000120: 632d 5a3e e793 963e 3bf1 163e 20bd 143d
00000130: 7d40 bf3e b3ea b5be 6f1a 78bc 87f7 9c3d
00000140: f9a9 dd3d 2ab0 493d 3fe0 e5bd 2c30 333e
00000150: c577 953e 1a1a adbe 819e 8b3e 9934 1fbe
00000160: 5545 ba3e 8870 50be 116a afbd d80c 49be
00000170: 4a6e 733e 0f0f ba3e 53ce 0eb8 312f 6f3e
00000180: eed9 d53e 9c8d 273e 740f 91be 60e5 32be
00000190: d4af 98be 7de0 883d b462 1dbd 4daa 2e3e
000001a0: 1c04 aa3e 40b5 0abe 0e6a 1fbd ef5a b9bd
000001b0: a13f 83be 5126 81be bee8 f9bd 4de2 993d
000001c0: cdda 4e3d adb2 923e 2240 9f3e 9b10 c83e
000001d0: 4571 67bd 98b6 fc3d a30e 823e 2c70 97bd
000001e0: 41ef 61be 7fcc 9e3e 3e79 c9bd 85af 81be
000001f0: ab08 89bd ee46 5b3e 9b61 923d 4d43 b0be
00000200: 1da6 4b3e 707a 19be 1625 923e b797 623e
00000210: e0fc 86be 9ccd 883e 2fb4 703e 5314 16bc
00000220: cf94 8abe 8892 2c3e de0b 783d bad6 d13e
00000230: d308 cb3d fd67 87bd 87c7 893e e235 91bd
00000240: d119 23be 2f1c 3a3e 090d e3bd 287a 8dbe
00000250: 093c 8bbe 4773 9c3e 4506 5cbe 2760 9bbd
00000260: 05e8 983d 5f6a 873e f6d4 a03e f031 183e
00000270: 2719 dd3d 3d56 05be 6e77 da3d 99e6 703e
00000280: e0a7 b9be b8da 14bd ad95 51be 07d1 c0be
00000290: 1e6e 073d b43d 6f3e 8502 11be 1148 96bd
000002a0: 798b 82be a442 c43e 57bf 863e 3c33 55be
000002b0: 8d91 31be 2e77 853e 4551 383c aa32 793e
000002c0: 6cf5 893e 2652 febd d947 d1be d895 743e
000002d0: 0c7d 9fbe 83d8 573e 68da cb3e f275 913e
000002e0: 7317 c2be 3cf2 94be 7348 03bd e498 10be
000002f0: 38ab b23d 58b0 8b3e 2660 c1be 3bf2 a33e
00000300: f354 853e cb33 ad3e 2e1b 4d3e 8aa4 b7be
00000310: f016 ad3e f393 6dbe 118e a63e d301 303e
00000320: ff42 143e bbd2 40bd 9bc1 34be 407b eb3d
00000330: 585d 8cbe 141b 9ebe b449 d93d c3fd bf3e
00000340: fece a1be 4b10 9cbe 22ad c73e 6abc c83d
00000350: 11f5 963d ca4e 7fbe bc07 c0be 577d 24be
00000360: c081 95be 4a5a 8cbe 5564 9e3e 7f5d bebe
00000370: 1e5e b03e 244d b93d 1cd6 d43e 69cc e2bb
00000380: 3735 233c 8dec 88be 678d 0bbe 30e2 713e
00000390: a9c9 84be 6f7f 1a3e 1ae7 c73d 9473 953e
000003a0: d51d 76be 59a7 d8be 9b09 b5be 6afa 763c
000003b0: 31b2 9c3e d32b 7a3d c04b b53c ffe5 d23d
000003c0: f527 9abe 13f9 7f3d ade7 8dbd 3daf b93e
000003d0: 75d3 c03b c5d1 c8be 9ab0 be3e 87e6 ad3d
000003e0: 942c 8ebe 2953 ac3e eeef 813d 83ee 80bd
000003f0: d101 50bc a694 d4bc 7e9a db3e 256f 093d

ode_func.net.0.bias f4 [100]
-0.043753006 -0.35400096 0.070822336 0.3689126 0.38003314 -0.0029771319 -0.06989325 0.21899292
-0.105736814 0.27117303 0.24738042 -0.30755416 0.3408701 -0.1713871 0.06298564 0.045458183
0.10703923 -0.300755 0.09453735 0.06732518 0.27451152 0.10283118 0.006009246 0.3971781
-0.44701743 -0.35300994 -0.22949818 -0.1726987 -0.24233043 -0.15956493 -0.0962216 0.404829
0.03538201 -0.16823344 -0.091646366 0.038823564 0.2996298 -0.1282106 0.028161611 0.15967323
0.28297687 0.024589473 0.042772453 0.2788175 0.099518895 -0.39223874 0.11178084 -0.15674655
-0.2676682 0.21618704 0.34446096 -0.22762309 -0.08755576 -0.42634824 0.09205366 0.29419246
0.31232607 0.3358518 0.29253608 0.37292567 0.38739285 -0.10281166 -0.031365056 0.026457136
-0.11811972 0.10382631 0.38093108 0.19476724 -0.1823029 0.36384758 -0.2778011 -0.22841163
0.105069414 -0.33570766 0.14970471 -0.16657479 0.37252685 -0.13640547 0.07151196 0.29074544
0.16456157 -0.23804769 -0.1128796 -0.36725238 -0.36860025 -0.13302353 0.13595414 -0.27874875
-0.16533819 0.06146211 -0.30340266 -0.18691383 -0.32571954 0.15489946 -0.2300965 -0.24391383
-0.02691642 0.3827382 -0.09026497 -0.031653613
00000000: 5a36 33bd 9d3f b5be 4d0b 913d 1de2 bc3e
00000010: b493 c23e fc1b 43bb 3124 8fbd ae3f 603e
00000020: 8b8c d8bd 31d7 8a3e 4b51 7d3e bd77 9dbe
00000030: 8786 ae3e 1a80 2fbe 9dfe 803d 5c32 3a3d
00000040: 6237 db3d 8ffc 99be cc9c c13d c9e1 893d
00000050: c68c 8c3e 2799 d23d 36e9 c43b ee5a cb3e
00000060: 78df e4be b8bd b4be 9201 6bbe eed7 30be
00000070: 7825 78be fd64 23be d50f c5bd bf45 cf3e
00000080: baec 103d 6345 2cbe 17b1 bbbd 7505 1f3d
00000090: 1469 993e a449 03be 2eb3 e63c 6181 233e
000000a0: 58e2 903e dd6f c93c 2b32 2f3d 2bc1 8e3e
000000b0: 90d0 cb3d 84d3 c8be 5aed e43d 2b82 20be
000000c0: ce0b 89be 2360 5d3e 305d b03e 0716 69be
000000d0: 6f50 b3bd 514a dabe a186 bc3d 65a0 963e
000000e0: 34e9 9f3e c4f4 ab3e 4ac7 953e 1df0 be3e
000000f0: 5b58 c63e eb8e d2bd a578 00bd a3bc d83c
00000100: c0e8 f1bd e3a2 d43d 6609 c33e 1071 473e
00000110: 9dad 3abe 3b4a ba3e f23b 8ebe bde4 69be
00000120: a22e d73d e0e1 abbe 314c 193e 9592 2abe
00000130: d7bb be3e e0ad 0bbe dd74 923d 96dc 943e
00000140: d482 283e c6c2 73be 6b2d e7bd 8108 bcbe
00000150: 2cb9 bcbe 5237 08be 9037 0b3e 28b8 8ebe
00000160: 6a4e 29be b2bf 7b3d 9857 9bbe 5766 3fbe
00000170: b6c4 a6be f79d 1e3e 6b9e 6bbe 8cc4 79be
00000180: d37f dcbc 43f6 c33e d7dc b8bd 38a7 01bd

ode_func.net.2.weight f4 [100, 100]
0.008490897 -0.118575804 0.06963227 0.052891072 0.0067486325 0.043041844 -0.06561659 -0.022002608
0.026127223 -0.069303945 -0.01903051 -0.090494335 -0.08743233 0.013318838 -0.055975106 0.08313332
-0.009799554 0.12307555 0.11568126 -0.07085761 0.074772365 0.020797297 -0.053001553 -0.019683102
0.10899563 -0.091394715 0.055377856 0.01649869 -0.0050414037 -0.0043493723 0.061063524 -0.033780888
0.059281904 0.045230642 -0.028398989 -0.06802291 -0.026743492 0.052959587 -0.022955954 -0.0012933841
-0.01683875 0.0007425663 -0.0589691 0.0029060682 0.0532444 -0.1695717 -0.007901868 0.03662465
0.043925278 0.042499397 0.09857023 -0.07667487 -4.1555642e-05 -0.017942838 0.057285924 0.023426913
0.023231436 -0.009006287 0.002003694 0.08873349 0.042328503 0.00936888 -0.098941326 -0.08391671
0.005131818 0.008451962 -8.425827e-05 -0.07629062 0.0326453 -0.058251675 0.037920725 -0.10425641
-0.10943348 0.060186375 0.105362706 -0.0126738725 0.063754454 -0.01977763 -0.05466893 0.02062021
-0.0133487 0.053618338 0.03930165 0.032434735 -0.007815645 0.08642801 0.10544833 -0.11021016
0.025221646 0.09178525 -0.04771516 -0.029660966 -0.31949478 0.031537935 0.016707491 0.029020272
-0.085026994 -0.0026641635 -0.051407535 -0.0346668 0.018477278 -0.009245824 0.03273958 -0.03622889
-0.024610749 -0.013831798 -0.00016559158 -0.069971725 0.0026222738 0.034223694 0.08785085 -0.037085954
-0.032848023 -0.07629388 -0.085770145 0.10098886 0.0120494645 0.009514818 -0.09571056 -0.049164332
0.070645064 0.028161105 0.024019007 -0.07862025 -0.050078936 0.08941976 0.07183933 0.03382492
-0.022382516 0.03877866 -0.020691639 0.036683 0.034549862 -0.08083636 -0.09514041 0.012631493
0.09221049 -0.041985713 -0.041083205 0.02700424 0.08876457 -0.03770884 -0.0073484285 0.06275779
0.098379076 -0.04617386 0.092887245 -0.043331783 -0.09139932 0.022782601 -0.0068559507 0.015959848
-0.015194386 -0.09578544 -0.027804853 0.09043677 0.014723221 -0.010495793 -0.0022519687 0.04532716
-0.033397667 -0.023965504 -0.03781703 0.08591918 0.046685003 0.055701423 0.026418077 0.083059095
-0.02685001 0.064407796 0.05717 -0.03541524 0.06808307 0.0152875185 -0.047936175 0.00097582594
-0.0055946102 0.08259801 -0.059439555 -0.09297811 0.0068987794 0.065511025 0.04041372 -0.078148864
0.011516059 -0.011699093 -0.011252352 -0.04175358 0.055458896 -0.009780563 0.029554736 0.077486664
-0.04684973 0.019561114 0.01251891 0.04769534 -0.009914142 -0.07085549 0.05449124 -0.03771454
0.007622312 0.20280446 0.10164984 -0.09833909 -0.017929886 -0.03280469 -0.08035234 0.03245599
0.065780886 -0.046435013 -0.06339318 -0.022991017 0.05196298 -0.018078092 -0.08040773 -0.03668367
0.031229345 -0.16092965 0.041239012 -0.06237395 0.06814716 -0.064113565 0.054871835 -0.074042216
-0.057009034 -0.0056228396 0.07513913 0.10834074 0.06343551 0.03952982 0.1057033 -0.071134165
0.009403249 0.06859528 0.026281407 -0.049269576 -0.01940459 0.08323814 0.030414699 0.07514859
-0.08013034 0.061974738 0.05353951 -0.029791143 0.0710735 -0.1168342 0.09234979 -0.05758833
-0.06535769 0.09877104 -0.05651207 -0.013283218 -0.0859639 -0.067245334 0.07423911 -0.0615986
00000000: 671d 0b3c dfd7 f2bd 5d9b 8e3d 4fa4 583d
00000010: a223 dd3b a54c 303d fe61 86bd d03e b4bc
00000020: c208 d63c 3aef 8dbd dfe5 9bbc 1855 b9bd
00000030: b90f b3bd 4137 5a3c 2746 65bd cd41 aa3d
00000040: 4f8e 20bc 090f fc3d 4cea ec3d cb1d 91bd
00000050: 4122 993d 185f aa3c 2818 59bd 753e a1bc
00000060: 1a39 df3d 272d bbbd e4d3 623d 4328 873c
00000070: 5c32 a5bb 2e85 8ebb bf1d 7a3d d45d 0abd
00000080: 95d1 723d c443 393d ffa4 e8bc 984f 8bbd
00000090: 2b15 dbbc 27ec 583d 200e bcbc c586 a9ba
000000a0: 6bf1 89bc c8a8 423a 9589 71bd bc73 3e3b
000000b0: cd16 5a3d 34a4 2dbe d676 01bc bb03 163d
000000c0: feea 333d d913 2e3d 30df c93d b707 9dbd
000000d0: 084c 2eb8 dcfc 92bc a5a4 6a3d cce9 bf3c
000000e0: da4f be3c 1b8f 13bc 6850 033b e7b9 b53d
000000f0: a760 2d3d ee7f 193c c0a1 cabd 86dc abbd
00000100: cf28 a83b 197a 0a3c d0b3 b0b8 423e 9cbd
00000110: 14b7 053d 4f99 6ebd c352 1b3d 6284 d5bd
00000120: a91e e0bd fd85 763d 67c8 d73d 13a6 4fbc
00000130: b291 823d b204 a2bc 87ec 5fbd b7eb a83c
00000140: 81b4 5abc e79e 5b3d c4fa 203d 49da 043d
00000150: 310d 00bc 2b01 b13d 4bf5 d73d ddb5 e1bd
00000160: a09d ce3c e8f9 bb3d f970 43bd 8efb f2bc
00000170: d294 a3be ec2d 013d 26de 883c ecbb ed3c
00000180: a222 aebd 3f99 2ebb b590 52bd c6fe 0dbd
00000190: a95d 973c cc7b 17bc f019 063d bf64 14bd
000001a0: 7b9c c9bc c49e 62bc a7a2 2db9 564d 8fbd
000001b0: 74da 2b3b 252e 0c3d 25eb b33d 71e7 17bd
000001c0: a68b 06bd f73f 9cbd 42a8 afbd 3fd3 ce3d
000001d0: 1e6b 453c 0ae4 1b3c e603 c4bd 8a60 49bd
000001e0: 5cae 903d 1eb2 e63c 82c3 c43c a703 a1bd
000001f0: 921f 4dbd b521 b73d 8020 933d 008c 0a3d
00000200: 8a5b b7bc 5fd6 1e3d 8381 a9bc ea40 163d
00000210: 2884 0d3d 898d a5bd fad8 c2bd 52f4 4e3c
00000220: dad8 bc3d 36f9 2bbd dd46 28bd ff37 dd3c
00000230: 33ca b53d 9674 1abd 16cb f0bb 2887 803d
00000240: f87a c93d cd20 3dbd ab3b be3d ab7c 31bd
00000250: 912f bbbd 94a2 ba3c e2a7 e0bb 3abe 823c
00000260: e0f1 78bc 282b c4bd 01c7 e3bc ea36 b93d
00000270: aa39 713c 8cf6 2bbc c495 13bb f9a8 393d
00000280: fecb 08bd 4e53 c4bc 08e6 1abd 65f6 af3d
00000290: c638 3f3d 2d27 643d b96a d83c e31a aa3d
000002a0: 8df4 dbbc 3ce8 833d 172b 6a3d 920f 11bd
000002b0: 236f 8b3d 8078 7a3c b958 44bd 92ce 7f3a
000002c0: fe52 b7bb 2529 a93d e476 73bd 4f6b bebd
000002d0: 280f e23b a52a 863d db88 253d 830c a0bd
000002e0: daad 3c3c 8dad 3fbc c95b 38bc cd05 2bbd
000002f0: de28 633d a83e 20bc c61c f23c 54b1 9e3d
00000300: 81e5 3fbd a13e a03c 1d1c 4d3c 305c 433d
00000310: ed6e 22bc af1c 91bd 3532 5f3d 907a 1abd
00000320: 96c4 f93b f9ab 4f3e cb2d d03d 0166 c9bd
00000330: b2e1 92bc 365e 06bd c58f a4bd 92f0 043d
00000340: 21b8 863d a432 3ebd 49d4 81bd a857 bcbc
00000350: 22d7 543d 8218 94bc cfac a4bd 9e41 16bd
00000360: afd4 ff3c beca 24be 3dea 283d d47b 7fbd
00000370: bd90 8b3d f94d 83bd 4ac1 603d 72a3 97bd
00000380: 4e82 69bd cc3f b8bb 8be2 993d c0e1 dd3d
00000390: 7aea 813d 05ea 213d f97a d83d caae 91bd
000003a0: 1610 1a3c af7b 8c3d 1b4c d73c e5ce 49bd
000003b0: 60f6 9ebc c278 aa3d 3f28 f93c 81e7 993d
000003c0: 601b a4bd 39d9 7d3d 3f4c 5b3d 8e0c f4bc
000003d0: fc8e 913d c546 efbd e321 bd3d bee1 6bbd
000003e0: 41da 85bd 7948 ca3d 3379 67bd dba1 59bc
000003f0: d70d b0bd ecb7 89bd ad0a 983d d04e 7cbd

ode_func.net.2.bias f4 [100]
0.013861624 0.04808038 0.055649817 0.09368788 -0.0545095 0.07786244 -0.03227878 0.004677882
0.025395904 -0.10096926 -0.08689183 -0.09436995 -0.08285462 0.05872675 -0.010218066 0.096086405
0.030632898 0.07536451 -0.10539275 -0.03094172 0.03599664 -0.03752771 -0.0066815806 -0.075383574
0.067933135 0.014206006 0.056139152 0.09310658 -0.06803517 0.07325676 0.024075894 -0.020920882
0.025072511 -0.048992757 -0.053651042 -0.00121131 -0.0074576195 -0.009827037 -0.051099915 0.0811713
-0.030484108 -0.0032061914 -0.016404126 0.05263008 0.015261854 -0.0371853 0.016157085 0.0036416247
-0.0592519 -0.04132787 -0.032299776 0.04027708 -0.052322466 -0.022106066 0.014178302 -0.031080319
0.075481884 -0.083399706 -0.0826499 -0.010907107 0.02118146 0.050265376 0.07285818 -0.029775972
0.0492463 0.09540213 -0.057445385 -0.052539386 -0.015937824 0.095793836 -0.044005267 0.0029734408
-0.07166093 0.04308386 -0.06158288 -0.086905666 0.017904725 0.026090326 0.04823142 -0.05925156
-0.051240537 -0.086246416 -0.08515124 -0.044237584 -0.04415934 0.08542489 0.07562128 0.05473017
0.104200184 -0.033350866 -0.08966746 0.011259238 -0.09374958 -0.08307047 -0.027877515 0.056821574
0.02583723 0.038056523 -0.04803978 0.029870238
00000000: dd1b 633c efef 443d 10f1 633d 6edf bf3d
00000010: 5a45 5fbd 5876 9f3d c136 04bd eb48 993b
00000020: 120b d03c f9c8 cebd 58f4 b1bd 0845 c1bd
00000030: afaf a9bd 768b 703d ad69 27bc f3c8 c43d
00000040: d8f1 fa3c b558 9a3d 27d8 d7bd 7d79 fdbc
00000050: 3671 133d a8b6 19bd 29f1 dabb b462 9abd
00000060: 8720 8b3d 4fc0 683c 2bf2 653d aaae be3d
00000070: 0656 8bbd a407 963d cf3a c53c 4562 abbc
00000080: de64 cd3c a1ac 48bd 32c1 5bbd d2c4 9eba
00000090: 0c5f f4bb 9501 21bc 254e 51bd 233d a63d
000000a0: cfb9 f9bc f71e 52bb f261 86bc a492 573d
000000b0: db0c 7a3c 9d4f 18bd dd5b 843c 53a8 6e3b
000000c0: 1fb2 72bd 6a47 29bd c54c 04bd 94f9 243d
000000d0: 1550 56bd c817 b5bc 1c4c 683c 279c febc
000000e0: 3f96 9a3d 77cd aabd 5a44 a9bd b9b3 32bc
000000f0: be84 ad3c 11e3 4d3d ab36 953d bdec f3bc
00000100: 7db6 493d 3162 c33d da4b 6bbd 8a33 57bd
00000110: 0a90 82bc 8f2f c43d de3e 34bd 0fde 423b
00000120: f7c2 92bd b478 303d 543e 7cbd 99fb b1bd
00000130: eeac 923c 61bb d53c 4f8e 453d c4b1 72bd
00000140: 99e1 51bd f6a1 b0bd c663 aebd 7832 35bd
00000150: 6de0 34bd 3ff3 ae3d 54df 9a3d be2c 603d
00000160: e866 d53d eb9a 08bd 93a3 b7bd ab78 383c
00000170: c8ff bfbd da20 aabd 635f e4bc bdbd 683d
00000180: 99a8 d33c 28e1 1b3d 5cc5 44bd 6eb2 f43c

ode_func.net.4.weight f4 [3, 100]
0.075060606 -0.08688489 0.07547507 0.058449954 -0.14000806 -0.00572058 -0.07622613 -0.025068209
-0.016171448 -0.02500753 0.09846953 -0.093303725 0.010004288 0.035815854 0.03450461 0.02374169
-0.074564815 0.09251078 -0.029962659 0.084924944 -0.0159401 0.014507329 -0.08005913 -0.023878306
-0.053335685 0.092014484 -0.072729364 0.08175607 0.049809743 -0.11731186 0.095896184 0.084422246
0.014360534 -0.07601282 -0.039266333 0.03876493 0.0677755 0.03391336 0.07459445 0.045713942
0.011586685 -0.03348533 0.06481273 -0.07203816 -0.07546784 -0.0501052 0.0523207 0.08048864
0.045745738 -0.088941716 0.042279504 0.02263073 0.0786277 0.06778184 -0.03632974 -0.08704607
0.07170101 -0.02803818 0.07284353 0.010834569 -0.03999607 0.027611313 0.05219013 0.044167504
-0.0032339846 -0.08922958 0.017965449 0.049864557 0.034852993 -0.07872138 -0.08046464 0.055290215
-0.03825435 -0.025161346 0.05851909 0.020311698 0.007665737 0.09305388 -0.091382205 -0.03483166
0.058922548 0.025172032 -0.007062887 -0.08877537 -0.08818592 -0.021004267 -0.047452774 -0.08720665
-0.08701627 -0.063304774 0.033566404 0.04527588 -0.034507185 0.07429476 0.016577842 0.031608053
0.065110534 0.004668148 0.024875848 -0.07188037 0.061882474 0.06861779 0.0015167672 -0.08763088
-0.018225715 0.092449 -0.06686919 -0.048383534 0.012918315 -0.013251725 0.0673607 -0.055048257
0.03073466 -0.050331585 0.095186785 -0.034052033 -0.061915487 -0.08016899 -0.051486958 -0.003614145
0.024544396 -0.005007062 -0.07204216 -0.09010521 0.06704621 0.09277368 -0.030579569 0.06139679
-0.011466238 -0.11197435 -0.03226578 0.038519498 -0.08060161 0.053606838 0.04685082 -0.021254307
-0.08232954 0.0014312004 0.03600084 -0.044059716 0.06366544 0.03351077 -0.02060535 0.042334016
-0.047839534 -0.0906988 -0.0015423759 0.006820445 -0.0497476 -0.06414725 0.052881613 -0.029288813
-0.04314023 0.005427547 0.04065073 -0.062470138 -0.005335428 0.06851653 0.046968378 0.036628615
0.043847535 0.030488174 -0.01388808 0.025279118 -0.054264124 0.04292646 0.03661982 -0.08966557
0.054945808 -0.037861053 -0.059686672 0.08811129 0.06678642 0.081624754 -0.008220385 -0.029705532
0.043667864 0.07551466 0.01127724 -0.035485815 -0.022153437 0.033151265 0.09298358 0.068462096
0.087006055 0.07679788 0.039596647 0.052937854 -0.055000268 -0.02838635 -0.024989938 -0.005023168
-0.020210596 0.03620724 -0.041142754 -0.05564633 0.09467138 -0.011967625 0.09261905 -0.058275748
-0.12411023 0.002489468 0.086266585 0.045540005 0.12861952 -0.13428575 0.074283324 -0.008239166
-0.29706845 -0.017505717 0.08627336 -0.06554498 0.031946126 0.012075578 0.15226573 0.030668091
0.05747166 0.07349882 -0.044433385 -0.13604994 0.28361765 0.21835242 -0.08593556 -0.078341044
0.2609547 -0.046686426 0.05990866 -0.0054655285 -0.03764847 0.2414229 -0.053925198 0.18540807
0.030618947 0.091562316 0.09992211 0.23201396 0.003535734 -0.43059903 -0.123115234 0.04809232
0.15094954 0.24603501 -0.085959464 -0.2534858 -0.020494007 0.08304909 -0.18829319 0.12141296
-0.19839896 0.08600388 0.31164443 -0.017265294 -0.02816352 0.38104308 -0.11705912 -0.14148079
00000000: 60b9 993d b5f0 b1bd ac92 9a3d 3869 6f3d
00000010: 465e 0fbe b473 bbbb 721c 9cbd d85b cdbc
00000020: fc79 84bc 97dc ccbc 65aa c93d 0616 bfbd
00000030: 06e9 233c a5b3 123d b554 0d3d ef7d c23c
00000040: 70b5 98bd 4b76 bd3d 4074 f5bc 21ed ad3d
00000050: d094 82bc 26b0 6d3c 0bf6 a3bd 709c c3bc
00000060: 8576 5abd 1772 bc3d 22f3 94bd ba6f a73d
00000070: 4d05 4c3d 3341 f0bd 3865 c43d 92e5 ac3d
00000080: 7248 6b3c 9cac 9bbd bcd5 20bd fac7 1e3d
00000090: e2cd 8a3d bce8 0a3d fac4 983d 8b3e 3b3d
000000a0: 14d6 3d3c ea27 09bd 89bc 843d be88 93bd
000000b0: e28e 9abd 1c3b 4dbd 3b4e 563d 3ad7 a43d
000000c0: e25f 3b3d 1327 b6bd 462d 2d3d 1564 b93c
000000d0: 8f07 a13d 35d1 8a3d 7ece 14bd 3645 b2bd
000000e0: fbd7 923d 53b0 e5bc fd2e 953d 7a83 313c
000000f0: ebd2 23bd 1f31 e23c 51c5 553d fce8 343d
00000100: 42f1 53bb ffbd b6bd 472c 933c c73e 4c3d
00000110: 03c2 0e3d ad38 a1bd a5ca a4bd fe77 623d
00000120: 98b0 1cbd 2b1f cebc b7b1 6f3d b864 a63c
00000130: dd30 fb3b 0893 be3d 9826 bbbd a5ab 0ebd
00000140: c558 713d 9435 ce3c ca6f e7bb dccf b5bd
00000150: d29a b4bd 2411 acbc d75d 42bd 6699 b2bd
00000160: 9635 b2bd efa5 81bd ed7c 093d 3373 393d
00000170: 6857 0dbd da27 983d 41ce 873c 7277 013d
00000180: ac58 853d 43f7 983b 6fc8 cb3c 0436 93bd
00000190: 7a78 7d3d 7c87 8c3d 43ce c63a d277 b3bd
000001a0: 184e 95bc e755 bd3d b7f2 88bd d02d 46bd
000001b0: 57a7 533c c31d 59bc 68f4 893d 487a 61bd
000001c0: 41c7 fb3c 7e28 4ebd 4af1 c23d 257a 0bbd
000001d0: 189b 7dbd a42f a4bd fde3 52bd 4bdb 6cbb
000001e0: 5411 c93c 4812 a4bb d78a 93bd 1589 b8bd
000001f0: 864f 893d 2100 be3d 0182 fabc 337b 7b3d
00000200: e3dc 3bbc cf52 e5bd 1f29 04bd 9fc6 1d3d
00000210: 7512 a5bd d892 5b3d a5e6 3f3d 831d aebc
00000220: 649c a8bd 1e97 bb3a 9e75 133d f677 34bd
00000230: 0763 823d 9742 093d 8dcc a8bc 6f66 2d3d
00000240: 63f3 43bd 4bc0 b9bd 8c29 caba 0a7e df3b
00000250: 24c4 4bbd a25f 83bd 649a 583d 18ef efbc
00000260: cfb3 30bd 90d9 b13b 6181 263d b0e0 7fbd
00000270: d0d4 aebb 6552 8c3d ea61 403d e307 163d
00000280: 7999 333d 56c2 f93c d48a 63bc 2716 cf3c
00000290: 0f44 5ebd a8d3 2f3d aafe 153d 95a2 b7bd
000002a0: db0e 613d 3114 1bbd 037a 74bd b173 b43d
000002b0: 52c7 883d e12a a73d cbae 06bc 0459 f3bc
000002c0: 13dd 323d 6ea7 9a3d 2cc4 383c 9359 11bd
000002d0: 207b b5bc 9fc9 073d 2d6e be3d db35 8c3d
000002e0: 3b30 b23d 3548 9d3d 1830 223d 5dd5 583d
000002f0: f647 61bd 7e8a e8bc b3b7 ccbc 6399 a4bb
00000300: b190 a5bc 0b4e 143d 4e85 28bd 68ed 63bd
00000310: 12e3 c13d db13 44bc 0eaf bd3d 8db2 6ebd
00000320: 812d febd 5826 233b 89ac b03d 2888 3a3d
00000330: d6b4 033e 3482 09be db21 983d 91fd 06bc
00000340: 5b19 98be 2668 8fbc 16b0 b03d 723c 86bd
00000350: f1d9 023d a5d8 453c 8ceb 1b3e a63b fb3c
00000360: 6767 6b3d 8d86 963d c8ff 35bd ad50 0bbe
00000370: 5536 913e c797 5f3e fcfe afbd 4571 a0bd
00000380: db9b 853e 443a 3fbd c862 753d 2d18 b3bb
00000390: 4835 1abd 9137 773e abe0 5cbd 9ddb 3d3e
000003a0: 96d4 fa3c 0685 bb3d f7a3 cc3d 1195 6d3e
000003b0: c6b7 673b 7a77 dcbe d723 fcbd 74fc 443d
000003c0: 8492 1a3e 9af0 7b3e 840b b0bd e4c8 81be
000003d0: 0ce3 a7bc a415 aa3d eecf 40be 5ca7 f83d
000003e0: 1929 4bbe cd22 b03d dc8f 9f3e f26f 8dbc
000003f0: 2fb7 e6bc 1418 c33e b1bc efbd 57e0 10be

ode_func.net.4.bias f4 [3]
0.062475663 -0.029320823 0.08220479
00000000: 7be6 7f3d 3932 f0bc fc5a a83d
