checkpoint/residual/pushing_3_steps_residual_dynamics_model.pt (torch, 47496 bytes, 6 tensors)

net.0.weight f4 [100, 6]
0	0x3d9752c7	0.073888354
1	0x3ea0a7c5	0.31377998
2	0xbebff6f8	-0.3749311
3	0x3e485330	0.19562984
4	0xbed40953	-0.41413364
5	0x3e181703	0.14852528
6	0x3e454bfb	0.19267265
7	0x3e4a5d33	0.19762115
8	0x3ecfd941	0.4059544
9	0xbec64408	-0.3872378
10	0x3d054cb5	0.032543857
11	0x3e86fbeb	0.26364073
12	0x3d31c214	0.043397978
13	0x3e1dad2d	0.15398093
14	0xbc104066	-0.008804416
15	0x3e65f0c2	0.22455123
16	0x3ebd0450	0.36917353
17	0xbdedbba7	-0.116080575
18	0x3d0a305f	0.033737537
19	0x3e91c5ec	0.28471315
20	0x3e91b8ea	0.2846139
21	0xbdd66886	-0.10469155
22	0xbe7d2e5d	-0.24724717
23	0x3dd3be4e	0.10339032
24	0x3e3828a6	0.17984256
25	0xbe5ad0c9	-0.21368708
26	0xbe4fd0aa	-0.20294443
27	0xbedd7119	-0.4325035
28	0xbe06956e	-0.1314294
29	0x3ea72b0c	0.3265003
30	0x3da54081	0.08068944
31	0xbe92c0be	-0.28662676
32	0x3ebf6e5c	0.37388885
33	0xbe8be9c4	-0.27326787
34	0x3e80ccf5	0.2515637
35	0xbe92b485	-0.2865335
36	0x3e484e14	0.19561034
37	0xbe3706df	-0.17873715
38	0xbe815924	-0.2526332
39	0xbe82d60b	-0.25553927
40	0x3e32a846	0.17447004
41	0xbec25c9e	-0.37961286
42	0xbe6002e3	-0.21876101
43	0x3e0a18d0	0.13486028
44	0x3ec0a897	0.37628624
45	0xbe9c659a	-0.30546266
46	0x3dbfa4c3	0.09357598
47	0xbeb682bc	-0.35646617
48	0xbebcf466	-0.3690521
49	0xbe2dc8b7	-0.16971098
50	0x3cc609f1	0.024174662
51	0x3e8dab4f	0.2766976
52	0x3cb4fd2a	0.022093374
53	0xbe9f16b2	-0.31072003
54	0x3ccee19f	0.025254069
55	0x3d8fc2e5	0.07019595
56	0xbe657886	-0.22409257
57	0xbe6b5af6	-0.22983918
58	0xbc3d0492	-0.011536734
59	0xbe21b470	-0.15791488
60	0x3eaae864	0.33380425
61	0xbe351db6	-0.17687115
62	0x3e68b418	0.2272495
63	0xbea2b0ea	-0.317756
64	0xbe7f8d51	-0.24956252
65	0xbeb871f4	-0.3602444
66	0x3e8d1472	0.2755466
67	0x3e4154de	0.1888003
68	0xbe403291	-0.1876929
69	0x3e282991	0.16422106
70	0x3ec14c44	0.377535
71	0x3e46e568	0.19423449
72	0x3ec55bbb	0.38546547
73	0xbecc2120	-0.39869022
74	0x3e9704a6	0.29495734
75	0xbed2cd5c	-0.41172302
76	0xbb8bb782	-0.004263819
77	0x3e322a92	0.17399052
78	0x3e911859	0.28338888
79	0xbe7f93bc	-0.249587
80	0xbcc0f364	-0.023553558
81	0xbe9a0ab8	-0.30086303
82	0xbecaa724	-0.39580643
83	0x3d981e81	0.07427693
84	0xbe35eb5a	-0.17765561
85	0xbed294d8	-0.41129184
86	0xbcfdf03d	-0.030998344
87	0x3e98d104	0.29846966
88	0x3f05e351	0.5229998
89	0x3dbfb350	0.09360373
90	0x3eb59fbb	0.35473427
91	0xbe994692	-0.29936653
92	0x3d6f232b	0.05838315
93	0xbd2d13e6	-0.042255305
94	0xba09465c	-0.00052366196
95	0xbe769206	-0.24079141
96	0xbd251ea1	-0.040312413
97	0xbb4255d9	-0.002965322
98	0xbe803d3a	-0.25046712
99	0xbe05a272	-0.13050249
100	0xbe94fa81	-0.2909737
101	0x3dde6675	0.10859386
102	0x3e4bf5ef	0.19918035
103	0xbe3a597b	-0.18198197
104	0x3e77b6fc	0.24190897
105	0xbdd9f003	-0.10641482
106	0xbeb8aeba	-0.36070806
107	0xbc1ea850	-0.0096836835
108	0xbeb858d7	-0.3600528
109	0xbb5f24a6	-0.0034048944
110	0x3d6d6ef6	0.05796715
111	0x3cbbd0ac	0.022926651
112	0x3e1d5bd6	0.15367064
113	0x3d851646	0.06498389
114	0xbe829689	-0.25505474
115	0xbec605c0	-0.38676262
116	0xbea26a08	-0.3172152
117	0x3cb57459	0.022150205
118	0xbea47ba7	-0.3212559
119	0x3e962bfa	0.29330426
120	0xbde314dd	-0.11087964
121	0xbe9e44e3	-0.3091193
122	0xbe8b35ba	-0.27189428
123	0x3db9ebf5	0.09078208
124	0xbe54de8a	-0.20788017
125	0xbe8aec8c	-0.27133596
126	0x3e43b4d1	0.19111945
127	0xbee0ad9f	-0.43882462
128	0x3e094e8c	0.1340887
129	0xbe631fbf	-0.22180079
130	0xbe9d2e16	-0.30699223
131	0x3e01f091	0.12689425
132	0x3e3dbf32	0.18529966
133	0x3e73603c	0.23767179
134	0xbeb2340f	-0.34805343
135	0x3d684957	0.056710567
136	0x3ea46ed8	0.32115817
137	0xbd4730b0	-0.048630416
138	0xbd944341	-0.0723939
139	0xbcb94640	-0.022616506
140	0x3dec9921	0.115526445
141	0x3bce02d9	0.0062869606
142	0xbca15970	-0.019695967
143	0xbe3c1227	-0.183663
144	0x3e314c65	0.17314298
145	0x3e785af8	0.24253452
146	0x3ea27a39	0.31733873
147	0x3e46f03f	0.19427584
148	0x3e7095aa	0.23494592
149	0xbdb69a19	-0.089161105
150	0xbea21de5	-0.31663433
151	0x3e6c85ff	0.2309799
152	0x3dc906a5	0.098157205
153	0xbc3961aa	-0.011314789
154	0xbe888c99	-0.26669767
155	0xbebd2815	-0.36944643
156	0x3ea42356	0.3205821
157	0xbe7a9553	-0.24471025
158	0xbec51251	-0.38490537
159	0xbe16ac13	-0.14714079
160	0x3e9b1017	0.30285713
161	0x3e4ba404	0.19886786
162	0xbe1b8ab6	-0.15189633
163	0xbe14a78d	-0.1451704
164	0xbebc0294	-0.36720717
165	0xbe3b1227	-0.18268643
166	0x3e110ee4	0.14165837
167	0x3ea990a4	0.33118165
168	0xbd5fe3be	-0.05466055
169	0xbd70ceb9	-0.058790896
170	0x3ec8d71a	0.3922661
171	0x3eaf0619	0.3418434
172	0x3e75783f	0.23971651
173	0xbdf4b7a9	-0.11949093
174	0x3ebd49d6	0.36970395
175	0x3e02bff0	0.12768531
176	0x3ec96594	0.3933531
177	0x3ed8e179	0.42359522
178	0x3d04f95f	0.03246438
179	0xbed6e3d2	-0.41970688
180	0x3d406649	0.046972547
181	0x3d720238	0.059084147
182	0xbe979185	-0.2960321
183	0xbe9fd49b	-0.31216893
184	0xbe26e3e6	-0.16297874
185	0x3c4ce405	0.012505536
186	0x3d88b54e	0.06675206
187	0xbe589d42	-0.21153739
188	0x3df0dab5	0.11760465
189	0xbe3d95c1	-0.18514158
190	0xbe56e7b7	-0.2098683
191	0xbee0e8ac	-0.43927515
192	0xbec43602	-0.38322455
193	0x3e8bb34d	0.27285233
194	0xbdec3c93	-0.11534991
195	0x3dc274c7	0.0949493
196	0x3ea51262	0.32240587
197	0xbe4687b9	-0.19387712
198	0xbebec52f	-0.37259814
199	0xbdca5400	-0.09879303
200	0xbebbb8c7	-0.3666441
201	0xbccb6c40	-0.024831891
202	0xbdb7ed91	-0.08980859
203	0x3e85ca46	0.26130885
204	0xbda87ef6	-0.08227341
205	0xbd4d7f74	-0.050170377
206	0x3e411f6a	0.1885964
207	0xbd3142ec	-0.043276712
208	0xbe4718ef	-0.19443105
209	0x3eacc489	0.33743694
210	0x3e5eaa1f	0.21744584
211	0xbe8ad8a5	-0.27118412
212	0x3e555c04	0.20835882
213	0xbc142fb0	-0.009044573
214	0x3ea58918	0.32331157
215	0xbe0dcc62	-0.13847497
216	0x3e36ebe6	0.17863426
217	0x3e05967f	0.13045691
218	0x3dcc2868	0.099686444
219	0xbe03aac9	-0.12858118
220	0xbe06a63f	-0.13149355
221	0x3e581fa0	0.21105814
222	0x3e33029a	0.17481461
223	0x3e01e3b4	0.12684518
224	0x3ca813a7	0.020517183
225	0x3e2ac700	0.16677475
226	0x3de19797	0.110152416
227	0x3eba4182	0.36378103
228	0xbebe5e0d	-0.3718113
229	0xbea989c4	-0.3311292
230	0xbeb9f6d1	-0.36321118
231	0xbeb119d0	-0.34590006
232	0xbd10230f	-0.035189684
233	0xbefa5cd8	-0.4889896
234	0x3e2a951d	0.16658445
235	0x3eb06abb	0.3445643
236	0xbe352157	-0.176885
237	0x3df7c77d	0.12098596
238	0xbede76f0	-0.43450117
239	0xbd9f2962	-0.07771565
240	0xbcf51650	-0.029917866
241	0xbc24d9d8	-0.010061704
242	0x3eb683f4	0.35647547
243	0x3e60923e	0.21930787
244	0x3e86b24e	0.2630791
245	0xbe487b66	-0.19578323
246	0x3e3d0ac6	0.18461141
247	0x3e39cd7b	0.18144791
248	0x3eb36d7c	0.35044467
249	0xbd0fe01c	-0.035125837
250	0x3e9911a0	0.2989626
251	0x3df63a0c	0.1202279
252	0x3df80bb4	0.12111607
253	0x3dfcf273	0.12350931
254	0x3d8bc12b	0.06823953
255	0xbee93b9f	-0.455533

net.0.bias f4 [100]
0	0xbe21a220	-0.15784502
1	0x3ebf44d6	0.37357205
2	0x3e198bf3	0.14994793
3	0x3e6fa14a	0.2340137
4	0x3e04031c	0.12891811
5	0x3c548600	0.012971401
6	0xbd87f9da	-0.06639452
7	0xbe0cbf9c	-0.13744968
8	0xbded6d10	-0.11593068
9	0x3eced136	0.4039399
10	0xbe9dfce7	-0.30857012
11	0x3e808cbc	0.25107372
12	0xbe7ea896	-0.24868998
13	0x3d17e32c	0.037081882
14	0xbda4a84f	-0.08039915
15	0xbe02501a	-0.12725869
16	0x3ba65400	0.0050759315
17	0xbec69917	-0.38788673
18	0x3eb6d53d	0.35709563
19	0x3e8ecd38	0.27890944
20	0x3ed3f6ce	0.41399235
21	0x3ea47f03	0.32128152
22	0x3eb9687d	0.3621253
23	0x3dc090be	0.094026074
24	0xbde265a8	-0.11054546
25	0xbe01603d	-0.12634368
26	0xbe955344	-0.2916509
27	0x3e092566	0.13393173
28	0xbe8bfe9c	-0.2734269
29	0x3ebe83d6	0.37209958
30	0x3b7cae83	0.0038556166
31	0x3dd5f6b2	0.10447444
32	0x3b737f7e	0.0037154849
33	0xbe9a5457	-0.3014247
34	0xbdd8b9a0	-0.1058228
35	0x3da9da40	0.08293581
36	0x3e0c722f	0.13715433
37	0x3e7b6488	0.24550068
38	0x3c1dcfb7	0.009632043
39	0xbe638e24	-0.22222191
40	0xbdc6a7f2	-0.09700002
41	0xbdf4e756	-0.11958186
42	0xbe07e6bf	-0.13271616
43	0x3ea51e0f	0.32249495
44	0xbeb30385	-0.34963623
45	0x3e6eb5ae	0.23311493
46	0xbec62d12	-0.3870626
47	0x3e41b37f	0.18916129
48	0x3e36e7c3	0.17861848
49	0x3e5d1758	0.21590936
50	0x3e98495c	0.2974347
51	0xbe7a4f21	-0.24444248
52	0xbe3c6599	-0.18398131
53	0x3e4b2dfd	0.19841762
54	0x3c0c3786	0.00855816
55	0xbe4bcce1	-0.19902374
56	0xbea7fea3	-0.3281146
57	0xbe83553c	-0.25650966
58	0x3e0a9e78	0.13537014
59	0xbec122a9	-0.37721756
60	0xbea1a3fa	-0.31570417
61	0x3e2e4f0a	0.17022339
62	0x3dad51ac	0.08462843
63	0x3e9ba12a	0.30396396
64	0xbed3a8d4	-0.41339743
65	0xbe983954	-0.29731238
66	0xbe34e4c0	-0.17665386
67	0x3ecd9ff2	0.4016109
68	0xbe8a04bf	-0.26956746
69	0x3d9dcae0	0.07704711
70	0x3d96ba7d	0.073597886
71	0xbec6e70e	-0.38848156
72	0x3eb376d1	0.35051587
73	0x3ea321ee	0.31861824
74	0x3ebbe17a	0.36695462
75	0x3d8bf9ae	0.06834732
76	0x3da38d9a	0.07985993
77	0x3dd427d0	0.10359156
78	0xbea05098	-0.31311488
79	0x3d8b1fd5	0.06793181
80	0x3e241e36	0.1602715
81	0xbebc68ae	-0.36798614
82	0xbe6d379c	-0.23165745
83	0x3e602f71	0.21893097
84	0xbdd9cd1a	-0.10634823
85	0x3df3fd0a	0.11913498
86	0x3e526e23	0.20549826
87	0xbcb61a58	-0.022229359
88	0xbe8dda34	-0.27705538
89	0x3ec7b441	0.3900471
90	0x3e9f0ae2	0.3106299
91	0x3eaec2ed	0.34133092
92	0xbdfe2d9f	-0.12411045
93	0xbe35e824	-0.17764336
94	0x3b4fefd3	0.003172864
95	0x3ea6c7d1	0.32574323
96	0xbd98bdcc	-0.07458076
97	0xbe8a50d3	-0.2701479
98	0x3e9ce029	0.3063977
99	0x3dbf8663	0.09351804

net.2.weight f4 [100, 100]
0	0xbdab5c2e	-0.08367191
1	0xbd0080b2	-0.031372733
2	0x3d996ccf	0.07491457
3	0x3b64ca76	0.0034910715
4	0xbd5aa000	-0.053375244
5	0x3d168a67	0.036753085
6	0x3deb9dfb	0.11504742
7	0x3d545b7d	0.051845063
8	0xbd711169	-0.058854494
9	0xbd53c25e	-0.051699035
10	0xbd93a6a4	-0.072095186
11	0x3d2bff5a	0.04199157
12	0xbd8f67bb	-0.07002207
13	0x3d1bc8ed	0.038033415
14	0x3d98eaf3	0.07466688
15	0x3d7fa18a	0.062409915
16	0x3d341f43	0.043975126
17	0xbc201843	-0.009771409
18	0xbd3aefde	-0.04563891
19	0x3d5e50b2	0.054276176
20	0xbd72e5f9	-0.05930135
21	0xbdc9e371	-0.09857834
22	0xbd404ae0	-0.046946406
23	0x3d882e6a	0.06649478
24	0x3d1a2e5d	0.03764187
25	0x3d675f4f	0.056487378
26	0x3d13ad87	0.03605416
27	0xbc3ae162	-0.0114062745
28	0x3c538d6d	0.0129121365
29	0x3db4a75c	0.08820984
30	0xbcb6c7ff	-0.022312162
31	0xbc49d4f3	-0.012318837
32	0xbb2ce660	-0.0026382431
33	0x3cdc5b2e	0.026898947
34	0xbbb42069	-0.0054970277
35	0xbd8f63ab	-0.07001432
36	0xbc8e717c	-0.017388098
37	0xbd2ee0c0	-0.042694807
38	0x3d2cecd2	0.042218037
39	0x3d3ea352	0.046542473
40	0xbd5a1f6b	-0.05325262
41	0xbd8c5838	-0.06852764
42	0xbdd73e7f	-0.10509967
43	0x3dda6ffe	0.10665892
44	0xbdb602ea	-0.088872746
45	0xbcb686fb	-0.02228116
46	0xbb7e6fc3	-0.003882394
47	0x3ca4279d	0.02003842
48	0x3db71a0c	0.08940515
49	0x3e01ff1b	0.12694971
50	0x3d8cf8b3	0.06883373
51	0xbd1bb057	-0.038009968
52	0x3d9e299e	0.077227816
53	0xbdae3f87	-0.08508211
54	0xbbb4088a	-0.005494182
55	0xbdd1750c	-0.10227403
56	0x3d00df7d	0.031463135
57	0x3d07aa7b	0.033121567
58	0xbe0c1ada	-0.13682118
59	0x3daa86ee	0.08326517
60	0x3c21ea37	0.009882501
61	0xbd7b2656	-0.061315857
62	0x3c8f4e9c	0.017493539
63	0xbce2afb3	-0.02767167
64	0x3d479e43	0.048734915
65	0x3d6eef4b	0.058333676
66	0xbcf57ca3	-0.029966658
67	0xbd08c0bc	-0.03338693
68	0x3dcf5b11	0.101247914
69	0xbdcfaa06	-0.10139851
70	0x3d621b07	0.055201557
71	0x3d95f13b	0.07321402
72	0xbd71d729	-0.059043083
73	0xbad6cec4	-0.0016388525
74	0x3d2f61c7	0.042817857
75	0xbd7db431	-0.061939422
76	0x3d024b2c	0.03180997
77	0xbce29cae	-0.027662601
78	0xbc2d8848	-0.010591574
79	0x3dabb05e	0.08383249
80	0x3d8628bf	0.065507405
81	0x3dab5ebc	0.083676785
82	0x3dd55aea	0.10417731
83	0x3d6d43d5	0.057926018
84	0x3d8ad3e3	0.067786954
85	0xbe06c5d6	-0.13161406
86	0xbde8e7a1	-0.11372305
87	0x3d9401c0	0.07226896
88	0xbce5a5fa	-0.028033245
89	0xbd4554ab	-0.04817645
90	0x3b25db86	0.0025307848
91	0x3d881eb8	0.06646484
92	0x3dd953ce	0.106116876
93	0x3d511460	0.05104482
94	0xbcc8e982	-0.024525408
95	0x3c561d0e	0.013068451
96	0xbc7a7a09	-0.0152878845
97	0x3da6ad6f	0.081385486
98	0xbd73b5f9	-0.059499715
99	0xbd022205	-0.031770725
100	0x3cd5057b	0.02600359
101	0x3d9b2d55	0.07577006
102	0x3cf6109e	0.03003722
103	0x3dac9e51	0.08428634
104	0xbd510caa	-0.051037468
105	0x3d58f7e2	0.052970774
106	0x3d1d3780	0.038383007
107	0xbd625fd3	-0.055267166
108	0xbd7a6998	-0.06113586
109	0x3dd45275	0.1036729
110	0xbd9435b1	-0.07236803
111	0xbd797c1a	-0.060909368
112	0xbde35e84	-0.11102012
113	0x3d4afee3	0.049559485
114	0x3d888706	0.06666379
115	0x3dd09912	0.10185446
116	0x3c57707c	0.013149377
117	0x3dbd5300	0.092443466
118	0x3db29bdf	0.08721136
119	0xbd83fca5	-0.064446725
120	0x3dbee2cf	0.09320604
121	0xbdd39a5a	-0.103321746
122	0xbda10be5	-0.07863597
123	0xbd35caeb	-0.04438297
124	0x3d7bb580	0.06145239
125	0x3d87fc5a	0.06639929
126	0xbda1087f	-0.078629486
127	0x3dbe0ada	0.092794135
128	0xbd9c9ae5	-0.07646731
129	0x3d2f7f0e	0.04284578
130	0xbda897bd	-0.08232067
131	0xbd9124b4	-0.07087079
132	0xbc881956	-0.016613644
133	0xbdb47f15	-0.088133015
134	0x3d1e919a	0.038713075
135	0xbd35d7f3	-0.0443954
136	0xbd995a98	-0.074879825
137	0x3a126ba4	0.0005585498
138	0xbd46b373	-0.04851098
139	0xbccc6617	-0.024951024
140	0xbd530aae	-0.051523857
141	0xbc3222a7	-0.01087252
142	0x3d684665	0.05670776
143	0x3d996ec7	0.07491832
144	0xbd7a822e	-0.061159305
145	0xbd0eb95b	-0.034844737
146	0xbca8e3bf	-0.02061641
147	0xbd53e402	-0.051731117
148	0xbdb8cb37	-0.09023135
149	0xbd0783f6	-0.033084832
150	0xbcced3a4	-0.025247402
151	0x3d96f7af	0.07371461
152	0xbd24c1fb	-0.040224057
153	0x3c92bee1	0.017913284
154	0xbd5b5d83	-0.053555977
155	0xbd13857d	-0.036015976
156	0x3d85528d	0.06509886
157	0x3ceb950b	0.028757593
158	0x3b54d8dc	0.003247789
159	0xbc645eb1	-0.013938592
160	0xbd4c913b	-0.04994319
161	0x3cca52d8	0.024697706
162	0xbd7ae4d4	-0.061253384
163	0x3d19dcde	0.03756415
164	0xbd5b2335	-0.053500373
165	0xbd66ea0e	-0.056375556
166	0x3d92d24e	0.07169019
167	0xbd6ee0dc	-0.05831991
168	0xbd08ec0e	-0.033428244
169	0xbdaa0387	-0.08301454
170	0x3cf50dad	0.029913748
171	0x3c033875	0.008009066
172	0x3cee842b	0.029115757
173	0x3c374ba5	0.011187469
174	0xbba2ed7b	-0.0049721575
175	0x3d422fc8	0.04740885
176	0x3d81b2b9	0.06332917
177	0xbd8779da	-0.06615038
178	0xbda677eb	-0.08128341
179	0x3ddedc44	0.10881856
180	0xbd1e233e	-0.03860783
181	0xbc0fb4c1	-0.008771122
182	0xbda6fc92	-0.08153643
183	0x3db42655	0.08796374
184	0xbd4fdf51	-0.05075008
185	0xbccfd655	-0.025370756
186	0xbca59afd	-0.020215506
187	0xbcd7b919	-0.026333379
188	0x3b165e09	0.0022944233
189	0xbcd1dff3	-0.025619483
190	0x3da50c06	0.08058934
191	0x3dc09046	0.09402518
192	0x3cf6ab73	0.03011105
193	0x3caf1176	0.02137063
194	0x3d47da0b	0.048791926
195	0xbd585e2b	-0.05282418
196	0xbd5916f6	-0.053000413
197	0x3c84ea8b	0.01622512
198	0x3dcd45fe	0.100231156
199	0xbc008a76	-0.007845512
200	0x3db3c5bb	0.087779485
201	0x3d016451	0.03158981
202	0x3ce93632	0.028468225
203	0xbca317b3	-0.019908762
204	0x3dbad341	0.09122325
205	0xbd7b16be	-0.061300986
206	0xbdaf7adc	-0.085683554
207	0xbd5afdc9	-0.053464685
208	0x3d8579cb	0.06517371
209	0x3db774d3	0.08957829
210	0xbd80ebcd	-0.062949754
211	0x3d3b76d0	0.045767605
212	0x3d8f559b	0.0699875
213	0xbd99740f	-0.074928395
214	0xbd1faa2a	-0.03898064
215	0xbda24cad	-0.07924781
216	0x3da707fd	0.081558205
217	0x3b801146	0.003908309
218	0x3dbb97d2	0.09159817
219	0xbdcab78c	-0.0989829
220	0x3d2b2adf	0.041788932
221	0x3d8127f2	0.06306447
222	0xbac67196	-0.0015140052
223	0x3c489eed	0.012244922
224	0xbcb10367	-0.021608068
225	0x3d0a4cc7	0.033764627
226	0xbdc2eece	-0.09518205
227	0x3c541525	0.012944494
228	0x3c82d8af	0.015972463
229	0xbcf9cd4e	-0.030493405
230	0x3d9e104f	0.07717954
231	0xbdb5cc83	-0.08876898
232	0xbc92372c	-0.017848574
233	0xbcd4bcd8	-0.025968954
234	0xbd873e09	-0.06603629
235	0x3d2d8f93	0.04237325
236	0x3db5c6ce	0.088758096
237	0x3d0f06b5	0.034918506
238	0xbc582dd4	-0.01319452
239	0xbd8bd18f	-0.068270795
240	0xbd857ec6	-0.06518321
241	0xbcdc360e	-0.026881244
242	0x3d4821cc	0.048860356
243	0x3d465d25	0.048428673
244	0x3d3a93ea	0.045551218
245	0x3d36d5de	0.044637553
246	0xbcc4511b	-0.023964455
247	0xbccf4e16	-0.025305789
248	0xbcf543fd	-0.029939646
249	0x3d897d8e	0.06713401
250	0xbd9de064	-0.07708815
251	0xbd509fd6	-0.05093368
252	0x3d94f711	0.07273687
253	0x3cff643c	0.031175725
254	0x3d5a1a74	0.053247884
255	0x3d2e584d	0.04256468

net.2.bias f4 [100]
0	0xbd5cabfe	-0.053874962
1	0x3d8c4c06	0.06850438
2	0x3dcacd47	0.09902435
3	0xbd2947c6	-0.041328214
4	0x3b86cb88	0.0041136183
5	0xbd36f9fa	-0.04467199
6	0x3d5f4793	0.054511618
7	0xbd0e8783	-0.034797203
8	0x3c8b8838	0.017032728
9	0x3d91047a	0.07080932
10	0x3d978289	0.073979445
11	0x3d9cafdf	0.07650732
12	0x3d35239f	0.044223424
13	0xbdaca86e	-0.08430563
14	0xbc1237f1	-0.00892447
15	0xbd9b9383	-0.07596495
16	0x3c5f6aa8	0.013636269
17	0xbd0bcfda	-0.03413377
18	0x3d61cd53	0.055127453
19	0xbcbd2218	-0.023087546
20	0x3de69bd9	0.11260194
21	0xbdb3615b	-0.087588035
22	0xb7a9636b	-2.0192665e-05
23	0x3c252acf	0.010081007
24	0xbcb86c80	-0.022512674
25	0xbd02dd81	-0.031949524
26	0x3c0dde4d	0.008658958
27	0x3d4f5188	0.050614864
28	0xbd2d7f91	-0.042357985
29	0x3ce544cd	0.027986908
30	0xbd043f8e	-0.032287173
31	0x3d906209	0.07049949
32	0xbb49f7af	-0.0030817797
33	0x3d1c4ea2	0.038160928
34	0x3d47a21d	0.048738588
35	0x3dd0f815	0.10203568
36	0x3d64cbf5	0.05585857
37	0x3d161dac	0.03664939
38	0xbd89b504	-0.06723979
39	0xbd84b658	-0.06480092
40	0xbc8bfafe	-0.017087456
41	0x3d8060ae	0.0626844
42	0xbc204311	-0.009781615
43	0x3bbeaecc	0.0058191773
44	0xb9922795	-0.0002787678
45	0x3d82a8ef	0.06379878
46	0x3b6f7ad6	0.0036541722
47	0xbcf7abc5	-0.030233273
48	0x3d8205a9	0.06348736
49	0xbdb0340a	-0.08603676
50	0xbaf066f4	-0.0018341229
51	0x3cf45f12	0.02983049
52	0x3d988fff	0.0744934
53	0xbca3ff0e	-0.02001908
54	0x3dc4fd24	0.09618595
55	0xbd49d3d5	-0.049274284
56	0x3bd3c869	0.0064630997
57	0xbd6370c0	-0.05552745
58	0x3bf3f3b7	0.0074448246
59	0x3cb90f74	0.022590376
60	0x3a2307cb	0.0006219118
61	0x3d9353f0	0.07193744
62	0xbb4184ca	-0.0029528611
63	0xbd9fce03	-0.078029655
64	0x3cbf601a	0.023361254
65	0xbdc07058	-0.09396428
66	0xbd869664	-0.065716535
67	0x3d788102	0.060669906
68	0x3d348e83	0.044081222
69	0xbdc42499	-0.09577293
70	0x3cb13198	0.021630093
71	0x3dbb7325	0.091528215
72	0x3c619a17	0.013769648
73	0xbdcc792c	-0.09984049
74	0xbd47284a	-0.048622407
75	0x3d9372ef	0.07199656
76	0xbd25acdf	-0.040448066
77	0xbc6506e5	-0.013978695
78	0xbd62ee4e	-0.055403046
79	0x3d87cfc5	0.06631426
80	0x3d421009	0.047378574
81	0xbc087bce	-0.008330299
82	0xbd9bde01	-0.07610703
83	0xbd0c0114	-0.034180716
84	0x3c419f75	0.011817803
85	0xbd56b741	-0.05242086
86	0xbd427c07	-0.047481563
87	0xbdc484fa	-0.09595676
88	0xbdb7131a	-0.0893919
89	0x3d9772dc	0.073949546
90	0xbcdc0fe3	-0.026863044
91	0xbcde3df7	-0.027129157
92	0xbccc7f71	-0.024963113
93	0x3d8809c6	0.06642489
94	0x3de2ae72	0.11068429
95	0xbc06094e	-0.008180929
96	0x3ca8cbbe	0.020604964
97	0xbdaf7d2c	-0.085687965
98	0x3b9f5761	0.0048627113
99	0xbd774f57	-0.0603784

net.4.weight f4 [3, 100]
0	0x3b9115f1	0.0044276644
1	0x3d5efde2	0.05444134
2	0xbd83bfb1	-0.064330466
3	0xbd602ce4	-0.05473031
4	0xbd892221	-0.06695963
5	0xbd8a2b51	-0.06746543
6	0x3d4c3e09	0.04986385
7	0xbc837b99	-0.016050147
8	0xbccb2e87	-0.02480246
9	0xbdb9f051	-0.0907904
10	0xbd82e27b	-0.06390854
11	0x3cec3fb3	0.028838968
12	0xbdc22556	-0.094797775
13	0x3d4c060c	0.049810454
14	0xbd8ccd13	-0.06875052
15	0x3d2424df	0.040074226
16	0x3d60a376	0.05484339
17	0x3cdfa989	0.02730252
18	0xbd649c40	-0.055813074
19	0x3c19aa72	0.009379016
20	0x3ba29d12	0.004962572
21	0x3d095cfb	0.03353594
22	0x3cefc41c	0.029268317
23	0x3da6482c	0.081192344
24	0xbda3abf9	-0.079917856
25	0xbdc58023	-0.09643581
26	0xbd58f77f	-0.052970406
27	0xbd2b8e68	-0.041883856
28	0xbdca0b7a	-0.0986547
29	0xbb55ab12	-0.0032603187
30	0xbdc33edd	-0.095334746
31	0xbdc407c7	-0.09571796
32	0xbd621f2d	-0.055205513
33	0x3be93456	0.0071168346
34	0x3d4d5d22	0.050137646
35	0x3cc61442	0.024179582
36	0xbdbd2088	-0.092347205
37	0x3cc7c3a4	0.02438528
38	0xbd85662b	-0.065136276
39	0xbd91be6b	-0.071163975
40	0xbdb95ef6	-0.090513155
41	0xbcac311d	-0.021019513
42	0xbb0951c0	-0.0020953268
43	0xbcd8f480	-0.026483774
44	0x3cc7c2fc	0.024384968
45	0x3d9839ed	0.074329235
46	0xbd97d226	-0.074131295
47	0xbcebfa22	-0.028805796
48	0xbcae0d3f	-0.02124655
49	0x3dfb0641	0.12257052
50	0x3d9ad0d7	0.07559364
51	0x3d9f1e7c	0.07769486
52	0x3c41439e	0.011795906
53	0xbd5ad744	-0.05342795
54	0xbd255baa	-0.04037062
55	0x3d8a271c	0.06745741
56	0xbd9903f9	-0.07471461
57	0x3d6e86bb	0.058233958
58	0xbdd59547	-0.10428863
59	0xbd1c1b9b	-0.038112264
60	0xbd8b6f64	-0.068083555
61	0xbce6cf81	-0.028175117
62	0xbd46aa50	-0.048502266
63	0x3b82bdd3	0.003989914
64	0xbd048ef6	-0.0323629
65	0xbd914dd0	-0.0709492
66	0xbd2d041f	-0.04224026
67	0xbd1ff1ad	-0.03904884
68	0xbdb736e6	-0.08946018
69	0xbdcde386	-0.10053162
70	0xbd6b47e0	-0.057441592
71	0x3b098e0f	0.0020989215
72	0x3dbfde71	0.09368599
73	0x3cd75ba6	0.026288819
74	0x3b91007f	0.004425108
75	0x3db3f459	0.0878684
76	0x3dc0e7db	0.09419223
77	0xbce08bc8	-0.027410403
78	0x3ca62443	0.020280963
79	0xbd038d63	-0.03211726
80	0x3d9282bc	0.07153842
81	0x3d9b92fa	0.07596393
82	0xbd592b62	-0.05301989
83	0x3da01b64	0.07817724
84	0xbdb49e4e	-0.08819257
85	0x3b4242c0	0.0029641837
86	0xba457d64	-0.0007533638
87	0xbdd5b6c1	-0.10435248
88	0xbd1e8d5f	-0.03870904
89	0xbd333c4f	-0.043758687
90	0x3d423507	0.047413852
91	0x3d13d2e7	0.036089804
92	0xbd716082	-0.058929928
93	0x3d317c1e	0.043331258
94	0x3d0858fb	0.033287983
95	0x3c978cb8	0.018499717
96	0xbd58d142	-0.05293394
97	0x3cd2dbed	0.025739634
98	0x3da20dca	0.07912786
99	0xbdb1c4ac	-0.0868009
100	0x3da2cd24	0.07949284
101	0x3d7daa8f	0.061930235
102	0xbca994a4	-0.02070076
103	0x3d92a715	0.071607746
104	0x3d581572	0.052754827
105	0xbd02f624	-0.03197302
106	0xbd435893	-0.047691893
107	0xbcccc984	-0.024998434
108	0xbd7f3381	-0.062304977
109	0xbdc2642a	-0.09491761
110	0x3d5a61bd	0.053315867
111	0x3d5f40df	0.054505225
112	0xbd9b9772	-0.07597245
113	0x3da9aa7a	0.08284469
114	0xbcfac23b	-0.030610194
115	0x3d1c30de	0.03813254
116	0x3d4c541a	0.049884893
117	0xbd7afc3e	-0.061275713
118	0x3ce9952e	0.028513517
119	0x3d4c6de2	0.04990948
120	0x397c78b7	0.00024077563
121	0xbcb6023a	-0.022217859
122	0x3da04d1c	0.078272074
123	0xbdb53f58	-0.088499725
124	0x3d4c6134	0.049897388
125	0x3d865f3a	0.06561132
126	0xbc81a8cf	-0.015827565
127	0xbd9d5985	-0.0768309
128	0x3d0bd0d3	0.034134697
129	0xbd89092a	-0.06691201
130	0x3ce71eb2	0.028212879
131	0x3c585593	0.013203996
132	0x3d9175ca	0.071025446
133	0xbd149d68	-0.036282927
134	0x3a617d4a	0.00086017384
135	0xbdddc8e0	-0.108293295
136	0x3c1f2914	0.009714384
137	0x3d6082f5	0.05481239
138	0x3d82219f	0.06354069
139	0x3d83ca7d	0.06435106
140	0xba73f8ae	-0.00093067705
141	0x3d8bbb2a	0.06822808
142	0x3d1b540d	0.037921954
143	0xbd9e6ee9	-0.07735998
144	0x3dc2b72e	0.09507595
145	0xbd9492f9	-0.07254595
146	0x3dae9d40	0.08526087
147	0x3cae0938	0.02124463
148	0xbd99f080	-0.07516575
149	0xbd57bc43	-0.052669775
150	0xbca2e00b	-0.019882223
151	0xbca0365e	-0.019557174
152	0xbdbc02e0	-0.09180236
153	0xbdb6dd51	-0.089289315
154	0x3d1007b2	0.03516359
155	0x3d75a7e4	0.059974566
156	0xbdb4ef9a	-0.08834763
157	0x3c35326f	0.011059388
158	0xbd3ba01f	-0.045807
159	0x3cc3e93f	0.023914931
160	0xbc6ff9f0	-0.014646992
161	0xbd00ef84	-0.03147842
162	0x3ce10aba	0.027470935
163	0xbd88d8ad	-0.066819526
164	0x3d657ebf	0.056029078
165	0x3bafd708	0.00536621
166	0xbde8c22b	-0.113651596
167	0x3d8d37d9	0.06895418
168	0x3d0be8b7	0.03415748
169	0xbdb62a7c	-0.08894822
170	0x3c7966eb	0.015222291
171	0xbdd3a219	-0.10333652
172	0x3dcc982b	0.09989961
173	0x3dc51e68	0.0962494
174	0xbd780857	-0.06055483
175	0xbd992ae6	-0.07478885
176	0x3db66151	0.089052804
177	0x3dc0169e	0.09379314
178	0x3db0a80c	0.086258024
179	0x3bd989e3	0.006638752
180	0x3d3e27e4	0.04642476
181	0xbd0ef838	-0.03490469
182	0x3c83b59d	0.01607781
183	0xbd1e849a	-0.038700677
184	0xbc30b448	-0.01078517
185	0xbb73b26c	-0.0037185205
186	0xbd3e984f	-0.04653197
187	0x3d620962	0.05518473
188	0x3c817ead	0.015807474
189	0xbd0a77f8	-0.033805817
190	0x3d20ab49	0.03922585
191	0xbc78fede	-0.015197484
192	0xbda061fb	-0.07831188
193	0xbd22d2de	-0.03975188
194	0xbbd5df8d	-0.0065268935
195	0x3d90627e	0.07050036
196	0x3d01034c	0.031497285
197	0xbc9b8909	-0.018986242
198	0xbdb49abe	-0.08818577
199	0xbd0e4dc3	-0.034742128
200	0x3dd0c620	0.10194039
201	0xbcef482c	-0.029209219
202	0x3d976d1d	0.073938586
203	0x3dacec19	0.084434696
204	0x3e0f7431	0.14009167
205	0xbd632ca1	-0.055462483
206	0xbd51b5da	-0.051198818
207	0x3d768e2e	0.060194187
208	0x3d2e5478	0.042561024
209	0x3d596efa	0.05308435
210	0xbd76a87e	-0.06021928
211	0x3e151e81	0.14562418
212	0xbd98d50c	-0.074625105
213	0x3d22ff6c	0.03979437
214	0xbbae1176	-0.00531214
215	0xbc0a7b30	-0.008452222
216	0x3ce30122	0.027710501
217	0xbe1552d8	-0.14582384
218	0xbdb38b73	-0.08766832
219	0xbc8dd9ce	-0.017315771
220	0x3e5435e8	0.20723689
221	0x3da913b4	0.08255711
222	0x3d5301f4	0.051515535
223	0xba80005d	-0.0009765733
224	0xbbd0709b	-0.00636108
225	0x3d831e9e	0.06402324
226	0xbd4ebafa	-0.050471283
227	0x3cdef375	0.027215699
228	0xbd334ce7	-0.04377451
229	0x3c1f60fc	0.009727713
230	0xbd8f1ccc	-0.069879144
231	0x3d83b92d	0.06431804
232	0x3d99dfaf	0.075133674
233	0xbc22f730	-0.009946629
234	0xbde03b85	-0.109488524
235	0x3d670eb2	0.0564105
236	0x3e0cdafd	0.13755412
237	0xbb0ba552	-0.0021308255
238	0x3dd41ecb	0.10357436
239	0xbdec3e21	-0.11535288
240	0x3d3f3d84	0.046689525
241	0xbda7db79	-0.08196158
242	0x3ddfdfc7	0.10931354
243	0x3dc8e44d	0.0980917
244	0xbd38c897	-0.045113172
245	0x3d12bde2	0.035825618
246	0x3b2921dd	0.0025807538
247	0xbd3c70c3	-0.046005975
248	0x3caaf0a7	0.020866705
249	0xbd13fd31	-0.036130134
250	0x3dbc2cfd	0.09188268
251	0xbd891765	-0.06693915
252	0xbd9736d8	-0.073835075
253	0xbd45ebbf	-0.048320528
254	0xbbad3a44	-0.005286487
255	0x3d95a43f	0.07306718

net.4.bias f4 [3]
0	0xbdba3e17	-0.09093874
1	0x3c52fa13	0.012877005
2	0xbd00f549	-0.031483922
