checkpoint/residual/pushing_2_steps_residual_dynamics_model.pt (torch, 47496 bytes, 6 tensors)

net.0.weight f4 [100, 6]
00000000: 56c8 9b3d 155d e33c 63a4 a3be 2a2c c8be
00000010: fe9a 9c3d 0091 c23d 8cde 8e3e 0b85 ba3e
00000020: c243 ca3e 9c66 71be 3292 b73e 20bc ffbd
00000030: 7348 bb3e c263 64bd cd27 623e 8636 9c3e
00000040: d40a 373e 1d96 4f3e d6fb 3e3d 55b7 b8be
00000050: cec9 18be a8a9 d53d f01e 323e 2e71 243d
00000060: 09cb 763e 7f40 4f3e e362 9cbe dd9c d03c
00000070: 34ab f83d e0e4 58be ca18 c3bd 9a49 8fbe
00000080: 9372 693c 340e 013e e7a0 babe 77d7 823e
00000090: 7a83 a8be 019a 87be 659d c93d 24df 363e
000000a0: e1c8 debd 0c7d 413e bf1a 643e dcea 243e
000000b0: b68f 173e 97fa 96be f646 d73e abcb 72be
000000c0: 3e1f 483e 008d a2be 1ab7 88be c279 60be
000000d0: 695e efbc 524b 083e 3e7c a9be 2692 b63e
000000e0: 7a0c e3bc 3c0f 94be ab3c b53e a0d9 8dbe
000000f0: 3a2c cb3e eeeb a7bd 8f37 91be a5d5 943e
00000100: 5b88 dc3d f55a d13d 7a7d c6be 5fd8 9b3e
00000110: 11c5 b8be f295 87be 815f 4f3d ffd5 25be
00000120: 7e5c 313e 83a2 ebbe c438 e73d f72b eb3e
00000130: b073 b53e 0b37 153e de4b fbbd d581 a4be
00000140: 446e c83d 6319 85be 58dc 7dbe 034b 28b8
00000150: 80bf aabd 6af8 c7ba c851 93bd dff7 99be
00000160: f25a f5bc 0893 423e 5e3e c9be bfab 513d
00000170: e3e8 e1be 3d44 febd 68ab d5bc 5dc0 f9be
00000180: 7a58 3c3d e563 0b3e 0cec 8e3e d45c 1bbe
00000190: 9652 20bf 2f37 d43d b820 94bd 1667 1fbe
000001a0: 299b 5bbe 444a 513e 846b 623d 95f7 b6bd
000001b0: e3cc a0bd b303 e63d 9cd3 c53e f770 d83e
000001c0: df5e 063d ed1b c7be 0b91 f6bd 7e9c 853e
000001d0: ede9 6abe 00fe a4be b722 87be 0f17 803d
000001e0: b46c c0be 9afe be3e 5d82 a23e 330d 95be
000001f0: d22a 5f3e 3fa4 b23e a5e4 2d3e 1cc8 c6be
00000200: ea99 c13e 84bf b2be 47ed 77bd 24fa fe3d
00000210: 11a0 97be 6030 6e3e 1ba5 413e 396a 613e
00000220: 4f53 ca3e 3802 e83d acc5 0dbe 20c5 79be
00000230: 06b3 023e 67e4 5f3e 0df3 a43e b51d be3e
00000240: 10c6 c6be 0600 8c3e 33a3 09be 8113 93be
00000250: 8711 bf3e a71d abbe 92f4 603d 331b 20bd
00000260: 320f 7ebe c97f a3be c046 8fbe 312e 813d
00000270: 48ba 75be 8ff3 b9be a732 42be dbdf 73be
00000280: 35b4 92bd 994f 38be 4a6f 3c3e d80f 023e
00000290: 0bd0 2ebe 82eb 2cbe db6c c93e 8b98 803e
000002a0: dda3 b43e d942 47bc 71c7 8cbe 1e19 00be
000002b0: 021c 75be 7c35 913e 64a1 da3c ac09 0ebe
000002c0: cbc4 ec3d 4020 7cbe b8c6 a6be f3c6 a8be
000002d0: 99c3 f0bd df31 be3e e3c9 d8be 12b6 a23e
000002e0: 6f60 5ebe 39d4 073e faf0 bb3e 5f74 adbe
000002f0: ce0e 8bbc c1c6 2e3e 32f9 c73e 8a26 88be
00000300: 72d3 edbd 7674 e2bd 3970 c9be a4aa 3c3d
00000310: 7cd8 3e3e 196f 7cbd fa55 833e 00e1 863d
00000320: 67a0 7fbd 5906 9fbc 5d1d 1abc 05c4 bc3e
00000330: 2b54 ee3d b509 4e3e 45f5 18bc 6ef7 17bc
00000340: d6bc adbd e294 d0be cc9a 8e3c 7bee 563e
00000350: b658 bcbe b523 823e 938b 393e 31cc 7fbe
00000360: 3c3e 91bd f7c3 0e3e 300c babe 5908 fd3e
00000370: f837 62be f438 e1be bf26 793c 6c53 983d
00000380: 55e0 b6bc 11d5 3b3e b75f c2be 539b d1be
00000390: 8945 883e d396 63bd 83ce ddbe 552f d93e
000003a0: 1347 cbbc 3cc0 a23e 9acd a13e 6f9c e3be
000003b0: ce2f ab3e 546d 97be e8e4 b13e f655 8bbe
000003c0: fbcb 96be ac0f 563e 54ee aabd a3d4 aa3e
000003d0: 0212 fa3e 5cdf cc3e 101d edbd 60b9 aabe
000003e0: b894 d6be 7644 b13e 3587 acba 170a e63d
000003f0: 9011 753e c655 4d3d 5079 35bd c427 b13e
0.076065704 0.027754346 -0.31961355 -0.39096195 0.0764675 0.09500313 0.27904165 0.3642963
0.3950482 -0.23574299 0.35853726 -0.12487054 0.36578712 -0.0557592 0.22085495 0.30510348
0.17875224 0.20272107 0.04662689 -0.3607737 -0.14920732 0.1043275 0.17394614 0.040147
0.2410089 0.20239447 -0.30544195 0.025465423 0.121420294 -0.21181059 -0.095262125 -0.2798584
0.014248508 0.12603074 -0.36450884 0.25555012 -0.3291281 -0.26484683 0.09844474 0.17858559
-0.10878158 0.18895358 0.22275828 0.16105217 0.14800915 -0.2948806 0.42046326 -0.23710506
0.19543168 -0.317482 -0.26702195 -0.21921447 -0.029219823 0.13309982 -0.33102602 0.35658377
-0.02771591 -0.28917873 0.35397848 -0.27705097 0.3968218 -0.08199297 -0.283627 0.29069248
0.10768195 0.10222427 -0.38767606 0.30438516 -0.3608785 -0.26481587 0.05062819 -0.16194914
0.17320439 -0.46022424 0.11290124 0.4593198 0.35439825 0.14571778 -0.1227033 -0.32130304
0.097866565 -0.2599593 -0.24791086 -4.012418e-05 -0.08337307 -0.0015256528 -0.07193333 -0.30071923
-0.029950593 0.190014 -0.39305395 0.05118918 -0.4412299 -0.12415359 -0.02608271 -0.48779574
0.045982815 0.13612325 0.27914464 -0.1517213 -0.62626016 0.10362088 -0.07232803 -0.15566668
-0.21445908 0.20438486 0.055278316 -0.08933941 -0.07851579 0.11231174 0.38638008 0.42273685
0.03280532 -0.38888493 -0.120393835 0.26095957 -0.22940798 -0.32225037 -0.26393673 0.06254398
-0.37582934 0.3730362 0.31740084 -0.29111633 0.21793678 0.34890935 0.16981752 -0.38824546
0.3781274 -0.3491174 -0.06052902 0.12450054 -0.29614308 0.23260641 0.18910639 0.22013177
0.39516684 0.11328548 -0.13844937 -0.24391603 0.12763605 0.21864472 0.32216683 0.3713204
-0.38822985 0.27343768 -0.13441162 -0.28725818 0.3731806 -0.3342106 0.05492074 -0.03908844
-0.24810484 -0.3193343 -0.27983665 0.063076384 -0.23996842 -0.36318633 -0.18964635 -0.23815863
-0.07163278 -0.17999114 0.18401828 0.12701356 -0.1707155 -0.16886714 0.39340863 0.2511638
0.35281268 -0.012161934 -0.27495912 -0.12509581 -0.23936465 0.28361118 0.026688285 -0.13870877
0.11560973 -0.24621677 -0.32573485 -0.32964286 -0.11756057 0.37147424 -0.42341527 0.31779534
-0.21716474 0.1326455 0.36707288 -0.33877847 -0.016974833 0.17068006 0.39057308 -0.26591903
-0.116125956 -0.110573694 -0.39343432 0.046061173 0.1863727 -0.06162939 0.25651532 0.06585884
-0.06240883 -0.019412206 -0.009406415 0.368683 0.116371475 0.2012089 -0.009335821 -0.0092753
-0.08483283 -0.4073859 0.017407797 0.2098941 -0.3678643 0.25417867 0.1811965 -0.24980237
-0.070919484 0.13941942 -0.36337423 0.4942043 -0.22091663 -0.43988764 0.015206992 0.074377865
-0.022323767 0.18342997 -0.3796365 -0.40938815 0.2661555 -0.05556376 -0.43321618 0.42418924
-0.024814164 0.31787288 0.31602174 -0.44455287 0.3343491 -0.29575598 0.34744954 -0.2721402
-0.294525 0.20904416 -0.08346239 0.33365354 0.48841864 0.4001416 -0.11577809 -0.33344555
-0.41910338 0.34622544 -0.0013162853 0.11232393 0.23932481 0.050130628 -0.044305146 0.3460065

net.0.bias f4 [100]
00000000: a6e7 61bd 1532 39be 9f5d b93e ba7b c7be
00000010: 9245 a23e b649 a93d d7cb 76bc 4fc8 1bbe
00000020: 1858 b63e 89b6 743e 491c cbbe 1dcb 8dbe
00000030: 2e51 a5be 571a 3b3e cf6c 473e 51b5 70be
00000040: 0d59 b1be aff2 c43d e512 a93e e705 c3be
00000050: a4b1 20bd 080f 85be 16ba 333e 524a a83e
00000060: be58 5a3c 329c ecbc 0245 ee3d 9d20 b7be
00000070: fc95 503d 3c84 1c3e 478c b23e 01d7 483e
00000080: 5034 44be 2b7b c13e d0d0 5d3c 2b89 5a3e
00000090: 94b8 e3bc 9db2 873e ea6b 3ebe 9e10 a43d
000000a0: 8e4b 013d f089 8ebe 6c93 8b3b 1d4f c63e
000000b0: 6246 58be b6cf cf3e a514 4fbe de81 83be
000000c0: c7e3 47be 58dc 773e 20f8 33be a154 b9be
000000d0: 6df3 d73d db61 4a3e dcaf 0fbd 4cb8 88be
000000e0: 2b8d 953d 4a9d 4a3e e1f9 83bd 0365 8c3c
000000f0: 469b 0fbe 18d6 993e 7ac1 a53d cad3 c0bc
00000100: e967 25bd 79d9 21bd 6a36 d4be 903d 603e
00000110: 887f cabe 6c5c 303e 4409 b03e e303 b53a
00000120: 6722 16bd ee00 bb3e 5ca8 1dbd e68d 40bc
00000130: 8a54 c53d ee77 e83d bf6d 163e 1d3d 02be
00000140: 2d08 c1bd c31b 9fbd be07 b53d 752d 433e
00000150: 7998 833e b428 bfbe 0f72 98bd f76e 343e
00000160: a2f6 a0be 45d6 5cbe c6ac d53e 6b9b 873e
00000170: a8c5 bebd 5d24 47bc 29ba 713d d219 44bd
00000180: 99ee ad3e 47fa 923e 7def c73e a93d be3e
-0.055152558 -0.18085511 0.3620424 -0.38961583 0.31693703 0.08266012 -0.015063248 -0.1521313
0.35614085 0.23897757 -0.39670017 -0.27694026 -0.32288498 0.18271767 0.19475101 -0.23506667
-0.34638253 0.09616601 0.33022228 -0.3809044 -0.03923191 -0.2598803 0.17551455 0.32869202
0.013326822 -0.028883073 0.11634256 -0.3576707 0.050924286 0.15284818 0.34872648 0.19613267
-0.1916058 0.37789282 0.013538554 0.21341388 -0.027797975 0.2650346 -0.18595853 0.08010982
0.031566195 -0.27839613 0.0042595174 0.38732234 -0.21120599 0.40588158 -0.20222719 -0.25685018
-0.19520484 0.24205148 -0.17575121 -0.3619738 0.10544477 0.19763891 -0.035079822 -0.26703107
0.07302316 0.19786564 -0.06444145 0.01713801 -0.14024076 0.30046153 0.08093543 -0.023538489
-0.0403823 -0.03951404 -0.41447765 0.21898484 -0.39550424 0.17222756 0.3438207 0.0013810362
-0.036653902 0.36524147 -0.038490638 -0.011752581 0.09635265 0.11351 0.14690302 -0.12718625
-0.094253875 -0.07768967 0.08839367 0.19060309 0.25702265 -0.37335742 -0.0744363 0.17620455
-0.31438166 -0.21566112 0.41733378 0.26485762 -0.09315044 -0.012154666 0.059015427 -0.047876187
0.33971098 0.2870657 0.39049903 0.37156418

net.2.weight f4 [100, 100]
00000000: c24c 723d 5f06 7b3d 6624 ad3d c5fe 7f3d
00000010: 2c07 8bbb 8838 4c3d ea44 b13d 4360 ae3c
00000020: a67e 1bbd ccf8 3dbd 3c79 063d 7cdc 99bb
00000030: 2344 c5bd c2ec 5dbd 7740 6cbd 4b3f 4f3c
00000040: 4869 efbb 2d22 a53d e20d 9fbc 85bc 84bd
00000050: 807e b0bc 7942 4dbd 65a2 bd3d be85 01bd
00000060: 6e1a 663c 4144 983d f834 c8bd 13c5 11bd
00000070: 5df6 8a3d 1d04 9c3d 7d9f 013c a712 63bd
00000080: aea4 a0bb 258b 9d3d bea2 b2bd e043 39bd
00000090: 9c5f 163c 04f6 3fbd 239c b0bd 4a1d 7cbd
000000a0: 8bbf 23bb ddc2 ac3d 3a0f d23c 2dc6 3d3d
000000b0: 1f52 20bd 71ea 87bd d534 4f3d bac9 c9bd
000000c0: 53df 0f3d 4132 45bd 8a37 c43d 5615 09bd
000000d0: 898b a5bd 2c0d 38bd fa25 73bc 5c1c 6dbd
000000e0: 6116 903d 8bf8 26bd 6996 343d a216 bebd
000000f0: 0842 003d c4fb e33c 65f5 833d ba2e 743d
00000100: 00f7 f03c 33d7 003c 1b3f d0bd cbcf b73d
00000110: 48df 993d e74b fd3c 30fc 85bd dc3d f13b
00000120: 17e3 873d 1fb5 003d 445f 00bd 95fe d6bb
00000130: 1871 7e3d 5ef3 a33d 6d01 f9bc e25d 3dbc
00000140: 3ded 773d 868f 2c3d 8047 1dbd 5890 93bd
00000150: 95e2 12bd f402 94bd 8a3c 36bc 96e0 b6bc
00000160: 6928 aebd c913 9e3b f0eb 543c e7a5 32bd
00000170: cf3e 41bd 2ae6 9abd e8c9 7abd 73be 91bd
00000180: a105 b6bd f510 973d 5992 7cbd a54c 26bd
00000190: f5d2 403d 40a9 81bd 44d1 fdbc e9f9 933d
000001a0: 3449 26bc dee5 c5bd 1c84 8ebc 9947 3a3d
000001b0: 0cd1 5b3d 082c 0f3d a7ea bc3c 39bc 953d
000001c0: 79cf 5a3b c2d1 903d 4d79 ecbc ea99 3f3d
000001d0: e7d1 923d 11bb 463d 0b3b 5f3d 160b 1cbd
000001e0: 890c cfbc 1e0c d7bc 73fc d9bd 42a2 723c
000001f0: b5cd 3bbc 4287 e03c acbd fd3c 50b6 86bd
00000200: 32a6 12bc 76be 713b c683 b2bb 7c68 cd3c
00000210: 8fd2 fc3c 01cd 25bd 3b13 ea3d d353 d53c
00000220: 8e2c d3bd 7ac7 f13d 85ad 3ebd 3803 573d
00000230: 9d0e 19be 67d5 843c d98c 32bd cd8e c73c
00000240: 841f a93d 6f71 5cbd 8285 a83d 6db2 933d
00000250: f6e4 053d 9054 1d3e cbdc e23d ba74 b23c
00000260: e49c be3c a0f4 963d 13eb 83bd c38d dc3d
00000270: f8be a3bd 2a03 043d 3ca2 843d 9640 21bd
00000280: 1659 4e3c 4562 d5bd 0d8c 2dbd c1ad d33d
00000290: 280f 46bb da08 ee3d 5b41 a93c 9838 b13d
000002a0: f58c 523d e3bb 753d e147 26bd b369 8c3d
000002b0: efec b13d 7120 55bd 8712 1e3c 7e76 593d
000002c0: bbd5 f5bd e631 dabd 1707 663d da48 5fbd
000002d0: afb0 ac3d 2a77 fbbc 2c1a 2fbc 4b1c 763d
000002e0: 49c7 553b 13fa 20bc b57e 0bbe 272a 3b3d
000002f0: 7cb7 85ba 8a71 2d3d 5242 653d 237e 043d
00000300: a24e 7e3d 48ae c1bc 714b 0e3c 771b a8bd
00000310: 6087 06bd 74ee 963d cad5 c1bd 6c90 2c3d
00000320: 9e77 c1bb 2d1b bc3c eac5 a33d 9c7a a43d
00000330: 874b 0dbd 6d3e cf3d ff11 d23d 6d53 9e3d
00000340: e152 94bc d081 27bd f004 34bc 832f 713d
00000350: 361e 7f3d 3f51 773d cf00 07bd b52b 4d3d
00000360: 6e6b c6bd a8b6 4dbc 5bfa 76bd e057 be3d
00000370: b513 413d 0b4c 89bd 18e7 14bd 06c7 0ebd
00000380: e482 cdbd 58b6 d9bc c688 95bc 7124 82bd
00000390: 0f5e 98bd a003 d6bb 41ac e53c 7f78 82ba
000003a0: 1598 36bd be35 a0bd 3357 bdbd 56a5 2a3d
000003b0: 8191 833d 5ef0 0abd 700f 913d 97d4 5fbc
000003c0: 01bc 803d 1c8f a9bd 9159 51bd 4d97 c3bd
000003d0: ed2a 5ebc f38f 92bd e0cf b43d 5717 b5bd
000003e0: 26c0 80bd 07bc aebd f4be 05bd a231 c8bc
000003f0: c4a7 343d b0b9 b1bd ac9d da3c 638a 80bc
0.059155233 0.061285373 0.08454208 0.062498827 -0.0042427983 0.0498586 0.086557224 0.021286136
-0.03796258 -0.04637985 0.03283046 -0.0046954732 -0.09632137 -0.054180868 -0.057678666 0.012649368
-0.0073062517 0.08063159 -0.0194158 -0.0648127 -0.021544695 -0.05011222 0.0925949 -0.031621687
0.014044387 0.074348934 -0.09775728 -0.035588335 0.06785271 0.07617972 0.00791156 -0.05543771
-0.004902444 0.07692555 -0.08722447 -0.045230746 0.0091780685 -0.04686548 -0.08623531 -0.06155137
-0.0024985995 0.08435605 0.025642026 0.046331573 -0.039140817 -0.06636513 0.050587494 -0.098529294
0.035125088 -0.04814363 0.09580906 -0.033467613 -0.08083255 -0.044934437 -0.014840597 -0.057888374
0.070355184 -0.040764373 0.044088755 -0.092816606 0.031312972 0.027830012 0.0644329 0.059614874
0.029414654 0.0078638075 -0.101682864 0.0897518 0.07513291 0.030919982 -0.065422416 0.0073621105
0.06635111 0.03142273 -0.031340852 -0.0065611103 0.062119573 0.08005403 -0.030396188 -0.011558028
0.060528982 0.042129062 -0.038398266 -0.07205266 -0.035860617 -0.07227126 -0.011122832 -0.022323888
-0.085038014 0.004824136 0.012995705 -0.043615248 -0.04717904 -0.075634316 -0.06122771 -0.071164034
-0.088877924 0.07376281 -0.061663006 -0.040600438 0.047076184 -0.0633111 -0.030983575 0.07225401
-0.010149289 -0.09662984 -0.017396979 0.045478437 0.05366616 0.0349541 0.02306111 0.07311291
0.0033387823 0.07071258 -0.028866434 0.046777643 0.07168942 0.048518244 0.054499667 -0.03809651
-0.025274532 -0.026250895 -0.10643854 0.014809193 -0.011462619 0.027408246 0.030974232 -0.06577742
-0.008950757 0.0036887205 -0.0054478375 0.025074236 0.03086212 -0.04047871 0.11429449 0.026040947
-0.103112325 0.11805625 -0.0465522 0.052493304 -0.14946981 0.01621504 -0.043591354 0.024360085
0.08257964 -0.053819116 0.082285896 0.072117664 0.032689057 0.1536429 0.11077269 0.021784175
0.02326817 0.07370877 -0.06441321 0.107692264 -0.07995409 0.03222958 0.06476256 -0.039368235
0.012594482 -0.10419134 -0.04236989 0.10335875 -0.0030221436 0.11622782 0.020661047 0.086533725
0.05140396 0.059993636 -0.040595893 0.06856098 0.086877696 -0.05203289 0.009647972 0.05309152
-0.120036565 -0.106540486 0.056159105 -0.054512836 0.08432137 -0.03069647 -0.010687392 0.060085576
0.0032620004 -0.009825247 -0.13622554 0.045694496 -0.0010201777 0.042344607 0.05597145 0.032346856
0.06208671 -0.023642674 0.008684979 -0.082083635 -0.032843947 0.073697 -0.09464605 0.04212992
-0.005904152 0.022962177 0.079967335 0.080311984 -0.034495857 0.10119329 0.10257339 0.07730756
-0.018105926 -0.040895283 -0.010987505 0.0588832 0.06228467 0.060380217 -0.032959756 0.05009051
-0.09688459 -0.012555756 -0.06029735 0.092941046 0.047137935 -0.06703957 -0.0363532 -0.034857772
-0.10034731 -0.026576206 -0.018253695 -0.06354607 -0.07439815 -0.006531194 0.028036239 -0.0009954124
-0.04457863 -0.078227505 -0.092451476 0.041661583 0.06424237 -0.03392064 0.070830226 -0.013661525
0.06285859 -0.08279249 -0.051110808 -0.09550343 -0.013560039 -0.071563624 0.088287115 -0.08842342
-0.062866494 -0.08531957 -0.03265281 -0.02443773 0.044105306 -0.08677995 0.026686512 -0.015690988

net.2.bias f4 [100]
00000000: 9534 813d d93e b9bd 4ad3 c1bd 0a55 b93c
00000010: 97a6 a8bd 01e4 23bd 3d23 9ebc 4d92 7d3c
00000020: 4e76 99bc adf2 bcbc b1ea 61bc 724d 0abd
00000030: 8b32 64bd bd2c 0abb c500 81bb 7376 c33d
00000040: 3e0b 42bd d8d3 dabc 3cef 57bd 5105 963d
00000050: 9c24 a7bd c9ea 02bd b09b d63b 6f41 2c3c
00000060: 451b b2bc f9f5 9d3c 073d 2cbd 9b50 94bd
00000070: f462 26bc 5bdd 7bbd dc25 023d c0df 38bd
00000080: 0813 593d e564 d0bb 78eb abbd 8ecf 9f3c
00000090: 92c2 60bd 3ffb 9f3d 6ce6 b2bb 32c3 74bd
000000a0: 7d4b a4bc 7953 5cbd bd6e 62bd da06 143d
000000b0: c68f 6ebd 437a 13bd 2cc2 53bd ce9d ccbb
000000c0: 98d0 94bd 3b65 fabb b1ad 9cbd 6cfd a0bd
000000d0: 47cb 703d 3bc7 76bd 297f 9ebd a8c1 c23c
000000e0: 33e6 bf3d be01 b7bc a10c 9fbd 0179 16bd
000000f0: cb33 92bc e9cc bbbc e0c1 5c3d 95f2 a9bd
00000100: 3742 04bd 7ad9 973d 9ba9 4339 42ee 133d
00000110: 980a dcbd b767 933c 5f41 29bd 5751 c43a
00000120: 6271 233d 945d 42bc 1fc7 bebd b30e 81bd
00000130: 69f4 dcbd 6e20 c8bd dff1 033c ab3d e0bc
00000140: d56b 113d fc15 d3ba 1801 bb3d 32b7 133d
00000150: e5ef 8a3d 2330 15bd f599 3c3c bc4b e2bc
00000160: cf4c babc 66eb a4bd f173 1d3d b72e 9a3d
00000170: 45ad 953d 5107 5dbd 99d5 743d bca2 a1bd
00000180: 9dde bd3d 74c7 b9bd 99a6 9abc e20e 543d
0.06308857 -0.0904519 -0.09464128 0.022623558 -0.082348995 -0.040012363 -0.019303912 0.015476775
-0.01873317 -0.023064936 -0.013788865 -0.033765264 -0.055712264 -0.0021083795 -0.0039368593 0.09544077
-0.047374003 -0.026712343 -0.052718386 0.07325233 -0.081612796 -0.03196219 0.006549321 0.010513647
-0.021741519 0.019282328 -0.042050388 -0.07241937 -0.010155428 -0.061490398 0.031774387 -0.04513526
0.052996665 -0.006359684 -0.083945215 0.01950815 -0.054873057 0.07811593 -0.0054595973 -0.059756465
-0.020055527 -0.053790543 -0.05528139 0.036139347 -0.05824258 -0.03600527 -0.05169885 -0.0062443977
-0.072663486 -0.007641462 -0.076503165 -0.078608364 0.05878761 -0.060248595 -0.077390976 0.023773983
0.09370079 -0.022339698 -0.07766081 -0.036736492 -0.017846962 -0.022924857 0.05389583 -0.08298222
-0.03228971 0.07414527 0.00018659832 0.036115892 -0.10744208 0.017993791 -0.04132211 0.0014977854
0.039903052 -0.011863131 -0.09315323 -0.06301632 -0.10788805 -0.097718105 0.008053272 -0.027373156
0.035503227 -0.0016104574 0.09131068 0.03606338 0.067840375 -0.03642286 0.011511316 -0.027624004
-0.022741703 -0.08052711 0.03844065 0.075284414 0.07308439 -0.053962056 0.059774015 -0.07892367
0.09270976 -0.09071246 -0.018878268 0.051772006

net.4.weight f4 [3, 100]
00000000: 6b4c 5fbd 03b7 bfbc 3ae3 16bd 9e10 bfba
00000010: 3aad bc3c 6943 1dbd 4685 463d 85db c5bd
00000020: 2a07 b33c d6b9 8c3d 2c80 53bd abf0 dfbc
00000030: 83e0 8bbd bfab d1bc 2791 4dbc ce65 1ebd
00000040: a479 38bd 6e2e c8bd da76 6b3d b6fa d13b
00000050: dec8 9e3d eb5c d33b 3322 bebb 005a 84bb
00000060: 56fa aebd addf c43d 973f 38bd 77ff dabd
00000070: 1177 85bd d2dd 0dbd fe54 87bd 0936 513d
00000080: 5a08 a53d 7b3a 463d 2202 a13c 3e78 53bc
00000090: 54b9 c1bc 0add 7fbd bdd2 a7bd 851d 643d
000000a0: 462e bb3b 4160 3ebd 2ae4 b13d fd98 16bd
000000b0: e154 9bbd 3e7b 7a3c 484a 5bbc 6763 7f3c
000000c0: d175 be3d 60f5 1f3c 0c12 bdbd c4b8 b73d
000000d0: 7335 573c 4eec 9f3d c29f db3c 5c94 c3bd
000000e0: 3d5a 3ebd 1c5d 473d 5368 903c 3f4f 833c
000000f0: 4eb6 bc3d 959e adbd d525 b23d 4236 a23d
00000100: 8932 3dbc c1a8 d9bd 5a03 88bd a179 f0bc
00000110: 6321 62bd fda2 4f3d 87aa 8a3c d62a 443c
00000120: bc2f 4f3d 6b33 273d cca9 b6bd 5507 34bc
00000130: 980b ae3d f4dd 823d c870 d63b bb24 9bbd
00000140: ccd6 83bd 0ec1 d43d a6fa 6abd f38a 71bc
00000150: de2b 92bd 6edf 31bd 9d9d 9fbd 3f79 9b3d
00000160: 9ec3 dabb 528a a6bd 8b1a 20bd 2c90 863c
00000170: 92f2 993d d94c 9fbc 679e 10bd d8be 83ba
00000180: 484e a63d 6ee5 5ebd 324d 013d 424d 653c
00000190: c9b5 65bd 85d2 1dbd a70b 84bd b56f a53d
000001a0: cbcc 7cbd a778 f3bc 3c8e 81bd b03a 033d
000001b0: b4ba 59bd f7de 59bc b302 5a3d 1bc2 efbc
000001c0: ddfc c03d 0bcb bb3c 8e94 c7bd 0bd7 4fbd
000001d0: 93c3 a93c 51e8 aebd 0d85 373d 8f72 45bd
000001e0: 231a 15bd 572d b23c 0b7f 7c3d 776b 10bd
000001f0: 3554 233c 62ac 4ebd d174 2abd e1e2 c7bd
00000200: 6f3d 433c 1d07 343d 5353 b6bc 16d6 4b3d
00000210: 28c8 943d 000b c2bd 219c 833c 9530 3f3b
00000220: 5696 c2bd eb8d 1bbd 4585 b33d ca85 b2bd
00000230: fefd b23d 08d5 9b3d 7a8c 943d 69a8 b53d
00000240: 899a 12bc acb3 583d 1829 08bd 3f3f 6a3d
00000250: cbf1 41bc bf33 47bd 312e 9c3d aecf 15bd
00000260: b1b2 98bc e161 5abd 2bfa 9d3c c407 b43d
00000270: 4a55 33bc c4ab 7bbd 4496 84bd 39ab d53d
00000280: c14f 72bc 2924 083a 665f 3f3d a1a6 7bbd
00000290: f184 50bd 6f05 09bd 52ab acbd a192 583c
000002a0: 0c05 b5bb 707f 7a3d 59db c6bc 71b5 a03d
000002b0: 34a3 6c3d 41c0 4a3d b342 3e3c f29b b63d
000002c0: 0191 1f3d 45df ce3d 14c3 9d3b af21 9d3d
000002d0: 7ccb 7abd 6256 953d 0a8a 51bd 765b 37bd
000002e0: 1e98 753d 2fac 71bc 719b e4bb 37d1 9bbd
000002f0: 9523 403c 60a9 7139 266c 323d ba42 e2bc
00000300: e768 94bc 377f a4bd 56d7 b9bd 3125 953d
00000310: 5b7a b33d 9b92 02bd 8830 5bbd b26d 453d
00000320: 8481 063d 0c03 05be c452 2b3b f04f 423b
00000330: f1aa b9bd 5317 9c3d 25f8 3cbd aee1 3ebd
00000340: e165 5d3d 7c06 6a3d e960 cdbd 7eda c03d
00000350: e15e 17bc c9b4 8c3c f2c2 c7bd 27c4 b2bd
00000360: 74bd 353d 2358 edbd 9593 f1bd 1735 3bbc
00000370: 0f54 323d c5ca 27be a5b6 283c a661 ef3d
00000380: a537 7b3d f19a 79bd ede1 f0bb 53a6 38be
00000390: 43a7 b23d e08b ac3c 0f9f 513e d4d8 d53d
000003a0: b714 023d 81bb 713d c00a 0dbc e21c cebd
000003b0: 5b65 ffbb a274 6b3c 5848 8b3b fa18 14be
000003c0: 45f4 6bba 651a 833d e301 863d 25d7 233e
000003d0: 3be1 86be 72d0 0c3e 78e1 2d3e ca58 933d
000003e0: bcb0 debd 4985 40be b107 dcbd d7d1 dbbd
000003f0: 870c 9fbd fd3f b13c 66da f13d cc26 9c3d
-0.054516237 -0.023402696 -0.036837794 -0.0014577096 0.02303182 -0.038394365 0.048466943 -0.09661011
0.021854002 0.06871383 -0.051635906 -0.02733644 -0.068299316 -0.02559459 -0.012546814 -0.038671307
-0.04503788 -0.09774481 0.057486393 0.006408061 0.07753156 0.0064502857 -0.0058024167 -0.004039049
-0.085438415 0.09612975 -0.04498252 -0.10693257 -0.06516851 -0.034635372 -0.06608008 0.051076923
0.080582336 0.048395615 0.019654337 -0.012907086 -0.023647942 -0.06246666 -0.08194492 0.055692215
0.0057123033 -0.046478514 0.08686097 -0.036766995 -0.07584549 0.015288172 -0.013384409 0.015587664
0.092998154 0.009763092 -0.09231958 0.08970788 0.013135302 0.078087434 0.026809577 -0.09549782
-0.046472777 0.04867278 0.01762787 0.016028998 0.09214459 -0.08477513 0.08698622 0.07920505
-0.011547693 -0.106278904 -0.06641264 -0.029354872 -0.05520762 0.050692547 0.016927017 0.0119731035
0.050582632 0.04082052 -0.08919105 -0.010988076 0.08498305 0.063899904 0.0065442063 -0.07575365
-0.06437454 0.10388385 -0.057367943 -0.014742601 -0.07137273 -0.04342597 -0.07793734 0.07591485
-0.0066761514 -0.08131851 -0.039087813 0.016426168 0.0751697 -0.019445824 -0.035307314 -0.0010051383
0.081204 -0.05441802 0.03156776 0.0139954705 -0.056081567 -0.038530845 -0.06447535 0.08077947
-0.061718743 -0.029720617 -0.06325957 0.03203839 -0.05315657 -0.013297788 0.05322523 -0.029267361
0.0942323 0.022923967 -0.097451314 -0.05074219 0.02072314 -0.085404046 0.04480462 -0.048204955
-0.03640188 0.021750135 0.061644595 -0.035258736 0.009968807 -0.050457366 -0.04161531 -0.097600706
0.011916502 0.043952096 -0.022256529 0.049764715 0.07264739 -0.09474754 0.016065659 0.0029173244
-0.095013306 -0.03797714 0.087656535 -0.087169245 0.087398514 0.07608992 0.07253356 0.08870012
-0.008947977 0.052905723 -0.033242315 0.057189222 -0.011837433 -0.048633333 0.07625998 -0.036575012
-0.018639894 -0.053316 0.019284328 0.08790544 -0.0109456275 -0.061443105 -0.064739734 0.10433049
-0.014789523 0.00051933766 0.04672184 -0.061438207 -0.050908033 -0.033452448 -0.08431114 0.013218553
-0.0055242833 0.06115669 -0.024274515 0.07847107 0.05777283 0.049499754 0.011612582 0.08916463
0.038956646 0.10101179 0.004814515 0.0767244 -0.061229214 0.07291867 -0.051157035 -0.04476496
0.059959523 -0.014750524 -0.006976538 -0.07608264 0.011727233 0.00023046648 0.04356017 -0.027619708
-0.018116428 -0.08032077 -0.09074275 0.07282484 0.08763572 -0.031878095 -0.05351308 0.048200317
0.03283836 -0.12989444 0.0026141861 0.0029649697 -0.090658076 0.07621636 -0.046135087 -0.046601944
0.054052237 0.05713509 -0.1002825 0.09416674 -0.0092389295 0.017176049 -0.0975398 -0.08728819
0.04437013 -0.11589076 -0.11795727 -0.011426232 0.043537196 -0.16385944 0.010297452 0.11688547
0.061332364 -0.06093878 -0.007351151 -0.18032198 0.08723309 0.021062791 0.20470832 0.10441747
0.031758036 0.05901671 -0.00860852 -0.10064103 -0.007794065 0.014371069 0.0042505674 -0.14462653
-0.00090009376 0.06401519 0.065433286 0.1600004 -0.26343712 0.1375139 0.16980541 0.071946695
-0.10873553 -0.18800844 -0.107436545 -0.10733383 -0.07766061 0.021636957 0.11809234 0.076245874

net.4.bias f4 [3]
00000000: 0b30 f0bc e455 863d bb58 e53d
-0.029319784 0.06559351 0.111985646
