checkpoint/residual/pushing_4_steps_residual_dynamics_model.pt (torch, 47496 bytes, 6 tensors)

net.0.weight f4 [100, 6]
000000 ca 74 96 3d 1f 29 d0 3e 58 9d 06 3e 72 b9 21 be
       0.073464945 0.40656373 0.1314596 -0.15793398
000010 f7 dd 05 3e 02 fa 06 be d1 ac 33 be ef ba 1e bd
       0.13072954 -0.13181308 -0.17546393 -0.038752493
000020 26 06 2b be b7 9a 64 3e 7f 8a bb 3e ab 33 38 be
       -0.16701564 0.22324644 0.36629102 -0.1798846
000030 d9 d9 91 3c 2a 2d f6 bd df 6e d0 3e 0f 8c 5c 3e
       0.017804073 -0.12020333 0.40709588 0.21537803
000040 01 9d 8c bd 44 58 78 3e 2f 18 69 3e b2 31 05 3d
       -0.068658836 0.2425242 0.22763132 0.032518096
000050 9f bf 46 3e 38 64 48 be 12 6f ac 3e 33 f6 2d bd
       0.19409035 -0.1956948 0.3367849 -0.042471122
000060 a0 c2 0f be e9 0a aa 3e d8 4c 94 be ff d0 bd 3e
       -0.14039087 0.3321145 -0.28964877 0.37073514
000070 62 66 79 3d 4d 9f 73 be e1 4b fb 3b 45 95 c6 3e
       0.060888655 -0.23791237 0.0076689576 0.3878576
000080 bf 48 29 3d 22 84 be be d3 7c 67 3c 58 9c aa bd
       0.04132914 -0.37210184 0.0141288815 -0.083306015
000090 45 cb 8c be d2 86 70 be 86 a3 2e 3e 42 75 55 be
       -0.27498832 -0.2348893 0.17054567 -0.20845512
0000a0 62 9c ec be 4a f1 30 3e 71 d8 39 3e 43 54 cc 3d
       -0.4621306 0.17279544 0.18148972 0.09977009
0000b0 ca 16 45 be 52 0c 45 3e 43 fb 28 be bb bc 5b 3e
       -0.19246975 0.19242981 -0.16502099 0.21458714
0000c0 cc e8 ae be af b0 0d be 32 3f 8e be dd f8 86 3e
       -0.34161985 -0.1383693 -0.2778259 0.26361743
0000d0 1f d3 e1 3c dd d3 bb 3e 01 17 36 be e3 22 98 be
       0.02756649 0.36685076 -0.17782213 -0.29714116
0000e0 6a 1f 9a 3e 7b 58 72 3e 48 03 04 3e cc ce 10 3e
       0.30102092 0.23666565 0.12891877 0.14141387
0000f0 4a 4f a1 3e 07 b6 d4 bc b8 79 dd 3e 97 f0 b0 be
       0.31505805 -0.025965704 0.43256927 -0.34558555
000100 64 06 1e 3d 66 90 6a 3e 80 66 a3 bd 44 4c 50 3e
       0.038580313 0.22906646 -0.07978535 0.20341593
000110 91 a1 90 3e b0 4f a4 3e 71 cb 4b 3d 58 6c 0b 3e
       0.28248265 0.32092047 0.049754564 0.13615549
000120 2a 51 71 be c3 6e a1 be 52 81 3d 3e 96 00 69 be
       -0.23566118 -0.31529817 0.18506363 -0.2275413
000130 cb f2 e5 be d0 14 e3 3d 0b f9 14 3e d5 e3 6a bd
       -0.449118 0.11087954 0.14548127 -0.057346184
000140 38 30 19 3d 31 64 d1 b9 39 dc e7 3e 06 20 d2 3e
       0.0373995 -0.00039938235 0.45285204 0.41040057
000150 8e ec 45 3d 04 b5 f9 3d 99 6f bb 3d bb 26 b5 3e
       0.0483213 0.12192729 0.09152145 0.35381112
000160 4d 25 31 be 14 82 a3 3e 5a 09 9c be 0b ed 04 3c
       -0.17299385 0.3193518 -0.30475885 0.008113156
000170 29 6e 0a 3e 2d 04 a3 bd e9 41 b5 3e c8 45 aa 3e
       0.13518585 -0.07959781 0.35401848 0.33256364
000180 d4 f1 50 be e6 bc 70 3d fe 27 cd 3e a2 6f 44 3e
       -0.2040475 0.058773898 0.40069574 0.1918321
000190 29 ba 91 be 1b 65 bd bd 08 af 30 be 3e b2 b3 bb
       -0.2846234 -0.092478 -0.17254269 -0.0054838946
0001a0 c8 95 b0 3e eb f6 e9 3d 7e 8f ba be ae d7 91 3d
       0.34489274 0.11424049 -0.364376 0.07121216
0001b0 92 95 b1 be 89 76 c9 3e d7 07 81 be 61 26 a6 be
       -0.34684426 0.39348248 -0.25201294 -0.32451156
0001c0 e1 38 6a be e3 9f 87 3e fe 0a 8f bd ee 4b 87 be
       -0.2287326 0.2648917 -0.069845185 -0.26425117
0001d0 7d 5e a1 3e 7f 24 a7 3b ce 50 17 be 21 df 67 be
       0.315174 0.005100786 -0.14776918 -0.2264371
0001e0 6a 27 c9 3e 2e 4b dd b9 15 92 5e 3e e2 dc c3 be
       0.39287883 -0.00042208418 0.21735413 -0.38254458
0001f0 73 df 05 be fa 4b 7f be 7b 29 87 3d 17 48 97 be
       -0.1307352 -0.24931327 0.06599709 -0.29547188
000200 90 53 54 be 2a 20 df bd c0 fa c2 be 04 ed b0 be
       -0.20735002 -0.10894807 -0.38081932 -0.3455583
000210 73 b2 c7 3e e6 80 4b 3e b0 b0 a4 3e ff 42 71 be
       0.39003333 0.1987339 0.32166052 -0.23560713
000220 bd 33 90 3e 93 9d c3 3e 82 10 56 be 53 76 99 be
       0.28164473 0.38206157 -0.20904735 -0.29973087
000230 13 f5 73 3e 8d b3 8e be 56 a5 51 3e da e1 a8 be
       0.23823957 -0.2787136 0.20473227 -0.3298481
000240 5d 92 bc be 28 81 ad 3e b4 1b 29 be 9b 94 43 3d
       -0.36830416 0.338876 -0.16514474 0.047749143
000250 88 cc 1a be 3c a1 b2 3e c9 60 c6 be 1e 8e 3d bd
       -0.15117085 0.34888637 -0.38745716 -0.04627811
000260 02 15 9d 3e 2d a4 fe bd f1 8d a2 3e cb fb 9a 3e
       0.3068009 -0.12433658 0.31748918 0.30270228
000270 ac b4 a2 3d 42 6c 7c be 70 8d be 3e 3a 2b c8 be
       0.07944617 -0.24650672 0.37217283 -0.3909548
000280 56 0e e4 bd 2c 15 a4 be 74 58 89 3d 2b 46 bf be
       -0.11135547 -0.32047403 0.06706324 -0.3735822
000290 f3 55 35 be 3f 61 94 3e a7 d3 a3 3e 24 39 41 3d
       -0.17708568 0.28980443 0.31997415 0.047173634
0002a0 5f 2e 7e 3e 12 e8 96 3e 52 d1 c3 3e 98 8f 86 be
       0.24822377 0.2947393 0.38245636 -0.26281428
0002b0 71 a2 a7 3e 0d 9b c1 3d e4 75 f9 3d 2e 8c 76 3d
       0.3274112 0.09453402 0.12180689 0.06019228
0002c0 9d e9 88 3e 43 ab 39 be 6f eb c0 3e fc 7b c7 3e
       0.26740733 -0.18131737 0.37679622 0.3896178
0002d0 00 3b ad 3d 7a 93 a4 be c9 8f b9 3e 69 e1 5d bd
       0.08458519 -0.32143766 0.36242512 -0.054170046
0002e0 41 cc a5 3e ad ec fa 3d 1c ba b6 3d d2 1a 2e be
       0.32382396 0.122521736 0.08922216 -0.17002419
0002f0 12 90 d0 be 79 a0 0d be e7 5d 9b be e7 5f a0 3e
       -0.40734917 -0.13830747 -0.3034508 0.31323168
000300 e3 fa dd bd a8 84 d9 bd 67 b5 9a bd cc 9b 16 3d
       -0.108388685 -0.10621005 -0.07554131 0.036769673
000310 9b 1b 90 bd f1 75 bb be af da f7 3c 4d d8 a0 be
       -0.07036515 -0.3661342 0.030255644 -0.31415024
000320 e5 91 87 3e dc 48 3d 3e 36 54 a7 3c 42 fb c6 3e
       0.26478496 0.18484825 0.020425897 0.3886357
000330 de c9 02 be eb 7a 3b 3d 81 13 84 3e bd 1a 7f 3e
       -0.12772319 0.04577152 0.2579613 0.24912544
000340 0f dd ac 3e cb 5d 28 be 74 0b 64 3e 2b 66 9c be
       0.33762404 -0.16442029 0.22269994 -0.30546698
000350 e2 1a 16 be 84 eb bb be af d6 80 3d ca 88 bc bd
       -0.14658692 -0.36703122 0.06290948 -0.09205778
000360 dc c0 be 3e 44 70 f8 bd bf 9a 7e 3b ce bc a9 3e
       0.37256515 -0.12130788 0.003884956 0.3315186
000370 91 dc 69 3e a6 4a 81 be 4e 37 0f 3e 7c 87 16 3e
       0.22838046 -0.25252265 0.13985941 0.1470012
000380 2c 44 66 bd c4 4d 2b 3e 63 cb 2f be 12 54 ad be
       -0.056217358 0.16728884 -0.1716743 -0.33853203
000390 04 93 b4 3e 57 7e 0e 3c de 27 be be 16 eb 59 3e
       0.35268414 0.008697114 -0.3713979 0.21281084
0003a0 3f c4 92 3c bd b2 2f be b4 e8 bd bd 6a 48 d1 3e
       0.017915843 -0.17158027 -0.092729 0.4087556
0003b0 cc d7 7e be 41 cb 1a 3e 6c f5 12 be 24 82 e0 3d
       -0.24887007 0.15116598 -0.14351434 0.10962322
0003c0 7b 52 c7 be f9 2a 75 3d a5 83 d9 bd 88 5d 4c 3e
       -0.38930115 0.059855435 -0.10620812 0.19957554
0003d0 d0 1a b2 be ac 1f 9b be ce c8 dc 3d e4 82 03 be
       -0.3478608 -0.302976 0.10780488 -0.128429
0003e0 dc 1d cb be 03 28 57 3e 80 87 ea be c8 fc 34 bd
       -0.39671218 0.21011357 -0.45806503 -0.044186383
0003f0 5e 29 6c be bd 0d 37 3e 4e a7 bf 3c bf c6 d6 be
       -0.23062655 0.17876334 0.023395207 -0.41948506

net.0.bias f4 [100]
000000 7b d5 e1 bd d1 dc c6 3e 4e 7b a2 3e dd af a0 3d
       -0.11027046 0.38840345 0.317347 0.07846043
000010 01 9b 29 be 9d 26 bf 3d 7f d1 ba 3e 38 f6 dd 3c
       -0.16563036 0.09333537 0.36487958 0.027094945
000020 13 04 59 3e 58 f6 54 be ce 1f 81 3d 43 3c a5 3e
       0.2119296 -0.20797098 0.063048944 0.3227254
000030 a5 37 0d be 98 27 96 be 97 23 94 3d 4f c9 66 bd
       -0.13790758 -0.29327083 0.07233351 -0.056344327
000040 d3 f1 bb 3e 64 c7 fa bb 29 a5 6b 3d 5e 4e 96 3e
       0.36707935 -0.0076531637 0.057530556 0.29356664
000050 19 40 01 be 10 3d 67 be f4 56 e7 3d 8a dd 1d 3e
       -0.12622108 -0.22581887 0.11295882 0.15416542
000060 9e 31 94 3e 95 2b 60 bd 83 40 c0 3e e8 18 a9 3e
       0.28944105 -0.054729063 0.3754922 0.33026814
000070 f0 ec c0 3e 69 84 80 bd 48 6a c1 be 02 a1 94 3e
       0.3768077 -0.06275255 -0.377764 0.2902909
000080 f3 3e 29 3e 39 4e d1 be d2 a5 7c be 87 19 ca bc
       0.1652792 -0.40879992 -0.2467263 -0.024670376
000090 91 a3 fd bd 00 b8 ec 3d f2 02 9a 3e 1d 47 96 bc
       -0.123847134 0.11558533 0.30080372 -0.018344456
0000a0 9e 96 55 3e f0 69 a4 be 03 ef 91 bd af 71 a6 be
       0.20858237 -0.32112074 -0.07125666 -0.3250861
0000b0 e1 6a 83 be e2 38 ce be 4f 7e 99 be e1 72 cb 3e
       -0.2566748 -0.40277773 -0.29979178 0.39736083
0000c0 9f 8d b4 3c bf 5c 27 be bb a8 37 3e 61 fe 73 be
       0.022040186 -0.16343974 0.1793546 -0.23827507
0000d0 21 3f 33 3e d7 9c 54 be 87 66 51 be 32 e5 a2 3e
       0.1750455 -0.20762955 -0.20449267 0.31815487
0000e0 d9 ff b2 be b9 88 38 3d b4 1c d0 3e 06 3a c8 3d
       -0.3496082 0.045052264 0.406469 0.09776692
0000f0 c1 b2 7f be d7 64 97 be db 36 1a 3e c5 31 ce be
       -0.24970533 -0.29569122 0.15059988 -0.40272346
000100 93 e2 a0 bd ec cc 40 3e cf dc ad 3e 3f e0 c1 be
       -0.078557156 0.18828171 0.33957526 -0.378664
000110 c7 b5 85 be 0a c1 f2 bd 5b 78 41 be f5 4d c8 3e
       -0.26115248 -0.118532255 -0.18893568 0.39121976
000120 f1 6b a5 3e 43 0c 48 3e cf 8e 04 3e 1e 5f b1 be
       0.32308915 0.19535927 0.12945102 -0.3464288
000130 5b a4 98 3e 1c 65 3c be c9 41 ad 3e 59 63 22 3e
       0.29812893 -0.18397945 0.33839253 0.1585821
000140 91 6a 8d 3e 39 d6 d3 be 64 be b4 3e f4 0c 34 be
       0.27620366 -0.41374376 0.35301507 -0.17583066
000150 c6 b1 b9 be 3e 0d 68 3d 03 d2 ad 3e 20 08 b9 3e
       -0.36268443 0.056653254 0.3394929 0.3613901
000160 de 06 55 be 01 3a d0 3d fa 20 8f 3e 71 78 c9 bd
       -0.20803401 0.10167313 0.27954847 -0.098374255
000170 a9 b9 2e 3e 15 fd 33 bd 7e 5c ca bd ed 66 02 bd
       0.17063011 -0.04394253 -0.09880923 -0.03183644
000180 c1 db 90 be 47 d4 4b bd 8a 1e 7e 3e b9 c8 3b 3e
       -0.2829266 -0.04976299 0.24816337 0.18338288

net.2.weight f4 [100, 100]
000000 13 c9 26 3c a3 d3 90 3d 4f 26 78 3d 89 e1 0f 3d
       0.010179776 0.070716165 0.06058341 0.035127196
000010 f8 02 5c 3d b2 d2 b0 bd cd a7 49 bc 78 f7 81 bd
       0.05371377 -0.08633937 -0.012308073 -0.06346029
000020 18 f7 fe bb 55 b0 03 3c d4 8c cd 3d d8 e1 33 3d
       -0.0077809207 0.008037646 0.100366265 0.043916553
000030 70 5e 94 bd 0e b8 a2 3d 76 2e cc bd e5 8f 51 3d
       -0.07244575 0.07945262 -0.09969799 0.05116262
000040 25 b7 7b 3c 6a 89 1a bd db 33 c4 bd 4c c0 5e 3d
       0.015363489 -0.037728705 -0.09580203 0.054382607
000050 a8 65 a4 3d 3c fe 88 bd ed 4e 7a 3d d4 fb b2 bd
       0.08027202 -0.06689116 0.061110426 -0.08739439
000060 ec 92 5a 3c f2 b4 96 bc b2 48 c5 bc 50 be b3 bc
       0.013340693 -0.018396828 -0.024082515 -0.021941334
000070 8a de 9d 3c 63 09 a5 bd 6d c7 c3 3c ca e2 81 3c
       0.019271154 -0.08058431 0.023898805 0.015855212
000080 3e f3 08 bd 48 11 15 3d 7b fa 55 3d cd 7a ab 3d
       -0.0334351 0.036393434 0.05224083 0.08373032
000090 62 dc e1 3b 61 28 49 bd e8 af 2b bd 32 1f 30 3d
       0.0068927268 -0.049110774 -0.041915804 0.0429985
0000a0 f3 4d 34 bd 8b 17 8c 3d 58 68 7a 3d e5 35 8d 3d
       -0.04401965 0.06840428 0.061134666 0.06895045
0000b0 45 5c c6 3d c2 b5 4d bd cd b9 0a bd a1 03 ae bc
       0.09685568 -0.050222166 -0.0338686 -0.021241965
0000c0 75 c6 80 3b 13 b9 36 3d 26 62 bb 3d bb c6 a2 3d
       0.003929908 0.044610094 0.0914958 0.07948061
0000d0 20 c7 6c bd 32 e1 13 bc ce e5 86 3d 80 f5 be bc
       -0.057807088 -0.009025859 0.065868005 -0.023310423
0000e0 d4 3f a9 3d 26 b4 73 bd 56 eb 1e bd 72 91 8e bd
       0.082641274 -0.059497975 -0.038798653 -0.06961335
0000f0 1a 89 b0 ba 08 81 c7 bd 3c 58 2b bd 4f 91 12 bd
       -0.0013468594 -0.09741408 -0.041832194 -0.03578311
000100 25 b8 12 bc 7e b3 93 bc 9f fd 30 bd 62 cf e0 3c
       -0.008955036 -0.018029924 -0.043210622 0.027442638
000110 dc be 77 bd ab 73 0f bd 8b d9 c0 bd df b1 df 3d
       -0.060484752 -0.03502242 -0.09416493 0.10922598
000120 0d e8 8a bd 2a 64 08 bd e2 84 30 bd 90 e9 56 bd
       -0.067825414 -0.03329865 -0.043095477 -0.052468836
000130 1f 23 8b 3d 54 df 91 3c ac 5f 6d 3d 78 79 68 3d
       0.06793808 0.017806686 0.057952568 0.056756467
000140 44 88 73 3b 4d a6 6a bd f5 8b 61 3d 81 7e 1e bd
       0.0037160078 -0.057287503 0.055065114 -0.038694862
000150 d0 4c 5a 3d e6 3a 55 bd ec 70 11 bc ac c3 58 bd
       0.05329591 -0.052058123 -0.00887702 -0.052920982
000160 65 f6 39 3d de c3 43 3d 2a 2d c3 3c 8b 2d 56 bd
       0.045400996 0.047794215 0.023825247 -0.052289527
000170 76 9a 20 3d 64 7d 41 3d d6 f2 f4 bd c0 c5 24 3d
       0.039209805 0.047238722 -0.1196038 0.04022765
000180 37 6d cb bc 8e cd aa 3d ca e2 aa bd d2 a3 88 bd
       -0.024832351 0.08339988 -0.08344038 -0.06671871
000190 1f 28 b7 bc 9b 05 c9 3d 7d db a8 bd e3 65 83 bd
       -0.022357998 0.09815522 -0.08244989 -0.06415918
0001a0 ce 2e 80 3d ee 87 b8 3d 7f dd 01 bc fa 17 37 bd
       0.06258927 0.090103015 -0.007926344 -0.0447006
0001b0 54 f6 15 bd f8 45 a2 3d 15 dc 57 bd 12 df 98 bc
       -0.03661187 0.07923502 -0.05270012 -0.018661056
0001c0 a8 f5 93 3d 8a d7 8f bd 95 d0 15 bd e9 62 32 bc
       0.072245896 -0.07023533 -0.036575872 -0.01088784
0001d0 c3 52 81 bc 49 26 3b 3d 98 6f 80 3d 69 29 ad 3d
       -0.015786534 0.04569081 0.06271285 0.08455164
0001e0 1e d9 57 3c 4e 3c c3 bd 7b dc 84 3d 35 72 20 3a
       0.013174323 -0.095329866 0.06487366 0.0006120534
0001f0 96 c4 b8 3c 67 a8 0d bc 79 c1 40 bc 63 c5 88 3d
       0.022554677 -0.008646107 -0.0117648775 0.066782735
000200 fa 8c 8c 3d d8 6c d7 bc e6 f0 ea bc 8b e6 38 3d
       0.06862827 -0.026297018 -0.028679322 0.045141738
000210 6e 5f 9b bd c9 79 8a 3d aa 16 30 bb 45 47 87 3d
       -0.07586561 0.0676151 -0.0026868978 0.066053905
000220 a0 ed c5 bc 97 b2 45 3d 9b 3a 73 3d 85 f9 5b bd
       -0.02416116 0.04826602 0.059382062 -0.053704757
000230 6b 49 97 bd 5b 35 a4 bd 01 eb 35 bd 86 b3 95 3d
       -0.0738705 -0.08017989 -0.04441357 0.07309632
000240 33 52 df bc 18 6c f9 3c 39 04 e6 3c 6a 07 92 bd
       -0.027260875 0.03044705 0.028078185 -0.0713032
000250 84 01 33 3c 91 b7 ba bd d7 b7 87 bc 39 c4 6d 3d
       0.010925654 -0.09117044 -0.016567154 0.05804846
000260 fe 5f 15 bd b8 e9 a9 bd c6 48 ee 3c 92 29 fe 3c
       -0.0364685 -0.082965314 0.029087435 0.031025682
000270 45 77 da 3c 12 50 2b bc 51 cd a6 bc a7 4b 35 bd
       0.0266682 -0.010456102 -0.020361574 -0.0442616
000280 0c 6f 0b 3b 45 2a 42 3d 66 f7 bf bc 72 0e 6b bd
       0.0021275906 0.047403593 -0.023433398 -0.057386823
000290 45 6c b4 bd 30 90 8d 3d b4 23 b7 3c 4e b7 26 bc
       -0.08809713 0.06912267 0.022355892 -0.010175539
0002a0 e2 30 aa 3d 3e 47 c5 3d 38 1b 2c 3d 85 13 19 bc
       0.08310105 0.09632729 0.042018145 -0.009343033
0002b0 1b cf a1 3d 82 96 a7 bc a3 c3 61 bd 31 5c 3d bd
       0.0790083 -0.02045751 -0.055118214 -0.0462305
0002c0 eb 31 2d bd 8a e2 0e 3d ac fa 0f 3d e5 24 22 bc
       -0.042283934 0.034884013 0.03515117 -0.009896492
0002d0 a5 a2 50 bc 80 3b 07 bd 09 09 92 bc 4a ce 82 bd
       -0.01273409 -0.033015728 -0.017826574 -0.06387003
0002e0 25 0d bb bd 7e 32 12 bd a0 35 3b bc 1f 14 77 3d
       -0.091333665 -0.035692684 -0.011426359 0.060321923
0002f0 ef 94 b5 3d e0 d5 de bc 29 9b c4 3d e0 05 67 bd
       0.088662975 -0.027201593 0.09599907 -0.056402087
000300 a6 f6 4d bd 23 69 01 3d a3 8e a7 3d 88 6a 38 bd
       -0.05028405 0.031594407 0.08181503 -0.04502347
000310 6f a0 04 bd a2 d7 64 bd 1f 43 7b 3d 7c 91 80 3c
       -0.032379564 -0.055869706 0.06134331 0.015694372
000320 f0 48 8e 3d cb d6 00 bd c3 36 c3 bc 91 5c c1 3d
       0.069475055 -0.031454843 -0.023829823 0.09441484
000330 3d 6b 85 b9 4d 03 82 3d 90 6a ce bd 8b 7b 9d 3c
       -0.00025447636 0.06348286 -0.10078919 0.019223949
000340 6f 36 20 3b b9 3d ef 3c 3a 0e a5 3d d2 97 92 3d
       0.0024446507 0.029204236 0.08059354 0.07157864
000350 f5 97 b7 bd 90 1c 63 bd 0d 3d 53 bd 2e 67 3a 3d
       -0.089645304 -0.05544716 -0.051571894 0.045508556
000360 d2 21 ac bc 07 f0 1d 3d f8 cd 82 bc 1a 20 63 bc
       -0.02101222 0.038558986 -0.015967354 -0.013862634
000370 23 b1 2e bd e9 16 2b 3d a7 4f bb bd c6 68 fe bc
       -0.0426494 0.041769896 -0.09146052 -0.03105582
000380 8d 9a d0 bd 23 e8 47 bd 35 cd 58 bd 97 41 bb 3d
       -0.10185728 -0.048805367 -0.052930076 0.0914337
000390 d4 ee 03 3d 2f c3 81 bd d2 16 72 bd a8 9f 20 bd
       0.032210186 -0.063360564 -0.059103794 -0.03921476
0003a0 3b 1e ca 3d 58 8a ab 3d fb 6a 7e bd 80 8b 72 3d
       0.09869047 0.08375996 -0.062113743 0.05921507
0003b0 28 87 55 3d 66 00 7f bd e8 ec 7b 3d 3b 13 61 bd
       0.05213085 -0.06225624 0.06150523 -0.05494998
0003c0 92 0c 95 3d 04 47 80 3c 55 b5 b0 3d 4b 18 a4 bd
       0.07277788 0.015658863 0.08628336 -0.08012446
0003d0 9d 8e 9e 3c 53 3c 36 3d 26 8e 84 bc 35 71 72 ba
       0.019355113 0.044491123 -0.016181063 -0.00092484365
0003e0 e8 66 bb 3c 7a 12 20 bd 23 42 76 bd f7 00 aa 3d
       0.022876218 -0.03908012 -0.060121667 0.08300965
0003f0 0a fe 72 3d 0e 1e 1c 3d 7d 58 8d bd 1b 6e c9 3b
       0.0593243 0.0381146 -0.069016434 0.006147159

net.2.bias f4 [100]
000000 4c 26 2e bc 4d 58 a8 3d 3d fa 11 3c c2 1c 9d bc
       -0.010629248 0.08219967 0.008909759 -0.019178752
000010 bc 51 44 bd 56 86 58 3d c9 d7 b4 bd 71 9b 9f bd
       -0.04792951 0.052862488 -0.0883022 -0.0779332
000020 7f 46 2e 3d dc bc 85 3d 7c 44 ba bd a6 e3 b6 3d
       0.0425477 0.06530163 -0.090950936 0.08930139
000030 ef b1 fc 3c 9d 3a 24 bc 2e c6 ad 3d 95 09 a9 3d
       0.030846564 -0.01002374 0.084850654 0.08253781
000040 ef 33 bd 3c 12 14 5d 3d 2c 08 89 bd 7f 3e db bd
       0.023096053 0.05397422 -0.06691012 -0.107052796
000050 8e 2a a3 3d ed 6f ad 3d fc e3 41 3d d1 41 03 3d
       0.07967101 0.08468614 0.047336563 0.03204519
000060 93 5d 80 bd 48 b7 8c bd 16 51 c8 38 7a 22 b1 bd
       -0.06267848 -0.068708956 9.5518466e-05 -0.08649154
000070 df eb 09 3d cc 82 41 3d 20 1c ca bc 8e 33 8c bd
       0.03367221 0.04724388 -0.024671614 -0.06845771
000080 69 df 70 bb 6f c3 82 bc bf 11 07 bd 6b 45 4e 3d
       -0.0036754257 -0.01596233 -0.03297591 0.05035917
000090 f9 ed 0f bb 4b 9e fb bc 8c eb 73 bd 8a 76 8c 3d
       -0.002196191 -0.030715128 -0.059550807 0.06858547
0000a0 5b 13 57 3d 14 cd 4c bd 3d 5c 66 3d b9 8f 83 3d
       0.052508693 -0.050000265 0.05624031 0.06423897
0000b0 20 76 2a bd 33 d7 c0 bd 50 2b 5d bc 7b 63 bd bd
       -0.04161656 -0.09416046 -0.013499096 -0.0924749
0000c0 10 d5 ab 3c f9 52 51 3d e8 3e 1b bd 70 12 9a bd
       0.02097562 0.05110452 -0.03790179 -0.07523048
0000d0 49 04 35 bb 6f d3 c2 3d 8e c4 83 3c fe 39 cd 3d
       -0.0027620962 0.09512984 0.016084936 0.10020827
0000e0 ea 83 fc bb d5 36 5f bc 52 da a4 3d 75 1a c1 bd
       -0.007706155 -0.013623913 0.08049454 -0.094288744
0000f0 e7 0f d9 bd 38 37 8e 3b b8 55 d4 bc 7c d6 16 3d
       -0.10598736 0.0043400787 -0.02591978 0.036825642
000100 d8 04 76 3d a7 eb aa 3c fe 42 9c bd 23 9f 39 bd
       0.060063213 0.02086432 -0.07629965 -0.04531778
000110 80 37 9f bd 78 0d b1 bc ec 35 89 3c 47 e8 e5 bc
       -0.07774258 -0.021612868 0.016749345 -0.02806486
000120 31 06 5f 3b 16 41 5b 3c d1 77 de 3c 71 1a 8a bc
       0.003403079 0.013382217 0.027156742 -0.016858311
000130 c5 df 9a 3d d4 08 94 3d 41 7e bd bd 7c ac db 3d
       0.07562212 0.07228246 -0.09252597 0.10726258
000140 63 97 a0 bd f5 57 18 3d fb c5 52 bd 7d 16 0a bd
       -0.07841375 0.037193257 -0.05145834 -0.033712853
000150 7f 5f e8 3b b6 1a ba bd fe 78 99 3b 36 d9 3e 3d
       0.007091462 -0.09087126 0.004683613 0.046593867
000160 f5 2c 34 bc a4 72 f4 bc 2f ee 3b bd 62 e8 1d bc
       -0.010997047 -0.029839821 -0.045881446 -0.009637924
000170 f8 70 cd 3d 58 34 a0 3d 7e 56 5f 3d 11 32 73 3d
       0.10031313 0.07822484 0.054525845 0.05937392
000180 e7 b8 aa b9 1a eb 86 3d 1a a8 d8 3c f4 6d 56 3d
       -0.0003256269 0.06587811 0.026447345 0.052350953

net.4.weight f4 [3, 100]
000000 d4 ff 32 bd f6 29 67 bd c4 40 c9 3d f3 50 6a 3b
       -0.043701008 -0.0564365 0.09826806 0.0035753816
000010 0b 3f 18 3d 68 48 51 bd 2a 6a 45 bd dc a5 3d 3d
       0.037169497 -0.051094443 -0.04819695 0.046300754
000020 77 6e 93 bd c2 cf a3 bd e2 1f ba 3d 6f fa b1 3d
       -0.07198804 -0.07998611 0.090881124 0.086903445
000030 10 4a 5f 3d 51 65 c0 3d 65 ed 72 bc 39 6f b4 3d
       0.05451399 0.093943246 -0.014827107 0.088102765
000040 f2 d0 ed 3c c9 ee 4f bd dd ff 90 3c ba 9e 64 bd
       0.029030297 -0.050764833 0.01770013 -0.055815436
000050 b6 16 8f 3c fe 15 7f 3d 39 15 32 bd 6a ab 07 3d
       0.017466884 0.062276833 -0.04347727 0.033122458
000060 e0 79 bb 3d 12 f3 28 3d 55 2b 5c 3d 9f b9 44 3d
       0.09154105 0.041247435 0.053752262 0.048028585
000070 80 03 ae 3c ee 38 5a 3c 69 79 c8 3d e7 0d a9 3d
       0.021241903 0.013319237 0.09788782 0.08254605
000080 70 42 99 bc f4 c7 2f 3d f9 a2 67 bd 3c 46 5c 3c
       -0.018708438 0.0429153 -0.056551907 0.01344448
000090 19 9b 5f 3d de 9e ce bd 01 69 ad 3d a6 97 bd bc
       0.054591272 -0.10088895 0.084672935 -0.0231436
0000a0 87 48 a4 bd 9b 84 8d 3d 6e be 87 3d b7 32 a7 3d
       -0.08021646 0.06910058 0.066281185 0.0816397
0000b0 0e 46 35 bd 8b e8 ca bd 38 f7 6f bd 18 1b b9 3d
       -0.044256262 -0.09907635 -0.058585376 0.09038371
0000c0 91 33 2b 3c 23 a4 f5 bc 36 f4 c3 3d 65 3e 31 bd
       0.010449306 -0.029985493 0.09568064 -0.043272395
0000d0 6a d7 5c 3d 0a 22 aa bb 77 ec 30 3c 51 a6 9e 3d
       0.053916372 -0.005192046 0.010798565 0.07746566
0000e0 94 8f 01 bd 44 8f a9 3d 19 a0 60 bd fd fe 84 3d
       -0.031631067 0.08279279 -0.05484018 0.06493948
0000f0 8e c4 aa 3d 62 ce 27 bd 03 1a dd 3d b8 fc 76 bd
       0.08338271 -0.040968306 0.10795977 -0.060299605
000100 9a 6b 80 3d 0e 53 78 3d 1e 56 86 bd f2 8b b4 bd
       0.06270523 0.060626082 -0.06559394 -0.08815755
000110 62 17 72 3d 80 cc 34 3d e9 1d 2a 3d b3 59 a9 bd
       0.05910433 0.04414034 0.04153243 -0.08269062
000120 2b e9 b9 3d 89 3e 65 bd ef 8b 5e 3d 5e 4f 83 3d
       0.090776764 -0.05596784 0.05433267 0.064116225
000130 41 7e 90 bc 74 45 20 3d 57 03 39 3d 35 5d be 3d
       -0.017638328 0.039128736 0.0451692 0.092951216
000140 30 42 b8 bd bb 8f a6 bd ff a5 3b 3d e7 45 90 3d
       -0.08996999 -0.08132883 0.045812603 0.07044583
000150 36 11 58 bd 55 3d e6 3a d1 ae 56 3d 26 62 d4 bc
       -0.05275079 0.0017565886 0.05241281 -0.025925707
000160 d4 1e 5d bd 59 fb e5 bd b6 93 b7 3d f3 24 c5 bd
       -0.053984478 -0.112295814 0.089637205 -0.09626188
000170 e6 d0 86 ba bf 30 36 bd 3f f1 f0 3c 13 f5 b2 bd
       -0.0010285645 -0.04448008 0.02941191 -0.087381504
000180 96 c8 44 3b 4c 6b a4 bd c4 19 1f bd bc 31 06 bd
       0.0030026785 -0.08028278 -0.03884293 -0.032762274
000190 6b fb 34 3d 6e af 41 bd bc e4 71 3d 3a 38 d8 bc
       0.044185083 -0.047286443 0.05905603 -0.026393998
0001a0 37 00 c3 b9 4d 32 2e bb 04 49 84 3d f3 95 c0 bb
       -0.00037193458 -0.0026580275 0.06459239 -0.0058772503
0001b0 f5 19 5c 3d 93 35 17 bd 53 8d 3a bd 89 05 82 3d
       0.053735692 -0.036916327 -0.045544934 0.06348712
0001c0 f4 47 5c bd 6b 60 e2 3c 43 8c ae bd 3e 81 93 bd
       -0.053779557 0.027633866 -0.085228465 -0.07202385
0001d0 cf f3 97 3d 34 f7 1d bd 90 6b 89 bd 13 3a 9f bc
       0.0741955 -0.03856583 -0.06709969 -0.019436872
0001e0 c1 ac 3a bd 34 9e 28 bd a3 c5 97 3d 0b 5e a6 3d
       -0.045574907 -0.0411665 0.07410743 0.08123406
0001f0 77 60 98 bd 85 be f8 bc 76 bc 82 3d 27 94 b7 bc
       -0.07440274 -0.030364284 0.06383602 -0.022409512
000200 29 2e bb bd eb 1b 96 bd ed 3e a3 3d bf c0 bf 3c
       -0.09139664 -0.07329544 0.079709865 0.023407338
000210 d8 d5 5b 3d f0 ff 01 bc 8b b9 7e bd c0 88 bf bd
       0.053670734 -0.007934555 -0.062188666 -0.09352255
000220 57 b9 c9 bd 77 6d 8f bc 83 25 66 3d fd ab c8 3c
       -0.09849804 -0.017508252 0.056188118 0.024496073
000230 3b 21 4e 3d bf 1e 09 3c 38 3a ac bd fb 92 b8 bd
       0.05032466 0.008369147 -0.08409542 -0.09012409
000240 6d 88 a4 3d e2 1b bd bd 1f cc bf 3d 8f 05 d9 bd
       0.08033834 -0.09233834 0.09365105 -0.10596763
000250 a6 1f 4a 3d 10 91 99 3b eb 5e 9d 3d 11 89 6f 3d
       0.04934659 0.0046864823 0.0768412 0.058480326
000260 d2 af 6c 3d 0f f6 b0 3d c4 8e 84 bd c1 9c 41 bd
       0.057784863 0.08640682 -0.06472543 -0.047268633
000270 27 45 de bb 2c d3 69 3d 77 1f f5 bb 73 d3 77 bc
       -0.006783146 0.057086155 -0.0074805575 -0.015126097
000280 c3 fa b5 bc 2d c2 f5 3c 23 5b 97 3d 84 c2 ef 3c
       -0.022214299 0.029999817 0.0739043 0.029267557
000290 69 e6 8d bc ff 62 72 3d 45 c1 ac bd d9 e0 fb 3b
       -0.017321782 0.05917644 -0.08435301 0.007686716
0002a0 6a db 8e bd 01 49 30 3d d7 02 0d bd 35 ad df 3b
       -0.06975444 0.043038372 -0.034426536 0.006826068
0002b0 83 74 25 3b bf 8b 89 3d 60 65 e8 bc 10 5c 07 bd
       0.0025246448 0.067161076 -0.028368652 -0.033046782
0002c0 da 5e c7 bc 0f b5 cd 3c 75 c9 1e bd 9a e4 d1 bc
       -0.024337221 0.02511075 -0.038766343 -0.025621701
0002d0 15 0e 5f bc 22 58 cb 3d 19 52 92 ba e6 3c 82 3c
       -0.013614197 0.099289194 -0.0011163383 0.01589818
0002e0 ef 30 96 bd 5e ab 04 3d 82 9c ab 3d 8a 90 97 bd
       -0.07333552 0.03238999 0.08379461 -0.074006155
0002f0 88 5b 8c bd 2b 89 2e 3d c0 c1 d2 3a c3 2f ea 3c
       -0.06853396 0.042611282 0.001607947 0.028587228
000300 6f ab dd 3c 22 2e 7a bd 86 05 c7 bd 93 34 3f bc
       0.027059285 -0.061079152 -0.097178504 -0.0116702495
000310 f2 78 21 bd 3f d3 91 3d c9 71 c0 3d 62 fe 73 bb
       -0.039421983 0.0712037 0.09396703 -0.0037230481
000320 98 1d ee bd 9c 7b 66 3c 38 46 fc 3c fb ed 99 bb
       -0.11626738 0.014067557 0.030795202 -0.004697559
000330 af 2f 2f be a9 17 32 3d 82 d0 a6 3d f1 39 10 be
       -0.17108034 0.043479595 0.081452385 -0.14084603
000340 da a9 04 be 85 1b 87 3c 7e b8 90 3c 66 2d b3 bd
       -0.12955418 0.016492615 0.017666098 -0.087488934
000350 dd 4c 58 3d b7 01 8e bd 1a 65 60 3b 64 16 50 bd
       0.052807678 -0.06933921 0.0034239949 -0.050802603
000360 a1 12 09 be 69 a9 ef bd 8e 6b 19 be 42 89 a6 bd
       -0.13386013 -0.11702234 -0.14982435 -0.081316486
000370 5e 70 46 bd a6 81 f6 bd 93 47 69 3e ab 73 a8 bc
       -0.048447005 -0.12036447 0.2278121 -0.020562967
000380 24 dc ab 3d f4 d9 02 3e 32 cc e1 3d 86 0d 9e 3d
       0.08391598 0.12778455 0.11025275 0.07717423
000390 05 8c 08 be de e8 c0 bc 8a b2 ce 3d 84 10 82 bc
       -0.13334663 -0.02354854 0.100926474 -0.015877016
0003a0 45 61 b8 bd 08 4a 0d 3c a5 25 1e bd 79 ab 74 3d
       -0.09002928 0.008623607 -0.03861012 0.05973384
0003b0 63 37 89 bc b6 29 49 be f2 26 8f bd 61 03 ba bb
       -0.016750043 -0.19644818 -0.0698985 -0.0056766723
0003c0 58 7e cb 3d b2 58 be 3d 57 d1 b6 bd 6e 46 66 bc
       0.099362075 0.09294261 -0.08926647 -0.014054878
0003d0 f3 66 e2 bd 07 b8 52 3d 70 69 54 bc 8c a0 bb bd
       -0.11054792 0.051445033 -0.012964591 -0.09161481
0003e0 ff f1 c2 3c 2c 6c 5a 3d 28 44 0b 3b 02 7d cf bd
       0.023797033 0.053325817 0.002125034 -0.10131265
0003f0 1b 38 b0 3d ba 67 82 bb 4b 74 e9 bc 81 76 40 3d
       0.08604451 -0.0039796503 -0.028497836 0.046988014

net.4.bias f4 [3]
000000 e7 6e 2f bd 84 e7 4f 3c ec 8f 3e 3d
       -0.042830374 0.012689475 0.046523973
