checkpoint/residual/pushing_2_steps_residual_dynamics_model.pt (torch, 47610 bytes, 6 tensors)

net.0.weight f4 [100, 6]
00000000: 9751 7c3e 34cc 97be 7392 c53e 82cc 023f
00000010: fffe 233f 259b e1be 048d 8bbe 94bd 903d
00000020: 6d83 34bf aeaf 143f 1cb6 af3d 8afc 7fbe
00000030: f262 fbbd ab87 c2bd 67d8 a83e 278e 863c
00000040: 27b1 f33e b500 6f3e b7bb bebd ae38 113e
00000050: ba9f f03b 1007 d73e 5ed7 1ebe 0f4e 853e
00000060: eea9 2ebd b791 7c3e 60f0 38be 9810 a0be
00000070: 4dfd 643d 2fe1 38bb 7052 7ebe e728 8dbd
00000080: b589 ff3d 1278 9b3e 05ba 4cbe 6676 9b3e
00000090: de86 f73d 6230 763e 1fa4 773d c2cc 8f3e
000000a0: b3ee 693e d77b 38be 81a6 bcbe fba8 1fbe
000000b0: 0101 893e 3dee 3dbe d2ca d4be a8db 8fbd
000000c0: b70e 093d 334e 3bbe 0076 473e a761 a93e
000000d0: 44d6 ef3d ad5a 9dbe 1c17 8a3e ce62 813e
000000e0: f763 dabe 3cd7 1c3e b2df f53e 3eea 423c
000000f0: ecf4 bfbe 0183 30be 5fe3 d33e 8e49 453e
00000100: 5456 8f3e 0845 5cbe 78d0 9a3d 4874 083d
00000110: 4f30 1b3e 042d b03e 2b15 2d3d 35bc 843e
00000120: 16d9 60be cf8f 443e 92a8 a23e 26b1 953e
00000130: 9870 623e 53de 8d3e 31e9 3ebd 7374 793d
00000140: d919 96be 376a c43e 3549 c93d 8750 63be
00000150: d369 f73d 2f01 273e 89ac d6be deac ac3e
00000160: a7eb b1bc 9a61 d8be 43cb 423e 0bc5 403c
00000170: be09 d93e af5a 14bf 9cc2 18bf 938c 6e3e
00000180: 9f2b 8fbe 5a41 a13c c480 97be 5d17 ca3e
00000190: eda4 063f 926f 4a3e ee07 c53e 7ea0 31bd
000001a0: f78d 8d3c 5ac1 debd e074 563e f18a d93c
000001b0: af8f eabd 0d16 73be b77c 8cbd 877a f9bd
000001c0: 0d97 cd3d 5cd3 943e 6f46 6dbe 5f0b 783d
000001d0: 8e96 373e 59df eabd e05c 9fbe 7283 a63e
000001e0: a180 033d 7bf0 c0be 8016 2e3e f1c7 813e
000001f0: de02 183e 34d3 afbe da38 993d 6230 263e
00000200: 9cef 2fbd 2705 adbe 3eab 09bf 1a1a 7dbe
00000210: bb6c 33be 1684 9cbe 802d 4bbd ccca a23e
00000220: e870 ee3c 542d 8b3e e0f8 79be 18d1 f13d
00000230: ad77 263e a6f7 14be 4c7e 1a3e b945 913e
00000240: 967a a2be 0d56 873e 2fb8 73bd 9684 aebe
00000250: 428f c9be f807 b73e 61f6 b1bc ca05 9dbe
00000260: fa97 8ebe f0e9 c53e bd62 b53d 3ae8 463e
00000270: d519 8bbd 7ceb 383e 70c4 a43e 4205 bdbe
00000280: 81e9 a7bd 772e 0bbe cd4b 233b 89d3 e93e
00000290: a76f 91bd 7559 45be fec4 cfbe 6e88 ebbe
000002a0: 8c47 623e 0601 283c 7704 913e 48d0 d9be
000002b0: b4c1 c9be 532b 993e 98d1 bdbd 5a90 003e
000002c0: 7a95 b33e 3507 923e 48e7 133e 7d5d bf3e
000002d0: e8a9 1b3e 9886 f7bd 08bd d73d 69d0 9fbd
000002e0: e92d 203d 5350 debd 5068 45be 1174 6ebe
000002f0: acfa 99be ffae d23e 37d6 a4be f1d2 00be
00000300: b855 493e 3ec1 d63e 7d05 d53d 0177 debd
00000310: 0682 1bbf 2d75 a4be c9fd e9be 966a 9cbe
00000320: 9f67 00bf f31e 9abe 009a c3be dbd2 a43e
00000330: 2e07 ad3e 2e9b 2abe 23b2 cd3c ffbb b5be
00000340: c9ba c63e d434 2bbe 86c9 39be 5a51 833d
00000350: 11c9 62bc 9b14 25be 3cbe 783e 6de2 4bbe
00000360: f51c 40bb cc88 c1be e28f 94be f63d b03e
00000370: 4b71 6ebc 7c98 a9be b525 3c3e 8aa4 45be
00000380: 924e 49be 6d40 c4be 6d6c fd3d f765 ecbd
00000390: fd3d 71be 2329 653e 05a7 8a3e 75e3 85be
000003a0: e982 13be aa87 73be 724c 43bb b1f0 9dbe
000003b0: f55e 09be 527e 303e 49f8 c2be e6cb d3be
000003c0: 4815 8e3e 0782 57bd f450 efbc 61ff f4bc
000003d0: 4169 a23e 19f8 a93d ccb7 b9be 5bd7 693d
000003e0: 565d 37be d8a2 1d3e 9be9 83be 519d b2bd
000003f0: 8c27 7dbc f2f3 ee3d 0024 d53b b501 6bbe
0.24640499 -0.29647982 0.38588294 0.51093304 0.6406097 -0.44063678 -0.27256024 0.07067409
-0.7051304 0.58080566 0.085796565 -0.2499868 -0.12274732 -0.09498533 0.32977602 0.016425205
0.47596094 0.23340113 -0.093131475 0.14181778 0.0073432596 0.41997576 -0.15511844 0.26036116
-0.042642526 0.24664961 -0.18060446 -0.3126266 0.05590563 -0.0028210392 -0.24836135 -0.06892567
0.124774374 0.30365044 -0.19992836 0.30363768 0.12086271 0.24041894 0.060459252 0.28085905
0.22844963 -0.18015991 -0.36845782 -0.15591805 0.26758578 -0.18547912 -0.4156099 -0.07024318
0.0334613 -0.1829155 0.19478607 0.33082315 0.1171079 -0.30733243 0.26970756 0.25270694
-0.42654392 0.1531648 0.48022228 0.011896668 -0.37491548 -0.17237474 0.41384408 0.1926634
0.2799555 -0.21510708 0.075592935 0.03331402 0.15155147 0.34409344 0.042256515 0.2592484
-0.21957812 0.19195484 0.31769234 0.29236716 0.22113264 0.27708682 -0.046609107 0.06090207
-0.29316595 0.38362285 0.09828416 -0.22198687 0.12080731 0.16309045 -0.4192851 0.33725637
-0.021718813 -0.42261964 0.1902285 0.011765729 0.42390245 -0.5795087 -0.5967195 0.23295812
-0.27962968 0.019684482 -0.29590428 0.3947095 0.52595407 0.19769123 0.38482612 -0.043365948
0.017279608 -0.10876723 0.20943022 0.02655551 -0.11453187 -0.2373888 -0.06859725 -0.12181573
0.10038576 0.29067504 -0.231714 0.06055772 0.17928526 -0.114683814 -0.31125546 0.3252216
0.032105092 -0.37683472 0.1700077 0.25347856 0.14844844 -0.34340823 0.07481547 0.16229394
-0.04295312 -0.33792993 -0.5377692 -0.24716988 -0.17521946 -0.30569524 -0.04960394 0.31795347
0.029106572 0.2718302 -0.24411345 0.118074596 0.1625659 -0.14547595 0.15087241 0.28373507
-0.3173415 0.2643284 -0.059501823 -0.3408553 -0.3936711 0.35748267 -0.021723928 -0.3066848
-0.27850324 0.38655043 0.088567235 0.19424525 -0.067920364 0.1805858 0.3218112 -0.36918074
-0.08198834 -0.13591944 0.0024917007 0.456692 -0.07101374 -0.19272406 -0.4057998 -0.46002525
0.22097605 0.01025415 0.2832372 -0.42541718 -0.39405596 0.29915866 -0.092684925 0.12555066
0.3507498 0.28521124 0.14443696 0.37376013 0.15201533 -0.120862186 0.10534102 -0.07803423
0.039106283 -0.108551644 -0.19278073 -0.23286463 -0.3007406 0.41149136 -0.32194683 -0.12580468
0.19661605 0.41944307 0.104014374 -0.10862542 -0.60745275 -0.32120648 -0.45701435 -0.3055007
-0.50158113 -0.30101737 -0.3820343 0.3219212 0.3379454 -0.16660759 0.025109356 -0.35494992
0.3881438 -0.16719371 -0.18143281 0.06412001 -0.013841883 -0.16121142 0.24291319 -0.19910593
-0.0029314135 -0.3779968 -0.29016024 0.34422272 -0.014553378 -0.3312415 0.18373759 -0.19301048
-0.19658878 -0.38330403 0.12374196 -0.11542886 -0.23558803 0.22378974 0.2708055 -0.26150098
-0.14405407 -0.2378222 -0.0029800204 -0.30847695 -0.1341513 0.17235687 -0.38080052 -0.413665
0.2775061 -0.052614238 -0.029213406 -0.02990693 0.31720927 0.08299274 -0.36273038 0.057090145
-0.17906699 0.15394151 -0.25764164 -0.08721412 -0.015451323 0.116676226 0.0065045357 -0.2294987

net.0.bias f4 [100]
00000000: 963b b53e 834e 6ebe 184c 5dbe 7857 403d
00000010: 0fbb c8be 9807 9fbe 8476 c53e 7486 a53d
00000020: da5a 1dbe 3049 733e 0eb0 92be 1053 a73e
00000030: f6d0 f73c 5e1e 833e 6f31 b5be 9771 9f3e
00000040: 9cec 9a3c 6365 0bbc d12f 85be c263 cabd
00000050: e207 24be a47c 233e ed2f 8d3e f755 033e
00000060: 5788 b3be 7498 acbb 289d 953e 15d3 4ebe
00000070: b45a 943e 915f a1be df34 bbbe 75ac 61be
00000080: 2663 643e ea94 333e 18fa 873d aaa8 243e
00000090: cdb3 ca3e 68ab 64be fe93 8a3e 3686 2dbe
000000a0: f986 b73e f45c 9fbe 7063 133e 36b1 67be
000000b0: 7520 9a3e 77f6 9ebe 4ea6 8a3e 11bb 8e3d
000000c0: 9a54 b43e 6012 93be 9fe7 a2be 0eff bebe
000000d0: 3cad b8be 2d8e 28bc 204e a1be 785f 8a3e
000000e0: 3d61 9abe dbde 66be 1ed2 a1be 932f 83be
000000f0: 795f e13d bf1b c63e 767c 8dbe 65ce 0ebe
00000100: 230d a5bd 8f4e 933e 9596 6fbe b9bc d13e
00000110: 7600 9c3e 4286 b7be 82ed 473c 43b4 70be
00000120: 181a ad3e e027 56be 1a38 8e3e 767c 763e
00000130: bb06 d4be 8333 8cbe 414d 94be 5067 91be
00000140: 9701 bfbe d9b0 87be 2f06 d3bd 1049 3e3e
00000150: edb3 9b3d 290b ad3e 6cd3 9a3d 07c7 743e
00000160: 5fe9 9fbd 26e3 433e 8af6 c33e 57ca 813c
00000170: 63c4 253e f768 ad3e c4b9 a03e 89ed a0be
00000180: 6d9a 4abd 8758 28be 27ac 17bd 9678 053e
0.35397023 -0.23272137 -0.21611059 0.046958417 -0.39205214 -0.3106048 0.38566983 0.080822855
-0.15366688 0.23758388 -0.28649944 0.3268056 0.030251008 0.25609106 -0.35389277 0.3114135
0.018911652 -0.008508059 -0.26013044 -0.098823085 -0.16018632 0.15965515 0.27575627 0.12825762
-0.35064957 -0.0052671973 0.29221463 -0.20197709 0.2897545 -0.31518224 -0.36563775 -0.22038443
0.22303447 0.17537275 0.066394985 0.16079965 0.39590302 -0.22331011 0.27066034 -0.16945729
0.35845163 -0.31125605 0.14393401 -0.22626194 0.30102888 -0.31047413 0.27080005 0.06969274
0.35220796 -0.28724957 -0.31817338 -0.37303966 -0.36069667 -0.010287804 -0.31504917 0.27025962
-0.30152312 -0.2254595 -0.3160562 -0.25622234 0.11004538 0.38693044 -0.2763402 -0.13945921
-0.08059146 0.28770873 -0.23397286 0.40964296 0.30469102 -0.35844618 0.012202622 -0.23506264
0.3380897 -0.20913649 0.27777177 0.24070916 -0.41411385 -0.2738305 -0.2896519 -0.28399134
-0.373059 -0.26502112 -0.10303914 0.18582559 0.076026775 0.33797577 0.07559857 0.23904048
-0.07808184 0.19129619 0.38274032 0.015843553 0.16188197 0.33869144 0.31391728 -0.31431225
-0.04946368 -0.1644002 -0.03702941 0.13034281

net.2.weight f4 [100, 100]
00000000: 191f a2bd 4a50 9d3c 2d37 69bd 134a ab3c
00000010: 8ce5 783d 3926 bd3d d07e 5d3d 5447 b2bd
00000020: 2056 96bd 6c9f f73c 3d00 8ebd 6d1f 113d
00000030: eb8e c23d a508 a33d 0996 e03c 335b 91bd
00000040: fb99 3abd 41c9 1b3d c395 b83d a124 193d
00000050: 57ca 1cbd a76a bd3d d3ba 6f3d 7762 b03d
00000060: 1624 b3bd e12d 9e3c d936 843d 752a b1bd
00000070: c515 7f3d 908f b73d 82b2 af3d 8545 7dbd
00000080: b94e c13d 5984 ddbc 7e05 8d3d 3e4e 96bd
00000090: c1cb a7bd 4011 56bd bbaa c5bc 8167 643d
000000a0: 2ac5 c0ba 8079 cbbc 3a4b 11bc e901 bfbd
000000b0: 0c99 273d cb03 be3d 00d2 e73b 1576 9d3d
000000c0: 6fa7 9f3d 0181 853d 704f 99bd f7a6 063d
000000d0: 7d85 763c 21d9 42bd fa26 fe3c 0555 28bd
000000e0: a8bc b5bc 8584 48bd b0c4 323d 83eb 223d
000000f0: 3683 723d 4357 76bd e80b b93d b0bf aebd
00000100: 09a6 90bd 5e92 b3bd e570 89bd 0fc2 02bd
00000110: 90aa 743d 39ca bdbd 9deb 72bc b4fe 43bd
00000120: 064f 853d 7299 9e3b aed1 bf3d 7b17 da3c
00000130: 8270 a23b de78 9ebd 1f9a b53c 6960 84bd
00000140: 784f 36bd 4a93 e1bc dd93 e73b 533e b43d
00000150: 630c cd3d 53cf 183d c790 9abd 7d27 17bd
00000160: c723 a03d a1ee f03c 274f 9e3c 7b82 1e3d
00000170: bd6d ab3d 7740 9d3c 5f4a babd 2d84 b63c
00000180: 967a 793d 7635 2dbc 87e7 07bc 68e0 9fbd
00000190: 73b8 1bbc fc9d a33b 272f babd 6ded dd3d
000001a0: 0e37 a63d 8ae5 eabc b80e 733c e94d 3abd
000001b0: 496a c2bc 1dcd 85bd c4f4 4e3d b8cc ac3d
000001c0: 9e97 233d cf90 3fbd f3a6 58bd 7d02 7dbd
000001d0: cd27 a6bd ad7f 593c 6dc8 9d3d f673 9f3d
000001e0: e5ff 1d3d 0d7e 223d 4bb6 d3bc a3be 323d
000001f0: a3fd 923d cfcf 81bd 508b 0e3d ae5a 49bd
00000200: bc77 473d 0326 fa3c cfcd 2b3c 145e 693d
00000210: 6a80 83bd 0060 e03d 9a1f 233d 6f66 06bd
00000220: 4a29 c9bc c148 fe3c 925b 39bc 19e1 afbd
00000230: 32dd 0ebd 251c bf3d d086 bdbd e583 a23c
00000240: c0cb 353d 0431 f6ba 1668 713d 8189 2ebd
00000250: 09e9 97bd 2b16 193d 4913 6bbd b85c f2bb
00000260: a2e9 46bd 6f87 80bd 6de0 423d e9c7 c9bc
00000270: 122b 08bd 3b7b babc 2ce8 b0bd 4bee bc3c
00000280: f138 cd3c 45b2 393d d081 65bc fb9e b23d
00000290: cd58 013c 1d9c 14bd 5d03 50bc 1a0b ba3c
000002a0: ca16 033c b53f d23b b962 363b 473b d13d
000002b0: ca95 59bc 89e3 163d 436d bfbd ee20 08bd
000002c0: 4a64 12bd fb4c 00bd 3b23 58bd 3b23 72bd
000002d0: 15b0 c83c 6c91 34bc 93b7 973d 88e0 833d
000002e0: 9645 4e3d e1c4 6d3d 1ad0 3fbd 75ad c9bd
000002f0: 11ab a0bd 9e65 d2bd b87f 1f3c 74b7 54bd
00000300: e1b0 393d 5ed8 9f3d e870 32bc 5624 01bd
00000310: c213 263d 9661 8f3d 5d31 e9bc 3e56 a2bd
00000320: deaa 9ebd 29fe 36bd 2e50 9abd ff08 b1bd
00000330: 887d 0c3d fa20 38bd 914d 253d 165b f33c
00000340: 7638 973c 16d6 a83c 61f0 28bd e714 b33d
00000350: 0453 923d bee0 4aba 1ce4 ab3c 6ec1 403d
00000360: 4f7b af3d 622a 933c d8b8 94bd 29b5 913d
00000370: 8484 863d e95e f23d 3f8b c33d 6e36 003d
00000380: 920b afbd 0075 a3bc 8841 24bd a8c7 93bd
00000390: 9673 e93c 82d7 90bb 1c8c 15bd 474f 50bc
000003a0: f477 633d 6e57 9b3d 7c7c 13bd 2ef2 9a3d
000003b0: 45d7 2a3d 3646 b6bd 6263 bcbd 4ce1 643d
000003c0: 5908 70bc c75e cbbd f7e8 07bb 140b 4a3d
000003d0: 3276 1abd 55b6 20bc 034d cdbd 70ba c5b9
000003e0: f4da 8d3d 0717 a2bd 30c2 7a3c 6f12 ed3d
000003f0: 333a 6cbd a385 ddbc 9b3b 603c 75ad b2bd
-0.07916088 0.019203324 -0.056937385 0.020909345 0.060765788 0.09235806 0.054076016 -0.08705011
-0.07340646 0.030227385 -0.06933639 0.03543036 0.09499916 0.07960633 0.027415292 -0.07097473
-0.045557003 0.038033728 0.0901294 0.037388448 -0.038278904 0.09248858 0.05852778 0.08612531
-0.08747117 0.019308986 0.06455774 -0.08650676 0.06227662 0.08962929 0.085789695 -0.061833877
0.09438843 -0.027040647 0.06885813 -0.07339142 -0.0819316 -0.052262545 -0.024129262 0.05576277
-0.0014707197 -0.02483821 -0.008868033 -0.09326536 0.04091744 0.09278067 0.0070745945 0.07688538
0.07795607 0.06518746 -0.074858546 0.032874074 0.0150464745 -0.04757035 0.031024445 -0.041096706
-0.022184685 -0.048954505 0.043644607 0.039775383 0.059207164 -0.060141813 0.09035474 -0.08532655
-0.07062919 -0.08768152 -0.06710986 -0.03192335 0.059732974 -0.092670865 -0.014826682 -0.047850326
0.06509213 0.0048400695 0.09366165 0.026622524 0.0049572596 -0.07737897 0.022168217 -0.06463701
-0.04450938 -0.027536053 0.007067187 0.0880095 0.10012128 0.037307095 -0.07547145 -0.036902893
0.07819324 0.029410662 0.019324852 0.038698655 0.0837054 0.019195778 -0.090962164 0.022279823
0.060907923 -0.010571828 -0.0082949465 -0.07806474 -0.009504425 0.0049931984 -0.09091025 0.10836301
0.081159696 -0.028673906 0.014835052 -0.045484457 -0.023732321 -0.06533263 0.050526395 0.084374845
0.039939515 -0.04676896 -0.05289359 -0.06176995 -0.0811306 0.013275069 0.07704244 0.0778579
0.03857412 0.039670993 -0.02584376 0.043638837 0.071772836 -0.063384645 0.034800828 -0.049158745
0.048698172 0.030535704 0.01048608 0.056974486 -0.064209774 0.109558105 0.03982506 -0.032812532
-0.024555821 0.031040551 -0.011313336 -0.08587856 -0.034878917 0.0933154 -0.09254229 0.019838283
0.044383764 -0.0018782918 0.058937155 -0.042611603 -0.07417495 0.037374657 -0.05739144 -0.007396307
-0.048562653 -0.06275832 0.04757731 -0.024631457 -0.0332442 -0.022763839 -0.08638033 0.023062846
0.025051566 0.045336027 -0.0140080005 0.08721729 0.007894707 -0.036281694 -0.012696114 0.022710372
0.008001039 0.006416286 0.002782984 0.102163844 -0.013280341 0.03683809 -0.09347012 -0.03323453
-0.035740174 -0.031323414 -0.052767973 -0.05911563 0.024498025 -0.011020999 0.07408061 0.0643931
0.05035933 0.058049086 -0.04682932 -0.098475374 -0.07845128 -0.10273288 0.00973504 -0.051932767
0.0453347 0.07804941 -0.010891177 -0.031528793 0.040546186 0.07001035 -0.028465921 -0.07926606
-0.07747434 -0.04467598 -0.07534824 -0.08644294 0.034299403 -0.044953324 0.040357176 0.02970652
0.01845954 0.020609897 -0.04124487 0.08744221 0.0714474 -0.00077391777 0.020982794 0.04705947
0.08568441 0.017964546 -0.07261819 0.07114632 0.06568244 0.11834509 0.095480435 0.03130191
-0.08547129 -0.01995325 -0.040101558 -0.07215816 0.028497498 -0.004420222 -0.03651057 -0.012714214
0.055534318 0.07585035 -0.03600739 0.07565723 0.041709203 -0.089001104 -0.09198643 0.055878922
-0.014650428 -0.09930187 -0.0020738223 0.04932697 -0.037710376 -0.009809096 -0.100244544 -0.00037713675
0.069265276 -0.07914548 0.015305087 0.115757816 -0.05767269 -0.027041262 0.013686086 -0.087244906

net.2.bias f4 [100]
00000000: 9b0a 5cbc cf6b 85bd 35bb 81bd 661f 45bc
00000010: 611a 393d 9b8e b6bc a53b be3d 0ef0 7d3d
00000020: 9b24 49bc 70f2 a8bd 3e07 0dbc ffa6 fbbb
00000030: 3bd1 a8bc a637 36bc a285 be3c 4b2f fcbc
00000040: 5146 733d 09c7 473d 5dc5 b93c 5f79 3bbd
00000050: d797 a3bd df47 aabd 98e7 c93d 42f4 873d
00000060: 6cef 3abd 9d38 0dbc 1486 eb3c 4a4d 76bc
00000070: 22de 6b3d 6e08 20bc 9800 d2bb b5b1 963d
00000080: 6141 433c d9d8 c03d 2fb4 973d 483b 063d
00000090: 1a4b 4c3c 0e91 823c 93e6 a2bb 2e32 5abd
000000a0: 4b65 e93a d6ab 9c3d 76f2 7a3d 4c28 c4bd
000000b0: 5e44 71bc 5ccc acbc 9c6d 12bc 262a b53d
000000c0: 7d2f 233b ec6f a33d e5ab 43bd 5d11 eebc
000000d0: 5c68 09bd c0b2 4abd 7fea dd3d 2892 8fbd
000000e0: 42f8 153d f8ea abbd beac 873d b0ef bc3d
000000f0: 3034 5dbd 0c2d 973d 9f1d 92bd 1c79 9d3d
00000100: fc86 483d d4e5 b63d 75cb 883c f34b 75bc
00000110: e4c8 05bc d165 2fbd 606e 853d b3ce 52bd
00000120: 0750 f4bb 6794 443d 45ab a8bd 6369 893d
00000130: c84c ff3c 9fda 26bd b64f f23c d30d abbd
00000140: cdd8 1fbd 1e5a 13bd 34b1 c03d 9faa afbd
00000150: 8294 29bd c689 a2bd e634 083e 636e 84bb
00000160: de54 953b 3a6a bfbc 23c8 a63d 159c 98bc
00000170: dbc8 b43d 32ae 9f3c 09f9 abbd e598 c23c
00000180: 37dc b4bd 4ca6 63bd 90c7 3abd 4c10 71bc
-0.013430263 -0.065147035 -0.06334535 -0.012031412 0.045191173 -0.022284796 0.0928872 0.061996512
-0.012276794 -0.08249366 -0.008607684 -0.0076798196 -0.020607581 -0.011121666 0.02325708 -0.03078427
0.05939323 0.0487738 0.022677118 -0.045770045 -0.079879455 -0.083144896 0.09858626 0.06638385
-0.045638487 -0.008619455 0.028750457 -0.015033076 0.05758489 -0.009767635 -0.006408762 0.07358114
0.011917443 0.094163604 0.07407414 0.03277138 0.0124690775 0.015938308 -0.0049713342 -0.05327051
0.0017806677 0.076499626 0.061266385 -0.095779985 -0.014725773 -0.02109354 -0.008937266 0.0884593
0.0024900131 0.07980332 -0.047771353 -0.029061014 -0.03354679 -0.049486876 0.10835742 -0.07010299
0.03661371 -0.08394426 0.06624745 0.09225404 -0.054004848 0.07381639 -0.07134556 0.076891154
0.048956856 0.08930555 0.016698578 -0.014971721 -0.008165572 -0.04282171 0.06515193 -0.051466655
-0.007455829 0.04799309 -0.08235792 0.06709554 0.031164542 -0.040735837 0.029579025 -0.08352246
-0.039025117 -0.035974614 0.09408799 -0.08577465 -0.041401394 -0.079364344 0.13301429 -0.0040414794
0.004557236 -0.023366082 0.08143642 -0.018629113 0.08827373 0.019492242 -0.08397109 0.023754546
-0.08831065 -0.055578515 -0.045600474 -0.014713358

net.4.weight f4 [3, 100]
00000000: bab3 b3bd 12eb ce3d 9a02 bd3c ba37 6f3c
00000010: 7369 20bd e49e 11bd 27ae bcbc 78d6 a13d
00000020: 9050 973d c5ed d4bd 4c3d 3a3d e417 b93c
00000030: 4769 63bd ac8a 3838 8d5f bf3d 5134 2cbc
00000040: a81e 9abd 91fe 9ebd a373 913d e8b2 92bd
00000050: 35e1 48bd 5ee9 e33a d96c a9bd 9b73 5f3d
00000060: ddb7 c73d a634 8ebd becd 8abd de15 493c
00000070: 01c9 cdbd fa71 95bd c777 463d e609 423c
00000080: 8005 c83d b78c 373c 1ca3 133d 302e ce3d
00000090: e04b e03c 2331 3cbd b920 dc3c 01fa 5abd
000000a0: 5bce 313d 3790 b83d d686 1abd aad2 8b3c
000000b0: 6c6f 833d 6abb bb3d aa37 8b3d 859b b03d
000000c0: 6653 603d c579 b1bb 8e78 993d c8dd 9dbd
000000d0: 8c79 773d bc3d 9c3d 4027 c73b 902a 2fbc
000000e0: 5c42 8ebc 3515 5ebd c54e 673d b922 a9bd
000000f0: 8f71 37bb 3c09 753d 8f11 c4bd 00a3 ad3d
00000100: 32fd 1e3d 903d 8dbd 123d a6bd e212 55bd
00000110: a742 a63d b47a 66bd 6a9f a8bd 2beb 163d
00000120: 5a5b 883d c2b8 e93c e02e 9b3d 1b46 033d
00000130: 0d3a 003d 827a 923d cd66 ff3c 0fc0 0a3d
00000140: 8618 8dbc f919 4a3d 9154 843c 81ca 53bd
00000150: 37e1 abbb f92b 693d 55fb 32bc f51b bebd
00000160: 953e c63c 1d7a 893d 3732 4b3c fd93 ff3b
00000170: d963 aebc 3e3e c3bd 0af2 683d 03b2 febc
00000180: e4a6 7ebd 70ed bcbd b5c8 c1bd 9665 9dbd
00000190: cc5e 6d3d 00a9 493c e7d0 3fbd 0073 9ebd
000001a0: 04e0 203c 492f 7e3d 884b be3b 7b58 7abd
000001b0: 5cc8 89bb 373f 1c3c 7312 5a3b f532 3cbd
000001c0: 610f 323d bfc2 ae3d 7afb ca3d e779 c2bd
000001d0: aeb7 a3bc 4104 8abb 5b3d abbc b6b8 ab3d
000001e0: ed16 bcbd b959 4e3d 13e2 0dbd 8290 64bd
000001f0: bd42 cbbc 2855 1e3d 3bd5 3ebd 1e07 4abd
00000200: 8f73 08bd 5f88 c13d e7dd 6b3d 771b 6bbd
00000210: c9b2 c83b 841f 8b3c 3c81 c4bd 1c3c 72bd
00000220: 822b be3d 5196 b9bd 851b 293d 7d0c e03c
00000230: 8e1d ea3b 3d1c 7a3c e38b b93d d285 b83d
00000240: fcec 4fbd ba48 04bd 99d7 fe3c 39e2 cd39
00000250: 892e 95bb 5bd2 173b 7a24 a03d f7bb 7f3d
00000260: b29b a1bd 9065 5cbd 7f8c 1c3c d73f c33b
00000270: 18ae 89bd 05ff a5bd 315f 013d d9ca 7f3d
00000280: f0c1 ffbc a400 c5bd 7973 593d b6d5 babd
00000290: 2553 c03d 6ada 34bd 8023 acbd 30cd 31bd
000002a0: 2cc8 cb3d 3758 b53d 7e30 c4bc 585f 9cbd
000002b0: 545a 913d 04d9 6ebd 578c 623b 4bc1 89bd
000002c0: 8ef0 93bb 5989 713d ef28 43bd fb02 0dbc
000002d0: bf14 5c3d 8c16 b8bd 3318 c03d cd4b a23d
000002e0: 9a47 033d 4906 8fbc 1420 85bb 4a29 8a3c
000002f0: 0dbb 8abd c2c6 bb3b fb85 473d 6fec 9c3d
00000300: d0c8 adbd 9959 72bd a657 d03d 61df 7b3d
00000310: 3fc8 313d 0c7e d9bc 681e b2bd 8271 c23d
00000320: 023d a13d 8372 33bb 96d5 3e3d 5757 c0bc
00000330: 4b26 c8bc 4791 42bd 5f15 96bd 2322 303e
00000340: 0cb9 63bd 7792 a13d 6684 633e f693 dcbd
00000350: fe3d 9ebd 094a 6b3e accd 37bd 99b0 8d3d
00000360: 934f 9c3d d3fa 1f3e 0161 8f3d b82b 34bc
00000370: ef45 b9bd eee1 9abd 2d16 963c bae1 963c
00000380: 5661 303d 42c6 d1bd 07d4 78bd 3015 3f3d
00000390: 8fed 783d c359 32be 5263 1e3e 2fdb dcbd
000003a0: 30a2 803d 101e 053e bf44 f0bd e95c 863d
000003b0: d519 003d 3bc0 003e d1d0 743d 2b50 01be
000003c0: 6171 063e aab3 0fbe 2cb2 e63d c780 46bd
000003d0: a6a4 4b3c 7706 18be da5f 1abd dd25 5cbe
000003e0: f333 273d 4178 c4bd f099 3fbd f812 d6bd
000003f0: abba c1bd 2b48 debd f800 cf3d aed1 ddbc
-0.087745145 0.1010343 0.02307253 0.014600689 -0.039163064 -0.03555192 -0.023032261 0.07902235
0.07388413 -0.103969134 0.045468614 0.0225944 -0.055520322 4.3998167e-05 0.09344397 -0.01051052
-0.075253785 -0.077633984 0.07102134 -0.0716303 -0.0490429 0.0017388274 -0.08272714 0.05455361
0.09751866 -0.06943636 -0.067775235 0.01227328 -0.10048104 -0.0729713 0.048454072 0.01184318
0.09766674 0.011202983 0.036044225 0.10067403 0.02737993 -0.045945298 0.026871072 -0.05346108
0.043409687 0.09011882 -0.037726246 0.017068226 0.064177364 0.09166606 0.067977265 0.08623413
0.054767035 -0.0054161274 0.07493697 -0.07708317 0.06041865 0.076289624 0.006077677 -0.0106913
-0.017365627 -0.054219443 0.056471605 -0.08258576 -0.002799127 0.05982326 -0.095736615 0.084783554
0.038815685 -0.06896508 -0.08117117 -0.05201996 0.08118182 -0.056269363 -0.08233531 0.036845367
0.06658049 0.028530482 0.075773 0.03204928 0.03130536 0.07152273 0.031176949 0.033874568
-0.017223608 0.049341176 0.016153606 -0.051706795 -0.0052453536 0.0569267 -0.01092418 -0.09282676
0.024199763 0.067127444 0.012402109 0.007799624 -0.021287845 -0.09533356 0.05687145 -0.031090742
-0.062170878 -0.09224975 -0.0946211 -0.076853916 0.057951733 0.012308359 -0.046830084 -0.07736778
0.0098190345 0.062056813 0.005807344 -0.061119538 -0.004204793 0.009536556 0.0033275157 -0.045947034
0.043471698 0.085332386 0.099112466 -0.09495907 -0.019985046 -0.004211933 -0.02090328 0.0838484
-0.0918406 0.050378535 -0.03463943 -0.055801876 -0.024812097 0.03865543 -0.04659007 -0.049323194
-0.03331333 0.09449839 0.05758467 -0.05739924 0.0061248285 0.016982801 -0.09594962 -0.059139356
0.09285642 -0.09061874 0.04128601 0.027349705 0.0071446365 0.015265522 0.090598844 0.09009899
-0.050763115 -0.03229592 0.031108664 0.00039269196 -0.0045526666 0.0023166153 0.07819457 0.062435117
-0.07891025 -0.053807795 0.009554981 0.005958538 -0.06722659 -0.08105282 0.031584922 0.06244931
-0.031220406 -0.09619263 0.05308864 -0.091227934 0.093908586 -0.04415361 -0.084052086 -0.043408573
0.09950289 0.08854716 -0.023948904 -0.07635373 0.07097307 -0.05831243 0.0034568512 -0.06726321
-0.0045147603 0.058968876 -0.04764646 -0.008606668 0.053730723 -0.089886755 0.09379616 0.07924614
0.032050706 -0.017459052 -0.004062662 0.016865391 -0.06773958 0.005730481 0.048711758 0.07662284
-0.084855676 -0.05916748 0.101729676 0.061492328 0.04340386 -0.026549362 -0.08697206 0.09494306
0.078729644 -0.0027381487 0.04659041 -0.023479147 -0.024432322 -0.04750183 -0.07328295 0.17200522
-0.055596396 0.07889264 0.22218475 -0.10770409 -0.07726668 0.22977461 -0.04487388 0.06918449
0.07632365 0.15623026 0.07000924 -0.0109967515 -0.09046542 -0.07562624 0.018321121 0.018418182
0.043061577 -0.10242893 -0.06074908 0.046651065 0.06077343 -0.17417054 0.15467575 -0.107839935
0.06280935 0.12999749 -0.11731862 0.0656069 0.031274635 0.1257333 0.059769455 -0.12628238
0.13129188 -0.1403338 0.11264452 -0.048462655 0.012429392 -0.14846216 -0.037689067 -0.21498819
0.040821027 -0.09593249 -0.046777666 -0.10452837 -0.09459432 -0.10853609 0.10107607 -0.027077522

net.4.bias f4 [3]
00000000: 3234 353c f063 853d 2829 d8b9
0.011059808 0.06513202 -0.00041229394
