checkpoint/residual/pushing_5_steps_residual_dynamics_model.pt (torch, 47610 bytes, 6 tensors)

net.0.weight f4 [100, 6]
0.10692175 -0.26357776 -0.34729472 -0.29065534 -0.09756253 -0.023185482 -0.40654778 -0.1979258
0.18752953 0.19940421 -0.08443975 -0.37910062 -0.11453569 -0.15169086 0.34581718 -0.16152774
0.37156114 0.0757131 0.2970711 0.085266955 0.09625524 -0.312479 -0.39925417 0.39015618
-0.33369818 -0.15579656 0.0074393777 -0.11561092 0.34839764 -0.2773078 0.274548 -0.1631542
0.31590357 0.34070325 -0.22852819 0.11979866 -0.3699111 0.25228864 0.21645431 -0.040371433
0.20913889 0.16889605 -0.16936122 0.34479284 0.40526417 -0.31011516 -0.087728 0.20863093
-0.40440422 0.3893751 0.13169394 0.15737751 -0.2827093 -0.28850833 0.20776378 -0.12948765
-0.12053685 0.1389732 -0.3671405 -0.1762563 -0.118812285 -0.079366446 -0.09622843 0.29322895
0.5054434 -0.40483338 -0.2308791 0.07997183 0.10340452 0.012289468 -0.056701176 0.22611216
-0.03952166 -0.30315438 0.27379346 -0.13584839 -0.33212903 -0.05099233 0.27424464 0.098370165
-0.3600299 0.26365328 -0.32823685 -0.30753708 0.11006005 -0.21822569 0.07528569 -0.004869129
0.34380907 0.34733203 0.3871838 -0.20932232 0.14423113 0.23426442 -0.3774669 -0.083997086
0.25192016 -0.124723114 -0.26648712 0.1060693 0.20811257 -0.14483976 0.20216261 0.057514776
-0.14109403 0.37257454 0.094918594 -0.22890158 -0.07604423 0.14751129 -0.24391001 -0.42720038
-0.17161903 0.27347925 -0.11421268 -0.05218596 -0.101834774 0.365582 0.096508905 0.1969164
0.21039346 0.041845214 -0.2378996 -0.30232528 0.24161941 -0.20561275 -0.0035582022 -0.15744683
0.3228572 -0.17175227 -0.37894636 -0.28656825 0.13853659 -0.2198294 0.21317628 -0.28296763
0.2914882 0.09462535 0.11948092 0.36855826 0.097006574 -0.23114973 0.14357992 0.012868313
-0.1952369 0.35874093 -0.05418228 0.30577162 -0.09927373 -0.28177023 -0.35490468 0.051678583
-0.14242496 -0.4046595 -0.32997066 -0.25542885 -0.08545043 0.36652124 0.09285723 -0.35536578
0.280348 -0.39172816 0.33780095 -0.39243305 -0.24844359 0.33722994 0.35444456 0.3930154
0.17497602 0.15106076 0.3165576 -0.24940202 0.15907371 -0.310791 -0.1443537 -0.3728977
-0.2632496 0.24153501 -0.20844848 -0.08150619 -0.18649203 0.20388782 -0.20652683 0.4591374
0.53556514 0.15487474 0.31384015 -0.21706465 0.24703941 0.09775153 -0.035595343 0.16554935
0.06335806 -0.004751715 -0.2987993 -0.09211137 0.040683687 -0.33013812 -0.290745 0.28939477
-0.14228979 -0.100678355 -0.23501809 0.16649027 -0.35732338 -0.31101716 -0.14755395 0.24882323
0.24267071 -0.30739212 -0.1146521 -0.13139106 -0.15643346 0.074183755 -0.28658423 -0.15583296
0.12428768 0.2849643 -0.023711244 -0.19217001 -0.062118217 -0.11056598 -0.40500572 -0.11330013
-0.3916637 -0.35109532 -0.09246362 0.18206304 0.14456482 -0.037663177 -0.124186866 0.32350996
0.33215255 0.2173559 0.39064392 -0.33985382 0.002532566 -0.03041297 -0.24649435 -0.25488698
-0.22417901 -0.011890607 -0.22530276 -0.080338635 0.19973926 -0.11561175 -0.08531603 0.2259743
0.03273324 0.1641523 -0.115537 -0.054199383 0.23460664 -0.38528737 0.3921599 0.32019594
00000000: caf9 da3d aaf3 86be 9dd0 b1be c7d0 94be
00000010: ddce c7bd 7bef bdbc 0827 d0be 10ad 4abe
00000020: be07 403e 9e30 4c3e bfee acbd 7a19 c2be
00000030: b091 eabd d954 1bbe f30e b13e 8767 25be
00000040: 433d be3e 780f 9b3d b419 983e 71a0 ae3d
00000050: 7821 c53d 3ffd 9fbe 0b6b ccbe 8dc2 c73e
00000060: 7dda aabe 2289 1fbe 06c6 f33b 6bc5 ecbd
00000070: 2d61 b23e 4afb 8dbe 8e91 8c3e e511 27be
00000080: 1dbe a13e a870 ae3e 4b03 6abe 0059 f53d
00000090: fd64 bdbe fa2b 813e 33a6 5d3e 845c 25bd
000000a0: 8128 563e 16f3 2c3e 076d 2dbe b088 b03e
000000b0: c97e cf3e 6ac7 9ebe bdaa b3bd 59a3 553e
000000c0: 120e cfbe 2c5c c73e c7da 063e 9227 213e
000000d0: 46bf 90be 5db7 93be 07c0 543e 6998 04be
000000e0: 06dc f6bd fe4e 0e3e d7f9 bbbe 887c 34be
000000f0: db53 f3bd e08a a2bd 6913 c5bd 1b22 963e
00000100: bd64 013f 5246 cfbe 926b 6cbe 45c8 a33d
00000110: c0c5 d33d c459 493c 7e3f 68bd f289 673e
00000120: 77e1 21bd 0d37 9bbe a82e 8c3e d71b 0bbe
00000130: d10c aabe 55dd 50bd cb69 8c3e 4c76 c93d
00000140: d755 b8be 90fd 863e a90e a8be 8075 9dbe
00000150: 2a67 e13d 8e76 5fbe 622f 9a3d 378d 9fbb
00000160: be07 b03e 81d5 b13e f43c c63e 9758 56be
00000170: 53b1 133e 03e3 6f3e 5743 c1be aa06 acbd
00000180: aefb 803e d56e ffbd 0071 88be dc3a d93d
00000190: 761b 553e e050 14be b703 4f3e 9d94 6b3d
000001a0: f47a 10be 17c2 be3e ae64 c23d 2d65 6abe
000001b0: 14bd 9bbd 330d 173e 8cc3 79be 02ba dabe
000001c0: e6bc 2fbe 7905 8c3e 56e8 e9bd f2c0 55bd
000001d0: c08e d0bd 902d bb3e 76a6 c53d 74a4 493e
000001e0: 6271 573e e365 2b3d f49b 73be 61ca 9abe
000001f0: 146b 773e 268c 52be ba30 69bb be39 21be
00000200: 8a4d a53e d4df 2fbe 4205 c2be 13b9 92be
00000210: 89dc 0d3e f51a 61be e24a 5a3e 22e1 90be
00000220: f13d 953e efca c13d 6ab2 f43d abb3 bc3e
00000230: 62ab c63d 84b2 6cbe 9d06 133e 9ed5 523c
00000240: 2fec 47be e4ac b73e 3dee 5dbd 198e 9c3e
00000250: 0650 cbbd 3044 90be 11b6 b5be ecac 533d
00000260: d9d7 11be 882f cfbe eaf1 a8be 92c7 82be
00000270: a300 afbd aca8 bb3e ee2b be3d 81f2 b5be
00000280: c689 8f3e 9890 c8be 3ff4 ac3e fcec c8be
00000290: ff67 7ebe 67a9 ac3e c279 b53e 5139 c93e
000002a0: ea2c 333e acaf 1a3e d613 a23e 3e63 7fbe
000002b0: 38e4 223e ff1f 9fbe 75d1 13be 73ec bebe
000002c0: a7c8 86be f454 773e 8573 55be b8ec a6bd
000002d0: c4f7 3ebe f8c7 503e c57b 53be 0f14 eb3e
000002e0: cc1a 093f 7c97 1e3e a8af a03e 3246 5ebe
000002f0: e6f7 7c3e f431 c83d 6ccc 11bd c585 293e
00000300: dfc1 813d 46b4 9bbb 39fc 98be e3a4 bcbd
00000310: f0a3 263d dd07 a9be 87dc 94be 8d2b 943e
00000320: 6ab4 11be 7430 cebd 95a8 70be 6d7c 2a3e
00000330: 17f3 b6be a43d 9fbe 6218 17be 84cb 7e3e
00000340: ac7e 783e 8062 9dbe b8ce eabd 618b 06be
00000350: 1830 20be a7ed 973d 2bbb 92be ad92 1fbe
00000360: 8a8a fe3d d7e6 913e 153e c2bc 37c8 44be
00000370: ac6f 7ebd 6b70 e2bd e95c cfbe e609 e8bd
00000380: 2588 c8be c4c2 b3be 915d bdbd bc6e 3a3e
00000390: cd08 143e b444 1abd af55 febd 19a3 a53e
000003a0: e60f aa3e 8c92 5e3e 7b02 c83e 5201 aebe
000003b0: 68f9 253b 9f24 f9bc 0469 7cbe 8c80 82be
000003c0: 2f8f 65be d2d0 42bc c4b5 66be 9588 a4bd
000003d0: 7388 4c3e dac5 ecbd 2cba aebd cf65 673e
000003e0: 4a13 063d 8a17 283e aa9e ecbd 2c00 5ebd
000003f0: b93c 703e 6344 c5be 2fc9 c83e b9f0 a33e

net.0.bias f4 [100]
-0.048568845 0.25410116 -0.014061841 -0.20412455 0.09114257 -0.26754254 0.189167 -0.09225297
0.11881062 0.14231247 0.30993566 0.082149446 -0.1356114 -0.37090102 -0.14264403 0.19903502
0.3989374 0.33376405 -0.36532834 -0.32378012 -0.31836122 -0.28960964 -0.3032968 0.3986392
0.20876752 0.32614127 0.29478994 -0.13717434 0.085171886 0.039998706 0.13660905 0.30365685
-0.23381583 -0.16805613 -0.37798163 -0.32280022 0.114358634 -0.3408032 0.31144032 -0.28990084
0.019281168 -0.07763877 -0.14285037 -0.32461682 0.35149252 0.377911 0.29760927 0.121713795
-0.22929645 0.28865618 -0.123040214 0.0750042 0.22503975 0.12579998 -0.18322562 0.24520262
-0.37285623 0.043546937 0.26358518 0.25651523 -0.05799135 0.2644099 0.09686444 0.33468136
-0.26197964 -0.20763205 -0.15658426 -0.39353567 0.06869886 -0.15495647 0.34417942 0.10472587
-0.037402164 0.31871223 -0.19031882 -0.2785554 -0.378609 0.04385098 0.39815697 -0.25538146
-0.14052445 0.069750875 0.222084 0.0025346084 -0.37512997 0.12162124 0.18515816 -0.2990034
0.31936967 -0.046991955 0.3749278 0.2840569 -0.15279189 0.33084357 -0.36996427 -0.35622597
-0.3670267 -0.08443262 -0.22605494 0.27611876
00000000: 20f0 46bd 8c19 823e a363 66bc 0706 51be
00000010: f5a8 ba3d 56fb 88be feb4 413e 20ef bcbd
00000020: fb52 f33d 5cba 113e e3af 9e3e f83d a83d
00000030: b7dd 0abe bde6 bdbe 4711 12be d6cf 4b3e
00000040: 8641 cc3e 1fe3 aa3e 510c bbbe 82c6 a5be
00000050: 3e00 a3be b747 94be b849 9bbe 701a cc3e
00000060: 27c7 553e fdfb a63e b5ee 963e 6e77 0cbe
00000070: 996e ae3d afd5 233d 3ee3 0b3e e978 9b3e
00000080: 6b6d 6fbe e816 2cbe cf86 c1be 1246 a5be
00000090: dc34 ea3d c27d aebe 1b75 9f3e e26d 94be
000000a0: 8af3 9d3c 1301 9fbd 5e47 12be 2d34 a6be
000000b0: d4f6 b33e 8d7d c13e 3e60 983e 1545 f93d
000000c0: b0cc 6abe beca 933e 82fc fbbd cd9b 993d
000000d0: d270 663e b6d1 003e 7f9f 3bbe 6516 7b3e
000000e0: 03e7 bebe 465e 323d a3f4 863e f755 833e
000000f0: 5688 6dbd bc60 873e dd60 c63d 5b5b ab3e
00000100: 3222 86be 7f9d 54be a057 20be 827d c9be
00000110: fdb1 8c3d e9ac 1ebe 4938 b03e 847a d63d
00000120: 0333 19bd 402e a33e f0e2 42be d09e 8ebe
00000130: 0ad9 c1be 169d 333d 3bdb cb3e 5cc1 82be
00000140: a4e5 0fbe 8cd9 8e3d fd69 633e ac1b 263b
00000150: 0911 c0be 8f14 f93d 1a9a 3d3e f916 99be
00000160: 6c84 a33e a37a 40bd 89f6 bf3e e86f 913e
00000170: 7a75 1cbe 5464 a93e f56b bdbe 4063 b6be
00000180: ecea bbbe 02eb acbd f27a 67be 705f 8d3e

net.2.weight f4 [100, 100]
-0.08722345 -0.06964248 -0.052820046 0.06787161 -0.07677762 0.05378558 0.044857703 0.01707942
-0.0006819978 0.09217967 -0.058195528 0.005968985 0.05967245 0.08980603 0.0006489822 0.011509973
-0.07342738 -0.032126807 -0.09952704 -0.09041728 0.06636113 -0.057009675 -0.05506671 0.065929644
-0.09094404 0.07637507 -0.08979656 -0.05905074 -0.04258108 0.08045329 -0.097985186 -0.032464135
-0.027969945 0.05621699 0.026516806 0.031260557 -0.003986079 0.05073609 -0.061426718 0.09217684
-0.026661031 -0.04875012 -0.059617613 -0.08238073 0.08632779 0.036767423 9.061193e-05 0.004755533
0.0704367 0.095555425 -0.077763595 -0.06145013 0.015515308 -0.003820088 -0.023854397 -0.0885175
-0.016224729 -0.008595163 0.078882515 0.08930022 -0.060471676 0.036118567 0.04010586 0.011292741
0.07448196 0.06137009 0.029580321 -0.08076511 0.09658945 -0.040351667 -0.09135052 0.051416483
0.07841637 0.025907222 0.03234529 -0.04622558 0.040698145 -0.05114396 0.05609996 0.002271837
-0.0056932275 0.025988383 -0.007902471 -0.08483249 0.02636261 0.050074752 -0.017213497 -0.10252547
0.049105093 -0.039656788 -0.050193112 -0.064058274 -0.01956253 -0.07349171 -0.009887417 -0.042654395
0.030645035 -0.059384342 0.010732518 0.02477501 -0.03272447 0.062406976 0.090629905 0.032185677
0.094027705 0.021692751 -0.062180962 -0.12271948 0.030915542 -0.0828183 -0.08213583 -0.07664148
0.07112281 -0.085178785 0.001708778 0.068851486 0.07894764 -0.083064295 0.048897613 -0.0069341063
-0.05264014 -0.099033296 -0.086343184 -0.007880347 0.06063235 0.09386327 0.023294346 0.013546675
-0.058330726 -0.06319735 -0.017614266 -0.0054832646 0.09254686 -0.0024670279 0.0008680197 -0.091599815
0.013999129 -0.005743939 -0.087208204 -0.045557473 -0.017764838 0.0902406 0.012423921 -0.08289734
0.016369358 -0.0017016996 0.08471933 -0.030243818 -0.095360994 0.0955286 0.014412564 -0.061661325
-0.043612685 0.002809779 0.037760783 -0.08540829 0.063764304 -0.09229094 -0.05170606 0.0077894763
-0.0068826647 0.088436045 -0.077616096 0.027372716 0.034287408 -0.038955446 -0.002207475 -0.070079125
0.018756768 -0.021534411 -0.053801827 -0.027698351 -0.01953052 0.0120217325 0.031482045 0.059318338
-0.01108442 0.093954094 0.010939619 0.035484117 0.064296894 0.016773919 -0.057973746 -0.05387652
-0.0335238 0.03048294 0.014404011 0.04501091 0.09808874 0.045937393 0.068993285 0.10001026
0.08382845 0.06655542 0.03954148 0.09612583 0.02451943 0.019314032 -0.048738685 0.080220714
-0.06675332 0.044227734 0.027681647 0.030599494 0.064101025 -0.08110216 0.05080518 -0.071312115
0.06110541 -0.092222616 -0.06269144 -0.09579963 0.08854217 0.09954667 -0.07712852 0.06088782
0.084063366 -0.05661153 -0.083473116 0.10238444 -0.07093156 -0.034676664 -0.051808063 0.048026342
0.0072410963 0.002951189 0.02039248 0.045239184 0.0041746264 -0.0542423 0.015776915 -0.015253457
0.045975897 0.097834624 -0.03987734 -0.021410242 0.07011237 0.07674728 0.090390235 -0.064552896
0.05526211 -0.09219539 0.033230856 -0.08151841 0.04552764 -0.033166893 -0.08020104 0.018301848
-0.07554928 -0.09516733 -0.02267964 -0.06811123 -0.0662727 -0.052863907 -0.054127187 -0.09281126
00000000: 35a2 b2bd b7a0 8ebd d559 58bd 4500 8b3d
00000010: 963d 9dbd 454e 5c3d b6bc 373d 24ea 8b3c
00000020: 19c8 32ba b2c8 bc3d 6f5e 6ebd 7a97 c33b
00000030: 196b 743d 39ec b73d 7520 2a3a 5394 3c3c
00000040: 1861 96bd 6697 03bd d5d4 cbbd b22c b9bd
00000050: 58e8 873d fa82 69bd a18d 61bd 1f06 873d
00000060: de40 babd 886a 9c3d 42e7 b7bd 30df 71bd
00000070: 8069 2ebd b2c4 a43d 75ac c8bd 1df9 04bd
00000080: 3a21 e5bc c943 663d c639 d93c 120b 003d
00000090: a79d 82bb a5d0 4f3d 959a 7bbd 36c7 bc3d
000000a0: 3c68 dabc 35ae 47bd 9931 74bd 3ab7 a8bd
000000b0: a0cc b03d 7099 163d e906 be38 4dd4 9b3b
000000c0: 1e41 903d 90b2 c33d 8542 9fbd 22b3 7bbd
000000d0: eb33 7e3c 715a 7abb 4c6a c3bc aa48 b5bd
000000e0: b9e9 84bc bad2 0cbc 288d a13d 09e3 b63d
000000f0: 26b1 77bd 10f1 133d 0b46 243d 3005 393c
00000100: ff89 983d 345f 7b3d 6e52 f23c 2e68 a5bd
00000110: b1d0 c53d ca47 25bd fb15 bbbd 179a 523d
00000120: c398 a03d 623b d43c 7f7c 043d 0957 3dbd
00000130: 19b3 263d 547c 51bd 12c9 653d 1ae3 143b
00000140: 418e babb 97e5 d43c 5e79 01bc a8bc adbd
00000150: 66f6 d73c 2f1b 4d3d 5203 8dbc e0f8 d1bd
00000160: 6c22 493d 286f 22bd 4b97 4dbd fc30 83bd
00000170: 9941 a0bc d282 96bd d5fe 21bc 60b6 2ebd
00000180: 4c0b fb3c ff3c 73bd 71d7 2f3c f6f4 ca3c
00000190: 180a 06bd 759e 7f3d 2c9c b93d 21d5 033d
000001a0: 9991 c03d ffb4 b13c 77b1 7ebd 5a54 fbbd
000001b0: 9742 fd3c a49c a9bd d436 a8bd 35f6 9cbd
000001c0: d6a8 913d 3772 aebd 13f9 df3a 0202 8d3d
000001d0: 4daf a13d 9d1d aabd dd48 483d 8037 e3bb
000001e0: 309d 57bd f8d1 cabd b2d4 b0bd 921c 01bc
000001f0: a159 783d 633b c03d c9d3 be3c e0f2 5d3c
00000200: 33ec 6ebd 9d6d 81bd cb4b 90bc f5ac b3bb
00000210: 3589 bd3d dcad 21bb d18b 633a af98 bbbd
00000220: 9a5c 653c a737 bcbb 379a b2bd 799a 3abd
00000230: 9187 91bc 10d0 b83d b48d 4b3c 15c6 a9bd
00000240: 0819 863c 900b dfba 5481 ad3d e2c1 f7bc
00000250: a04c c3bd 80a4 c33d ad22 6c3c 9690 7cbd
00000260: 37a3 32bd 4524 383b 0dab 1a3d 8bea aebd
00000270: dc96 823d 0803 bdbd bcc9 53bd dd3e ff3b
00000280: fa87 e1bb f51d b53d 30f5 9ebd bf3c e03c
00000290: f470 0c3d bf8f 1fbd 49ab 10bb a585 8fbd
000002a0: cba7 993c ef68 b0bc 4e5f 5cbd a7e7 e2bc
000002b0: 78fe 9fbc cdf6 443c 51f3 003d c9f7 723d
000002c0: 6d9b 35bc 016b c03d 163c 333c cb57 113d
000002d0: 17ae 833d 7569 893c e175 6dbd a0ad 5cbd
000002e0: 4150 09bd 5cb7 f93c cdfe 6b3c 5c5d 383d
000002f0: c0e2 c83d d928 3c3d 5a4c 8d3d 2ed2 cc3d
00000300: 40ae ab3d 354e 883d 3ff6 213d 9fdd c43d
00000310: f9dc c83c 7638 9e3c 37a2 47bd c24a a43d
00000320: f7b5 88bd 2428 353d 9fc4 e23c caab fa3c
00000330: 6647 833d e418 a6bd 1819 503d 160c 92bd
00000340: ab49 7a3d 36df bcbd 5f64 80bd 9932 c4bd
00000350: 9955 b53d 20df cb3d 8ff5 9dbd 8265 793d
00000360: 6a29 ac3d 7ee1 67bd f4f3 aabd efae d13d
00000370: 9144 91bd 1e09 0ebd b134 54bd 45b7 443d
00000380: b846 ed3b bc68 413b 210e a73c b94c 393d
00000390: 4ecb 883b 2d2d 5ebd 973e 813c a3e9 79bc
000003a0: 3951 3c3d 855d c83d 6c56 23bd 8864 afbc
000003b0: 1397 8f3d ae2d 9d3d 841e b93d 4f34 84bd
000003c0: 865a 623d f0d0 bcbd 141d 083d 20f3 a6bd
000003d0: 317b 3a3d 02da 07bd 7140 a4bd c2ed 953c
000003e0: 95b9 9abd 17e7 c2bd a7ca b9bc e77d 8bbd
000003f0: fbb9 87bd d387 58bd 78b4 5dbd d413 bebd

net.2.bias f4 [100]
-0.0722733 -0.07956173 -0.08899809 0.03096681 -0.0578455 -0.07809197 0.02684703 0.055356473
-0.08917699 0.055544216 0.075908735 -0.033517953 0.013214103 -0.009068343 -0.10264637 -0.054640297
-0.05762834 0.09951226 0.039321546 -0.04250895 -0.016389612 -0.02224193 -0.018652622 0.0033112217
0.0085642105 -0.059682302 0.024354111 -0.07896747 0.04669577 0.005883772 0.032683592 0.09364864
0.019132398 0.10222849 -0.01772521 0.0634423 -0.013368118 -0.09854614 0.058844574 0.027693931
0.06595119 -0.027037002 -0.0863826 0.050744742 -0.036898058 -0.080090575 0.094273485 0.0054372796
0.014655153 -0.09367469 0.059734114 -0.09704896 0.029078357 -0.09046564 0.013040063 0.057217088
-0.05543069 -0.076643914 -0.088203005 -0.0040482185 0.009018682 0.08179339 -0.095125504 -0.03504925
-0.09575648 0.02690536 -0.065978885 -0.019709103 -0.04825058 -0.022779115 -0.05669039 0.05251155
-0.09101761 0.063018866 0.04886697 0.056899592 -0.094040625 -0.03563855 -0.042890422 0.06184665
0.072843514 -0.07502317 -0.090335555 -0.08542705 -0.008654983 0.009316431 0.07778118 0.014470741
0.09514898 -0.058393333 -0.029133378 -0.082133 -0.043293968 0.026494537 -0.035844788 0.061665345
-0.044945013 -0.03294559 -0.04798612 -0.056986663
00000000: 0604 94bd 43f1 a2bd a144 b6bd 1cae fd3c
00000010: 67ef 6cbd afee 9fbd 4dee db3c 78bd 623d
00000020: 6da2 b6bd 5582 633d 0a76 9b3d 1f4a 09bd
00000030: f77f 583c 6393 14bc 4338 d2bd 81ce 5fbd
00000040: b20b 6cbd 15cd cb3d a10f 213d dd1d 2ebd
00000050: 8243 86bc b534 b6bc 62cd 98bc 1501 593b
00000060: e750 0c3c 6e75 74bd 4682 c73c b2b9 a1bd
00000070: 1044 3f3d a8cc c03b 3bdf 053d dcca bf3d
00000080: 8cbb 9c3c 2c5d d13d 7634 91bc 09ee 813d
00000090: f305 5bbc 8fd2 c9bd 0207 713d 62de e23c
000000a0: 6b11 873d b47c ddbc 5ce9 b0bd b8d9 4f3d
000000b0: 6b22 17bd 8706 a4bd 7512 c13d 352b b23b
000000c0: 2b1c 703c 84d8 bfbd c2ab 743d 9bc1 c6bd
000000d0: bc35 ee3c 0d46 b9bd fda5 553c 775c 6a3d
000000e0: 4b0b 63bd 7cf7 9cbd c7a3 b4bd eba6 84bb
000000f0: 18c3 133c 4b83 a73d 29d1 c2bd cd8f 0fbd
00000100: f91b c4bd a168 dc3c f01f 87bd fc74 a1bc
00000110: 66a2 45bd 449b babc 2f34 68bd 5a16 573d
00000120: 7167 babd 0910 813d bb28 483d 8c0f 693d
00000130: 5f98 c0bd baf9 11bd dead 2fbd ea52 7d3d
00000140: fb2e 953d bfa5 99bd d901 b9bd 61f4 aebd
00000150: a1cd 0dbc f2a3 183c bd4b 9f3d b016 6d3c
00000160: 78dd c23d d92d 6fbd 1fa9 eebc 5935 a8bd
00000170: 0455 31bd 120b d93c fcd1 12bd cd94 7c3d
00000180: 4318 38bd f4f1 06bd 188d 44bd d96a 69bd

net.4.weight f4 [3, 100]
-0.011009477 0.020285103 0.019278541 -0.063374415 0.027319234 0.08634194 -0.06305315 0.026132183
-0.05264167 -0.019469647 0.007115181 -0.06865266 -0.042030048 0.023393761 0.089950986 0.0968148
-0.011121068 -0.03714808 0.0656038 0.031045863 -0.019411778 0.05649042 0.052989416 0.086485006
-0.07270371 -0.09522556 -0.025364714 0.063086465 -0.012243471 -0.04155443 0.043056272 0.08513135
-0.06643214 -0.016567927 0.06581071 0.0043597333 0.093468465 0.08050427 -0.10342655 0.01216403
-0.053153437 0.055469036 0.09635341 -0.02232814 0.0136802215 0.020808423 0.08374215 -0.041272897
-0.017646259 -0.08738027 -0.09693481 0.0012309698 0.051015764 0.07530537 -0.085848615 -0.013954466
-0.032112356 -0.0770126 -0.08151277 -0.0683382 -0.1504825 0.06770098 -0.07197215 0.004250408
-0.032062672 0.051332533 0.08982045 -0.034721293 -0.08421118 -0.024167705 0.012257769 -0.05686704
0.007309275 -0.027683483 0.054148078 0.050446883 -0.04066572 -0.08433837 -0.096524574 -0.045179237
-0.063741945 0.06304062 0.09434416 -0.017538613 -0.04673967 -0.0013227044 0.03278368 -0.006965884
-0.020354582 -0.04202316 0.07863892 -0.06653099 0.047874186 0.053702656 -0.082586475 -0.05463438
-0.09593466 0.049474094 -0.017276034 -0.012509543 0.06083804 0.0460484 -0.07903775 0.021542586
-0.06672781 -0.021922458 0.08740967 -0.06353591 0.07272985 -0.01750847 0.040222686 0.066843726
0.003679118 -0.02615661 0.01924746 -0.08324703 -0.01205698 0.050590716 0.046597023 -0.061684925
-0.09711438 0.06000723 -0.019850548 0.08289394 -0.10247018 0.017951949 0.021374928 0.031626772
0.0027439725 -0.0007699231 0.074096665 0.04274465 0.028424375 0.07960785 0.04905238 0.06606853
0.013851217 -0.027605934 0.08975263 0.02808591 -0.08769642 -0.074217826 0.100485146 0.05165597
-0.006250541 -0.06352099 -0.05212388 -0.09112539 -0.05125325 -0.044247396 -0.04292608 0.081349194
-0.09754376 -0.015866742 0.04130959 -0.022957463 -0.09467444 0.05348158 0.038659524 0.031529255
0.09383146 0.00737826 -0.021501666 0.033998888 0.040154055 -0.08337835 -0.06506856 -0.045793965
-0.002131655 0.09235825 0.08209016 0.03276371 -0.0028261282 -0.030691594 0.058973223 -0.092686236
0.08166834 -0.07649262 -0.08715164 0.04708787 2.278808e-05 0.008366224 0.078579575 0.023384495
0.060341798 -0.033479862 -0.039468125 0.0010409912 0.008486705 0.09247464 -0.026886212 -0.084185414
0.09587711 0.06591991 0.055913217 -0.04186636 0.017341856 -0.0810084 -0.08073432 -0.028338665
-0.019365046 0.09941683 -0.018056862 0.05644644 -0.094650716 -0.08722028 -0.038071364 0.016215036
-0.051135667 -0.085028134 -0.03463131 -0.021762863 0.09630911 -0.029073184 -0.018098664 0.055616412
-0.057498585 0.06524883 -0.09220479 0.090699285 -0.0763431 0.09615464 -0.002629462 0.019850083
0.035921514 0.022030195 -0.07067508 -0.056439098 -0.03884013 0.09606417 0.054721653 -0.073592305
0.00038444577 0.005253553 -0.0075481758 0.06370975 0.06553905 0.078762986 -0.030490572 0.005593619
-0.07792264 0.051666148 0.039974917 0.032114737 -0.036629755 -0.05936565 0.024279367 -0.11309368
0.04143666 0.08260964 -0.061785217 -0.08476448 0.024865884 0.019975917 0.095069356 0.021223454
00000000: 1861 34bc f22c a63c 08ee 9d3c 72ca 81bd
00000010: 96cc df3c 0bd4 b03d 0322 81bd 2913 d63c
00000020: cb9e 57bd cf7e 9fbc 7726 e93b c499 8cbd
00000030: b327 2cbd 46a4 bf3c 3938 b83d d646 c63d
00000040: 2435 36bc 9628 18bd 495b 863d e553 fe3c
00000050: 7305 9fbc 8062 673d 6e0b 593d 0d1f b13d
00000060: afe5 94bd 9e05 c3bd a9c9 cfbc 7a33 813d
00000070: d798 48bc fa34 2abd c65b 303d 5859 ae3d
00000080: 930d 88bd 76b9 87bc c4c7 863d 18dc 8e3b
00000090: 656c bf3d 6cdf a43d 4dd1 d3bd a44b 473c
000000a0: 6bb7 59bd 8033 633d f054 c53d 81e9 b6bc
000000b0: 0223 603c 6d76 aa3c 0181 ab3d c50d 29bd
000000c0: e38e 90bc 6df4 b2bd c285 c6bd 7e58 a13a
000000d0: e8f5 503d b439 9a3d 66d1 afbd 46a1 64bc
000000e0: 3f88 03bd c8b8 9dbd 2bf0 a6bd e6f4 8bbd
000000f0: 1618 1abe d0a6 8a3d 2266 93bd 0247 8b3b
00000100: 2654 03bd 1042 523d c9f3 b73d ea37 0ebd
00000110: e976 acbd 5afb c5bc cfd4 483c 6aed 68bd
00000120: a582 ef3b 79c8 e2bc 60ca 5d3d 64a1 4e3d
00000130: 1991 26bd 98b9 acbd adae c5bd dd0d 39bd
00000140: 238b 82bd 711b 813d 8337 c13d 23ad 8fbc
00000150: 1972 3fbd 985e adba 2e48 063d 1242 e4bb
00000160: a7be a6bc 7a20 2cbd 710d a13d 6641 88bd
00000170: b917 443d 51f7 5b3d 1923 a9bd 4dc8 5fbd
00000180: 6479 c4bd 59a5 4a3d 7886 8dbc d4f4 4cbc
00000190: 4f31 793d 3f9d 3c3d 8bde a1bd 147a b03c
000001a0: 97a8 88bd ba96 b3bc d703 b33d 1d1f 82bd
000001b0: 63f3 943d ec6d 8fbc 8bc0 243d 5de5 883d
000001c0: 5b1d 713b 6346 d6bc d9ac 9d3c 6b7d aabd
000001d0: a48a 45bc 3638 4f3d 85dc 3e3d 55a9 7cbd
000001e0: e7e3 c6bd 24ca 753d 9e9d a2bc 4cc4 a93d
000001f0: e3db d1bd f70f 933c 791a af3c 138b 013d
00000200: 38d4 333b aad4 49ba febf 973d 0415 2f3d
00000210: 3cda e83c 7109 a33d 26eb 483d f04e 873d
00000220: 37f0 623c d725 e2bc 3ad0 b73d 6c14 e63c
00000230: 2e9a b3bd 84ff 97bd 28cb cd3d 3695 533d
00000240: 57d1 ccbb 4b17 82bd d97f 55bd f39f babd
00000250: eeee 51bd c23c 35bd 42d3 2fbd 689a a63d
00000260: 06c5 c7bd f8fa 81bc 3f34 293d 4a11 bcbc
00000270: ace4 c1bd 800f 5b3d 7359 1e3d d224 013d
00000280: b52a c03d 55c5 f13b 4324 b0bc 6b42 0b3d
00000290: 9478 243d 45c2 aabd aa42 85bd 7492 3bbd
000002a0: 3db3 0bbb 5226 bd3d e31e a83d 3d33 063d
000002b0: 9036 39bb f06c fbbc e88d 713d 48d2 bdbd
000002c0: bb41 a73d 2aa8 9cbd 8f7c b2bd 36df 403d
000002d0: 0729 bf37 7d12 093c 54ee a03d d790 bf3c
000002e0: f628 773d 2e22 09bd 54a9 21bd de71 883a
000002f0: d20b 0b3c 5863 bd3d 7940 dcbc 6769 acbd
00000300: 385b c43d 0501 873d 4205 653d 0f7c 2bbd
00000310: 8210 8e3c bbe7 a5bd 0958 a5bd 7d26 e8bc
00000320: 72a3 9ebc 0d9b cb3d fceb 93bc 6234 673d
00000330: 3cd8 c1bd 8ca0 b2bd b8f0 1bbd 65d5 843c
00000340: a273 51bd 3b23 aebd 8fd9 0dbd 0848 b2bc
00000350: b63d c53d e32a eebc a643 94bc 09ce 633d
00000360: a383 6bbd 2ea1 853d ddd5 bcbd 8cc0 b93d
00000370: c559 9cbd b9ec c43d 0d53 2cbb a49c a23c
00000380: 7022 133d ab78 b43c 19be 90bd af2c 67bd
00000390: d416 1fbd 4bbd c43d d023 603d 90b7 96bd
000003a0: 708f c939 ff25 ac3b b056 f7bb 427a 823d
000003b0: 5639 863d 7d4e a13d 5dc7 f9bc ad4a b73b
000003c0: e895 9fbd e29f 533d bdbc 233d be8a 033d
000003d0: 1509 16bd 6529 73bd 86e5 c63c a99d e7bd
000003e0: 7db9 293d 3e2f a93d 7f12 7dbd 0099 adbd
000003f0: 8ab3 cb3c 89a4 a33c b9b3 c23d cfdc ad3c

net.4.bias f4 [3]
0.053346813 -0.039074767 -0.044551846
00000000: 3082 5a3d dd0c 20bd ff7b 36bd
