checkpoint/residual/pushing_1_steps_residual_dynamics_model.pt (torch, 47496 bytes, 6 tensors)

net.0.weight f4 [100, 6]
000000 4a 38 1d 3e 8d b3 76 3e ea 32 90 3e 65 56 ab 3e
       0.15353504 0.2409193 0.28163844 0.3346435
000010 ea 2c 8c 3e 59 de 80 be c1 a9 6e be 9f 0c a2 be
       0.27378017 -0.25169638 -0.23306943 -0.31650254
000020 56 29 df bd 59 08 b1 3e 89 0e b5 bd 97 79 ac be
       -0.10896556 0.3457668 -0.08840663 -0.33686516
000030 88 88 84 3e e9 01 39 3e e1 8f a9 3d bc 41 9d bc
       0.25885415 0.18067135 0.08279396 -0.019196384
000040 bd 50 c9 be 9a 66 9a be 15 86 9c bd 96 5b 0b be
       -0.3931941 -0.30156404 -0.076427616 -0.13609156
000050 b2 6f 12 bb 2d b7 6b be 86 a3 89 be 88 fb 29 3e
       -0.0022344408 -0.23019095 -0.2688257 0.16599858
000060 87 30 6b be 4b 7a 97 be 9e 9c 98 bd de 9f f5 3d
       -0.2296773 -0.2958549 -0.07451747 0.11993383
000070 df a6 d2 3e a2 19 3a bc 90 29 02 bc df 90 11 3e
       0.41142938 -0.01135865 -0.00794448 0.1421542
000080 6c b8 f2 bc 6b 4b b6 3e 50 3b e2 3d cb 5d ff bc
       -0.029628955 0.35604414 0.11046469 -0.031172654
000090 90 8f 89 be b1 06 80 3e c8 a8 83 bd c0 fd e7 3d
       -0.26867342 0.25005105 -0.06428677 0.11327696
0000a0 46 31 4d be 15 e9 a5 3e a7 80 ca 3e 78 32 7a be
       -0.20038328 0.3240439 0.3955128 -0.24433315
0000b0 a5 1e 80 ba 79 0e f6 3d 06 cc a1 bc 3c 1e 16 3e
       -0.0009774758 0.12014479 -0.019750606 0.14659971
0000c0 f3 f4 c2 be 58 c0 47 3e 9c 16 25 be 5e c8 d3 3d
       -0.38077506 0.19506967 -0.16121906 0.103409514
0000d0 d4 74 4e 3d 92 7a 30 3e fa 17 b5 3d 56 d4 0d 3d
       0.050404385 0.17234257 0.08842464 0.034626327
0000e0 02 a3 49 be 61 94 86 be f9 dd 6f bd 38 32 d0 be
       -0.19691089 -0.2628508 -0.0585613 -0.40663314
0000f0 d2 39 20 3e 7c 44 ee 3c 54 93 b3 3e 47 44 c6 3e
       0.15647057 0.02908539 0.3507334 0.38723966
000100 b0 fa 93 be 98 b3 90 3c 49 5b 83 3e a3 d6 ab 3d
       -0.28902197 0.017663762 0.25655583 0.08390548
000110 59 7b 65 3e 53 8c 32 3e f5 a3 90 be 7c 74 84 3e
       0.22410335 0.17436342 -0.2825009 0.2587012
000120 d1 3c 1d 3d d3 7a 38 3d 22 e8 e1 bd 73 4c a6 be
       0.038388077 0.04503901 -0.11030604 -0.324802
000130 1b 29 50 3e 3e 2a 07 3e 2b 99 36 3e db 42 32 be
       0.2032818 0.13199708 0.17831866 -0.17408316
000140 63 b5 62 be d6 6b 74 be 79 bd 31 3e 7e 07 0b bd
       -0.22139506 -0.23869261 0.17357434 -0.033942692
000150 62 9d c3 bc a9 be 54 3e 42 8b 2b be f6 05 d2 3e
       -0.023878757 0.20775856 -0.16752341 0.41020173
000160 5a 7e ae be f6 6e 8c bd 52 db ab 3e 34 9c 92 be
       -0.34080774 -0.068571016 0.33565766 -0.286348
000170 e6 7b e0 3e 6d 9d d4 bd 70 4d 94 3e 1e 00 91 3e
       0.43844527 -0.10381589 0.2896533 0.28320402
000180 b7 1f 08 3e a4 ac 31 bb 0a 29 68 3c 4c 9b 00 3e
       0.13293348 -0.0027110958 0.014169941 0.12559241
000190 d6 5a b8 3d a3 34 9a 3e 4e 07 b0 be 07 3d 36 bd
       0.090017006 0.30118284 -0.34380573 -0.044491794
0001a0 9f 51 c7 be 78 c1 a2 bd 9b 55 be 3e 6a b6 c3 3e
       -0.3892946 -0.079470575 0.37174687 0.38225108
0001b0 cd 7b ce bd 4f 47 cf be ad be 12 3c ab c5 c9 3d
       -0.10082207 -0.40484092 0.008956593 0.09852155
0001c0 47 f3 03 3e ef af bb be 2c 28 73 be fd e3 8f be
       0.12885772 -0.36657664 -0.23745793 -0.2810363
0001d0 f3 ab 17 be ef 8f cd 3e 2a af df 3d 4d fc 95 bc
       -0.14811687 0.40148875 0.10922082 -0.018308783
0001e0 22 38 9d 3e 84 87 84 be 34 95 9a be 9b 12 52 bd
       0.30706888 -0.2588464 -0.30191958 -0.051287275
0001f0 1f 33 8d 3e 86 61 b8 3d 77 0e 5d 3d f6 7e aa be
       0.27578065 0.09002976 0.053968873 -0.33299989
000200 4c 80 d5 be a0 6a 72 be 98 3a e5 3d 05 fd 8d bd
       -0.41699445 -0.23673487 0.111928165 -0.06933025
000210 88 95 e4 bd ef 47 8b be 2c 55 2a 3e 88 cd 40 be
       -0.11161333 -0.27203318 0.16634053 -0.18828404
000220 37 ba fd be 63 9d a4 3e 49 78 05 3e 33 c8 3b be
       -0.49556133 0.32151327 0.13034166 -0.18338089
000230 6b 02 d4 be 41 1f eb 3e 03 71 a2 3d 4f 8b 85 be
       -0.41408095 0.45922282 0.079317115 -0.26082847
000240 19 ad 84 3e ef f8 38 bd db 92 0b 3e 96 c7 8f 3d
       0.25913313 -0.045159277 0.1363024 0.0702049
000250 31 a9 eb 3d f7 0c 95 be b7 e8 52 be 7b 09 3b be
       0.1150688 -0.29111454 -0.20596586 -0.18265335
000260 5d 41 73 be a1 51 80 be fc 8e 34 3d fb f3 5a be
       -0.23755403 -0.25062278 0.044081673 -0.21382134
000270 42 46 9f be 75 a2 8d 3d 06 7c cc 3d 11 1f 4c 3d
       -0.3110829 0.06915752 0.09984593 0.049834315
000280 e0 0f 9a be 93 38 a4 3e 74 40 9a bc b9 15 41 3d
       -0.30090237 0.32074413 -0.018829562 0.047139857
000290 55 51 a5 be 34 e0 17 3e b3 58 e2 be e4 b2 45 be
       -0.32288614 0.1483162 -0.44208297 -0.19306523
0002a0 e6 d5 15 3e 19 67 d9 3d 0c b3 ef be c6 09 d4 3e
       0.14632377 0.106153674 -0.4681629 0.41413707
0002b0 3f a1 0a 3f e2 38 12 3e 6b 9b e4 3d 1a 5b b1 3e
       0.5415229 0.14279512 0.11162456 0.34639817
0002c0 ea 2d 87 be e6 58 04 bf e2 78 fe be 88 cd 86 3e
       -0.26402217 -0.5169815 -0.497016 0.26328683
0002d0 99 80 cf be d4 4b 5c be d5 fa 95 be 3c 65 98 3d
       -0.405278 -0.21513301 -0.29292932 0.07441184
0002e0 47 31 7c 3c a7 48 75 be a5 ee fc 3d 8c 95 85 3c
       0.015392608 -0.23953496 0.12350205 0.016306661
0002f0 c8 32 55 3d 0c 6f ac be 21 13 81 3d a2 12 a7 be
       0.052050382 -0.33678472 0.06302477 -0.32631403
000300 99 0f b2 3e 47 f8 b5 be a8 3b 5d 3e 5f 2b a8 3e
       0.34777525 -0.35540983 0.21604788 0.3284559
000310 33 da 00 bd 44 ca ee bd 77 22 ff 3d 4c c2 ad 3e
       -0.03145809 -0.11659673 0.124577455 0.339373
000320 ee 87 88 3e 91 f9 45 3e ea 63 53 3e 83 1b 40 3e
       0.26666206 0.19333483 0.20643583 0.18760495
000330 5d 4f 20 3e 0d e5 32 be bf f0 63 be 8d 5d 96 3e
       0.15655275 -0.17470188 -0.22259806 0.2936825
000340 bd 78 a1 be 9f fa 1d be d3 49 79 3e d3 e5 8a be
       -0.31537428 -0.15427636 0.24344568 -0.27128467
000350 96 d3 16 3d de e0 c3 3e 79 ee 7e bd 27 8e bb 3e
       0.036822878 0.38257498 -0.062239144 0.3663189
000360 13 59 8d 3e e5 36 b1 3e ad b8 0c be 43 bc f6 bd
       0.2760702 0.34612194 -0.13742323 -0.12047627
000370 fb 11 80 bd 3b 8a 8e be e7 e4 a8 3c 67 52 67 3e
       -0.062534295 -0.27839836 0.020616962 0.22590028
000380 d6 c4 b8 3e 26 b8 c5 be 65 b7 46 3c 53 41 24 3e
       0.36087674 -0.38617057 0.012128686 0.16040544
000390 70 50 90 be 25 88 9a be ba ba 3d be 33 51 ca bb
       -0.2818637 -0.30181995 -0.18528262 -0.0061742305
0003a0 bf 56 ce 3e c1 9a 97 3e d9 1c cd 3e 6e 3f 1b 3d
       0.40300557 0.29610255 0.40061072 0.03790229
0003b0 ee 38 8d be d9 8d b1 3e b0 f5 8f be 68 cc 1f be
       -0.27582496 0.34678534 -0.28117132 -0.15605319
0003c0 d8 66 65 be ef 9b 98 be 9b c8 fb 3d a4 3d d3 be
       -0.22402513 -0.29806468 0.12294122 -0.41257966
0003d0 01 7f c3 3e 27 41 65 3d 05 d7 e2 bd 31 ae 6e be
       0.38182834 0.055970337 -0.11076168 -0.23308636
0003e0 85 b3 81 be 60 30 be be 0f a5 32 be 36 4d c7 3d
       -0.25332275 -0.37146282 -0.17445777 0.09731524
0003f0 4e 3a 8e bd 78 1a 24 3e ea a9 c6 3d d1 95 be 3d
       -0.069447145 0.16025722 0.09700377 0.09305919

net.0.bias f4 [100]
000000 94 8b 78 be 92 d8 e7 3d 46 a5 63 3e 16 c7 58 be
       -0.24271995 0.113206044 0.22231016 -0.21169695
000010 c8 d0 c3 3e 13 1e 5c 3e 4e 8f fc 3d d5 ba 1f 3e
       0.38245225 0.21495847 0.12332021 0.15598615
000020 34 02 c3 be a3 aa 86 3e c4 e4 2a be 9d 94 81 3e
       -0.38087618 0.2630206 -0.1668883 0.25308695
000030 49 a8 ce be a0 67 9d 3e fb 83 4e be 80 c4 8a be
       -0.40362766 0.30743122 -0.20167534 -0.27103043
000040 9b 63 cd be e9 bd 68 be 66 03 2c 3e 57 5d 78 bd
       -0.40115055 -0.22728695 0.16798171 -0.06063589
000050 98 15 6e be 52 a9 ac be f0 b9 aa be 51 a2 a4 be
       -0.23250425 -0.3372293 -0.33344984 -0.32155088
000060 c6 20 81 3e 3b 1a 62 be b9 6f 19 3e dd d3 94 3e
       0.25220317 -0.22080319 0.14984025 0.2906789
000070 52 5c f4 bd 4c ec 50 be c0 22 26 be 8b cd 1a be
       -0.11931671 -0.2040264 -0.16224194 -0.15117471
000080 d1 fc 0a 3e af fd 51 3d 7a 22 9f 3e 92 1b a7 3e
       0.13573004 0.051267322 0.3108099 0.32638222
000090 04 d4 1d be 6c ef b8 be c5 41 b8 bd 53 60 61 3e
       -0.15412909 -0.36120164 -0.089969195 0.22009401
0000a0 70 67 81 be eb 1d 88 be fa 20 95 3e ad c1 b2 3e
       -0.2527423 -0.26585326 0.29126722 0.34913388
0000b0 61 3b bc be 7e 8a a7 3d 7e 38 cd be 88 65 8c bd
       -0.36764053 0.08180712 -0.40082163 -0.06855303
0000c0 49 ae 86 bd 89 54 72 3e 60 6e a0 be df b6 29 3c
       -0.06576211 0.2366506 -0.3133421 0.010358541
0000d0 ed 16 02 3e 60 a3 40 be 50 7b 5b be 93 92 1c bd
       0.12704058 -0.18812323 -0.21433759 -0.03822572
0000e0 9f b8 93 3e 52 f9 40 3d b3 cd 42 3e 8f b6 35 be
       0.28851792 0.04711277 0.1902378 -0.17745422
0000f0 2b dc 84 3e c4 f0 4b 3c d7 2a 88 be 58 ef ca 3d
       0.25949225 0.01244754 -0.26595184 0.099089324
000100 59 b3 e7 bd a1 70 1b 3e 8c 67 6a be 2c 7e a1 3e
       -0.11313505 0.15179683 -0.22891062 0.31541574
000110 78 86 97 be 99 16 cf 3e 2b a4 cb 3e af 8b a0 3e
       -0.2959478 0.40446928 0.39773688 0.3135657
000120 cb db 0b 3d 95 d6 a5 3e 97 02 9e be 77 d6 8a 3e
       0.034145158 0.32390276 -0.3086135 0.2711675
000130 da 31 03 be 7f 95 3b 3d 91 82 82 be 0f 75 bb be
       -0.12811986 0.045796867 -0.2549024 -0.36612746
000140 7d 74 68 be c0 be ca 3e 4e 05 0f be 87 ca b4 3e
       -0.22700687 0.39598656 -0.13966867 0.35310766
000150 71 02 50 3e 01 cf a2 be c3 13 fe 3d fb 39 ad be
       0.20313431 -0.31798556 0.12406113 -0.33833298
000160 d4 7d 12 be cd d6 3a be cd e8 87 be 41 16 55 3e
       -0.14305812 -0.18246002 -0.265448 0.2080927
000170 ab 5d 1b 3e 53 5c 99 3e d0 f6 50 3d 55 97 87 3c
       0.1517245 0.2995325 0.05101663 0.016551653
000180 cd e0 51 3e 22 37 e5 3c 54 c0 1f be 21 b0 bd bd
       0.20495911 0.027980391 -0.15600711 -0.092621095

net.2.weight f4 [100, 100]
000000 5f 6c ad 3d 88 bc ad 3d d7 f7 be 3d 57 f3 98 bd
       0.08467936 0.08483225 0.093246154 -0.074682884
000010 b2 d0 00 bd c3 97 04 bb 44 02 cd bc 0b 65 8d 3d
       -0.031449027 -0.0020232059 -0.025025494 0.06904038
000020 c6 e6 b0 3d 92 bb b0 bc bb 5f a4 bd ba da f8 3a
       0.086377665 -0.021573815 -0.08026072 0.0018986084
000030 cf dd 0c bb f3 16 95 3d b4 7d a1 3d b3 b6 c3 bd
       -0.0021494513 0.07279768 0.07885304 -0.095563315
000040 95 8c 8c 3d 87 db 88 bc 48 d8 d5 3c a7 75 44 3d
       0.068627514 -0.016706241 0.026104107 0.047963765
000050 e3 ff d5 3b 48 7d 99 bd f9 33 64 bd 72 50 a0 3d
       0.006530748 -0.074945986 -0.055713627 0.07827844
000060 65 56 56 bc 62 0b ac 3d cb b2 68 3d 97 f8 64 bd
       -0.0130821215 0.084006086 0.056811135 -0.055901136
000070 2b 22 d3 3c 3c 1b 82 bd 0a 66 ad 3d 0a 10 01 bd
       0.025773128 -0.06352851 0.08466728 -0.031509437
000080 b6 2b 90 bc 43 d3 1a 3d 5e 49 7c bd 91 0e da 3d
       -0.017598968 0.03779913 -0.061593406 0.106473096
000090 9c 94 a6 bc 7b ba 7d 3d 40 89 d4 bc 0b 6c b9 bd
       -0.020334534 0.06194542 -0.025944352 -0.09053811
0000a0 6a 85 cc 3d 5c a6 84 3d 5a c1 36 bd 31 9c 2d bd
       0.09986384 0.06477043 -0.04461799 -0.042385284
0000b0 51 30 84 3d 5c 26 8c bd 1e 0d 6e bc 4e bd 57 3d
       0.06454528 -0.06843254 -0.014529495 0.05267077
0000c0 3f e7 77 bd f6 66 67 3d 8b 25 a5 bd 22 44 d8 bc
       -0.060523268 0.056494676 -0.080638014 -0.026399676
0000d0 17 8d 1c 3d f7 12 81 bd e1 0f 50 3d 11 55 02 bd
       0.03822049 -0.063024454 0.050796393 -0.031819407
0000e0 3f dc 1e 3d 7b 97 a7 3c fe e9 a0 bc 83 d8 68 3c
       0.03878426 0.020457974 -0.019642826 0.014211777
0000f0 32 f6 8b 3d 81 23 a4 3c 96 7e cf 3c 01 e7 e0 3c
       0.068340674 0.02003646 0.025328916 0.027453901
000100 26 94 41 3c 83 ff af bd 7b a6 9d bd b4 60 0b bd
       0.0118151065 -0.08593657 -0.07697769 -0.03402777
000110 ed 0e 41 bd a0 a2 87 bd 4b fd 0e 3d 52 b7 85 3c
       -0.047133375 -0.06622815 0.034909528 0.016322765
000120 46 71 ab bc bf 87 04 3d b6 9f 84 bd a7 bf 5a bc
       -0.020928036 0.03235602 -0.06475775 -0.013351358
000130 f5 8d 95 bd 25 83 ad bd 96 02 23 3d 7e 89 05 3d
       -0.07302467 -0.084722795 0.039797388 0.032601826
000140 69 15 5d 3d ae f1 15 3d 2e 31 d8 3b ec 12 b7 3d
       0.053975496 0.036607437 0.0065976596 0.08939156
000150 04 60 bc 3d 3f ab c6 3d 86 e3 a0 3d a8 76 60 3b
       0.09198001 0.09700631 0.07855897 0.0034250412
000160 c5 0f 59 bd db 21 5e bd 0c dc d7 bd 3d b3 9e bb
       -0.052993555 -0.054231506 -0.105400175 -0.004843144
000170 29 17 b7 3d 74 45 af b7 74 a4 bb 3d 69 f1 1f 3d
       0.08939964 -2.0893967e-05 0.09162226 0.039048586
000180 ee ff ad bd 90 2d 37 3c a4 d9 94 bd 66 f4 38 bd
       -0.0849608 0.011180297 -0.07268074 -0.04515495
000190 97 ca 4b 3d 40 87 2d bc 87 17 96 3c ae ab 96 3d
       0.04975375 -0.010591328 0.018321766 0.07356964
0001a0 c8 2e 15 3e a3 9b c2 3d ef 95 96 bd 54 d1 1f 3d
       0.14568627 0.095023416 -0.07352816 0.03901799
0001b0 1b 7e ac 3d 02 40 52 3b 07 64 ac bd 8f a6 a3 3d
       0.0842249 0.0032081609 -0.08417516 0.07990753
0001c0 ab ec 65 bd 63 26 b3 bb 1f bc 92 3c 8e be a3 3d
       -0.056133907 -0.0054672225 0.017911969 0.0799533
0001d0 8c c1 8c bc b7 6e 9c 3d ed 1f d0 bc ac c1 c0 3c
       -0.017182134 0.07638305 -0.025405848 0.02352985
0001e0 3d dc ba 3d b2 4c 94 bd db 70 a4 bd 8a 0e c7 39
       0.09124038 -0.07241191 -0.08029338 0.0003796707
0001f0 49 d1 92 bd 87 37 0b 3c ae dd 6e 3d 8b 7b e4 3c
       -0.07168824 0.0084971255 0.05831688 0.027890941
000200 6d 86 15 3d bf 98 ae bd a9 d5 bc 3d 68 8c 8d bd
       0.03650515 -0.08525228 0.0922044 -0.06911546
000210 c8 b1 14 bd a2 43 3f bd 78 45 23 bd 44 82 9e 3d
       -0.036302358 -0.04669536 -0.039861172 0.0773969
000220 09 ed 97 bd 49 ca af bd 6d d2 52 3d fb 18 74 3d
       -0.07418258 -0.08583505 0.05147021 0.059594136
000230 da 57 d4 3d 76 d3 d2 bd 08 75 52 3c 1e d8 bc bd
       0.10368319 -0.10294239 0.012845285 -0.092209086
000240 ce 84 fc 3a d7 e9 30 3c 6d 43 85 3d f1 af e3 3c
       0.0019265653 0.010797939 0.06507001 0.027793856
000250 a7 26 b7 bd 37 b6 be 3d 86 b6 0d 3d d3 58 3e 3d
       -0.08942919 0.093120985 0.034597896 0.046471428
000260 e6 58 6a bd 8e 6b 8a bd 42 9f 3a bd b6 2b d1 3c
       -0.057213686 -0.06758796 -0.045562036 0.025533538
000270 6b d8 1b 3d 42 53 a8 bd 13 4f 12 3d 48 84 80 3d
       0.03804819 -0.08219005 0.035719942 0.06275231
000280 35 ff 42 bd 00 c1 ad 3d 91 20 cf bd 84 c1 22 bb
       -0.047606666 0.084840775 -0.101136334 -0.0024834583
000290 95 18 af 3c 02 f4 b6 3b 58 f7 bb bc c9 b9 9f 3d
       0.021374026 0.005583287 -0.022945091 0.077991076
0002a0 c9 2b db ba b4 3c 1b 3d 21 7d 22 bd 5b 87 44 bc
       -0.0016721423 0.037899688 -0.039670113 -0.011995162
0002b0 b0 50 0d bd 28 90 ae 3d ac a8 59 3d b2 58 a1 3c
       -0.034500778 0.085235894 0.053139374 0.019695614
0002c0 59 11 5c 3d 47 a9 81 bc a9 49 8e 3d 88 1a f4 bd
       0.05372748 -0.015827788 0.06947643 -0.11919123
0002d0 8d c3 33 bd 67 4e 31 3d 0c 29 b1 3c d4 41 bf bd
       -0.043887664 0.04328766 0.021626018 -0.093387276
0002e0 8d 6e a3 3d c7 29 6c bd bb 4d ae bc 0f 34 7b bd
       0.0798007 -0.05765703 -0.0212773 -0.061328944
0002f0 fd e5 51 3d fd a8 1e 3e b5 f2 de 3c 3d fa bd bc
       0.051244725 0.15494151 0.027215341 -0.023190612
000300 1d 61 d1 bd 67 43 8d 3d f0 7a 43 3c 29 ce a9 3d
       -0.10223601 0.068976216 0.011931166 0.08291275
000310 b9 c0 a2 bd cb c3 ce 3b 30 06 80 3b 7d 2a 8d bc
       -0.07946915 0.0063099614 0.0039069876 -0.017232174
000320 28 0f 39 bd f3 b2 7c 3d 27 74 a1 3d 70 06 66 3d
       -0.04518047 0.061694097 0.078834824 0.056158483
000330 83 c5 03 3d 5a 48 90 3d f4 b6 6e 3d 12 72 73 3d
       0.032170784 0.0704505 0.058279946 0.059434958
000340 1e 2c c0 3d 36 41 83 3d a2 59 88 bc ce 67 bd bb
       0.09383415 0.064089224 -0.016644303 -0.0057801967
000350 7c e3 d3 ba 28 81 1c bd f3 8f 53 3c 13 fc a3 bd
       -0.0016165818 -0.03820911 0.012912738 -0.08007064
000360 89 94 63 bd 23 e3 b4 bd 4b 73 9c bd cd f3 2e 3d
       -0.055561576 -0.088323854 -0.07639178 0.042712975
000370 3c 98 6b bd 17 43 82 3c e8 e3 a1 bd b8 f6 0f 3d
       -0.05751823 0.015901132 -0.07904798 0.0351474
000380 33 9a 3d bb b8 7e 89 3b 31 79 25 3d d8 f9 49 3d
       -0.0028931021 0.0041960143 0.04039878 0.049310535
000390 f3 a7 40 bc e3 d2 01 be 7c 77 b0 3d 20 c1 57 bd
       -0.011758792 -0.12678103 0.0861654 -0.052674413
0003a0 e0 b1 e5 bc f5 b7 42 3d ec 68 5c bb 35 c1 b3 bd
       -0.028038919 0.047538716 -0.0033631874 -0.08777086
0003b0 7e b1 61 3d 74 44 6b 3d 81 66 14 3d e2 b7 5f 3d
       0.05510091 0.05743833 0.036230568 0.054618724
0003c0 51 da 02 3c 0c ff 1e 3d 45 5f 9d 3d 56 44 9e 3d
       0.007986621 0.03881745 0.07684187 0.07727878
0003d0 33 d0 c4 3d f5 b9 35 3d 09 d7 c0 bd 9b 10 bd 3d
       0.09610023 0.044366796 -0.09416015 0.09231683
0003e0 d2 be e5 bd 79 b1 d6 bd 86 4b e5 3d fc a2 c1 3d
       -0.11218037 -0.10483069 0.111960456 0.09454915
0003f0 a6 d4 29 3d bb 89 86 bc 34 cb 96 3d d9 3b 69 3d
       0.041462563 -0.016423097 0.07362977 0.05694184

net.2.bias f4 [100]
000000 6a b3 5f bd 75 b5 89 bd e5 d1 b2 3d 8b ad 3a bd
       -0.054614462 -0.06724063 0.087314405 -0.04557566
000010 5e 1f 6b bd 01 89 af bd 39 0d cc 3c 24 6b 0d 3d
       -0.05740296 -0.08571053 0.024908649 0.034526005
000020 6c 7f 4c 3d 12 5a 98 3d 8c de 36 3d 87 34 95 bd
       0.049926206 0.074390545 0.04464583 -0.072854094
000030 a6 aa 4d bc 64 3a fb bc c2 5b 8e 3d 5b 66 1b bd
       -0.012552893 -0.030667491 0.06951095 -0.03793941
000040 92 23 59 3d 6f 98 2c bb 02 5e a8 3d 74 fc be bd
       0.053012438 -0.0026335975 0.082210556 -0.09325495
000050 42 a3 c4 3d c4 d8 7c bd 37 8f 97 3c 6f 6b fe bc
       0.096014515 -0.06173016 0.018500907 -0.031057088
000060 ed c0 5f bd f8 f1 34 3c 54 95 e0 3a c4 f0 79 3d
       -0.054627348 0.011044018 0.0017134347 0.061020628
000070 21 1f a1 3d cf 10 1a bd e3 7e 3a 3b dd a6 69 bd
       0.078672655 -0.037613686 0.0028456978 -0.0570439
000080 ba d9 9f bd 7b 53 a7 bc 34 0a 01 bd 68 ad 69 bc
       -0.078052 -0.020425549 -0.03150387 -0.014262535
000090 25 a3 82 bc 9e 89 bc bd 81 3b 76 bd ec 98 96 3c
       -0.015946934 -0.09205936 -0.06011534 0.018383466
0000a0 72 f9 03 bd 7c db d8 3b 7a a6 29 bd ce e6 93 3d
       -0.03222031 0.0066179615 -0.04141853 0.07221757
0000b0 b8 26 f3 3d 57 92 93 bc 9f 41 bc bd ae 3e 99 3d
       0.118726194 -0.018014116 -0.09192204 0.07482658
0000c0 be ca ab 3d 5b 8f 16 bc b1 79 6c 3c 27 fe 51 bc
       0.083882794 -0.009189452 0.01443331 -0.012816942
0000d0 b4 ef c8 b8 3d c7 00 3d 95 32 5f 3d 8e ec 20 3d
       -9.581391e-05 0.03144001 0.0544916 0.039288096
0000e0 93 6f 97 3d 88 c3 3a 3d 59 67 39 3c 4d 2d 82 bd
       0.07394328 0.04559663 0.011316144 -0.06356297
0000f0 93 9f 8c bd f2 2c c0 bc 16 aa af 3d 8b c5 fc bc
       -0.06866374 -0.023458932 0.08577363 -0.030855915
000100 6b 57 8c bd 0e d7 1e bd 7c 6c 1f 3d 2d 36 9a 3b
       -0.06852611 -0.03877931 0.038921818 0.0047061653
000110 06 bf 75 3d 76 b9 57 bc 2e 47 59 bd 6a 7d 3f bd
       0.059996627 -0.013166776 -0.053046398 -0.046750464
000120 71 a8 81 bd 0e 31 2f bd a5 cf 8b 3d a2 c3 15 3c
       -0.06330956 -0.04277139 0.068267144 0.009140881
000130 95 e2 99 3c d4 f7 81 3c 96 50 96 bd 59 c0 a8 bc
       0.0187848 0.015865244 -0.07339589 -0.020599531
000140 d8 37 76 3d 52 80 5a bd 70 be bc bd ab c2 b1 3c
       0.06011185 -0.053345032 -0.092160106 0.02169927
000150 a8 a4 45 bd 26 4f ed 3b 6c f8 a9 3c 61 6f af bc
       -0.04825273 0.0072421012 0.02074834 -0.021415414
000160 ef 9a bb 3c 24 ef a7 bd 8f 4b 8b 3d 26 59 8d bc
       0.022901027 -0.08199909 0.06801521 -0.017254423
000170 b8 75 c5 3d d4 82 72 3d c5 6a 3c bd 9d 73 db 3c
       0.09641594 0.0592068 -0.04600026 0.026788527
000180 c4 48 85 3d ff 98 69 bd 6a 7e 0d bc 3d 38 a3 3d
       0.065080196 -0.057030674 -0.0086360965 0.07969711

net.4.weight f4 [3, 100]
000000 5c d5 13 3d 29 b2 cb 3d 83 b9 9f bd 32 91 a0 3d
       0.036092147 0.09946091 -0.077990554 0.07840194
000010 5f 25 10 3d 24 79 8f 3d 10 75 34 3d b9 49 97 3d
       0.03519189 0.070055276 0.044056952 0.07387108
000020 ed 5a a1 3d 70 de 74 3c d7 e3 b4 3d d3 ce 1e bd
       0.07878671 0.014945611 0.088325195 -0.03877146
000030 7a 5a 55 3b b4 e9 7f 3d 11 d7 05 bc 0c 8e 21 3d
       0.003255515 0.062478736 -0.008168952 0.039442107
000040 0f 88 c9 bb 9d 24 9f bc 03 28 4c 3d b8 62 23 bd
       -0.0061502527 -0.019426638 0.049842846 -0.039889067
000050 fe 1a df bc 32 98 84 3b 8b 03 55 3d 25 a2 f4 3c
       -0.02723455 0.0040464634 0.052005332 0.029862473
000060 91 f6 07 3d 21 8e 80 3d 46 db 90 3d e7 22 cb bd
       0.03319413 0.06277109 0.07073073 -0.099187665
000070 61 b8 77 3d 9a 97 f4 3b ee f8 8b bd e5 f3 a1 bd
       0.06047857 0.0074643614 -0.06834589 -0.07907847
000080 ec 1b 7d bd ea b6 aa 3d fb 1d 4e 3d 47 df b5 bc
       -0.061794207 0.08335669 0.05032156 -0.022201193
000090 54 b3 3f bd db ca b2 3b 76 2a 7d 3d e3 87 05 3d
       -0.04680188 0.005456311 0.061808072 0.032600295
0000a0 ee 32 5a 3b 7f 07 85 bd 53 13 3f 3d 8f b4 8b 3d
       0.0033294517 -0.064955704 0.04664929 0.06821548
0000b0 5f 85 e8 3b b0 c0 b3 3c b0 7c e2 3c 94 99 1e 3d
       0.007095977 0.021942466 0.027647346 0.038720682
0000c0 e4 70 85 bd 2f f4 9b 3d 6e bb ab 3d 5e f6 46 3d
       -0.06515673 0.07614934 0.08385359 0.048574798
0000d0 5f 6f 9a 3d f2 f9 9c 3d 3d 1f 7e bd 42 73 3e bc
       0.075407736 0.07664861 -0.06204151 -0.011624159
0000e0 86 24 32 bd 1a dc 8f bc 71 b5 36 bd b0 b2 c2 bd
       -0.043491863 -0.017561007 -0.04460663 -0.09506738
0000f0 13 f6 00 3d a4 7d 87 3b dd 4f 06 3d 0d f0 5a bc
       0.031484675 0.0041348506 0.032791007 -0.013362897
000100 3d b1 8d 3d 42 a7 87 bc 7f fe 53 3d c5 45 92 3d
       0.06918571 -0.016559247 0.05175638 0.07142214
000110 4d 09 94 bd b3 fd e4 ba 33 e2 16 3d 7a ec db 3d
       -0.072283365 -0.0017470628 0.036836814 0.10738464
000120 0a 1e ba 3d 74 0a 86 bd 9e f8 b2 3d e0 ad 2d 3d
       0.09087761 -0.065449625 0.08738826 0.04240215
000130 06 f0 5e 3d dd 7b 2e 3d 98 af 6e bd b0 85 31 3d
       0.054428123 0.042598594 -0.058272928 0.043340385
000140 b1 b0 82 3c a3 7c 4b 3d 42 24 1c 3d 32 2a ef 3b
       0.015953394 0.04967941 0.038120516 0.0072987312
000150 ad b8 02 bd 64 7b 91 bc 2b 80 bc bd e7 cd 6a 3d
       -0.0319144 -0.017759033 -0.092041336 0.05732527
000160 93 b3 a5 3b a2 2b af 3c f8 a5 01 bd 3e 04 97 bd
       0.0050568073 0.02138311 -0.03165242 -0.07373856
000170 38 4f 39 bd 7a 1e 50 3c d0 a3 b5 3c 46 27 79 3d
       -0.045241565 0.012702579 0.022172838 0.06082847
000180 23 ce a1 bd fd 07 43 3d 9e 89 81 bd d9 5c 92 3d
       -0.079006456 0.04761504 -0.063250765 0.071466155
000190 bc 68 b0 3d f2 2f 67 ba 62 f2 a0 3d a2 42 d8 3d
       0.086137265 -0.0008819095 0.07858731 0.10559584
0001a0 b9 76 1e 3c cc 3a 86 bd 3b 91 02 bd dc 03 aa bd
       0.00967186 -0.06554183 -0.031876784 -0.08301517
0001b0 97 45 a0 3d a2 6d 83 bd b8 fe aa bc 1c d6 96 3d
       0.07825773 -0.06417395 -0.020873412 0.07365057
0001c0 0a 56 f9 b9 41 16 2d 3d 2a 0d 54 3d 38 ee c4 3d
       -0.00047557085 0.04225755 0.051770367 0.09615749
0001d0 67 85 a0 bd c0 3b 5b 3d 3d 63 dc 3c 8c e5 8b bd
       -0.078379445 0.05352378 0.02690279 -0.06830892
0001e0 a2 a2 c9 bd b4 1f 45 bc 31 fb 80 3d b5 48 d8 bd
       -0.09845473 -0.012031484 0.06297911 -0.10560743
0001f0 59 5c 7e bd 6b 4c 38 3d 59 94 b1 3c 19 76 b4 3d
       -0.06209979 0.044994753 0.021677183 0.08811588
000200 4a db 87 bd 0a 22 4c 3d 7e 0e 2d 39 75 71 a1 bc
       -0.06633623 0.04983715 0.00016503964 -0.01970742
000210 3e 3f 36 bd d4 b3 a1 bb 66 7f b2 bc b3 d6 50 bd
       -0.044493906 -0.0049347673 -0.021789264 -0.050986003
000220 33 b7 b8 3d 54 ab 40 3c 3b 6b a8 3d 4c 01 2d bd
       0.090193175 0.011759598 0.082235776 -0.042237565
000230 00 11 79 3d da 79 7f bd aa 76 4c bd 0c 75 ab 3d
       0.060807228 -0.062372066 -0.049917854 0.08371934
000240 6d a1 5c 3c 42 3a 4c bc 5d 1b e3 3b 76 8e 11 bc
       0.013466221 -0.012465062 0.006930752 -0.008884063
000250 84 f3 de bc a9 45 1b 3b 29 6a 86 bd 0f 46 fd 3c
       -0.027215727 0.0023692644 -0.06563217 0.030917196
000260 0f c0 95 3d 9d e3 40 bc 2e b2 9a bd 09 c9 18 3d
       0.07312023 -0.011773017 -0.07553516 0.037301097
000270 3b 8e 90 3d ec ef 24 3c f9 01 ef bb 08 97 62 bd
       0.07058378 0.010066967 -0.0072939363 -0.055319816
000280 8e 45 bf 3d 0e 14 8e bd 9c 33 f1 3d ba 2c b2 3d
       0.093394384 -0.06937419 0.11777422 0.08699937
000290 62 f9 52 bd 5a 6f a7 bd a0 2e a5 3a ca 61 10 bd
       -0.05150736 -0.081755355 0.0012602396 -0.03524951
0002a0 c0 f3 1e bc 02 e5 b1 3c aa 28 d7 3d 88 56 d6 3c
       -0.009701669 0.021715645 0.10505803 0.026164308
0002b0 a4 17 4f bc 84 c2 ae 3d 41 cf 5f bd ac 78 f0 3b
       -0.012639914 0.08533195 -0.054641012 0.007338604
0002c0 d8 7a b6 bd a8 e3 af 3d b2 07 c3 3d ae c8 ef 3c
       -0.08910149 0.08588344 0.09522952 0.029270496
0002d0 5d 66 cd 3b b1 99 9d bd 3d 6f 61 3d ea 61 91 3b
       0.006268306 -0.0769533 0.055037726 0.004436721
0002e0 57 b2 88 bd 34 06 e6 bd bc f8 ac bd 96 d7 76 3c
       -0.066746406 -0.11231652 -0.0844588 0.015066048
0002f0 f2 76 8e 3b 98 14 40 bd 39 9a 30 bc b0 82 85 ba
       0.0043476755 -0.04689464 -0.010778957 -0.0010186043
000300 00 dd 9a 3d 03 4f 99 3d 71 96 68 3d b1 93 81 3d
       0.07561684 0.074857734 0.056784097 0.06326998
000310 51 8b 42 3d cd c9 10 bc 18 e8 87 3d 77 62 97 3d
       0.047496144 -0.008837176 0.06636065 0.073918276
000320 a7 02 98 3d 40 0a ff ba e4 4a fa bd 3a cb ff bd
       0.07422381 -0.0019458011 -0.122213155 -0.12489934
000330 81 3c 10 3e 81 a3 c1 bd 11 05 48 3d 34 42 e6 bd
       0.1408558 -0.09455014 0.048832957 -0.11243096
000340 15 48 da bd 16 1f 09 3e 61 6f 78 3d f3 da 4a be
       -0.1065828 0.13390765 0.060653094 -0.19810085
000350 de 62 8b be ad 71 84 3d b7 c0 19 be a5 1e 32 3c
       -0.27223867 0.064669944 -0.15014921 0.010871564
000360 36 bd bb bd df 56 85 3c 94 e0 39 be 6d 16 21 3d
       -0.091669485 0.016276775 -0.18152076 0.039328028
000370 e7 9a 6f 3c 53 5f 6b be 51 55 7d bd 4a 2c 1c be
       0.014624334 -0.22985582 -0.061848942 -0.1525127
000380 47 88 4c 3d 8a 38 9e 3c 6e f0 92 bd 45 0c f6 3c
       0.04993465 0.01931407 -0.071747646 0.030035147
000390 79 fb f6 3c 2b c4 52 bd c0 8d 45 3d 40 a3 00 bc
       0.030149208 -0.05145661 0.048230886 -0.007851422
0003a0 39 7d 0b 3c cf 19 fa bd 03 03 1d be 54 62 b2 bd
       0.008513742 -0.12211954 -0.1533318 -0.08710161
0003b0 c9 7e 4a bc c6 fa 6b be 17 ed e1 bc 0b 04 ed bc
       -0.0123593295 -0.23044881 -0.027578874 -0.028932592
0003c0 1b 1d 2e be 00 36 41 bc 8b a3 42 3d 73 93 7b 3c
       -0.1700329 -0.01179266 0.047519248 0.015354979
0003d0 a5 3a 80 3e 99 fc 91 3e c3 a2 d7 bd 6d ce 40 be
       0.25044742 0.2851303 -0.10529091 -0.18828745
0003e0 e8 13 22 3d 75 a9 d8 3c cf 99 ff 3d d0 c0 89 3d
       0.039569765 0.02644799 0.124805085 0.06726229
0003f0 80 d7 3b 3d 80 72 ab bd da aa 9e 3d 85 e4 68 3d
       0.045859814 -0.083714485 0.07747431 0.05685856

net.4.bias f4 [3]
000000 a7 5d 85 bb 0b d1 3c bc 42 4f 89 bd
       -0.004070002 -0.011524449 -0.0670457
