checkpoint/residual/pushing_5_steps_residual_dynamics_model.pt (torch, 47496 bytes, 6 tensors)

net.0.weight f4 [100, 6]
0	0xbe135392	-0.14387348
1	0x3e1b742a	0.15181032
2	0xbdd4660c	-0.103710264
3	0xbe716705	-0.23574455
4	0xbe7ac940	-0.24490833
5	0xbe0114a3	-0.12605529
6	0x3e6112c6	0.21979818
7	0xbecbe75a	-0.39824945
8	0xbda1f182	-0.07907392
9	0xbbf20c60	-0.007386729
10	0xbc441a02	-0.011969091
11	0x3e98cae2	0.29842287
12	0x3e3804e9	0.17970623
13	0x3e6ff826	0.23434505
14	0xbe82c45f	-0.25540444
15	0x3ea646dd	0.3247594
16	0xbe93fe14	-0.28904784
17	0xbe10f909	-0.141575
18	0xbe4284f3	-0.18996029
19	0xbdf6ca47	-0.120503
20	0xbd8f4998	-0.06996459
21	0xbe4c06fa	-0.19924536
22	0xbe9faf13	-0.3118826
23	0xbc88e65a	-0.016711403
24	0xbe92b814	-0.28656065
25	0x3dc0ce5c	0.0941436
26	0xbae86adc	-0.0017732042
27	0x3e9621f7	0.29322788
28	0x3d158330	0.036502063
29	0xbe839826	-0.25702018
30	0xbe6f452d	-0.23366232
31	0xbeaa870b	-0.33306155
32	0xbe91678f	-0.2839932
33	0xbcc1fe61	-0.023680868
34	0xbec74ae0	-0.38924313
35	0xbed3be7f	-0.41356274
36	0x3ecfc16b	0.40577254
37	0xbebb684e	-0.36603016
38	0x3e0b7309	0.13618101
39	0x3e5824f8	0.21107852
40	0x3eb62c37	0.35580608
41	0xbea8c140	-0.32959938
42	0xbe622c59	-0.2208723
43	0xbd66c70e	-0.056342177
44	0x3e8d2032	0.27563626
45	0xbe6eb768	-0.23312151
46	0xbe03802f	-0.12841867
47	0xbd75359f	-0.05986559
48	0x3eaa5104	0.33264935
49	0xbe4b13f3	-0.19831829
50	0xbea7b652	-0.32756287
51	0xbde6b3b8	-0.112647474
52	0xbeca0929	-0.39460114
53	0xbec20cd9	-0.37900427
54	0xbe3cf76f	-0.18453763
55	0x3e805c53	0.25070438
56	0xbe8b5ae8	-0.27217793
57	0x3e867fa5	0.2626926
58	0x3db75762	0.08952214
59	0xbec248ea	-0.37946254
60	0x3db063bb	0.08612772
61	0xbdaa4631	-0.08314169
62	0x3de43ad2	0.111440316
63	0x3ea973b5	0.3309609
64	0x3ef0ef83	0.47057733
65	0xbdf9bf9d	-0.121947505
66	0x3eae3cb0	0.34030676
67	0xbe440295	-0.1914161
68	0x3e1f2d34	0.15544587
69	0xbea276a9	-0.31731156
70	0xbd0b43b6	-0.03400012
71	0x3de587c1	0.11207534
72	0xbeb397a0	-0.35076618
73	0x3e24bed2	0.16088417
74	0x3e041577	0.12898813
75	0xbd68618d	-0.056733657
76	0xbd1e4e77	-0.03864905
77	0xbdfbe91c	-0.123003215
78	0x3ec2e60e	0.38066143
79	0xbe23ed8a	-0.16008583
80	0xbde3ed4a	-0.11129244
81	0x3e4fbddf	0.20287274
82	0xbeab8af4	-0.3350445
83	0x3e48e191	0.19617297
84	0x3e5a29f0	0.2130506
85	0x3db7eb63	0.08980443
86	0x3e69c9e1	0.22830917
87	0x3dd4f4f9	0.10398287
88	0x3e3843dd	0.17994638
89	0x3ea8c1a1	0.32960227
90	0xbec60820	-0.38678074
91	0xbb75a033	-0.003747952
92	0xbec2606a	-0.37964183
93	0x3e662b25	0.22477396
94	0xbe2ea03b	-0.1705331
95	0xbeccb415	-0.39981142
96	0xbec12e28	-0.37730527
97	0x3d0aa8f3	0.03385253
98	0xbebb79bf	-0.36616322
99	0x3ea29008	0.31750512
100	0x3eaea012	0.341065
101	0xbea36fc6	-0.31921214
102	0x3e13e1e7	0.14441644
103	0xbc533960	-0.012892097
104	0xbe2d9a5c	-0.16953415
105	0xbda87df0	-0.08227146
106	0xbed31881	-0.41229632
107	0x3deb4361	0.11487461
108	0xbe18100f	-0.14849876
109	0x3d81ac87	0.06331735
110	0xbc9387b8	-0.018009052
111	0xbd22436d	-0.039615083
112	0x3ea98a45	0.33113304
113	0x3dedc6df	0.11610197
114	0x3dc49f24	0.09600666
115	0x3e6b4c5f	0.22978352
116	0x3e079e37	0.13243948
117	0xbef75737	-0.48308727
118	0xbc2083a4	-0.009797011
119	0xbdc1a790	-0.09455788
120	0x3ec69214	0.38783324
121	0xbe080ffd	-0.13287349
122	0x3d25ead4	0.040507153
123	0xbb5dde61	-0.0033854472
124	0xbec13766	-0.37737578
125	0x3e9cb65b	0.30607876
126	0x3ec02c5e	0.3753385
127	0x3eb9fce1	0.36325744
128	0x3ea43202	0.32069403
129	0xbe73b56b	-0.23799674
130	0xbeb22e1a	-0.34800798
131	0x3dfe33b8	0.12412208
132	0xbe8e1ae8	-0.27754903
133	0x3ea830c2	0.328497
134	0xbe8b38c4	-0.27191746
135	0x3e8b7329	0.27236298
136	0xbe8f1f83	-0.2795373
137	0x3d78ccf9	0.060742352
138	0xbe925adf	-0.28584954
139	0xbea55209	-0.3228915
140	0xbcf621c6	-0.030045401
141	0x3eb6320f	0.35585067
142	0xbe1f7088	-0.15570271
143	0xbe3c4f7f	-0.183897
144	0xbb14b545	-0.0022691053
145	0x3d892103	0.066957496
146	0x3d96a948	0.073565066
147	0xbe63a093	-0.22229223
148	0x3e1337ba	0.14376727
149	0x3ec6af9d	0.38805857
150	0x3eb9907b	0.36243042
151	0xbea542c8	-0.32277513
152	0xbe884bbd	-0.26620284
153	0xbd18cf79	-0.037307236
154	0x3e31407d	0.17309757
155	0xbeba0e3f	-0.36338994
156	0xbe1b14db	-0.15144674
157	0x3cc4ce50	0.024024159
158	0x3dfc6a9f	0.12325024
159	0xbead4d0a	-0.3384784
160	0x3ed7747a	0.42081052
161	0xbe6c3afd	-0.23069377
162	0x3e692e8f	0.22771667
163	0x3e16ce67	0.14727174
164	0xbe5ad665	-0.21370848
165	0xbecb6bf8	-0.3973081
166	0xbedef212	-0.4354406
167	0xbd1c1e01	-0.03811455
168	0x3ce02fe0	0.027366579
169	0xbe85c1e0	-0.26124477
170	0xbe392c7e	-0.18083379
171	0xbe8c2c71	-0.27377656
172	0x3ed3c003	0.4135743
173	0x3ea7a8d0	0.3274598
174	0x3d0956fc	0.03353022
175	0xbde19f7f	-0.110167496
176	0x3e53c46d	0.20680399
177	0xbd7f26a4	-0.06229271
178	0xbd8f5e7e	-0.07000445
179	0x3ea5185c	0.32245147
180	0xbd89c3f9	-0.06726832
181	0x3e2afe4f	0.16698574
182	0x3eafc4c9	0.34329823
183	0x3dafcd9e	0.0858414
184	0x3e0c372f	0.13692926
185	0xbec5527b	-0.3853949
186	0xbe7a7d22	-0.24461797
187	0xbe76bc33	-0.2409523
188	0xbe874435	-0.26419225
189	0x3eced840	0.4039936
190	0x3e44778d	0.1918623
191	0xbe03224f	-0.12806056
192	0xbd72e105	-0.059296627
193	0xbe8d175b	-0.2755688
194	0x3e9321bd	0.28736678
195	0x3c51386c	0.0127698
196	0xbde04b8e	-0.10951911
197	0x3e5ee7ee	0.21768162
198	0x3e0e0a43	0.13871102
199	0xbe53b3c8	-0.2067405
200	0xbe02c53b	-0.1277055
201	0xbe3752c3	-0.17902665
202	0x3ea9fa37	0.3319871
203	0xbe70d614	-0.23519164
204	0x3d2d6837	0.042335715
205	0xbe841c68	-0.25802922
206	0xbe0347ed	-0.12820406
207	0xbe2928fd	-0.16519542
208	0xbe208acc	-0.15677947
209	0xbeac6e15	-0.33677736
210	0xbe2adaa0	-0.16684961
211	0x3e7ea4bf	0.24867533
212	0xbe07d2b9	-0.13263978
213	0x3e7d1b24	0.24717385
214	0xbecb8e09	-0.39756802
215	0x3e5e90b4	0.21734887
216	0x3eb31e34	0.3498398
217	0x3d9f5d11	0.07781423
218	0x3d3ce256	0.04611429
219	0xbe41c6d1	-0.18923499
220	0x3ecdebbf	0.40218922
221	0x3e4335f7	0.19063555
222	0x3e7ca114	0.24670821
223	0xbeb19b02	-0.34688574
224	0x3e77a5d9	0.2418436
225	0xbeb56aff	-0.35433194
226	0x3e2a5389	0.16633429
227	0xbecf30ff	-0.4046707
228	0x3ea2c680	0.31792068
229	0x3c730e42	0.014834942
230	0x3d12dd52	0.0358556
231	0x3ebcd3f9	0.36880472
232	0xbeb81c24	-0.3595897
233	0x3de69df2	0.112605944
234	0xbe84c659	-0.25932577
235	0x3e0fa0d4	0.14026195
236	0xbe67072e	-0.22561333
237	0x3cca472f	0.024692146
238	0xbea3a60c	-0.3196262
239	0xbe183ac0	-0.14866161
240	0x3e0bf7fe	0.1366882
241	0x3ec3ae6d	0.38219014
242	0xbecad7d7	-0.39617798
243	0x3eb3b025	0.35095325
244	0x3e644552	0.22292069
245	0x3eb152d9	0.3463352
246	0xbe48a432	-0.19593886
247	0x3eb5d16c	0.3551134
248	0xbdf3b160	-0.11899066
249	0x3c8c2f16	0.017112296
250	0xbe1d1cf1	-0.15343072
251	0x3e64a477	0.22328363
252	0x3e37df73	0.17956333
253	0xbec38464	-0.38186944
254	0xbdea0832	-0.114273444
255	0xbe19eff2	-0.15032938

net.0.bias f4 [100]
0	0x3e5627d3	0.20913629
1	0xbd0bdccd	-0.03414612
2	0x3e3460fa	0.17615119
3	0xbe020ec3	-0.12700944
4	0x3ecf996c	0.4054674
5	0x3d0e66bb	0.03476594
6	0x3e975090	0.29553652
7	0x3eb60241	0.35548595
8	0x3e3f146b	0.18660133
9	0xbe08a831	-0.1334541
10	0xbde3ad0d	-0.11116991
11	0x3daf8759	0.085707374
12	0xbec61232	-0.38685757
13	0x3e167cfb	0.14696114
14	0x3ec6dcdb	0.38840374
15	0xbe907b81	-0.28219226
16	0xbb655c53	-0.0034997656
17	0xbd672bd2	-0.056438275
18	0x3dc4b737	0.09605258
19	0xbda2ad2a	-0.07943185
20	0x3cba133c	0.02271425
21	0x3e1e00d8	0.1543001
22	0xbeb89dcd	-0.36057892
23	0x3d374963	0.04474772
24	0x3c2381d5	0.009979685
25	0x3d616049	0.055023465
26	0x3e1361a0	0.1439271
27	0x3db72b54	0.08943811
28	0x3ddc8a10	0.10768521
29	0xbe657382	-0.22407344
30	0x3da91f3f	0.08257913
31	0x3eb5f1c5	0.35536018
32	0x3ec6c6e2	0.3882361
33	0xbe5f387b	-0.2179889
34	0xbeacedef	-0.3377528
35	0x3e4c5b3a	0.19956675
36	0xbe79b10d	-0.24383946
37	0xbde2fadf	-0.11083006
38	0x3e59734e	0.21235391
39	0x3ebb5b10	0.36592913
40	0x3e981ef5	0.29711118
41	0x3d9a60b0	0.07537973
42	0xbe25c963	-0.16190104
43	0x3ead5ca8	0.33859754
44	0xbe43817d	-0.19092365
45	0x3d7722de	0.060335986
46	0x3ebbed6f	0.36704585
47	0xbd20c093	-0.039246153
48	0x3ebeb2c3	0.3724576
49	0x3e80c87c	0.25152957
50	0xbe906661	-0.2820311
51	0xbe8bd5eb	-0.27311644
52	0x3e202286	0.1563817
53	0xbe25148d	-0.16121121
54	0x3e69eab0	0.22843432
55	0x3c10b1d8	0.008831464
56	0x3dd9cc66	0.10634689
57	0xbe329fa7	-0.17443715
58	0x3e199f0e	0.15002081
59	0x3e9db288	0.3080027
60	0xbe9279bb	-0.28608498
61	0x3e083668	0.13302004
62	0x3ea5eee7	0.3240883
63	0xbc2d031a	-0.0105598215
64	0xbd9b1ef4	-0.07574263
65	0x3eb57d29	0.35447052
66	0xbeca902d	-0.39563122
67	0xbe00fa0f	-0.1259539
68	0x3e91a46f	0.28445765
69	0x3d324de9	0.043531332
70	0xbd6c77af	-0.057731327
71	0x3e0a3f37	0.13500677
72	0xbe7e8e40	-0.24858952
73	0x3ec97f5a	0.39354974
74	0xbe507173	-0.20355777
75	0xbd7f392d	-0.062310386
76	0x3d255050	0.040359795
77	0xbe87133d	-0.26381865
78	0xbec8326f	-0.39100978
79	0x3e35c7aa	0.17751947
80	0x3e5d6f09	0.21624388
81	0x3e7f8eab	0.24956767
82	0xbe4aa921	-0.1979108
83	0xbe63fdfa	-0.22264853
84	0xbea0c0d9	-0.3139713
85	0xbebb8798	-0.36626887
86	0x3ea8b067	0.32947084
87	0x3be35dda	0.006938678
88	0xbe960bbb	-0.29305825
89	0xbc9e28a4	-0.019306488
90	0xbe18c9a8	-0.14920676
91	0x3e882ae8	0.26595235
92	0x3e567f63	0.20947032
93	0xbda6c379	-0.08142752
94	0xbec7b126	-0.3900234
95	0xbc7f6e7c	-0.015590306
96	0x3e6f07fd	0.23342891
97	0xbdf9af44	-0.121916324
98	0x3e8b3f88	0.27196908
99	0x3e478d66	0.19487533

net.2.weight f4 [100, 100]
0	0x3d810212	0.06299223
1	0x3d1802ff	0.037112232
2	0x3d9d76f8	0.07688707
3	0xbd3d4506	-0.046208404
4	0xbcb3d2be	-0.021951076
5	0x3da15161	0.0787685
6	0x3cb50282	0.022095922
7	0xbcdca126	-0.02693231
8	0xbd45dcfb	-0.048306447
9	0xbcfa4e9a	-0.030555058
10	0xbd4a3c96	-0.049374186
11	0xbd464bac	-0.04841201
12	0xbdaadf33	-0.08343353
13	0x3d861b9d	0.065482356
14	0xbc7e3232	-0.015514897
15	0xbd121ba7	-0.035670903
16	0x3dc862b8	0.09784454
17	0x3c3a94ad	0.011387986
18	0xbd128a91	-0.03577668
19	0x3c06615d	0.008201924
20	0x3cffbba9	0.031217413
21	0x3d844c05	0.06459812
22	0xbd0b1359	-0.033954
23	0x3c846e74	0.01616595
24	0x3d77c930	0.0604946
25	0xbd37e336	-0.04489442
26	0xbd286cb7	-0.041119304
27	0xbd396919	-0.045266245
28	0xbdd5d5d5	-0.10441176
29	0x3c7cb595	0.015424152
30	0xbdb808dc	-0.08986065
31	0x3d8fdf76	0.07025044
32	0x3d5f8cb7	0.054577556
33	0x3cc680d7	0.024231357
34	0xbd8a74bb	-0.06760546
35	0x3d11fee6	0.03564348
36	0x3d684633	0.056707572
37	0x3d5b29a7	0.05350652
38	0xbd23e0b7	-0.040009227
39	0x3d37ee9b	0.044905286
40	0x3d8ad0a0	0.06778073
41	0x3dd66e06	0.10470204
42	0xbdbd342a	-0.09238465
43	0xbd835afc	-0.06413838
44	0x3d1450a4	0.036209717
45	0xbdcc7ed7	-0.0998513
46	0x3ace0069	0.0015716675
47	0xbca14660	-0.019686878
48	0xbdbf9f85	-0.09356598
49	0xbd966df2	-0.07345189
50	0x3d6f081a	0.058357336
51	0xbd89e101	-0.06732369
52	0x3dca8e92	0.098904744
53	0xbd30b293	-0.04313905
54	0xbd7d91ef	-0.06190675
55	0xbd7cde71	-0.061735574
56	0x3dd60571	0.104502566
57	0xbd904433	-0.07044258
58	0xbd8ea2ae	-0.069646224
59	0x3d7dd568	0.0619711
60	0x3dd1b6d4	0.1023995
61	0x3cdc2461	0.026872816
62	0xbd914edd	-0.0709512
63	0xbd54cbf0	-0.051952302
64	0x3d6449cc	0.05573444
65	0x3d179446	0.03700664
66	0x3d07299f	0.032998677
67	0xbd9cd5dc	-0.07657978
68	0x3d3fdc6a	0.046841063
69	0xbd8ba00f	-0.06817638
70	0xbb372018	-0.0027942713
71	0x3db8696e	0.09004484
72	0x3dbf1fd7	0.09332245
73	0xbc592d95	-0.0132554965
74	0x3c9ae3a0	0.018907368
75	0x3c4dabbe	0.012553154
76	0xbdc63459	-0.09677953
77	0x3c355685	0.011067991
78	0xbdabf99e	-0.0839722
79	0xbd372d46	-0.04472091
80	0x3db1832d	0.08667598
81	0xbdca5e56	-0.098812744
82	0x3d64fa7d	0.055902947
83	0xbcf5bc8d	-0.029997135
84	0xbd62f14e	-0.055405907
85	0xbbe95673	-0.0071209013
86	0xbd63b3f2	-0.05559153
87	0x3d48bed2	0.049010105
88	0x3cc82758	0.024432823
89	0x3cfdf5df	0.03100103
90	0x3d802f8d	0.062590696
91	0xbdc65bfe	-0.09685515
92	0x3d8d631f	0.069036715
93	0x3dc2c885	0.09510902
94	0x3dbb6de2	0.09151818
95	0x3d264a56	0.040598236
96	0xbda9b41d	-0.08286307
97	0xbd0777cf	-0.033073243
98	0xbc1f5e33	-0.009727049
99	0x3d901822	0.07035853
100	0xbb9d1677	-0.004793938
101	0x3c546a85	0.012964849
102	0xbd82d7b0	-0.063887954
103	0x3b97487e	0.004616796
104	0xbd20516b	-0.039140146
105	0x3c08b6c5	0.008344357
106	0xbd88a75c	-0.06672546
107	0x3dc36bfd	0.095420815
108	0xbcb8b202	-0.022545818
109	0xbd3b43de	-0.04571902
110	0xbc9655f1	-0.018351527
111	0x3db2993f	0.087206356
112	0xbd1ce778	-0.038306683
113	0xbd7bd51c	-0.061482534
114	0x3d93af51	0.07211173
115	0xbd6993ba	-0.05702565
116	0xbdc0e5fd	-0.09418867
117	0xbd4349b1	-0.0476777
118	0xbc91c2cc	-0.017793082
119	0xbd5c5632	-0.05379314
120	0xbb224f7e	-0.002476662
121	0x3d9bfd13	0.076166295
122	0x3cca637f	0.024705647
123	0xbd4125c3	-0.047155153
124	0xba37c376	-0.0007010022
125	0xbdaee96b	-0.08540615
126	0xbcabcef3	-0.020972705
127	0xbd522493	-0.05130441
128	0xbd12b1b2	-0.035813995
129	0x3d344364	0.04400958
130	0x3dd4287e	0.10359286
131	0xbdd16806	-0.10224919
132	0x3c4715c0	0.012151182
133	0xbdc3cb60	-0.09560275
134	0xbd067457	-0.032825794
135	0xbd795e68	-0.06088105
136	0x3db31c82	0.08745672
137	0xbcf6be1d	-0.03011995
138	0xbd7497f5	-0.05971523
139	0xbdec0268	-0.115238965
140	0x3d8dbb72	0.06920518
141	0x3d9a6d39	0.07540364
142	0xbd5f2d3e	-0.054486506
143	0xbda0573d	-0.078291394
144	0xbbd61947	-0.006533775
145	0xbd32991f	-0.04360306
146	0xbcdeacbf	-0.027181981
147	0xbd1888d2	-0.037239857
148	0xbd2e3654	-0.04253228
149	0x3ccfc8bf	0.025364278
150	0x3d3b54a7	0.045735028
151	0xbd1e95f5	-0.03871723
152	0xbdb06601	-0.08613206
153	0x3d2c76bf	0.042105433
154	0xbdae3f01	-0.08508111
155	0x3c54dfd0	0.012992814
156	0x3d382ecc	0.044966504
157	0x3d335ab9	0.04378769
158	0x3d68f151	0.056870762
159	0x3d8c83ef	0.06861102
160	0xbd7b2f65	-0.061324496
161	0x3d99a1cb	0.07501563
162	0x3dc0a7bb	0.09406992
163	0xbd4cb44b	-0.04997663
164	0x3da80bf2	0.082054034
165	0x3da1b301	0.078954704
166	0x3dbd6d65	0.09249381
167	0x3d8fe168	0.07025415
168	0x3be2fc06	0.006927016
169	0xbde9800a	-0.11401375
170	0xbd8750d3	-0.06607213
171	0xbd977ea5	-0.073972024
172	0x3d871d53	0.0659739
173	0xbd65da05	-0.056116123
174	0x3dacf01f	0.08444237
175	0x3bb83887	0.005621973
176	0x3dcc1cee	0.099664554
177	0xbd35c9fb	-0.044382077
178	0x3c2f3537	0.01069384
179	0xbd7a168d	-0.061056662
180	0x3dc4c05d	0.09607003
181	0xbd93b88b	-0.07212933
182	0xbb45c8cb	-0.0030179496
183	0x3db2fd66	0.08739738
184	0x3da04354	0.07825342
185	0x3cb4a1f7	0.022049887
186	0x3b919caa	0.0044437246
187	0xbdb2e67a	-0.08735366
188	0xbc50c270	-0.01274167
189	0x3da82528	0.08210212
190	0x3d205566	0.039143942
191	0x3d466512	0.048436232
192	0x3dac8e0b	0.0842553
193	0x3bf89000	0.0075855255
194	0x3c08b857	0.008344731
195	0xbb61bd1a	-0.0034444989
196	0x3d8a7623	0.06760814
197	0x3d9e874a	0.07740648
198	0xbc383c58	-0.011244856
199	0x3d353bac	0.04424636
200	0xbcc729ce	-0.024311926
201	0xbd392604	-0.04520227
202	0x3db6b2e6	0.08920841
203	0x3cdcb326	0.026940893
204	0xba61ee47	-0.0008618575
205	0xbce94d36	-0.0284792
206	0xbd4c4c48	-0.049877435
207	0xbc86ffe8	-0.016479447
208	0x3dca0669	0.09864504
209	0xbd30bdf8	-0.04314992
210	0x3db5c97d	0.088763215
211	0xbacfd376	-0.0015855867
212	0x3dbb75a0	0.091532946
213	0x3dc23aa1	0.09483839
214	0xbd911ef1	-0.0708598
215	0x3d33053d	0.043706167
216	0xbda27bd5	-0.07933775
217	0xbd21dbfa	-0.039516427
218	0x3db2b23d	0.087254025
219	0xbe00d98b	-0.12582986
220	0xbc9d6f02	-0.019217972
221	0x3da562dc	0.080754966
222	0x3daa5096	0.08316152
223	0xbcc1e30c	-0.023667835
224	0xbc9d239d	-0.01918202
225	0x3d7d15f8	0.06178853
226	0x3d8e3ba5	0.0694497
227	0xbd987e8c	-0.07446012
228	0x3da12511	0.07868398
229	0x3d8f6dae	0.070033416
230	0x3b12d815	0.0022406627
231	0xbc87ed35	-0.016592601
232	0xbd6cd69d	-0.05782186
233	0xbd5cc625	-0.053899903
234	0x3c1fc768	0.009752132
235	0xbd47caa5	-0.04877724
236	0x3c00082e	0.00781445
237	0xbd9b51f2	-0.07583989
238	0x3d162fd4	0.036666706
239	0x3d8beb1b	0.06831952
240	0xbd8ab4fb	-0.067728005
241	0xbd813867	-0.06309586
242	0xbcbcecc4	-0.023062117
243	0x3c713cbf	0.014723956
244	0xbd9c52e2	-0.07632996
245	0xbc97a162	-0.01850957
246	0x3d18b89f	0.037285443
247	0xbd96a5cc	-0.07355842
248	0x3d5c6922	0.0538112
249	0xbd06c499	-0.032902334
250	0xbcfa50c6	-0.030556094
251	0x3dd34c9e	0.10317348
252	0xbdd2490b	-0.10267838
253	0xbd4c9576	-0.049947225
254	0x3c7320f5	0.014839401
255	0xbd2d3b2f	-0.04229277

net.2.bias f4 [100]
0	0x3d988d01	0.07448769
1	0x3d7d4f4a	0.061843194
2	0xbdae2d90	-0.08504784
3	0x3cfd1747	0.030894889
4	0x3c43cf71	0.011951313
5	0x3c7eacfb	0.015544171
6	0x3d9e4f45	0.07729963
7	0xbd4a302f	-0.049362358
8	0xbdaf761a	-0.08567448
9	0xbc2636e4	-0.010144923
10	0x3db60419	0.088875
11	0x3cf0ba25	0.029385636
12	0xbdb7cfba	-0.089751676
13	0xbda47a5e	-0.08031152
14	0xbd9fc57f	-0.07801341
15	0x3d81a7af	0.06330811
16	0xbd79d676	-0.06099554
17	0x3d75b4d3	0.0599869
18	0x3da58267	0.08081513
19	0xbdc96db2	-0.09835376
20	0xbcbbdfcf	-0.022933869
21	0xbd434707	-0.04767516
22	0xbd97f713	-0.074201725
23	0xbcd86b19	-0.026418256
24	0xbd45f993	-0.048333716
25	0x3d4936a8	0.04912439
26	0x3d594573	0.053044748
27	0xbdc3fa6e	-0.0956925
28	0xbbd92bdc	-0.006627543
29	0x3d1ed0bd	0.038773287
30	0x3c4ecd24	0.0126221515
31	0xbb729044	-0.0037012259
32	0xbdab71fc	-0.0837135
33	0x3d4c5895	0.049889166
34	0x3cc0aeb8	0.023520812
35	0xbda1ed70	-0.07906616
36	0xbda87cf7	-0.0822696
37	0x3ce4360f	0.027857808
38	0x3d9eea48	0.07759529
39	0xbc26ca6d	-0.010180098
40	0x3d396619	0.045263384
41	0x3da23083	0.07919409
42	0x3dc1e06e	0.09466635
43	0xbdb48724	-0.088148385
44	0x3d3c42f6	0.045962296
45	0xbd86424c	-0.06555614
46	0xbd38df45	-0.0451348
47	0xbd857e60	-0.06518245
48	0x3d43ba58	0.047785133
49	0xbb9c4280	-0.0047686696
50	0x3dbe477d	0.09290979
51	0x3db33be9	0.08751661
52	0xbcefccff	-0.029272554
53	0x3c4517b9	0.012029582
54	0x3b181e73	0.0023211509
55	0xbcfbbf2d	-0.030730808
56	0x3d903014	0.0704042
57	0x3d499b33	0.049220275
58	0x3d73cf30	0.05952376
59	0x3c526ef0	0.012843832
60	0xbd9d5e0e	-0.07683955
61	0x3d851d8b	0.064997755
62	0x3d093401	0.03349686
63	0xbd51441d	-0.05109035
64	0xbc83f8a3	-0.01610977
65	0xbd81ec17	-0.06343859
66	0xbd0e6e3e	-0.034773104
67	0xbd933cf0	-0.07189357
68	0x3ca44ccd	0.020056153
69	0x3b4cc20a	0.0031243586
70	0xbcd8a232	-0.026444528
71	0x3db5c065	0.08874587
72	0xbc6a047d	-0.014283297
73	0xbd6693d1	-0.056293312
74	0x3cd32028	0.02577217
75	0xbd21a050	-0.039459527
76	0xbc1877ee	-0.009305937
77	0xbc6793ee	-0.01413439
78	0xbd42923f	-0.047502752
79	0xbc2f645e	-0.010705082
80	0x3da00ceb	0.07814964
81	0xbd860dfe	-0.065456375
82	0x3d9a988b	0.075486265
83	0xbd0e5c0f	-0.034755763
84	0xbd83e607	-0.064403586
85	0xbd2b8134	-0.041871265
86	0xbd69f1b6	-0.05711528
87	0x3cf16e2c	0.02947148
88	0x3d78bdf6	0.060728036
89	0x3d026477	0.031834092
90	0xbdb67c72	-0.08910455
91	0xbd870d27	-0.065943055
92	0xbd1c35c3	-0.03813721
93	0xbd3847a0	-0.044990182
94	0x3d1a9574	0.037740186
95	0x3d8b0c39	0.06789441
96	0xbc98b288	-0.018639818
97	0xbdac9969	-0.08427698
98	0xbd4b25e4	-0.049596682
99	0x3d0d06c7	0.03443029

net.4.weight f4 [3, 100]
0	0xbdde65d5	-0.10859267
1	0x3d2eaed2	0.04264719
2	0xbd593b25	-0.05303492
3	0xbd1bd10b	-0.038041156
4	0xbb236552	-0.0024932218
5	0x3cfadea3	0.03062374
6	0x3d29c009	0.041442905
7	0xbcb4cf51	-0.022071512
8	0x3d965692	0.07340731
9	0xbd248fd2	-0.04017622
10	0x3b8409eb	0.0040295026
11	0x3dc4f108	0.096162856
12	0xbda944ff	-0.08265113
13	0x3d94e174	0.07269564
14	0xbd855317	-0.06509989
15	0x3d652ac1	0.055948976
16	0xbb96d43b	-0.0046029366
17	0xbc7a2b39	-0.015269094
18	0xbdbd9141	-0.092562206
19	0x3d4f50ce	0.05061417
20	0x3ca1decf	0.019759564
21	0xbd2d66a5	-0.042334218
22	0xbd8dbc7d	-0.06920717
23	0x3d89af8f	0.06722938
24	0xbcc1cf74	-0.023658492
25	0xbc8440f3	-0.016144251
26	0x3c6da2b3	0.014504123
27	0xbc065c23	-0.008200678
28	0x3d88baa4	0.06676224
29	0x3d930f5e	0.071806654
30	0x3d9a6993	0.07539668
31	0x3d4e7978	0.05040881
32	0xbcd9f5f4	-0.026606537
33	0x3d034609	0.032049213
34	0xbca910b5	-0.02063785
35	0xbbda9b60	-0.006671354
36	0x3dc5fb24	0.09667042
37	0xbd8f74dd	-0.07004712
38	0x3d3510b8	0.044205397
39	0xbd4dcc7c	-0.05024384
40	0x3cd26e53	0.025687372
41	0x3cf48b1a	0.029851485
42	0xbd82aec4	-0.0638099
43	0xbd5e15fa	-0.054220177
44	0x3d304e42	0.043043382
45	0xbd8dc4ad	-0.069222786
46	0xbd753abc	-0.059870467
47	0xbd503d7c	-0.050839886
48	0x3d55f584	0.052236095
49	0xbd86203c	-0.06549117
50	0x3c554f4f	0.013019397
51	0x3c5b6954	0.013391811
52	0x3dc1b962	0.09459187
53	0xbda52c12	-0.08065046
54	0xbc66aaa7	-0.014078773
55	0xbd4458ad	-0.04793613
56	0xbdc41fcc	-0.09576377
57	0x3d80c858	0.062882125
58	0x3c33fe90	0.010985985
59	0x3d159a1a	0.036523916
60	0x3ad05558	0.0015894575
61	0x3d46d6e6	0.048544787
62	0x3d8260dd	0.063661315
63	0xbd7bf32b	-0.0615112
64	0xbdb600c0	-0.08886862
65	0xbdbb72d0	-0.09152758
66	0xbd33fa06	-0.043939613
67	0x3d82d8c9	0.06389005
68	0x3c4f5efe	0.012656925
69	0xbba9bb86	-0.0051798252
70	0x3c9733a7	0.018457247
71	0xbdbefc2a	-0.0932544
72	0xbda74b99	-0.08168716
73	0xbd66751c	-0.056264028
74	0x3da642aa	0.08118184
75	0xbd97edd1	-0.07418407
76	0x3d1ad03d	0.037796248
77	0xbd0ba5a4	-0.034093514
78	0x3c6d310e	0.014477028
79	0x3d885176	0.066561624
80	0x3d0e7f81	0.034789566
81	0xbd663028	-0.05619827
82	0xbd99b4c3	-0.07505181
83	0xbdc33d1e	-0.095331416
84	0xbd862c06	-0.065513656
85	0xbdb767b1	-0.089553244
86	0xbd8e4fe5	-0.069488324
87	0x3d55d90c	0.052208945
88	0xbcb7cd28	-0.022436693
89	0xbdba5d64	-0.09099844
90	0xbd8e1efc	-0.069395036
91	0xbdb1d4af	-0.08683144
92	0xbd9d705d	-0.07687447
93	0x3d0aa30b	0.033846896
94	0x3cab728c	0.020928644
95	0xbcdfb455	-0.027307669
96	0xbd48e71e	-0.049048536
97	0xbdbb5f75	-0.09149066
98	0xbc2d8abd	-0.01059216
99	0x3c5dd942	0.013540568
100	0xbce5426f	-0.02798578
101	0xbc924247	-0.01785387
102	0x3cd3b900	0.02584505
103	0xbc8411f5	-0.016121844
104	0x3d9a5bca	0.075370386
105	0xbda28d23	-0.07937076
106	0xbdb7c9e1	-0.08974052
107	0x3d1d489d	0.038399328
108	0x3be1b14e	0.0068875914
109	0x3d85279d	0.06501696
110	0x3d981b1e	0.07427047
111	0x3c9bf2b3	0.019036626
112	0xbcaaa88c	-0.020832323
113	0x3da046f0	0.0782603
114	0xbc9a028a	-0.018800039
115	0x3d9c9096	0.07644765
116	0xbd2f50c1	-0.042801622
117	0x3dcd9e93	0.10040011
118	0xbd326466	-0.04355278
119	0x3d4902d2	0.049074955
120	0x3dc2bebe	0.095090374
121	0x3dc3be3a	0.09557767
122	0x3c9a22cf	0.018815426
123	0x3daed11f	0.085359804
124	0x3d6eb971	0.05828232
125	0xbdd8b943	-0.10582211
126	0xbc12130f	-0.008915677
127	0xbdc96a7b	-0.09834763
128	0xbcec148b	-0.02881839
129	0x3d9d3a4a	0.076771334
130	0xbd5256ab	-0.051352184
131	0x3c242188	0.01001776
132	0x3d1777ff	0.03697967
133	0x3c024417	0.007950804
134	0xbd740097	-0.059570875
135	0x3d7e32a8	0.06206003
136	0xbdc03af8	-0.093862474
137	0x3b90f733	0.0044239997
138	0xbd166d74	-0.036725476
139	0x3d9929a3	0.07478645
140	0xbc6a9041	-0.014316619
141	0x3dc3823f	0.09546327
142	0x3c9e0163	0.01928777
143	0x3d967cff	0.0734806
144	0xbce29221	-0.02765757
145	0x3da79253	0.08182206
146	0xbda6a905	-0.08137707
147	0x3d99f00a	0.07516487
148	0x3d6906ab	0.056891125
149	0xbd03b9bb	-0.03215955
150	0xbdbd0648	-0.09229714
151	0xbd8db99d	-0.069201685
152	0x3b930d96	0.0044877036
153	0x3c843e94	0.01614312
154	0x3c0159f8	0.007894985
155	0x3d61d00d	0.055130053
156	0x3d044085	0.032288093
157	0x3d03361e	0.032034032
158	0xba1199eb	-0.00055542466
159	0xbd391dfc	-0.04519461
160	0x3dd583d9	0.104255386
161	0x3cac35f3	0.021021819
162	0xbd5f6830	-0.05454272
163	0x3d1ee06e	0.03878825
164	0x3da4bafc	0.08043477
165	0x3a46294d	0.0007559255
166	0x3d581081	0.052750114
167	0xbb476473	-0.0030424863
168	0x3d62223d	0.055208433
169	0x3bf72ee0	0.0075434297
170	0x3caec99b	0.021336367
171	0x3c9ae9c9	0.018910306
172	0x3daa2f48	0.083097994
173	0x3da03b2c	0.07823786
174	0x3dbe137d	0.09281061
175	0xbd361c4d	-0.044460583
176	0x3dc14597	0.09437101
177	0xbc8d1d87	-0.017225994
178	0xbda8ef9e	-0.08248828
179	0x3d82c58f	0.063853376
180	0xbc3b453f	-0.011430084
181	0x3ca69760	0.020335853
182	0xbda780e1	-0.081788786
183	0xbd842f28	-0.06454307
184	0xbd2b0b6f	-0.04175895
185	0xbd2dd99d	-0.04244386
186	0x3d6fe71b	0.05857001
187	0xbd8ee5ee	-0.06977449
188	0x3d846436	0.06464426
189	0xbcfa9daa	-0.030592758
190	0xbd0df7b6	-0.034660064
191	0x3bda897d	0.006669222
192	0x3cb30cb0	0.021856636
193	0xbdbc5987	-0.091967635
194	0xbc628917	-0.01382663
195	0xba6f084e	-0.0009118364
196	0x3d84f47b	0.064919434
197	0xbd642ff3	-0.05570979
198	0xbda73148	-0.081636965
199	0x3d0badd7	0.034101333
200	0x3d7259e8	0.059167773
201	0xbcedb6ab	-0.029017767
202	0x3d98e1da	0.07464953
203	0xbd38679d	-0.04502069
204	0xbcde3041	-0.027122619
205	0x3da935e7	0.08262234
206	0x3d80dc46	0.06292014
207	0xbd341359	-0.043963764
208	0x3bdbf5c0	0.0067126453
209	0x3d8f6260	0.070011854
210	0x3d5317f6	0.051536523
211	0x3dab2f42	0.08358623
212	0x3db7881a	0.08961506
213	0xbd98aaed	-0.074544765
214	0x3bc86315	0.006115327
215	0x3e0d8b5c	0.13822693
216	0xbc27de91	-0.010245935
217	0x3e2ca142	0.1685839
218	0xbdac4fc2	-0.0841365
219	0x3dc90adf	0.098165266
220	0x3d7df00f	0.061996516
221	0x3be4c27f	0.0069811936
222	0x3d4a6b3e	0.04941868
223	0xbe210263	-0.15723567
224	0xbdee0d3c	-0.11623618
225	0x3d192d36	0.037396632
226	0xbdcbc190	-0.099490285
227	0xbcc8454f	-0.024447111
228	0x3d28b27f	0.041185852
229	0x3dc67631	0.09690512
230	0xbdcccf1b	-0.1000044
231	0xbda80b84	-0.082053214
232	0x3c8874ea	0.016657311
233	0xbd9f2d2c	-0.07772288
234	0xbe02d70c	-0.12777346
235	0x3cda9750	0.02668348
236	0xbd6fe4a9	-0.058567677
237	0xbdd6e5cd	-0.1049305
238	0xbd8e1a52	-0.06938614
239	0x3da21d8f	0.07915794
240	0x3cd79be6	0.026319455
241	0x3b5aa7df	0.003336422
242	0x3db74506	0.08948712
243	0xbdc02941	-0.093828686
244	0x3c87ce18	0.016577765
245	0xbdb4b9d6	-0.08824508
246	0x3d0ee676	0.034887753
247	0xbb5f7412	-0.0034096283
248	0xbdca6d00	-0.09884071
249	0xbc1a5636	-0.009419968
250	0x3da3e0a7	0.080018334
251	0xbdf0208e	-0.11724959
252	0xbceac0b2	-0.028656337
253	0xbcaefa50	-0.021359593
254	0xbd4e1fba	-0.050323226
255	0x3d8d9a10	0.06914151

net.4.bias f4 [3]
0	0x3d741ca3	0.059597623
1	0xbd7ec104	-0.062195793
2	0x3dc8d8fe	0.09807013
