checkpoint/residual/pushing_1_steps_residual_dynamics_model.pt (torch, 47610 bytes, 6 tensors)

net.0.weight f4 [100, 6]
000000 3a 2b a8 bd 13 9a 01 3d 5a de 00 3f d3 88 e2 be
       -0.0821137 0.031641077 0.5033928 -0.44245014
000010 c5 79 f6 bd cb ba d1 bc f3 c1 58 3e 5b ed ac bd
       -0.120349444 -0.025601765 0.21167736 -0.084437095
000020 33 2a 41 3e 3b 04 8b 3e 1f 2d 3f 3e 55 d4 da bd
       0.18863754 0.27151665 0.18669556 -0.1068503
000030 8e 66 a1 be b5 7b 9c 3e 92 f9 bb 3c e8 ce 31 3d
       -0.31523556 0.3056313 0.022946153 0.04341021
000040 ca 39 88 bb 3c b0 90 3d c5 02 1d 3e 61 51 d0 be
       -0.0041572796 0.07064864 0.15333088 -0.40687087
000050 2c 5a 9c be b5 f2 5b 3e a5 8d ab bd f5 8a 51 be
       -0.30537546 0.21479304 -0.08376626 -0.20463164
000060 cd 3f b0 be f0 9a 5c 3e f0 72 8b be cb ff 82 bd
       -0.34423676 0.21543479 -0.27236128 -0.06396445
000070 39 e1 c1 bd ea 02 99 3e 95 53 93 be 07 36 49 3e
       -0.09466786 0.29885036 -0.28774706 0.19649516
000080 14 b1 d1 bd 28 d8 97 be 08 6d a5 be e1 8c b3 3e
       -0.10238853 -0.29657102 -0.32309747 0.3506842
000090 2c 9a 35 3e 2d 00 b8 be 1a fa a7 bd c2 90 b2 be
       0.17734593 -0.35937634 -0.08202 -0.34876066
0000a0 f0 82 8a be 4c e9 85 3e ac 12 94 3e 5b eb 26 3e
       -0.27053022 0.26154554 0.28920496 0.16300718
0000b0 f9 30 ce bd fc 54 cc bd 78 1f 9a 3d 4e 9f 7e 3e
       -0.100679345 -0.09977147 0.075255334 0.24865457
0000c0 fe 48 bc be 5b 52 90 3d 4b 41 66 be cf 18 6c 3e
       -0.3677444 0.07046958 -0.22485845 0.23056339
0000d0 94 32 af be 70 c2 18 3e 57 fe d5 3c 54 49 59 be
       -0.34218276 0.14917922 0.026122255 -0.21219379
0000e0 55 53 d9 be 5f 63 aa be 1f 19 26 3e 5e e0 1b 3d
       -0.4244639 -0.3327894 0.1622052 0.03805577
0000f0 71 86 0d 3d 73 0f 95 3e 4b 1d 11 be 07 b0 76 3e
       0.03455204 0.2911335 -0.1417133 0.24090587
000100 92 dd e2 3e f4 19 92 3d 73 9f ba bc 46 67 ad 3e
       0.4430967 0.071338564 -0.02278111 0.33867854
000110 be 62 40 be cc c9 a4 3e de e5 6d be e4 aa c9 3e
       -0.18787667 0.3218521 -0.23232219 0.39388192
000120 c6 33 bc be 52 db 63 3e 18 d8 5f 3e 0e 3a 1b be
       -0.3675825 0.22251633 0.21859777 -0.15158865
000130 4f 30 01 bf 7e fc 44 be da e7 c9 bd 82 b2 83 3d
       -0.5046434 -0.19236943 -0.09858675 0.06430532
000140 e2 bb 3e be e5 a0 69 3d 54 ef 45 be 47 de ad be
       -0.18626359 0.057038207 -0.19329578 -0.33958647
000150 e6 b8 af 3e e0 fb 9d be a8 47 d7 3d 1a 85 b4 bc
       0.34320754 -0.30856228 0.10511714 -0.022036124
000160 ce 2c 86 bd 62 99 66 be 49 be dd bd b9 84 85 3e
       -0.065515146 -0.22519448 -0.1082731 0.26077822
000170 12 19 a2 3d bd 49 97 be 24 68 0b 3e c6 bd 1b be
       0.07914938 -0.29548445 0.13613945 -0.15209112
000180 92 60 09 be 28 46 8e be 5f 5b aa 3d 27 49 a2 bc
       -0.13415745 -0.277879 0.08318209 -0.019810272
000190 70 e6 07 3e 8d c0 8e 3e 76 ad f7 3d d2 6e 04 bd
       0.13271499 0.2788128 0.12093632 -0.03233225
0001a0 09 15 3e 3c 03 96 5e 3e 81 80 f9 bd 7d a9 89 3d
       0.011601695 0.21736912 -0.12182713 0.067217804
0001b0 80 9e 54 be e0 ef 54 be 78 62 52 be bb b9 3a 3e
       -0.20763588 -0.2079463 -0.20545375 0.18234913
0001c0 e6 2f 2f 3e 7a 16 ab be 84 cc 85 3e 4b 5e b0 3d
       0.17108116 -0.33415586 0.26132596 0.08611735
0001d0 7e 91 a6 3e e6 e2 d1 be e3 60 e5 be 4c d2 c4 be
       0.32532877 -0.40993422 -0.4480048 -0.38441694
0001e0 49 4b 6a be bb 1b b8 bc 2d 05 5f 3e 33 1a b2 3e
       -0.22880282 -0.02247416 0.21779318 0.34785613
0001f0 96 0b dd bd cd 37 93 3e 4e 4b 64 be 80 ee 17 3c
       -0.107932255 0.2875351 -0.22294351 0.009273171
000200 1c 5b 0b 3e 90 44 d4 3d 28 b7 23 bd 6f cf 3f 3d
       0.13608974 0.1036464 -0.039969593 0.046828683
000210 3e 5a 62 3e f5 b1 87 be 8d 0e 76 3d c9 ec 6c 3d
       0.22104737 -0.26502958 0.06007247 0.057843003
000220 30 7b 01 bf c0 30 68 3e e1 eb a8 be 5b 3c 5b be
       -0.50578594 0.22674847 -0.3299246 -0.21409743
000230 85 8d 95 3e 7c 36 45 3e 95 7e 56 be cf f5 ca 3e
       0.29209533 0.19259065 -0.20946725 0.39640662
000240 85 7f 35 be 37 1e 22 3c 09 4b e2 be a2 ec ee bd
       -0.17724426 0.009894899 -0.44197872 -0.11666228
000250 35 46 73 3d 8b cb 90 3e 45 38 cf 3c 13 b2 8b be
       0.059393127 0.2828029 0.025295386 -0.27284297
000260 3f c4 8d be fe c0 bd be b8 9f 12 be 64 2b 33 3e
       -0.27688786 -0.37061304 -0.1431874 0.17497021
000270 4e c6 20 3e 81 bd 4f 3d 93 91 a4 3e 26 01 c9 bc
       0.15700647 0.050717834 0.32142314 -0.02453668
000280 83 88 9c 3e 71 ed bc 3d d7 53 91 3e 2d 4d b9 3e
       0.305729 0.09224976 0.28384277 0.36191693
000290 2e 8e da be 27 8e 08 3f 03 22 17 3e 70 ab 76 be
       -0.426866 0.5334191 0.14759068 -0.24088836
0002a0 c2 82 c4 be d0 e3 8a 3e 1e cf 3b bc cf fd 85 3e
       -0.3838101 0.27126932 -0.011462955 0.26170203
0002b0 66 b6 ec 3e 5a 16 f4 3d 72 51 8e be d2 69 4a be
       0.4623291 0.11918326 -0.27796513 -0.1976693
0002c0 8d e7 05 bf 3a f9 2e 3e cb 2e b1 be 8f ae 90 be
       -0.52306443 0.1708726 -0.34606013 -0.28258178
0002d0 8a 7a ee 3e 0c d7 54 bd 65 b4 c2 3e a8 f4 fd be
       0.46577865 -0.051962897 0.38028255 -0.4960072
0002e0 ec 59 c6 be a0 3a a7 be 98 d5 8b 3e e9 28 6e be
       -0.3874048 -0.32661915 0.27311397 -0.23257793
0002f0 2e 1e 89 3e ce f6 91 bd 9e 9c ce 3e 8e 69 88 3d
       0.26780838 -0.071271524 0.40353864 0.06660758
000300 a6 15 bc 3d a5 b1 2e be 8a 8e 1c 3d 68 2a db 3e
       0.091838166 -0.17059954 0.038221873 0.4280579
000310 bd 58 69 bd 1d 6b cf 3d ce 79 1e be 2d 13 80 be
       -0.056969393 0.10127852 -0.15476152 -0.2501463
000320 4a b6 aa be d5 93 df 3e f8 c4 f1 bc ca 55 8b bd
       -0.333422 0.43667474 -0.029512867 -0.06803472
000330 01 6b b9 bc 72 07 c0 3e aa 6c b7 bb b6 1d 49 be
       -0.022634031 0.3750568 -0.0055976706 -0.1964024
000340 2e 4e 99 3c 70 32 cb 3d dc 07 ca be c7 08 8c 3d
       0.018714037 0.099217296 -0.3945912 0.06837612
000350 de 28 9f be c9 51 a1 3e 4a d0 86 be 4b 1e ce 3e
       -0.31085867 0.3150771 -0.26330787 0.40257487
000360 50 c5 90 3d ce 03 35 3d 22 5e df be 7c f5 f6 be
       0.070688844 0.04419308 -0.43626505 -0.48234165
000370 b7 e9 c0 be e9 78 a3 be 9d ac b5 be cc 25 00 be
       -0.3767831 -0.31928185 -0.35483256 -0.12514418
000380 a9 c1 56 be d5 b3 c4 3e bf ea 62 3e 13 bd 38 bd
       -0.20972313 0.3841845 0.22159861 -0.04510219
000390 ed 6d 09 be 60 f3 cb 3d 46 a2 31 3e 15 fc 23 3d
       -0.1342084 0.099585295 0.17347059 0.040035326
0003a0 c5 05 87 3c 83 dc b5 3e 23 dc 00 3e 24 6e 3a 3d
       0.016482243 0.355198 0.12583975 0.045515195
0003b0 a8 26 8c bd 5c a2 d9 3e 70 93 25 3d f2 0d 6d be
       -0.068433106 0.42506683 0.04042381 -0.23149851
0003c0 87 b4 1e be 4c dd 6e 3e 33 10 cd 3e 4e bb 50 be
       -0.15498553 0.23326606 0.40051422 -0.20383951
0003d0 fb c1 d3 be 08 ce 3d be 78 75 15 3e 05 a2 b7 3c
       -0.41358933 -0.18535626 0.14595592 0.022416124
0003e0 91 de e3 bd 3c 99 0e 3a db 47 e6 be dc 5d 9a 3d
       -0.111264355 0.0005439704 -0.44976696 0.075374335
0003f0 60 3a 58 bc a6 bd a9 3e e7 d3 d2 bc a3 96 c8 3e
       -0.013197511 0.33152503 -0.025735809 0.39177427

net.0.bias f4 [100]
000000 c6 0d bf be 3c 03 2d be 7c 50 80 3e ca 8e 04 3e
       -0.37315196 -0.16895765 0.25061405 0.12945095
000010 ee c1 9a be f6 e8 bd be 93 4a 83 3e 82 1e 25 3e
       -0.30226082 -0.37091798 0.25642833 0.16124919
000020 06 b3 46 3d 9f 96 c3 bd 09 16 ad be fd 40 d3 be
       0.048510574 -0.09550213 -0.33805874 -0.4126052
000030 25 45 67 3e 03 27 21 be 82 25 2e 3e 48 28 5c be
       0.2258497 -0.15737538 0.17006496 -0.21499741
000040 b2 cc 9a be 60 69 03 be f5 ca 8b bd d4 88 85 be
       -0.30234295 -0.12833166 -0.0682582 -0.26080954
000050 f7 d1 b7 3e 24 39 55 bd de d5 8a 3e 42 a8 c4 3e
       0.35902378 -0.052056447 0.27116293 0.3840962
000060 2e d6 d2 be 62 48 94 bd f4 66 2b 3e 84 c4 8c be
       -0.4117903 -0.072403684 0.16738492 -0.2749368
000070 96 ce db 3d 27 84 74 3d a3 69 83 be 4f 91 53 be
       0.107327625 0.059696343 -0.25666532 -0.206609
000080 c9 1f c8 3e 87 f2 47 bd 2a 63 91 be 23 c8 69 3e
       0.3908675 -0.048815276 -0.2839597 0.22830252
000090 5d b0 b0 3e dd 94 38 be de 76 be be 7b 9c d3 3d
       0.34509555 -0.18025537 -0.37200063 0.10332581
0000a0 e9 bd 54 3e e3 b3 c8 be 3a d3 f1 3d 9e 94 b0 3e
       0.2077557 -0.39199743 0.118078664 0.34488386
0000b0 56 fd 9c 3d fa 29 ce bd f8 d7 ab bd 4d a9 b2 bd
       0.076655075 -0.100666 -0.08390802 -0.08723698
0000c0 7d 06 98 3e 12 32 96 be 16 a3 c5 3a bc fd f0 bc
       0.2969245 -0.29335076 0.0015078511 -0.029417865
0000d0 96 f5 b8 3e 1f 1f 3f bd 25 2c 90 be bc cd 63 3e
       0.36124867 -0.04666054 -0.2815868 0.2224645
0000e0 78 c2 a9 3d 87 16 39 be 01 63 ee bd 3e 1c 48 be
       0.08289045 -0.18075 -0.11639977 -0.19542024
0000f0 15 84 64 3d 1c 2c 10 be bb 6d 2f 3e d4 0f 32 3e
       0.055790026 -0.14079326 0.17131703 0.1738885
000100 6a 4a 80 3e 6f fb a9 3d 4f e9 c2 bc aa 98 cd be
       0.25056773 0.0829991 -0.02379289 -0.40155536
000110 f8 e8 d1 be 98 52 33 be 20 6a b4 3e 09 f9 4f be
       -0.40998054 -0.17511976 0.35237217 -0.20309843
000120 9e 35 32 be 0b c6 70 3d b8 ed 95 3e 16 26 52 3e
       -0.17403266 0.05878262 0.29282928 0.20522341
000130 e6 78 8d 3e 4b 35 60 3e 7d 42 8d 3e 11 da 98 bd
       0.276313 0.2189533 0.2758979 -0.07463468
000140 bf d1 1c bb 7f 02 91 be d0 9f bf be 3c 2f a7 3e
       -0.002392873 -0.28322217 -0.37426615 0.32653224
000150 51 10 13 bd ed 5d a7 bd ee 26 a3 be 1a b0 aa 3d
       -0.035904232 -0.08172212 -0.31865638 0.0833437
000160 e4 ab 15 3e af 9a 3a be 4a fd 51 be bb 71 8b 3e
       0.14616352 -0.1822307 -0.20506778 0.27235207
000170 bd fa b3 be ce 87 81 bc 89 6e 8a 3e a4 1e 70 be
       -0.35152236 -0.015811827 0.27037457 -0.23449188
000180 79 7f 8f bd 8c 73 58 be 91 95 74 3e c2 f9 cd bd
       -0.07006735 -0.21137828 0.2388518 -0.10057403

net.2.weight f4 [100, 100]
000000 ed 4c 9d 3d 37 1e 3e 3d 46 dd 58 bd 12 79 5c bd
       0.07680688 0.046415534 -0.052945398 -0.0538264
000010 7b ed 80 3d a9 60 2d bd 38 9e bc bc 5f 7e 9e bc
       0.06295296 -0.04232851 -0.023024663 -0.019347368
000020 83 ae 99 bd 63 d3 87 3d 03 21 07 3d fe 6d 9e 3d
       -0.075039886 0.06632116 0.032990467 0.07735823
000030 fb 1e 88 bd 5e 4a f5 3c 5d ca 22 bd 8b 91 b0 3d
       -0.06646534 0.029942688 -0.03974377 0.0862151
000040 0f d2 30 bd 36 8a 85 3d 7f 6f 2a 3d 44 3f 67 bd
       -0.043169077 0.06520502 0.041610237 -0.05645682
000050 80 53 37 bd 90 25 bd 3d 09 0f 5e 3d e7 48 09 bb
       -0.044757366 0.0923568 0.054213557 -0.0020947994
000060 1c b1 0d bd 39 57 85 bd a9 33 3f 3d d8 d2 97 bd
       -0.034592733 -0.06510777 0.046680126 -0.07413262
000070 a2 7e 11 3d 18 ca 9e bc 87 b0 61 3d d8 5a 98 3a
       0.035521157 -0.019383475 0.05509999 0.0011623753
000080 6b 8e 1c 3d f3 6e 95 bd a0 bf c9 bc 17 71 4f 3d
       0.038221758 -0.072965525 -0.024627507 0.05064496
000090 98 2b 5f 3d b7 20 ac bd 1f 6b a3 bd b5 a0 ba 3d
       0.054484934 -0.08404677 -0.07979416 0.09112684
0000a0 ac 2a 68 3c 7a 3e 3b bd 36 28 66 bd 01 22 9d bd
       0.01417033 -0.04571388 -0.056190692 -0.07672501
0000b0 b3 8a d0 bd 48 ee 01 bd 40 48 c1 3d 4f 27 d1 bc
       -0.10182705 -0.031721383 0.09437609 -0.02553144
0000c0 5d 71 46 bd 70 ac 6f 3d 3a 87 d1 3d 05 bf 16 bd
       -0.048447955 0.05851406 0.102308705 -0.036803264
0000d0 77 6a 64 bd 24 3e d1 3d 99 b7 0e 3d 06 ca f5 3c
       -0.055765595 0.102169305 0.03484306 0.030003559
0000e0 ab 91 16 bd 8e 4c 16 3d 98 28 6d 3d ae 6a ad bd
       -0.036760014 0.036694102 0.05790004 -0.08467613
0000f0 d1 22 55 bd b4 45 d4 bd 18 20 0e bd db fa d2 bd
       -0.052035157 -0.10364857 -0.034698576 -0.10301753
000100 43 7a d4 bd ce e4 be 3d 1a 8e a9 3d 5d e5 a1 bd
       -0.10374882 0.09320985 0.08279057 -0.07905076
000110 07 c5 d0 3d dd a3 c0 bc a3 0c 00 3d c0 1e d5 bd
       0.1019383 -0.023515636 0.03126205 -0.10406256
000120 f6 b1 5d 3b 5e 95 8d bd f4 32 3d bc 3a 77 56 bd
       0.0033827997 -0.06913255 -0.011547793 -0.052359797
000130 f6 58 9a 3d 23 c8 0e bc fb d8 b7 bd b3 cd 36 bd
       0.07536499 -0.0087147085 -0.089769326 -0.044629764
000140 da 74 bd bd 78 a9 b5 3d 23 aa a8 bd a3 3e a1 3d
       -0.09250803 0.08870214 -0.08235576 0.07873275
000150 32 a8 52 bd 9a 50 ba 3d 09 c5 16 3d e2 c9 5c 3d
       -0.051429935 0.09097405 0.036809 0.053903468
000160 1b 5b f4 3c 6d 96 3a 3c 08 7a 8a bd 1d 3b 94 3d
       0.029828599 0.011388403 -0.06761557 0.072378375
000170 aa 92 90 bb be c2 7f bc 73 ec c0 bd 30 9a de bc
       -0.004412015 -0.015610395 -0.09420099 -0.027173132
000180 ee ce 7c bd ab 2b 92 3d 31 34 45 3c d6 a6 bf 3d
       -0.06172078 0.07137235 0.012036369 0.09357993
000190 3d 66 88 bd 9b 79 b2 3d e9 10 fb bb 3d ce c5 bc
       -0.066601254 0.08714601 -0.007661928 -0.024146194
0001a0 25 71 7b 3d e4 5f 52 3b 82 fc 70 bd 13 1d 00 bd
       0.0613872 0.0032100612 -0.05883456 -0.031277727
0001b0 6f 0f d6 3c 35 2a 16 3d 46 27 b4 bb a5 33 81 bc
       0.026130406 0.036661346 -0.005497846 -0.015771696
0001c0 e2 0c 82 3d d9 14 6d 3d 39 89 99 3d 06 69 ff 3c
       0.063501135 0.05788121 0.07496876 0.031178009
0001d0 15 75 75 3d 17 3b 8c bb e3 f5 a6 bd 65 3f b7 bd
       0.05992611 -0.004279505 -0.08152368 -0.089476384
0001e0 84 b4 e4 3d 14 40 4b 3d c4 d9 50 bd 74 8d 4d bc
       0.11167243 0.049621657 -0.050988927 -0.012545932
0001f0 b0 e3 c9 bc 5f ce 25 3c 7d b9 34 3c 38 e7 b5 3b
       -0.024644703 0.0101200035 0.011030552 0.005551245
000200 ff 57 50 3d 39 4d 90 3d 1f 80 49 bd 88 a1 c1 bc
       0.05086517 0.07045979 -0.04919445 -0.023636594
000210 92 d3 a0 3d 39 4e 41 3d 74 5a 67 3d ac 3f 92 3c
       0.07852854 0.04719374 0.056482747 0.017852627
000220 8c 57 48 3b 17 41 11 bd 9d 85 49 3a 19 82 1e 3d
       0.003056976 -0.035462465 0.00076874514 0.03869829
000230 f7 76 b2 3d be 65 bd bd f1 64 7f 3d 8e 10 30 bd
       0.08714097 -0.092479214 0.062352125 -0.042984538
000240 6b 2c e2 bc 98 9b 1a 3d 7c db c0 3d 23 c3 f2 3c
       -0.02760907 0.037746042 0.09416863 0.029634064
000250 4c b0 3d 3d 5b 1a 8c 3d 1c 7f 93 bb 27 68 84 3c
       0.046310708 0.068409644 -0.0045012366 0.016162945
000260 6d 3a 81 3d 02 1d 85 3d fb 06 8c bd 78 eb 4d bd
       0.06309972 0.064996734 -0.06837269 -0.05027339
000270 a8 68 07 bc e1 33 20 3d 61 08 5b 3b f8 8a 8a 3d
       -0.008264698 0.039111976 0.0033421742 0.067647874
000280 ff 93 c5 3d 03 49 af bd f8 de 8f 3c bc dc c6 3d
       0.09647369 -0.08558848 0.017562374 0.097100705
000290 f2 91 95 3d ad 18 ca 3c e8 a3 cc bb 39 7e 9d bd
       0.073032275 0.02466997 -0.006245125 -0.07690091
0002a0 47 dd ff 3b 46 27 a8 bd 66 ae da 3d 3a b3 3a bd
       0.0078083607 -0.08210616 0.10677795 -0.04558108
0002b0 fe 5f 07 bd 3f c6 26 bd 10 00 86 3d 64 df 92 3c
       -0.03305053 -0.040716406 0.06542981 0.017928787
0002c0 3c c5 73 bd 7e eb 99 bb 86 27 bd 3d 86 5f 8f 3d
       -0.05951427 -0.0046972623 0.09236054 0.070006415
0002d0 7b 21 90 bc f4 11 67 bd f3 44 86 3d 43 b2 37 3b
       -0.01759409 -0.056413606 0.0655612 0.0028029836
0002e0 cc 4e 08 3d b7 0e 47 3d 8e ef bd bd 8c ad 7f bd
       0.03327827 0.048598018 -0.09274207 -0.062421367
0002f0 6b d1 dc bc 4f 3c 78 bc eb 50 ab 3c 76 f0 99 3d
       -0.026955327 -0.015151097 0.020912608 0.075165674
000300 90 cf 45 bd 17 0f 9b 3d 9e 3a 14 3d 27 3b d1 3c
       -0.04829365 0.075712375 0.036188714 0.025540901
000310 c2 c8 49 3d 1b 13 ad 3c da 22 50 3b 5b dc 7a bd
       0.049263723 0.021127274 0.0031759054 -0.061245304
000320 c7 7f 28 3d 85 7e ea 3b 34 61 90 3c e8 89 e1 3d
       0.041137483 0.0071561956 0.017624475 0.11012632
000330 76 58 ca 3d d4 a6 84 bd 37 d0 9d 3d 95 a3 50 bd
       0.09880154 -0.064771324 0.077057295 -0.050937254
000340 85 5a 58 3d 74 64 24 bd 72 ff c8 3c 00 07 47 bb
       0.0528207 -0.040134862 0.024535868 -0.0030369163
000350 f8 a4 94 bd 54 f1 b5 bd a1 14 1a 3d 2e cc e1 bd
       -0.07258028 -0.0888392 0.03761733 -0.11025272
000360 3a f7 85 3a 96 11 14 bc bb 95 ca 3d 24 62 a6 bd
       0.0010220774 -0.009037396 0.0989184 -0.081241876
000370 50 03 62 bd b0 9b c2 bd 2a 21 98 bd 9d 69 82 bc
       -0.05517894 -0.09502351 -0.074282005 -0.015919501
000380 98 79 af 3c 43 ba d5 3d ae 5a 12 3d 65 47 fd 3d
       0.021420285 0.10435917 0.03573101 0.12367133
000390 14 2a a9 bd 20 7c 8f 3d 30 ce 74 3d 1a 52 8d bd
       -0.08259979 0.07006097 0.05976695 -0.06900425
0003a0 4c 98 9a bd 9a 68 cf 3d 1b f1 b2 3d 6b 62 3b bd
       -0.075485796 0.10127373 0.087373935 -0.045748156
0003b0 c9 1f de 3c 88 5a d2 3d ed 24 98 bc 47 f4 ce bd
       0.027114766 0.10271174 -0.018572295 -0.10105186
0003c0 1d 94 1e bd 83 59 2e 3d 26 ef 75 bd 9d 41 ea 3c
       -0.03871547 0.042565834 -0.060042523 0.02859574
0003d0 cf 8e 31 3b 37 4a 0f bd 52 b8 f4 3c b2 4b 8f bb
       0.0027093177 -0.034982886 0.029873047 -0.0043730373
0003e0 a7 52 29 bd d1 02 18 bd 28 3a 5e 3d 56 0a a7 bd
       -0.04133859 -0.03711206 0.05425468 -0.08156268
0003f0 73 23 6b 3d bc 8b a7 bd 02 36 d7 bd e5 30 ba bc
       0.057406854 -0.08180949 -0.10508348 -0.022728393

net.2.bias f4 [100]
000000 04 29 47 3b 5a 9f 9b bd f6 6b e1 3d 45 49 1b 3d
       0.0030389437 -0.07598753 0.1100692 0.037911672
000010 02 cc 50 bd 21 ec 26 3d ab 4a b5 bd b9 64 b8 bd
       -0.050975807 0.040752534 -0.088521324 -0.09003586
000020 1b 96 0b 3d 3b 6f af 3c 05 c8 07 3d c9 46 85 bd
       0.0340787 0.021415344 0.033149738 -0.06507642
000030 cd 90 70 bb c2 ea 54 3d ff 88 f7 bc 27 06 da 3c
       -0.0036707402 0.051981695 -0.030216692 0.026614262
000040 7c 44 64 bc 9c c0 ca 3c f3 d4 a0 3d 4d be b2 3d
       -0.013932344 0.024750046 0.07853117 0.08727703
000050 04 6b 6d bd 17 c2 a0 3d 4b a0 5d bd 79 c0 c4 3d
       -0.057963386 0.0784952 -0.054107945 0.09607024
000060 c0 1e 2c 3c a2 5c ad bd a3 87 50 3d 60 5a 7e bd
       0.010505378 -0.08464934 0.050910603 -0.062097907
000070 13 9e 38 bc 2d 85 ba 3b aa dd 46 bc e8 22 32 3d
       -0.011268157 0.0056921453 -0.01213781 0.04349032
000080 42 df d5 3d 25 34 61 bd 95 9f bc bd 38 72 e4 3d
       0.10442974 -0.05498137 -0.09210125 0.11154598
000090 c0 5d a1 bd 71 ff a9 3d ce ff 92 bd d1 39 49 3d
       -0.078792095 0.08300675 -0.07177697 0.049127404
0000a0 6b 1c 24 3e cf a5 9c 3d 7f f6 fd bb 41 42 58 bd
       0.16026466 0.07648813 -0.007750332 -0.05279756
0000b0 7b e3 5f bc f8 f7 a8 bd 4d 5e ef bb 26 85 77 bd
       -0.013665075 -0.08250421 -0.0073049427 -0.060429715
0000c0 f9 87 d9 bc a9 1a a8 3d 6d 8d a5 bd 67 42 9a 3d
       -0.026554095 0.0820821 -0.080836155 0.075321965
0000d0 23 33 aa 3d 73 c4 57 3d 8f b1 c2 bc 18 1b 8e bd
       0.08310535 0.052677583 -0.023766307 -0.069387615
0000e0 f4 88 fd bc fa 0e 28 bd cf 15 a7 3d ba 05 60 3d
       -0.030949093 -0.041029908 0.081584565 0.05469296
0000f0 b6 f3 a5 bc 03 ea b8 bc 0c 65 9a bd a7 71 8e 3d
       -0.020257812 -0.022572523 -0.075388044 0.06955271
000100 de 55 13 bc e6 d4 78 3b 5d c0 20 bd 67 22 0a bd
       -0.00899264 0.0037968694 -0.039245952 -0.033724215
000110 11 f1 3c bd 30 09 65 bd ac 93 5c bd 97 b9 3c 3d
       -0.046128336 -0.055916965 -0.05385177 0.04607543
000120 07 5f 3f bd 67 b1 36 bd 9e 41 c1 3d 67 49 63 bd
       -0.046721485 -0.044602778 0.094363436 -0.055489924
000130 8b 6c 9e bd 5b f5 e5 3c bd 1e 31 bc d0 ea 8b bd
       -0.07735547 0.028071096 -0.010810551 -0.06831896
000140 9e 0b a9 bd a9 1b 57 bc b3 8e 8f bc 0d 4b c1 bc
       -0.08254169 -0.013129153 -0.017524099 -0.023595357
000150 5b 57 9d bd 3d 7e a0 3d 06 b2 69 bc c4 2b be 3d
       -0.07682677 0.07836578 -0.0142636355 0.092856914
000160 81 ad 4f 3d a3 3a 4d bd aa 98 0f bd 77 34 34 bd
       0.050702576 -0.05010475 -0.0350577 -0.043995347
000170 b1 a8 2b 3d 7a 9e a8 bd ad ea 9e 3d 79 e9 40 ba
       0.041908924 -0.08233352 0.077596046 -0.0007359009
000180 74 eb b6 3d 9c 6e c6 3d 05 29 47 3d fa 2f a5 3d
       0.08931628 0.09689066 0.048623104 0.080657914

net.4.weight f4 [3, 100]
000000 84 25 90 bd 19 74 b2 3d 78 d6 dc bc 73 b5 8d bd
       -0.070384055 0.0871355 -0.026957735 -0.06919374
000010 22 5d b0 3d 45 63 78 bd 36 e8 f4 bb 68 1e b6 3d
       0.08611514 -0.060641546 -0.0074739708 0.08892518
000020 21 fd db 3d 9b c9 4b bd a8 52 99 bc c9 53 45 bd
       0.1074164 -0.049752813 -0.018716171 -0.048175607
000030 c2 75 91 bd 49 15 ca bd ed 33 90 bd 2e 86 56 bd
       -0.07102539 -0.09867341 -0.07041154 -0.052374057
000040 d8 dd 07 3c 18 28 1a bd 10 11 d8 3c 94 bd ad 3c
       0.008292638 -0.037635893 0.026375324 0.021208562
000050 59 d8 c3 3b 53 4b ca bc 91 c8 a8 3a c2 fe d9 3d
       0.0059767184 -0.02469412 0.0012877156 0.10644294
000060 88 dd 94 3b 9c e0 33 3d c5 20 84 bd 3e 6f 13 ba
       0.00454301 0.043915376 -0.06451563 -0.00056241814
000070 1f 1c d0 3d 82 83 c4 3b 5b 56 de bc 28 f0 36 3c
       0.10161614 0.0059971223 -0.027140787 0.011165656
000080 1c a0 19 bd 86 d7 c1 3d 4d 91 ce 3d 20 1b 8c bd
       -0.037506208 0.09464936 0.10086308 -0.06841111
000090 1d 56 db bc 73 b3 a2 3d 45 ea 59 bd 9e 16 a4 3d
       -0.02677446 0.079443835 -0.053201932 0.080121264
0000a0 a7 b7 23 bb 75 59 8d 3d 92 c2 a3 3d 52 f2 76 bd
       -0.0024981291 0.06901828 0.07996096 -0.06028969
0000b0 e3 47 48 3d ae 41 9a 3d 35 51 a5 bd 6f ae cf 3d
       0.04889668 0.07532059 -0.0807213 0.101406924
0000c0 2c ea 42 3d 58 74 96 3d 05 c7 d9 3c 88 fc 1b 3c
       0.047586605 0.073464096 0.026584158 0.009520657
0000d0 ef 2d 88 3d 23 ae 52 ba ea 26 7b 3d cc aa ba 3d
       0.06649386 -0.00080368127 0.06131641 0.09114608
0000e0 ef 30 a8 bd b2 b7 ae bd 45 77 c9 3b e0 0d c1 bd
       -0.08212458 -0.08531131 0.0061482512 -0.094264746
0000f0 d4 e5 15 3d 8f c4 df 3c a3 04 a4 3d 4d d7 5d 3d
       0.036596134 0.027315406 0.08008697 0.054160405
000100 48 b8 03 3e 45 bb 3f bc 80 3a 3d bc 42 11 d3 3d
       0.12863266 -0.011702363 -0.011549592 0.10306026
000110 aa 35 63 3b d9 81 93 3d 57 8c b8 3d c9 99 ab bd
       0.0034669437 0.07202501 0.09011143 -0.083789416
000120 e1 c9 b6 bd b2 06 85 3d 50 bb a3 3d 65 82 af bd
       -0.08925224 0.06495418 0.079947114 -0.08569793
000130 58 8c a5 3d 4a bd ac bd 12 b2 5d 3d 13 00 42 bd
       0.08083409 -0.084345415 0.0541249 -0.047363352
000140 7f 4c 36 3d c6 8a c5 3d ae 73 b4 bd f9 76 7f 3d
       0.044506546 0.096456096 -0.08811127 0.06236932
000150 ce 2a af 3d 42 b5 80 3d 95 9a 87 3d 52 8a 93 bd
       0.08553086 0.06284572 0.06621281 -0.07204117
000160 a9 e6 c4 bb 9e 62 3a bc ce 36 ab 3d c5 64 b5 3b
       -0.006008942 -0.011376051 0.083600625 0.0055356943
000170 87 ca e4 bc 01 f8 bc 3d 20 d9 38 3d 08 d1 2d bd
       -0.027928604 0.092269905 0.04512894 -0.042435676
000180 e7 ed db 3d 10 c1 e0 bc f7 a1 8d 3c 22 ba e4 bc
       0.10738736 -0.02743581 0.017289145 -0.027920786
000190 f1 a4 d5 3d 1f 8b 28 3d 4f a2 12 bd 02 c3 9f 3d
       0.10431851 0.0411483 -0.03579932 0.07800867
0001a0 c8 f9 05 bd 41 d7 8d bd f9 f0 06 3d 9e ad 93 bc
       -0.032708913 -0.06925822 0.032944653 -0.018027123
0001b0 f5 7b 6c 3d df 1a 79 3d 16 37 c7 bd 3c 2d 9d 3d
       0.057735402 0.060816642 -0.09727304 0.076746434
0001c0 7b 28 ec 3c 43 24 af 3c 7c 50 6d 3d 9f 00 2d 3d
       0.028827896 0.021379596 0.057938084 0.04223692
0001d0 d0 6d ec bc 87 90 89 3c 60 bb 51 bd 6a 99 ac 3d
       -0.028860956 0.016792549 -0.051204085 0.08427699
0001e0 05 2d c8 3d 1e d7 5d 3d 38 00 a8 39 0d c6 9f 3b
       0.09774212 0.05416023 0.0003204362 0.0048759044
0001f0 c0 3e 22 3d d0 de 49 bc 5e 8f e7 3d 56 a8 84 bd
       0.039610624 -0.012321189 0.11306642 -0.0647742
000200 90 79 db bc 23 b6 4e bc e9 a1 60 bd 19 9a 97 bd
       -0.026791364 -0.012616667 -0.05484191 -0.07402439
000210 d5 09 64 bd 65 53 60 3d f8 06 54 bd cd cc a2 bd
       -0.05567344 0.05476703 -0.05176446 -0.07949219
000220 da 8a 56 3c ba 65 c6 3c b2 6a de bc 21 ba 9e 3d
       0.013094628 0.024218429 -0.027150486 0.07750345
000230 b9 fc 3b 3c 99 16 c9 3c 9c 03 52 3d fa 0a b1 bd
       0.011473828 0.024546908 0.051272973 -0.08644672
000240 eb 3c a0 bc 3e fb 42 bd 5e 4d 25 bc 32 e7 9d bc
       -0.019560298 -0.047602884 -0.010089247 -0.019275282
000250 e2 07 93 3c 2f 97 24 3d e5 49 0a bd 83 eb 5b 3d
       0.017948095 0.040183242 -0.033761878 0.0536914
000260 51 94 98 3d 3a 9e 3f bd 73 fe a2 bd 03 d0 85 3d
       0.07450164 -0.046781756 -0.079586886 0.06533816
000270 87 5a e9 bc 5d 89 86 bd bc 78 74 bd ee 2f 7c bd
       -0.02848555 -0.06569169 -0.059685454 -0.061569147
000280 49 10 22 bd c9 f8 af bd 40 ff c0 bd e6 9c b0 bd
       -0.039566312 -0.08592374 -0.09423685 -0.08623676
000290 d4 ed 80 3d 1f 09 c0 bd 55 5c 3c bd 69 72 a8 bd
       0.06295362 -0.0937674 -0.045986492 -0.08224947
0002a0 0b d7 c5 bd b6 81 62 bd b8 4f c9 3c a7 e1 b6 bd
       -0.09660157 -0.055299483 0.024574146 -0.089297585
0002b0 cb 08 af 3d fe 8b ba 3d 72 43 91 3d 34 4e b4 3a
       0.08546599 0.09108733 0.07092942 0.0013756217
0002c0 33 00 8d 3d 55 52 0e bd bb b6 99 3d 75 b6 03 3c
       0.068848036 -0.034746487 0.07505556 0.008039107
0002d0 fb f5 9a 3d 70 84 c9 3d b2 e3 9a 3d 10 09 db 3d
       0.07566448 0.098397136 0.07562961 0.10695088
0002e0 47 ae 36 bd b7 70 c9 bd d7 46 dd 3c b1 39 9f bd
       -0.044599798 -0.09835952 0.027011318 -0.07774676
0002f0 ff 2e ae bd 6e 03 0e bd dc 38 42 3d 64 3d ad 3d
       -0.085050575 -0.03467124 0.047417507 0.08458975
000300 74 f3 9a bd 70 5b 38 bb 8f e2 b1 3d eb a2 59 bd
       -0.07565966 -0.0028130673 0.08685791 -0.053133886
000310 fc 5e 2c 3d 66 4d 9d bb d8 da b8 bd fc b1 e5 3b
       0.04208277 -0.0048004864 -0.09026116 0.007009743
000320 d1 28 96 bc 52 5e a6 3d 6a 39 aa 3d 71 f4 19 3e
       -0.01833001 0.08123459 0.08311732 0.15034653
000330 f2 69 34 3e 65 ae 24 be 51 12 0a 3e 23 b7 c8 3d
       0.1761854 -0.16082151 0.1348355 0.098005556
000340 32 16 42 bd 93 20 09 3e 54 3d 4e 3d 2f d2 4f 3d
       -0.04738445 0.13391332 0.050351456 0.050737556
000350 78 02 a1 ba 8e f9 93 bc 5b bf 36 bc 07 17 21 3e
       -0.0012284061 -0.018063333 -0.011154021 0.1573144
000360 82 b8 b2 bd 7a 08 11 3e eb 20 96 3d 89 c5 db 3d
       -0.08726598 0.1416339 0.07330497 0.10731036
000370 a8 06 ab bd 08 19 f4 bc 4a d6 61 be fc 8d a4 3d
       -0.08350879 -0.029797092 -0.22054401 0.08034894
000380 9d 22 2e 3d ec 06 d8 bd 33 51 1c 3d c8 1b 81 bd
       0.04251348 -0.10548195 0.038163375 -0.06304127
000390 63 aa f7 bd 4d 5b 8c be 1f 7e a6 bd d3 1f 3e 3e
       -0.120930456 -0.27413407 -0.081295244 0.18566827
0003a0 42 01 63 3d a9 a1 77 3d 5b 4e 38 be 39 d0 e1 3d
       0.05542112 0.060456906 -0.1799864 0.110260434
0003b0 9b 8b 2e 3e 4d ce 2d 3d bf f8 52 bc 9a d5 d1 3d
       0.17045443 0.042433072 -0.0128766885 0.102458194
0003c0 de 90 92 3e d7 29 ad 3d 4d 5a 03 3c 13 65 de 3d
       0.2862615 0.08455246 0.008017135 0.10859122
0003d0 d4 88 b0 bd 46 ba db bd 42 8a 70 3d d2 ac 35 bd
       -0.08619848 -0.10728888 0.058725603 -0.044354267
0003e0 75 1e a1 bd 86 a9 00 be 1a ba 42 bd a6 82 16 3d
       -0.07867137 -0.12564668 -0.04754076 0.03674569
0003f0 1c f4 05 be f6 aa 87 bd 6e 09 18 bd b2 50 39 bd
       -0.13081402 -0.06624405 -0.037118368 -0.045242973

net.4.bias f4 [3]
000000 8e e6 8b 3d 83 6a 3b 3d 0b ca 81 3b
       0.06831084 0.045755874 0.003960853
