checkpoint/residual/pushing_4_steps_residual_dynamics_model.pt (torch, 47496 bytes, 6 tensors)

net.0.weight f4 [100, 6]
000000 ef 63 ad be 7f ad f0 3b 40 d7 be bd 6c 84 d6 be
       -0.33865306 0.007344901 -0.093183994 -0.41897905
000010 81 6e d4 be 26 77 a9 bd d1 ab 5a 3e a8 80 8d 3e
       -0.41490558 -0.08274679 0.21354605 0.2763722
000020 66 ce 28 be ab c0 89 3e 80 d6 0b be c4 59 da 3e
       -0.16484985 0.26904806 -0.13656044 0.4264661
000030 9f 67 b8 3e 09 2e c2 be 81 78 12 be 50 41 9a 3d
       0.36016557 -0.37925747 -0.14303781 0.075319886
000040 37 c4 41 be 76 04 87 be c7 08 c5 3c 7e 80 bd be
       -0.18922506 -0.2637059 0.024052037 -0.37012094
000050 f7 c8 99 bb 45 51 ef 3d 9d ac 97 3e 06 ab c1 3e
       -0.0046931463 0.11685423 0.2962388 0.37825793
000060 cf 59 5b 3e d0 23 1a 3d 27 eb c7 bd 51 0f d7 3d
       0.21420978 0.03763181 -0.097616486 0.10500968
000070 de 34 42 be e3 16 68 be 55 6f d3 3e 56 c1 96 3e
       -0.1896548 -0.2266498 0.41295877 0.2944438
000080 b8 97 3f 3e 30 f4 59 3e 42 7c 12 bd 1b e0 ea bd
       0.1871022 0.21284556 -0.035763033 -0.11468526
000090 87 fb b7 be 96 af 92 3e e0 bc 67 3d d1 b3 a4 be
       -0.35934088 0.28649586 0.05657661 -0.3216844
0000a0 39 b7 af 3e 7b d0 f2 bd da c5 a4 3e d4 64 02 3e
       0.34319475 -0.11856171 0.321822 0.12733775
0000b0 c4 cc 81 be 75 02 01 be c8 fa 99 be 06 fb ba 3d
       -0.25351536 -0.12598594 -0.30074143 0.0912991
0000c0 6e e2 ef bd a0 a7 89 3e 6f ee f7 3d 29 bf 6d 3e
       -0.1171311 0.268857 0.121060245 0.23217453
0000d0 80 27 f0 3d 69 38 7d 3e 1d 2c 3a 3d 51 84 90 bd
       0.11726284 0.2472855 0.045452226 -0.07056487
0000e0 6d 10 ac be 6f 29 39 bd 20 04 8e 3d ca a7 5c be
       -0.33606282 -0.04520553 0.069343805 -0.21548381
0000f0 be 3c 9c 3e 74 42 ab be d4 6b b1 3e cc 16 e3 bc
       0.30515093 -0.33449137 0.3465258 -0.027720831
000100 23 6d 26 3d b4 c2 c9 be 83 95 c8 bd 9c 02 ff 3d
       0.040631425 -0.3940636 -0.09794142 0.124516696
000110 25 47 89 be 38 5c 81 3e b2 34 0f 3f 3a 6c 81 be
       -0.2681209 0.2526567 0.5593978 -0.25277883
000120 d9 b4 5b be 63 5c 8e 3e 4e a1 22 be 37 9d 79 3d
       -0.21455707 0.2780486 -0.15881845 0.060940947
000130 f5 33 c1 be 3c 4e be 3e 0d 3a 92 be 60 7c 8c 3c
       -0.37734953 0.37169063 -0.28559914 0.01714915
000140 51 d5 e2 3e b5 f6 3e 3e 5b 01 fa 3e 89 57 c7 3d
       0.44303373 0.18648799 0.4882916 0.09733493
000150 d5 9a 56 be 4a bf 28 3d 4c 7b 38 3e 2d e0 a1 3e
       -0.20957501 0.041198052 0.18015784 0.31616345
000160 7a 31 11 be 7c 0b e2 3d 5f ba 09 3e e5 04 85 3e
       -0.1417903 0.11037347 0.13450001 0.25980297
000170 46 57 8c 3d 5d c8 c3 3e 48 ee 89 bc 45 35 82 3e
       0.068525836 0.38238803 -0.016837254 0.25431266
000180 3f b5 d5 bd 4c 83 80 be c0 24 90 3c 39 17 17 be
       -0.104349606 -0.25100172 0.017595649 -0.14754952
000190 bb ab 23 be d5 43 96 be 7b 65 1b be 08 ea a0 bd
       -0.15983479 -0.29348627 -0.1517543 -0.07857138
0001a0 e1 0d ee be 4f 6f 13 3d 6b f3 bd 3e 08 b3 66 bd
       -0.46494964 0.035994824 0.37099776 -0.05632308
0001b0 a5 02 87 3e 74 9b c4 3e f3 ed d7 bc c3 e3 92 3e
       0.26369205 0.3839985 -0.02635858 0.28689393
0001c0 72 e8 ad be 1e 5a 9b bc c9 b0 c6 be 24 a2 05 3e
       -0.33966404 -0.01896387 -0.3880675 0.13050133
0001d0 89 4b 70 be f8 7e bd be 88 c8 7b be c1 c5 96 bd
       -0.23466314 -0.37010932 -0.24588215 -0.07361937
0001e0 d5 32 1d be 16 44 36 bd 6e 30 a3 be c2 db d9 bd
       -0.15351422 -0.044498526 -0.31872886 -0.106376186
0001f0 e2 b4 4f bc 13 0a bb bd 4c c2 88 be 69 91 00 3e
       -0.012677403 -0.09132781 -0.26710737 0.1255547
000200 96 99 ee bd a3 04 d4 be 24 89 8e be aa b0 08 be
       -0.11650388 -0.41409788 -0.27839005 -0.13348642
000210 c7 ec 34 be 0d 7d 99 be 53 f7 53 be 54 fa 94 be
       -0.17668448 -0.2997822 -0.20699815 -0.29097235
000220 96 91 61 3e 55 d1 b2 be a0 fa 7d 3e 1f 27 9a 3e
       0.22028193 -0.34925333 0.24802637 0.30107972
000230 b7 07 94 3c 7b 2c 96 3e 30 74 bb be 40 60 05 be
       0.018070085 0.2933081 -0.36612082 -0.13024998
000240 81 3f af be 41 c9 30 bd 78 37 c3 3e f3 1d ac 3e
       -0.34228137 -0.04316068 0.38128257 0.336166
000250 4d 34 1a 3e 60 51 a6 3e 0b 24 89 be da cd 9f 3d
       0.15059014 0.3248396 -0.2678531 0.07802935
000260 e4 f6 65 bd 55 9f aa 3e ca 29 9e bc 81 bd 7f 3e
       -0.056143656 0.33324686 -0.019307036 0.24974634
000270 f6 ac 44 be f3 1a a2 be fd 3a 04 be 61 01 92 be
       -0.19206604 -0.31661186 -0.12913127 -0.28516677
000280 7c 96 c5 be 1c ec e5 be 37 8c 8c 3e ff db cd be
       -0.38591373 -0.449067 0.27450725 -0.40206906
000290 67 fe 53 3e d0 66 bd 3e 9a 7c 59 be 7b 99 0b 3b
       0.20702516 0.36992502 -0.21238938 0.0021301198
0002a0 b8 5c ab 3e c6 a2 1b be 39 16 88 be 69 d1 b4 3d
       0.33469176 -0.15198812 -0.26579455 0.08829004
0002b0 12 40 f8 3c c5 b2 2c 3e 22 2a e8 3d 00 02 74 3e
       0.030303989 0.1686507 0.11336161 0.23828888
0002c0 a9 ef b0 be b0 3f 89 be 45 96 d1 be e9 72 b9 bd
       -0.34557846 -0.26806402 -0.4093496 -0.090551205
0002d0 83 14 4f be f1 32 8c bb 8a 5e cf 3b 35 bd 75 be
       -0.20222668 -0.0042785336 0.0063284086 -0.23997958
0002e0 df fc 8f 3e 22 1f 89 be 52 37 8b 3e c8 14 8c be
       0.28122613 -0.26781565 0.27190644 -0.27359605
0002f0 cf f9 b7 3d 69 83 05 be 88 c3 31 be b5 5c 17 be
       0.08983194 -0.1303841 -0.17359746 -0.14781459
000300 3b 72 a5 bd 04 ac 2f 3d 62 62 a3 be b1 48 cc be
       -0.08078428 0.042888656 -0.31910998 -0.3989921
000310 60 8e aa bd 13 41 46 be ae da 9c bb 33 b7 af be
       -0.08327937 -0.19360761 -0.004786811 -0.34319457
000320 c8 57 84 3c 26 88 e8 3d e1 49 df 3c 60 7c 62 3e
       0.016155139 0.11354093 0.027256908 0.22117758
000330 97 0d 88 3e 1a 62 2f be 15 1c 8d be 14 53 ea be
       0.26572868 -0.17127267 -0.27560487 -0.4576651
000340 b5 44 ac be 6c 8f b7 be 52 72 25 3e 54 bc c5 bd
       -0.3364617 -0.3585161 0.16156891 -0.09655061
000350 1c dc a6 3d ec 92 15 be 36 dc 8f be d4 1c be bd
       0.08147451 -0.14606827 -0.28097695 -0.09282842
000360 0d 36 79 3d c8 be 1d 3e fe 8d 1f 3c 3e f5 58 3e
       0.060842562 0.15404809 0.009738443 0.21187302
000370 86 e4 53 3e c3 82 16 3e f9 66 7b 3d a3 6a 4c 3d
       0.20692644 0.14698319 0.0613775 0.049906384
000380 ba cc 58 be 1b 37 f6 3d ca 62 bf be 6a d4 d7 be
       -0.21171847 0.12022229 -0.37380058 -0.42154247
000390 19 ea 82 be 82 0c 9f 3d e0 59 17 3e 5b 69 ad 3e
       -0.25569227 0.077660576 0.14780378 0.33869442
0003a0 03 1f 16 be 7d 9b 2a bd 78 0e 86 3d 58 d1 1b be
       -0.14660268 -0.04165219 0.065457284 -0.15216577
0003b0 ae 03 56 bd a6 da 89 3e 70 2f 94 bd 95 0d 72 3e
       -0.052249603 0.26924628 -0.072356105 0.23637994
0003c0 34 66 c9 3d e2 6b 39 be 09 86 8d be 5f 51 5b be
       0.09833947 -0.1810756 -0.27641323 -0.2141776
0003d0 9c c8 52 3e d9 ef 61 3c 28 79 9a be 67 0d 2f be
       0.20584339 0.013790094 -0.3017056 -0.17094956
0003e0 8b df da 3e 75 82 66 3c 3f 94 94 be f9 94 91 3e
       0.42748675 0.014069189 -0.29019353 0.2843397
0003f0 16 9f 92 be 32 a6 b2 be 55 fa 4b 3e 9a 3e 06 3c
       -0.28636998 -0.34892422 0.19919713 0.008193636

net.0.bias f4 [100]
000000 81 2f 73 be 21 8b 17 3d c0 82 53 3e 54 95 cf be
       -0.2374859 0.036997918 0.20655346 -0.40543616
000010 7c d3 20 bd c2 df 88 3e 9f 5c 95 3e 2a 0d b6 3e
       -0.039264187 0.26733214 0.29172227 0.35556918
000020 d6 13 18 3e 8c 3e 84 3e 7c 7e 41 be e7 c5 d5 3e
       0.14851317 0.2582897 -0.18895906 0.4175255
000030 b3 a7 c4 be 79 2d f6 3d 6b e0 66 3e 88 00 8f 3e
       -0.38409194 0.12020392 0.22546546 0.27930093
000040 02 f9 ad 3d 11 e3 b7 3c 23 23 be 3b c6 a0 92 3e
       0.0849476 0.02244714 0.0058025285 0.28638285
000050 6c c8 cd be 03 63 0e be 39 bf c5 3e bd ae 16 3d
       -0.40191972 -0.13904957 0.38622454 0.036787737
000060 17 4b f4 bc ba 4c c8 3c 79 cd 92 be 2b f4 24 bc
       -0.029820962 0.024450649 -0.28672388 -0.01006798
000070 b8 e8 08 be c8 e7 9a 3e 49 30 a6 be 5a 0e 9a bc
       -0.13370025 0.3025496 -0.32458714 -0.018805671
000080 ea cf bf 3e 7a f1 43 3e 60 af ae be 88 de 41 3e
       0.37463313 0.19135085 -0.34118176 0.18932545
000090 d5 89 7c be 06 02 f7 bd 97 27 4a be 52 04 05 3e
       -0.24661954 -0.12060933 -0.19741665 0.1298993
0000a0 1a 43 b8 3e bf f0 da 3d 0c 9c 52 be 6e c5 b8 be
       0.35988694 0.1069045 -0.2056734 -0.36088127
0000b0 31 00 c4 3e bb de d9 bd f9 b7 d8 bd 4a 1e 3b bd
       0.38281396 -0.106381856 -0.10581965 -0.045683183
0000c0 39 d8 d3 bd 79 25 8c 3e 15 14 68 be 95 17 fe bd
       -0.103439756 0.2737234 -0.2266391 -0.12406842
0000d0 1f fe 9e 3d 72 2b 56 3e 40 35 aa be af 03 53 bd
       0.077633135 0.2091501 -0.33243752 -0.051517185
0000e0 3d 12 35 3c 98 bd b3 be b5 5d 81 be 62 7c 51 be
       0.011051712 -0.35105586 -0.25266805 -0.20457605
0000f0 10 aa 7e 3d 03 23 8c be cc 31 78 be dd e4 94 3e
       0.062173903 -0.27370462 -0.24237746 0.2908086
000100 77 dc 81 be 00 82 d1 bd cc 09 1c be 2b 4b 4d 3e
       -0.25363514 -0.10229874 -0.15238112 0.20048206
000110 f0 fd 9b be c6 b3 a9 3d c5 97 32 3e 23 3a 51 3e
       -0.30467176 0.08286242 0.17440708 0.20432334
000120 b7 f9 8c be 68 1f 8a 3e 3c ba 74 3e 2a 8e 35 3e
       -0.27534267 0.26977086 0.23899168 0.17730013
000130 86 17 b8 3e cb f6 26 be 1b b3 0b be 09 d9 f1 3c
       0.35955447 -0.16305082 -0.13642542 0.029522436
000140 74 fb 8a be 87 7c db 3d f8 aa ba be 39 21 a8 3e
       -0.27144969 0.10717111 -0.36458564 0.32837847
000150 4c 86 f2 bd bb b8 90 3e 6f a1 43 be 12 b0 0d 3e
       -0.11842021 0.28265938 -0.19104551 0.13836697
000160 2d c2 7a 3d 16 f7 c4 be 6d b8 52 be a2 20 b3 bd
       0.061220337 -0.38469762 -0.20578165 -0.087464586
000170 1c 40 ac 3e 9f 11 0d be 7f 94 be 3e b3 d2 aa 3e
       0.33642662 -0.13776253 0.3722267 0.33363876
000180 6a 36 a7 3e da b9 21 be d8 51 fc bd 0d 03 0e be
       0.32658702 -0.15793553 -0.12320298 -0.13868351

net.2.weight f4 [100, 100]
000000 2a 46 8b 3d 8d d4 8f bd 50 09 08 3d 16 95 09 3c
       0.06800492 -0.07022963 0.033212006 0.008397361
000010 67 32 5c 3d ca f2 4a bc 34 a4 2d 3d 4c b3 9a 3a
       0.053759005 -0.012386987 0.042392924 0.0011802702
000020 c8 07 be 3b 57 b3 6c 3d ec c7 9f 3d 55 b9 d1 3c
       0.0057992674 0.05778822 0.07801804 0.025601069
000030 bd 95 87 3c d4 5b 9c 3d be 82 84 bd 3a 2f 84 bd
       0.016550893 0.07634702 -0.064702496 -0.0645432
000040 ab 87 3a 3d a6 7c 3f 3d 74 75 b3 bd a8 45 25 bd
       0.04553954 0.046749733 -0.08762637 -0.040349633
000050 4c f6 4d bd 34 52 27 3d 46 2a 16 3d f2 17 a4 3d
       -0.050283715 0.04084988 0.03666141 0.0801238
000060 2b b1 4d 3c af 2a 39 bd 6b 79 8f 3d 57 41 1f bd
       0.012554447 -0.045206722 0.070055805 -0.038880672
000070 08 3b 95 bc 3c 4f 92 3d 17 c3 a4 b9 86 be a0 3d
       -0.018216625 0.07144019 -0.0003142587 0.078488395
000080 fd 0d 3e 3d e4 9f ad 3d dd bd b7 bb ef c9 39 3c
       0.04640006 0.08477762 -0.0056073503 0.011339649
000090 b8 3b f0 bc 89 8d 86 bd f8 81 ba bd 21 41 04 3d
       -0.029325351 -0.065699644 -0.09106821 0.032288674
0000a0 7b 77 ca 3d ff 34 bb bd 86 ba c4 3d 48 37 a9 bd
       0.0988607 -0.091409676 0.09605889 -0.08262497
0000b0 e0 40 67 3d 2d 23 04 bd ac d9 37 3d cf b2 05 3c
       0.056458354 -0.03226011 0.044885322 0.008160307
0000c0 ae 8f 8d bd 74 63 52 3d 8c c1 54 3d f7 7f 63 3b
       -0.0691217 0.051364377 0.051942393 0.0034713724
0000d0 22 7a 82 3d b0 e2 4d 3d 6d 99 d0 3d bb 94 9d bd
       0.06370951 0.050265014 0.10185514 -0.07694384
0000e0 9f 09 b0 bd 0b c5 d1 bd 1a 2c ec bc 1a f3 07 3c
       -0.08595585 -0.10242661 -0.028829623 0.008297706
0000f0 5c b5 07 3c db 81 1f 3d f1 5d c8 3c 5c 88 ae 3c
       0.008282986 0.0389422 0.024458857 0.021305256
000100 e4 15 5c 3d 20 fa 74 3d 54 17 ad 3d dd a2 38 3d
       0.053731814 0.05980885 0.08451715 0.045077194
000110 73 a1 38 3d fc 56 14 bd b9 8d 97 3d 22 44 a8 bd
       0.045075845 -0.036215767 0.07400078 -0.0821612
000120 fe e7 be bd a6 dc 50 3d 2f c4 22 3d ee 7b 84 3c
       -0.09321593 0.050991677 0.039737877 0.016172376
000130 02 81 0a bd 67 fc a1 bc b1 22 5d 3d 4c 06 ad 3d
       -0.033814438 -0.019773675 0.053988162 0.08448467
000140 ed 61 a9 bc 75 c9 cf bd eb de 17 bd e4 fc 15 3d
       -0.020676577 -0.10145847 -0.037077826 0.03661813
000150 99 a9 46 3d b2 a0 99 bc 95 47 c6 3d e5 84 50 3d
       0.048501585 -0.018753383 0.09681622 0.050907988
000160 7b 59 31 bd 1e 24 96 bd ff 8c 4a bc 6d 40 81 3d
       -0.043298226 -0.073311076 -0.012362718 0.06311116
000170 41 5b 0d bd a8 e6 b8 3d 5b bd 01 bd b5 1c 24 bc
       -0.034510855 0.09028369 -0.031674724 -0.01001661
000180 fd 0e 40 3b 1d c6 c7 bc 77 14 45 bd 16 ee 33 bd
       0.0029305809 -0.02438646 -0.04811522 -0.04392823
000190 db af 8c 3d d7 b8 af 3d 9a d8 13 bd 5e 35 b5 3d
       0.06869479 0.08580177 -0.03609524 0.088480696
0001a0 5e 54 df 3c 81 17 60 3d 82 7d 8e 3d d5 c1 a6 3d
       0.02726191 0.054709915 0.069575325 0.08142439
0001b0 50 1e 67 3c 22 1f 3a 3c fb 7d 7a 3d 35 b2 3f 3d
       0.014106348 0.011359962 0.0611553 0.04680081
0001c0 79 75 8a 3d ce 0d bc bd ee 77 90 3d dc 0d 46 3d
       0.067606874 -0.091823205 0.07054125 0.04835306
0001d0 37 32 cb 3d c1 5b 99 bb 2c cd 91 bd 84 36 8c 3c
       0.09921687 -0.0046801274 -0.071192116 0.017115839
0001e0 4a 4a c3 bd 4b 18 69 bc 4e 2e 89 bd 15 78 5e 3d
       -0.09535654 -0.014226983 -0.06698285 0.054313738
0001f0 86 a4 87 3c 20 6e 0f bd a6 77 99 3d f8 91 be 3d
       0.016557943 -0.035017133 0.07493524 0.09305185
000200 c4 0d 13 3d 8e da ea 3c 8f 48 ba bb 7d 63 b9 3d
       0.0359018 0.028668668 -0.005684919 0.09052179
000210 05 e2 9b 3d 35 6d 23 bc 05 1a ad 3b 94 5e 00 3d
       0.07611469 -0.009974767 0.005282643 0.031340197
000220 f4 1e 6f bd 90 17 c3 bd 81 f5 f1 3c 5e 02 71 bd
       -0.05837913 -0.095259786 0.02953601 -0.05884015
000230 4f c6 34 bd d0 06 c1 3d dc ed bc 3d 1b 74 63 3d
       -0.044134434 0.094251275 0.092250556 0.05553065
000240 e3 9a bc 3d d5 8f 48 bd 1f eb 44 bd 61 a3 94 3d
       0.0920923 -0.048965294 -0.04807579 0.072577246
000250 94 10 30 3d 32 59 45 3d f9 a4 c0 3d 8b e0 69 3c
       0.04298456 0.048180766 0.09406466 0.014274727
000260 d3 a6 94 3d 83 f5 06 bd 09 16 20 3d 76 31 38 3d
       0.07258382 -0.032948982 0.039083514 0.044969045
000270 e9 9d 7c bd 0a e7 cf bd 38 6c a8 3d 67 1a c1 bd
       -0.061674032 -0.10151489 0.08223766 -0.09428864
000280 db 3d 52 3d 75 03 ac 3d 24 20 9c 3d d3 da 0b 3c
       0.05132852 0.08399097 0.07623318 0.0085360585
000290 f2 41 83 bd 73 64 3d bd 3d 6d ab bb 65 ae f2 3c
       -0.064090624 -0.046238374 -0.005231528 0.029624173
0002a0 0f ce cc 3d bf 83 3b ba bb dc c9 bd 66 85 e4 3c
       0.1000024 -0.00071531156 -0.09856554 0.02789564
0002b0 9d 64 93 bd bc a3 b7 bd 86 59 90 3d a0 c2 42 3b
       -0.07196925 -0.08966777 0.07048325 0.0029718056
0002c0 81 bc 86 3c b4 ad 27 3b 45 12 92 3d 7b fb b6 bd
       0.016447308 0.0025585713 0.07132391 -0.08934685
0002d0 a1 87 99 bd 50 be 6b 3c 71 f5 04 bd 81 ef a0 bd
       -0.07496572 0.014388636 -0.032460634 -0.07858182
0002e0 c3 4b a0 bd d8 70 bf 3d 96 f7 8a 3d e2 b0 33 3d
       -0.078269504 0.09347695 0.067855045 0.04386986
0002f0 db 71 49 3d 83 94 cd 3d 35 1c a1 bc 3e 8a 70 3d
       0.049180847 0.10038092 -0.01966677 0.058725588
000300 d5 b7 fc 3c c3 45 e0 bc 3d 42 e5 bb d5 1e 8f bb
       0.030849377 -0.027377015 -0.0069964216 -0.004367689
000310 bc ec 49 bc f0 06 63 3c 2f dd bc 3d 8a 8a 43 bd
       -0.012324508 0.0138566345 0.09221875 -0.047739543
000320 69 fd c8 bd 62 5e ad bd 87 cb 59 3c 61 63 0b bd
       -0.09813959 -0.08465268 0.013293154 -0.034030322
000330 17 6b e8 bc 99 49 b7 bc 9b a1 13 bd e8 62 4c bd
       -0.028371377 -0.022373961 -0.03604279 -0.04989901
000340 1a e8 cc bb 1f ef a6 bd a0 a2 03 3d f5 42 9c 3b
       -0.0062532546 -0.081510775 0.032137513 0.004768724
000350 21 b8 b5 3d 76 b8 a8 3d 36 94 8f 3d f1 ed a4 bd
       0.088730104 0.08238308 0.07010691 -0.08053196
000360 6f 72 90 bd 30 99 9d bd f5 f9 3e 3b a0 2a a3 bd
       -0.070530765 -0.07695234 0.0029140685 -0.079671144
000370 aa 19 fc 3c b0 16 4c bd c6 e3 aa 3d 9f 06 bf 3c
       0.030773956 -0.049826324 0.083442256 0.023318587
000380 9c 32 f8 3c 9e ff 7d bd d7 ad 13 bd 97 dd a4 bd
       0.03029757 -0.062011354 -0.03605446 -0.080500774
000390 9f d6 db bc 17 8b 86 bd 23 c1 93 3c af d6 9c 3c
       -0.026835738 -0.06569498 0.01803643 0.019145338
0003a0 31 c1 85 bd a6 af 6c 3d bc f8 b1 3d 98 75 95 bd
       -0.06530989 0.0577847 0.086900204 -0.0729782
0003b0 ce d7 b9 bd d1 fa cf 3b 1f 59 a7 3d 61 39 8a 3d
       -0.090743646 0.0063470383 0.081712954 0.067492254
0003c0 09 54 37 bd be b2 b5 bd b4 33 21 bd 45 da 3b 3d
       -0.044757877 -0.08871983 -0.03935595 0.045862455
0003d0 3f b6 86 3d b6 d0 3d 3d 52 49 d9 3c 98 16 b5 bd
       0.065777294 0.04634162 0.02652422 -0.088422
0003e0 73 67 a2 3d 04 f8 54 3c 6d 20 0e bd e2 71 01 3d
       0.079298876 0.012998585 -0.034698892 0.031602748
0003f0 f2 72 9e 3d 4e 7f 1d 3d 3a 7e 44 bd 5e 82 b0 bd
       0.07736768 0.038451485 -0.04797194 -0.086186156

net.2.bias f4 [100]
000000 62 db 9f 3d 18 02 ac 3d b1 db bc 3d 94 6d 9c 3d
       0.07805516 0.08398837 0.0922159 0.07638088
000010 92 e9 28 3d 6f 27 58 bd 6d 73 69 bd 21 de 53 bd
       0.041238375 -0.05277198 -0.056994844 -0.05172551
000020 ba 9e a4 3d 45 97 87 3c 88 c7 b0 3c 15 63 35 bd
       0.08038087 0.016551623 0.021579519 -0.044283945
000030 cd 5e 7e 3c 16 19 a0 bd 26 51 b6 bd 16 e9 1e 3d
       0.015525532 -0.07817285 -0.089021966 0.038796507
000040 6d 23 73 3c fb 7c 53 3d e5 ee ce 3d 41 8c ae 3d
       0.014839989 0.051632863 0.10104159 0.08522845
000050 08 7b b0 bc e2 de 8e bd 4b d9 6a bd 9d 92 fd bc
       -0.02154304 -0.06976105 -0.057336133 -0.0309537
000060 43 c7 a9 bb 61 5e 80 bd 29 24 fd bc d7 b3 5b 3d
       -0.0051812246 -0.06268001 -0.030901032 0.053638306
000070 08 0f a3 3d 91 50 13 3d 78 ba fa bc 49 b0 a9 bc
       0.07961851 0.035965506 -0.030606493 -0.020713942
000080 3c 71 b0 3d 47 b8 94 3d cb 3a d9 3d b3 32 ee bb
       0.08615348 0.072617106 0.10606917 -0.0072692274
000090 a7 ab 3c bc 5f cf a2 bd 0f 96 7e bd 7b cc a4 bd
       -0.0115155345 -0.07949709 -0.062154826 -0.08046814
0000a0 8d bc db 3b 7a e0 da 3b ee 05 bf bd 8e 64 b0 bd
       0.0067058266 0.0066795917 -0.09327303 -0.08612929
0000b0 e2 a0 07 bd bd 29 d8 bb 33 d4 6b 3d 1b f6 27 3d
       -0.033112414 -0.0065967725 0.057575416 0.04100619
0000c0 ab 57 a2 3d 81 29 51 3c f8 82 e0 3b ea 5c ac bc
       0.079268776 0.012766243 0.00685155 -0.021040399
0000d0 77 34 56 3c e0 9a a2 3d 67 95 74 3d ac 58 61 3d
       0.013074032 0.07939696 0.059712794 0.055016205
0000e0 e9 e8 10 bd 2f b6 ab bb 67 de 9f bd cb 90 88 3d
       -0.03537837 -0.005240224 -0.07806092 0.06668242
0000f0 49 21 b3 bd 7a 7d 85 3d a9 27 8d bc 29 34 2c bc
       -0.08746583 0.065180734 -0.017230825 -0.010510483
000100 11 a7 be bc 1b 7f bb 3d 91 23 98 bd f7 07 ad 3d
       -0.023273023 0.09155103 -0.07428659 0.08448785
000110 70 b0 22 3d 04 70 58 bc aa a9 c9 3c e6 99 7c bd
       0.039719045 -0.0132103 0.024617035 -0.061670206
000120 b3 30 a2 bd dc 3b b2 3d 48 ca ba bb 44 5b 4d 3d
       -0.07919445 0.087028235 -0.0057003833 0.050135866
000130 e4 d3 31 bd 0d 28 a6 3d 09 7a bc bd 29 e4 77 3d
       -0.043414965 0.08113108 -0.09202964 0.060520325
000140 28 b1 8f 3c 48 26 a9 3d fb 2e db 3c 79 06 61 3c
       0.01754053 0.08259255 0.0267558 0.013734453
000150 8e 64 bb 3b 01 5a 71 3d 2e 1f 42 bd c5 06 cd 3d
       0.005718774 0.058923725 -0.047393017 0.10011057
000160 f6 90 c2 3d d7 e8 83 bd 9b 1a 4c 3a ed aa e6 ba
       0.09500305 -0.06440895 0.0007785947 -0.0017598547
000170 e7 79 a7 bd e0 49 79 3d 9d d1 f3 bc 50 97 55 3d
       -0.08177548 0.06086147 -0.029763037 0.052146256
000180 3d b8 ba bd 2e 96 f7 3c 16 d7 b5 bc b6 f3 15 3d
       -0.09117172 0.030222978 -0.022197288 0.036609374

net.4.weight f4 [3, 100]
000000 69 24 38 bd 90 48 86 bc 21 d6 52 3d 83 d2 b9 bd
       -0.0449566 -0.016392022 0.05147374 -0.09073355
000010 1f 80 4e bd 3b a2 19 bc c5 be 6f bc 85 0f 3d bd
       -0.050415155 -0.009377058 -0.014632885 -0.04615738
000020 d4 7f ef 3c d7 01 1b bb 37 83 5e bd cb 88 4a 3d
       0.029235758 -0.002365222 -0.054324355 0.049446862
000030 58 d9 b5 3d 0f 2b 23 3d f9 09 f0 bc f9 6a 40 bd
       0.08879346 0.039835986 -0.02930163 -0.046977017
000040 fb c4 14 3b 21 19 f5 bc 52 9b 3e 3d 74 d0 ee bc
       0.0022700417 -0.029919209 0.046534844 -0.029152133
000050 40 bc 48 3d 40 ef 0f 3d 24 9d 83 3d ed 4e b4 3d
       0.049007654 0.035140276 0.064264566 0.088041164
000060 34 7b a3 bd 21 a7 33 3c 9b 6d 5c bd ae c5 c9 bd
       -0.079824835 0.01096514 -0.053815465 -0.098521575
000070 d1 1e 5a 3d bf 95 98 bd b4 a9 3a 3d e1 96 55 3d
       0.053252045 -0.07450437 0.045571998 0.052145842
000080 e5 4b 4e 3b 5f ec 84 3d 19 9a 89 3c ed f6 ae 3d
       0.0031478342 0.06490397 0.016797112 0.08543191
000090 83 56 86 3b 74 89 f2 3c 6f dc 89 3d 35 df ca 3d
       0.0040996685 0.029606558 0.067314975 0.099058546
0000a0 2b 72 34 3c c4 5d 5c bd ec c5 56 3d 4f 06 47 3d
       0.011013548 -0.05380036 0.052434847 0.04859
0000b0 0d 09 dd 3c 9a 6d 69 3b 19 c5 21 bd e0 d6 6e bd
       0.026981855 0.0035618306 -0.039494608 -0.05831039
0000c0 cc 95 99 3d 11 2d c4 bd 43 33 c6 bd 91 3f 86 3c
       0.074992746 -0.09578908 -0.09677746 0.016387733
0000d0 ff 9d d0 bc 18 f7 87 bd 9c 0e 92 3d a9 cc 70 bd
       -0.025465963 -0.06638926 0.07131693 -0.05878893
0000e0 78 c5 c7 bd 5c 1f 82 3d 9b 86 82 bc 27 cb 39 bd
       -0.09754461 0.063536376 -0.015933326 -0.045359757
0000f0 a8 b4 83 3d 3b 21 94 3d af 66 ae 3d 3d 25 f1 bc
       0.06430942 0.07232901 0.08515679 -0.029436702
000100 1d d9 80 bd 62 f7 b4 3d b3 c4 8b 3d 19 b9 cd bc
       -0.06291411 0.08836247 0.06824627 -0.025112676
000110 71 4e 8a 3d fe a0 3b bd b2 1c a0 3d dd 1c 6f bd
       0.06753243 -0.04580783 0.07817973 -0.058377136
000120 92 78 83 3d 4a f8 ca bd f6 01 51 bd a1 a8 86 bd
       0.06419481 -0.09910639 -0.05102726 -0.06575132
000130 2c d3 88 bd d9 3f cf bc 50 23 5b 3c a2 5b 8d bd
       -0.06680903 -0.025299 0.013375118 -0.06902243
000140 ef 05 79 bc 0c 9d bf bd a6 5c 51 3d c2 5a 9c bd
       -0.015199169 -0.09356126 0.051113747 -0.07634498
000150 2e 4a 68 bd c0 6f a7 3c a9 0c 82 bd 78 b3 ee bb
       -0.05671137 0.020439029 -0.06350071 -0.007284578
000160 36 fc a9 3c 14 a0 80 3d ad fc 89 3d ea b6 54 bd
       0.020750146 0.062805325 0.06737647 -0.051932253
000170 c3 69 c2 bc af 56 2a 3c c7 e6 3c bd 0e 98 8a bd
       -0.023732072 0.010396644 -0.046118524 -0.067672834
000180 bb f1 cd 3c dc 1e a7 3d ec 82 78 3d 82 29 71 3c
       0.02513968 0.08160183 0.06067173 0.014719369
000190 b5 14 ca 3c 25 ab cb 3c 5a 9b cd bd 1d 89 a3 3d
       0.024668077 0.024861882 -0.100393966 0.07985137
0001a0 8b 09 5d 3d da 08 4a 3d 3e fa a8 bd 5c 18 4d 3d
       0.05396418 0.049324848 -0.08250855 0.05007206
0001b0 15 3f 38 bd 52 14 65 3c ee 69 c0 3d 73 6e 82 3b
       -0.044982035 0.0139818955 0.093952045 0.0039804517
0001c0 58 c4 3b bd 6a 27 36 bd 25 d9 c2 3d b8 bd 16 3d
       -0.045841545 -0.044471182 0.09514073 0.036802024
0001d0 52 7b c5 3c ee 6a ec 3d dd c5 21 bd 2f d9 a2 3d
       0.024106655 0.11543833 -0.039495338 0.07951581
0001e0 d3 fb b6 bc 03 e2 14 3c ef 31 0b 3c 5f ae b4 3d
       -0.022336876 0.0090870885 0.008495792 0.08822321
0001f0 bb e7 7d 3d 97 1b 82 bd ed 7b 26 3a c0 a1 88 3d
       0.061988574 -0.063529186 0.0006350864 0.06671476
000200 11 61 35 bc 77 a2 ac 3d 50 8b be bd dd c9 87 3c
       -0.011070506 0.08429425 -0.093039155 0.016575748
000210 4e 94 56 3d 57 86 5b bd 70 86 bc 3b 18 40 82 bd
       0.052387528 -0.053594913 0.005753331 -0.06359881
000220 c9 6a 1d 3d 9c c7 b4 bb 41 5c 8e 3d 59 92 c2 3c
       0.038431916 -0.0055169594 0.0695119 0.023751425
000230 9d 84 7d bc 50 36 32 bd 20 86 bf bb cb 14 be 3b
       -0.015473512 -0.043508828 -0.0058448464 0.0058008186
000240 e5 0b b1 bd f4 82 f3 3c 94 55 97 bd 32 e4 74 bd
       -0.08644847 0.02972553 -0.073893696 -0.059787937
000250 0d 07 c9 bd cb 8e 2c 3d 21 a9 59 bd 02 23 a3 3c
       -0.09815798 0.042128365 -0.05313981 0.019914154
000260 4d 8e cc bd 9e e3 f5 3c fb 38 10 3c 8e bc 7e bd
       -0.09988079 0.030015763 0.008802648 -0.06219154
000270 08 8b 6d 3c e6 f3 b2 bd 92 de 23 bd 0f 6c ff bc
       0.01449848 -0.08737926 -0.04000718 -0.031179456
000280 65 4e e0 bd 17 f1 52 3d f9 90 51 bd dd bd a5 39
       -0.109524526 0.051499452 -0.051163647 0.00031612712
000290 7b 84 86 bd 13 79 95 3d 0f 27 10 bc 41 03 c2 3c
       -0.065682374 0.07298484 -0.008798375 0.023683192
0002a0 d2 61 94 bd df 4f b1 3d c4 d8 bb 3d a5 81 53 3d
       -0.0724522 0.08657812 0.09172204 0.05163731
0002b0 38 ff 5a bd ca f0 94 3d 43 83 95 3d 38 4f d7 bb
       -0.05346605 0.07272489 0.07300427 -0.006570723
0002c0 09 22 54 3d bf 9f 4e 3d 08 0b 87 bd 21 40 af 3d
       0.05179027 0.050445314 -0.06593901 0.085571535
0002d0 6b 06 8a 3d b6 9f a6 3d af 97 82 3d c8 d2 73 bd
       0.067395054 0.08135931 0.063765876 -0.05952719
0002e0 92 d8 af 3d 15 10 9a 3d f5 dd ad 3d 00 8c 1c 3d
       0.085862294 0.07522599 0.084896006 0.038219452
0002f0 dc d5 b8 bd 82 d9 f0 bc dc 43 c8 3d 64 63 8f bd
       -0.090251654 -0.02940059 0.09778568 -0.07001379
000300 61 da b0 bd 74 ef a0 3d 71 4b 10 3b d9 26 af 3c
       -0.086354025 0.07858172 0.0022017623 0.021380829
000310 2a 5a 3d bd ba 49 8a bd 82 37 ea bc b8 8b 50 bd
       -0.046228565 -0.067523435 -0.028590921 -0.050914496
000320 d5 2e 52 3d 6a 17 02 3d b7 9e 4e bd ce ee 5a bd
       0.051314194 0.03176061 -0.05044433 -0.0534504
000330 07 8c d9 bd 9f 06 1e be 74 a8 42 3d e2 55 94 bd
       -0.10622411 -0.15432213 0.04752393 -0.07242943
000340 69 2b 6a bc 93 0e c6 bd 37 51 6a be c7 74 1d 3e
       -0.014292576 -0.096707486 -0.22882544 0.15376578
000350 46 58 71 bc 4a 2f 9b 3d fe d3 62 3d c8 66 af bd
       -0.014730519 0.07577379 0.055377953 -0.08564526
000360 df 05 33 3e 17 d7 b7 3d c0 8c d5 3d 20 9c a0 bc
       0.17482708 0.08976572 0.104272366 -0.019605696
000370 ce 70 03 be a7 1b 5d 3e bc 87 42 be 8d 8d b0 bc
       -0.12836 0.2159258 -0.18997091 -0.021551872
000380 f2 68 b1 3d ad 79 38 3d 47 e0 a1 3d d8 a4 28 3e
       0.08662595 0.045037914 0.07904106 0.16469133
000390 c8 83 92 bd 23 ed 9c 3d 70 06 b1 b9 4d c0 0b 3e
       -0.071540415 0.07662418 -0.00033764867 0.13647576
0003a0 e7 63 e6 3d 74 f0 30 3e 6d 88 01 3e bd b6 d1 bd
       0.112495236 0.17279226 0.12649699 -0.10239933
0003b0 8d 68 02 be 8a 19 5e 3d ee b0 2c 3e 89 e5 a3 bc
       -0.12735195 0.054223575 0.16864368 -0.020006912
0003c0 57 ce 7a 3e c4 05 e3 3d 1a e1 55 3d 96 95 19 be
       0.24492775 0.11085084 0.052216627 -0.14998469
0003d0 ec a8 91 bd 26 80 11 3d dd b4 9f bc db 74 a3 3d
       -0.071122974 0.035522602 -0.019495422 0.07981273
0003e0 a3 8b a1 bd e0 95 92 3d 3a 2c 28 ba da 75 0e bd
       -0.07887962 0.07157493 -0.00064152817 -0.03478036
0003f0 31 91 ad bd 33 10 27 3e 01 84 f8 bb 68 f4 0e bd
       -0.08474959 0.16314773 -0.0075840955 -0.034901053

net.4.bias f4 [3]
000000 5d 26 30 3c d4 fd 7d 3d 73 d2 bf 3d
       0.010751334 0.062009647 0.09366312
