data/dynamics_nn_ensemble_model.pt (torch, 46598 bytes, 6 tensors)

models.0.linear1.weight f4 [100, 5]
-0.3747817 0.25014362 -0.250109 0.14316025 0.3636036 0.21104407 0.30028093 -0.34650105
-0.13875142 0.19554956 0.40882483 0.44057208 -0.11990564 -0.42374924 -0.10637496 -0.35283086
-0.26317072 0.4087325 0.29839006 -0.33065835 0.34225908 -0.18625517 0.19760062 0.34621808
-0.35932243 -0.21762562 -0.5373616 0.41840714 0.09014446 -0.0935022 -0.017901242 0.26772887
-0.39731562 -0.3044896 0.32076582 0.39774457 -0.29707173 0.049014 0.12856443 -0.19876564
0.3336172 -0.20900223 0.3381099 0.3259074 -0.30424762 0.25802222 0.094922535 0.22870152
-0.39661503 -0.12649223 0.4134647 -0.35286784 -0.41193512 -0.39577433 -0.020986568 -0.2504564
-0.19207375 0.35108906 -0.15018792 0.48484284 -0.37115273 0.32791573 0.32878885 0.11361369
0.13440366 -0.18949988 0.4865224 0.35565838 -0.18523057 -0.06607363 0.39697412 0.40630335
0.04690539 -0.1379858 0.33844042 -0.13832594 0.022995811 0.46531418 0.13935563 -0.18026255
-0.23956507 0.25431433 -0.4063085 -0.08069115 -0.38964406 -0.43338642 -0.03293728 0.26683792
-0.4214503 -0.10604335 -0.14476836 0.010010095 -0.20846842 0.20075321 -0.054433275 0.15223077
0.2901076 -0.058143545 0.2616016 -0.14488891 -0.3260622 -0.10254586 0.3510047 -0.15572993
-0.28956395 -0.24162044 0.15861848 -0.2412615 -0.34568796 -0.3130553 -0.45901495 0.3869859
-0.34788555 0.4084384 -0.17688152 -0.06667908 0.33546415 -0.021506097 -0.35914096 -0.10580099
-0.2645519 0.40790674 0.2624689 0.38594875 -0.13199852 -0.033805184 -0.004826054 -0.46229705
-0.12348106 0.17946117 -0.35438263 -0.1220153 -0.17206097 0.061053593 -0.19380528 -0.15066722
0.07829179 0.048296846 0.24561906 0.26183626 0.21093442 -0.30237004 0.29177842 0.288523
-0.31782615 -0.44100958 0.3880385 -0.50447637 0.03878595 0.2987202 0.052448805 0.40090573
0.27742222 0.13024345 0.11940466 0.46651217 0.33999336 -0.4011918 0.4850273 0.051435437
0.086201884 -0.133502 0.4416307 -0.32233718 0.37565267 -0.24240261 0.1380845 0.08623658
-0.35224727 -0.18835187 -0.25068069 -0.2396719 0.1449856 -0.26355526 0.06447629 -0.25297815
0.050094686 0.017258111 -0.20335355 -0.26056987 -0.28203437 0.15508972 0.41203704 0.42757893
-0.29259425 -0.010283781 -0.0937382 0.3207972 -0.22883376 -0.042297967 -0.061885107 0.34159273
-0.016386915 0.37349486 -0.028021373 -0.1478962 -0.32103643 0.32008508 -0.17532349 0.29612005
0.056377772 0.4329685 -0.42781773 -0.30471697 0.18293336 -0.005034239 0.27234387 0.20773266
-0.052321907 0.07026027 0.17913547 -0.43982333 0.46019775 0.09873725 -0.17147629 0.25910756
-0.20811325 0.112207174 0.42711937 0.049849167 0.0545766 -0.07179709 0.01318745 0.25027758
-0.25198594 0.098797254 0.22469154 0.30887896 0.19825657 -0.0950907 0.41597968 0.10324049
-0.42558816 -0.03163607 0.057189602 0.26639587 -0.12316746 0.12386822 -0.00161042 0.3976418
-0.23549385 -0.058952104 -0.052574586 -0.11504176 -0.04205628 -0.38143873 -0.3129362 0.15904407
0.30579305 -0.0448017 -0.43242228 -0.13548869 0.3572955 0.036228634 0.17019859 0.10494044
00000000: 63e3 bfbe d312 803e 490e 80be 9a98 123e
00000010: 402a ba3e f01b 583e 6cbe 993e 9668 b1be
00000020: da14 0ebe 253e 483e 7d51 d13e aa92 e13e
00000030: 1791 f5bd a9f5 d8be 1ddb d9bd 3fa6 b4be
00000040: 50be 86be 6345 d13e 95c6 983e 0d4c a9be
00000050: 953c af3e adb9 3ebe d157 4a3e 7f43 b13e
00000060: 1cf9 b7be 40d9 5ebe 8890 09bf 7639 d63e
00000070: a99d b83d 157e bfbd a0a5 92bc c213 893e
00000080: f46c cbbe 10e6 9bbe 6b3b a43e 2da5 cb3e
00000090: c919 98be e7c2 483d 65a6 033e 3889 4bbe
000000a0: e0cf aa3e ae04 56be be1c ad3e 56dd a63e
000000b0: 58c6 9bbe 7d1b 843e bf66 c23d bb30 6a3e
000000c0: 2011 cbbe 2e87 01be a5b1 d33e 18ab b4be
000000d0: 29e9 d2be efa2 cabe 06ec abbc d23b 80be
000000e0: fbae 44be f2c1 b33e ddca 19be 523d f83e
000000f0: bb07 bebe 92e4 a73e 0357 a83e 4bae e83d
00000100: 1da1 093e 420c 42be 7719 f93e db18 b63e
00000110: 15ad 3dbe 9c51 87bd 3140 cb3e fe06 d03e
00000120: de1f 403d 264c 0dbe 1048 ad3e 51a5 0dbe
00000130: b661 bc3c a93d ee3e 3eb3 0e3e bf96 38be
00000140: 8c50 75be 7d35 823e ab07 d0be 6741 a5bd
00000150: 6d7f c7be d3e4 ddbe 3ee9 06bd fb9e 883e
00000160: 55c8 d7be 422d d9bd 283e 14be 6201 243c
00000170: bf78 55be 4092 4d3e 6df5 5ebd 62e2 1b3e
00000180: fc88 943e ed27 6ebd a5f0 853e c25d 14be
00000190: a0f1 a6be 9003 d2bd e3b6 b33e ab77 1fbe
000001a0: ba41 94be 596b 77be e26c 223e 410d 77be
000001b0: 03fe b0be c948 a0be 0204 ebbe 0423 c63e
000001c0: 0e1e b2be d71e d13e 6e20 35be 0b8f 88bd
000001d0: f5c1 ab3e 8e2d b0bc 53e1 b7be 30ae d8bd
000001e0: 5973 87be 27d9 d03e 5362 863e 139b c53e
000001f0: 9f2a 07be 4e77 0abd e023 9ebb 33b2 ecbe
00000200: a3e3 fcbd abc4 373e a471 b5be 28e3 f9bd
00000210: c030 30be 5513 7a3d e474 46be 8248 1abe
00000220: 7257 a03d ead2 453d 9083 7b3e 670f 863e
00000230: 31ff 573e 3fd0 9abe fb63 953e 49b9 933e
00000240: 1cba a2be 02cc e1be fbac c63e 5d25 01bf
00000250: 04de 1e3d dbf1 983e 8fd4 563d 8443 cd3e
00000260: 490a 8e3e 8a5e 053e 6e8a f43d afda ee3e
00000270: 9c13 ae3e 0369 cdbe 8055 f83e f7ad 523d
00000280: 9d8a b03d c0b4 08be 6b1d e23e 6109 a5be
00000290: 8c55 c03e 6438 78be 0666 0d3e ce9c b03d
000002a0: c159 b4be 50df 40be 3859 80be 8d6c 75be
000002b0: 1b77 143e b7f0 86be 250c 843d 5a86 81be
000002c0: 1630 4d3d e260 8d3c ea3b 50be 6a69 85be
000002d0: cf66 90be d7cf 1e3e 85f6 d23e a0eb da3e
000002e0: eace 95be 4e7d 28bc d0f9 bfbd 883f a43e
000002f0: 6653 6abe a240 2dbd 3d7b 7dbd 3ee5 ae3e
00000300: da3d 86bc b83a bf3e 148d e5bc 1a72 17be
00000310: e35e a4be 31e2 a33e 0088 33be 0c9d 973e
00000320: 61ec 663d 0cae dd3e ed0a dbbe dd03 9cbe
00000330: e252 3b3e 42f6 a4bb a870 8b3e dfb7 543e
00000340: 7f4f 56bd 9ee4 8f3d 4a6f 373e 8630 e1be
00000350: 0a9f eb3e c136 ca3d 7b97 2fbe bfa9 843e
00000360: a41b 55be e0cc e53d 64af da3e a42e 4c3d
00000370: b78b 5f3d 5a0a 93bd 2d10 583c 6224 803e
00000380: 4d04 81be 3756 ca3d 8a15 663e 6225 9e3e
00000390: c503 4b3e eabe c2bd 4afb d43e c06f d33d
000003a0: b1e6 d9be d394 01bd a53f 6a3d 0a65 883e
000003b0: 393f fcbd 9fae fd3d ba14 d3ba b597 cb3e
000003c0: 4d25 71be c377 71bd 7358 57bd 049b ebbd
000003d0: 3543 2cbd f04b c3be 2c39 a0be 73dc 223e
000003e0: e890 9c3e fd81 37bd 7466 ddbe 8cbd 0abe
000003f0: 70ef b63e 7a64 143d 8a48 2e3e 03eb d63d

models.0.linear1.bias f4 [100]
-0.22342429 0.14725474 -0.274606 -0.30344298 0.4319629 -0.10169409 -0.08885299 -0.40620333
0.19467399 -0.16286758 0.25758418 -0.13926867 0.34855464 -0.002711145 -0.2940912 -0.004995034
0.38815984 -0.36351857 0.09516031 0.12220393 0.15796052 -0.16831508 0.17691468 -0.08340945
-0.25917605 0.08260163 0.10105768 -0.34629303 0.22248901 0.017828804 0.17573799 -0.30232406
-0.23494354 0.39822304 0.0021299385 -0.245598 -0.40437356 -0.35393885 0.31421098 0.04209275
-0.18669458 0.14996976 0.14169341 -0.4194861 -0.0070780455 -0.094910495 -0.08851826 0.23355299
0.39210954 0.22114815 0.06089982 -0.16760953 -0.08739024 0.22920607 -0.39827535 -0.43245298
-0.26812732 0.21592063 0.08728843 0.0060887355 0.38335562 0.04015957 0.026118005 0.16313286
0.12247461 0.3621894 -0.17542817 0.0725248 0.18365976 -0.00047343166 0.009778867 0.109176815
0.28739938 0.32352486 0.2601185 0.040520374 0.3937578 -0.4187792 0.20889981 -0.14178538
0.0898577 0.045709364 -0.23916389 0.35195023 0.05690138 0.41559604 -0.14249909 0.122747526
0.14026837 0.39768776 0.20715943 -0.28834197 0.4513733 0.24331206 0.12374183 -0.07797419
0.24936835 0.33394423 -0.26360345 -0.117799245
00000000: 56c9 64be f2c9 163e 2899 8cbe e15c 9bbe
00000010: 3e2a dd3e fe44 d0bd 8ef8 b5bd e2f9 cfbe
00000020: 9e58 473e c2c6 26be 13e2 833e 729c 0ebe
00000030: c175 b23e 77ad 31bb 1f93 96be 62ad a3bb
00000040: e3bc c63e 1b1f babe 69e3 c23d 0e46 fa3d
00000050: 67c0 213e ca5a 2cbe 1f29 353e 93d2 aabd
00000060: b9b2 84be 0b2b a93d 54f7 ce3d 524d b1be
00000070: 29d4 633e b60d 923c a9f4 333e 38ca 9abe
00000080: 0a95 70be e4e3 cb3e 7096 0b3b 0b7e 7bbe
00000090: 0d0a cfbe 7937 b5be 43e0 a03e 7369 2c3d
000000a0: dd2c 3fbe ac91 193e 1418 113e e2c6 d6be
000000b0: f3ee e7bb 6f60 c2bd 1049 b5bd 8428 6f3e
000000c0: 95c2 c83e a974 623e 1772 793d d5a1 2bbe
000000d0: a7f9 b2bd ffb4 6a3e bfea cbbe 7a6a ddbe
000000e0: fc47 89be 4c1a 5d3e 47c4 b23d 0484 c73b
000000f0: 3047 c43e 5c7e 243d 6df5 d53c 4d0c 273e
00000100: f8d3 fa3d e470 b93e 71a3 33be e287 943d
00000110: 4e11 3c3e ec36 f8b9 8a37 203c 1898 df3d
00000120: 0326 933e 0da5 a53e 412e 853e b1f8 253d
00000130: 9f9a c93e 3a6a d6be d5e9 553e 3030 11be
00000140: 5007 b83d be39 3b3d 61e7 74be d232 b43e
00000150: 6c11 693d 01c9 d43e 48eb 11be 0e63 fb3d
00000160: 83a2 0f3e bb9d cb3e 9a21 543e 8fa1 93be
00000170: 671a e73e cc26 793e 5b6c fd3d efb0 9fbd
00000180: 6b5a 7f3e bdfa aa3e 08f7 86be bb40 f1bd

models.0.linear2.weight f4 [100, 100]
-0.061589833 0.023368794 0.014347436 -0.051011708 0.020406568 -0.059064984 -0.0086961035 0.006629312
-0.021560038 0.05947531 0.09524272 -0.024988933 -0.04777156 0.0014062881 -0.063389756 0.07255936
-0.036038928 0.09403967 -0.03852769 -0.006685018 0.018821878 0.08237942 -0.07850128 0.03927628
0.05489272 -0.045594543 -0.012640713 -0.09610822 0.034475382 -0.039013702 0.08291819 -0.024559718
-0.040070437 0.05510442 0.08565573 0.050089847 0.059465136 0.08540672 -0.015891282 -0.050812226
-0.039306417 0.06917492 -0.078935154 -0.09384742 0.037619263 -0.08502598 0.03874877 0.03267783
-0.064822644 -0.019086398 -0.015232976 -0.038259443 -0.10390218 0.0886739 -0.079521134 0.096372984
-0.03467209 -0.0052033723 -0.02960171 0.06532422 0.016315317 0.08760816 -0.028913 0.04848197
-0.06657537 -0.07308856 -0.034460828 -0.01946071 0.06485366 0.025445756 0.013600086 0.0035016758
0.0838553 0.0701699 0.015914928 -0.051815018 -0.009239829 0.037010945 -0.0064169574 0.0064980746
0.019192055 -0.00836214 -0.056076787 0.058988065 -0.0050820317 0.0097391205 0.08548125 0.06658088
0.015382955 -0.05745843 0.06333354 0.043659087 -0.09906463 0.062411133 0.04428193 -0.037460685
-0.085115746 -0.10515707 0.06884171 0.06875171 -0.023761809 0.007167617 -0.030535592 0.027913952
0.0162654 -0.015355087 -0.009250907 0.046003845 -0.04362534 0.043645572 -0.00025468788 0.07348323
0.06148231 0.06498287 0.055069648 -0.07870553 0.039492972 0.052389886 -0.072581165 0.05011724
0.0062971236 0.016316498 -0.0006980328 -0.021891607 -0.022261394 0.0937153 -0.06658459 0.0549677
0.021527926 -0.03406538 0.036758922 0.073557705 0.07940191 -0.008368075 -0.08077164 0.046577502
-0.010876978 0.06820109 -0.069824524 0.028160036 -0.056817293 0.06862723 -0.032239057 -0.03379029
-0.096889004 0.015774783 0.035839375 0.00041731523 0.032748718 0.054377697 0.00087324384 -0.09076934
0.0014797902 0.058487367 -0.09074767 -0.0830365 -0.01177233 0.008219791 0.01524824 -0.06691285
-0.024446722 0.038810458 -0.07146226 -0.018020129 -0.012392537 0.07612302 -0.028036213 -0.08000728
-0.07868748 0.05051893 -0.036748786 -0.03397835 -0.017569557 -0.09937965 -0.10293396 0.094958894
0.01543878 0.034067046 -0.050810058 -0.098875545 0.06607387 0.035678055 0.09590489 -0.08102684
0.04087391 -0.0053851395 0.025401736 0.0890996 -0.06770146 0.015638674 0.06720817 -0.044320382
0.0151973 -0.07525933 -0.082195915 0.06789052 -0.038142584 0.01552811 0.06787187 -0.0559122
0.09501789 -0.022869589 -0.091444254 0.021532178 0.05576355 0.055745512 -0.08934615 0.09419467
-0.0007383522 -0.038584255 -0.006248371 -0.070319794 -0.01586248 0.03166044 -0.0121585 -0.10188913
0.06335211 -0.08152314 0.0027256762 0.056076683 -0.06928745 0.08789622 -0.04634322 0.077933535
0.08607526 0.04176641 0.0044978424 0.0031036257 0.031333465 0.018863002 0.018016677 -0.08333666
0.09051142 -0.08944996 -0.027690137 0.0013123989 0.09554191 0.057935394 0.034426417 -0.045018718
-0.09102185 0.09554297 0.059500366 -0.10868263 0.0929127 0.07905134 0.02833953 -0.07596474
-0.03587522 0.0907926 -0.08349758 -0.02318077 -0.0671918 -0.0711379 -0.050775018 -0.02103572
00000000: 9f45 7cbd ea6f bf3c 8211 6b3c a7f1 50bd
00000010: ad2b a73c 20ee 71bd 1a7a 0ebc b33a d93b
00000020: ad9e b0bc 629c 733d 9d0e c33d 97b5 ccbc
00000030: 1cac 43bd 3353 b83a 7dd2 81bd 009a 943d
00000040: 8e9d 13bd df97 c03d 36cf 1dbd ff0d dbbb
00000050: 5730 9a3c 8bb6 a83d 47c5 a0bd 2ae0 203d
00000060: 30d7 603d 58c1 3abd fe1a 4fbc 63d4 c4bd
00000070: 0f36 0d3d d5cc 1fbd 03d1 a93d 7631 c9bc
00000080: e620 24bd 2cb5 613d 456c af3d 032b 4d3d
00000090: b791 733d b8e9 ae3d 6f2e 82bc 7b20 50bd
000000a0: c4ff 20bd 95ab 8d3d c1a8 a1bd 1333 c0bd
000000b0: a816 1a3d 1a22 aebd 08b7 1e3d 30d9 053d
000000c0: bcc1 84bd 145b 9cbc bb93 79bc efb5 1cbd
000000d0: abca d4bd a99a b53d fadb a2bd 335f c53d
000000e0: 5204 0ebd 0d81 aabb 497f f2bc b4c8 853d
000000f0: b3a7 853c e86b b33d f5da ecbc 0895 463d
00000100: ab58 88bd 74af 95bd cc26 0dbd 116c 9fbc
00000110: ffd1 843d 9e73 d03c e5d2 5e3c 5f7c 653b
00000120: 54bc ab3d 3db5 8f3d 0660 823c fc3b 54bd
00000130: a762 17bc ca98 173d 5745 d2bb cded d43b
00000140: a838 9d3c 5b01 09bc c6b0 65bd 789d 713d
00000150: 2c87 a6bb d590 1f3c cb10 af3d 8e5b 883d
00000160: ca08 7c3c 8859 6bbd 04b5 813d dfd3 323d
00000170: 66e2 cabd d1a2 7f3d f860 353d 6070 19bd
00000180: 2a51 aebd 975c d7bd e2fc 8c3d b2cd 8c3d
00000190: 20a8 c2bc 54de ea3b c725 fabc cdab e43c
000001a0: 043f 853c e793 7bbc 1e91 17bc 876e 3c3d
000001b0: 7cb0 32bd b3c5 323d a187 85b9 607e 963d
000001c0: e0d4 7b3d bd15 853d b690 613d 5d30 a1bd
000001d0: 62c3 213d c796 563d 6fa5 94bd bc47 4d3d
000001e0: 1a58 ce3b 2daa 853c 30fc 36ba 0756 b3bc
000001f0: 875d b6bc cfed bf3d 805d 88bd d025 613d
00000200: 555b b03c 2488 0bbd 8690 163d 6ca5 963d
00000210: 789d a23d 401a 09bc 9a6b a5bd 0dc8 3e3d
00000220: 5a35 32bc 03ad 8b3d 2900 8fbd e0af e63c
00000230: 40b9 68bd 6f8c 8c3d 1a0d 04bd b067 0abd
00000240: be6d c6bd 1e3a 813c 4fcc 123d 1acb da39
00000250: 8523 063d 26bb 5e3d 67ea 643a 47e5 b9bd
00000260: 85f5 c13a 7390 6f3d ead9 b9bd 0a0f aabd
00000270: bbe0 40bc 4dac 063c c1d3 793c 9b09 89bd
00000280: 7e44 c8bc b7f7 1e3d ce5a 92bd f39e 93bc
00000290: 110a 4bbc 63e6 9b3d 33ac e5bc dbda a3bd
000002a0: e726 a1bd f0ec 4e3d e585 16bd e22c 0bbd
000002b0: 08ee 8fbc 8f87 cbbd 0acf d2bd cf79 c23d
000002c0: f0f2 7c3c e389 0b3d 351e 50bd 437f cabd
000002d0: bd51 873d 2723 123d c869 c43d 66f1 a5bd
000002e0: 676b 273d d375 b0bb 4d17 d03c da79 b63d
000002f0: 10a7 8abd ad1c 803c 70a4 893d 4a89 35bd
00000300: 19fe 783c 9021 9abd 5556 a8bd 2f0a 8b3d
00000310: 663b 1cbd 9d69 7e3c 6800 8b3d 3104 65bd
00000320: bd98 c23d 0159 bbbc 2047 bbbd 4064 b03c
00000330: 5268 643d 6855 643d 1dfb b6bd 23e9 c03d
00000340: fa8d 41ba 860a 1ebd 23bf ccbb d303 90bd
00000350: 08f2 81bc 61ae 013d 7234 47bc 40ab d0bd
00000360: c0be 813d 9bf5 a6bd 42a1 323b aab0 653d
00000370: 94e6 8dbd ef02 b43d 63d2 3dbd 9e9b 9f3d
00000380: 3a48 b03d 4113 2b3d a362 933b 3366 4b3b
00000390: 8557 003d 9586 9a3c b697 933c 69ac aabd
000003a0: 0d5e b93d 8a31 b7bd 6dd6 e2bc cd04 ac3a
000003b0: 7aab c33d aa4d 6d3d b702 0d3d 8c65 38bd
000003c0: aa69 babd 08ac c33d a8b6 733d 0095 debd
000003d0: 0349 be3d abe5 a13d 4d28 e83c 6793 9bbd
000003e0: e5f1 12bd 78f1 b93d c700 abbd 99e5 bdbc
000003f0: db9b 89bd bfb0 91bd 77f9 4fbd 1a53 acbc

models.0.linear2.bias f4 [100]
-0.05924325 -0.08600551 -0.032286234 -0.0922303 -0.0812827 -0.064223446 0.01661559 -0.031053472
-0.027365996 0.10017667 -0.048516043 0.07644119 0.08695502 0.09077011 -0.034061737 -0.014963627
-0.06367874 0.061802138 -0.057452258 0.029685372 0.035122976 0.058622383 0.023780968 0.08086323
-0.0959837 -0.066206574 -0.10253421 0.013397894 0.010409929 -0.0029698506 -0.0006438142 0.046107117
0.0019686087 -0.058078624 0.0030505897 0.09030909 0.09004989 0.10275903 -0.0889706 0.0054118517
0.09508593 -0.05982978 0.020783367 -0.055581998 -0.09244728 0.038747918 -0.045281768 -0.017098846
-0.01705627 -0.08166136 -0.03649766 -0.080925405 0.071135804 -0.023804763 0.05576212 0.067017324
-0.0017681383 0.059054118 0.063388765 -0.042506743 0.0782902 0.06066577 -0.010395317 -0.0113546
-0.023061343 -0.07972582 0.028305529 -0.10455926 0.044477496 -0.00012846959 -0.041502934 -0.08056539
0.024346363 -0.018058026 -0.07428495 0.049067646 -0.03106688 -0.0854763 0.051488366 -0.003192569
0.05108593 -0.09582783 -0.046258733 -0.08901232 -0.022783577 0.09459063 0.056764796 0.024610844
-0.0050679846 -0.047200397 -0.038787235 0.06691556 -0.093634866 0.014950187 -0.04994889 -0.06323249
-0.0542472 -0.09409171 -0.06276407 -0.08235766
00000000: 0da9 72bd a823 b0bd 923e 04bd 3de3 bcbd
00000010: 8b77 a6bd 9587 83bd 6b1d 883c da63 febc
00000020: a72e e0bc 6d29 cd3d c2b8 46bd 338d 9c3d
00000030: 7915 b23d aee5 b93d 5284 0bbd 002a 75bc
00000040: 006a 82bd 3d24 7d3d 0f53 6bbd bd2e f33c
00000050: 1cdd 0f3d 061e 703d 4ed0 c23c 9f9b a53d
00000060: 1a93 c4bd 5097 87bd 75fd d1bd d782 5b3c
00000070: 688e 2a3c d3a1 42bb a4c5 28ba d1da 3c3d
00000080: c603 013b dae3 6dbd 67ec 473b f9f3 b83d
00000090: 146c b83d 5473 d23d 3836 b6bd e755 b13b
000000a0: 69bc c23d 1210 75bd e141 aa3c f3a9 63bd
000000b0: 0055 bdbd 23b6 1e3d 6079 39bd e112 8cbc
000000c0: 97b9 8bbc 123e a7bd 927e 15bd 38bc a5bd
000000d0: a6af 913d 3502 c3bc d266 643d 6140 893d
000000e0: e0c0 e7ba bbe2 713d f8d1 813d 8d1b 2ebd
000000f0: 9d56 a03d ac7c 783d 1f51 2abc a508 3abc
00000100: 24eb bcbc 4a47 a3bd ffe0 e73c 2a23 d6bd
00000110: 092e 363d cbb5 06b9 fbfe 29bd 78ff a4bd
00000120: 0672 c73c 6dee 93bc b522 98bd 28fb 483d
00000130: f87f febc 330e afbd 77e5 523d 6b3a 51bb
00000140: 7b3f 513d 6241 c4bd cc79 3dbd 174c b6bd
00000150: a0a4 babc bbb8 c13d 3482 683d ae9c c93c
00000160: 5611 a6bb 3455 41bd 5ddf 1ebd 060b 893d
00000170: a3c3 bfbd a1f1 743c 3597 4cbd 0980 81bd
00000180: 5032 5ebd 28b3 c0bd 738a 80bd 22ab a8bd

models.0.linear3.weight f4 [2, 100]
-0.056110583 0.06401623 -0.0401429 0.010129218 0.075687334 0.083871916 0.06327616 -0.028528227
0.009840095 0.072098754 -0.033980817 -0.086467944 -0.048001654 0.038750056 -0.077606656 -0.088706344
-0.05193869 -0.06121883 -0.08831682 -0.0003798753 0.06915217 -0.093490236 0.033897188 0.024038255
0.016174508 0.065853976 -0.03277132 -0.08661664 -0.11967675 -0.061434828 -0.077016994 0.11095564
0.04472857 0.057473645 0.096879296 -0.05331546 -0.06993664 0.083853595 0.028213656 0.07386301
0.021150928 0.05788212 0.097496346 0.044093862 0.013999057 0.07118488 0.01559962 -0.03109747
-0.29853526 -0.008217419 0.09201285 0.005577147 0.09131875 -0.036070265 0.027824579 0.028540352
0.100880176 -0.018600836 -0.021329371 0.004952171 -0.027590517 -0.035235867 -0.092038624 -0.033403173
-0.05960988 -0.07888329 0.10934939 0.048702918 -0.1117258 0.029507881 0.04586697 0.05689075
-0.03372017 -0.016033148 -0.033067342 -0.065921314 0.13473453 -0.02037243 -0.09903524 -0.18213779
0.022224817 0.007624054 0.09207257 -0.012581579 -0.081199765 0.055658244 0.08264018 -0.0320172
-0.17340909 -0.004517282 -0.05432719 -0.011925758 0.07647307 0.061706774 -0.066037126 0.096084766
0.058708753 -0.04483023 -0.089975536 0.0018159032 -0.08567481 -0.09369307 0.07931675 -0.06850053
0.025654092 -0.010470844 -0.013536704 0.084019005 0.013726354 0.094579004 0.032361437 0.08586176
0.09994259 0.06741964 0.04119491 -0.031044424 -0.10480187 0.076307625 -0.023586009 -0.025188228
-0.01308946 -0.05191586 -0.076447055 -0.09595561 0.05944238 0.007227421 0.06805634 -0.08897055
0.06644063 0.08410732 0.081426 0.11302532 0.04013756 -0.020682616 0.0787335 -0.02325774
0.09590558 0.077168405 0.073360465 0.02121228 -0.016832834 -0.02608257 -0.07979477 0.09493919
-0.017038882 -0.08723701 0.07794277 -0.07437318 -0.09547993 0.0738399 0.019174654 0.05960634
0.056954987 -0.097194105 -0.04128552 -0.016025152 -0.051057134 0.014999885 0.01970558 -0.037983544
0.019165179 0.024313996 -0.022562642 0.0055783903 -0.047964267 0.06766734 0.043279458 0.020971434
-0.021841194 -0.028787255 0.05986812 0.018425584 -0.066819645 -0.050540995 0.09692391 0.065763086
-0.036088463 -0.03366809 -0.098189436 -0.08045755 0.018891044 0.056845915 -0.06464867 0.07584315
-0.036800515 0.03431702 -0.10353365 -0.072421834 0.10299783 0.0691808 -0.06239611 0.057346277
0.09230868 -0.07889831 -0.019197414 -0.04904528 0.06260764 -0.016002715 0.08229884 0.02143458
00000000: 36d4 65bd f11a 833d e26c 24bd 05f5 253c
00000010: f601 9b3d 0ac5 ab3d ee96 813d 07b4 e9bc
00000020: 5a38 213c 83a8 933d 782f 0bbd 1b16 b1bd
00000030: 629d 44bd 61b8 1e3d 3df0 9ebd acab b5bd
00000040: aabd 54bd 99c0 7abd 73df b4bd 002a c7b9
00000050: a79f 8d3d cf77 bfbd c7d7 0a3d e0eb c43c
00000060: 6780 843c 73de 863d 383b 06bd 1164 b1bd
00000070: 1519 f5bd 16a3 7bbd 16bb 9dbd b63c e33d
00000080: 4e35 373d 7c69 6b3d a768 c63d 5061 5abd
00000090: f13a 8fbd 6fbb ab3d 5320 e73c 7d45 973d
000000a0: b644 ad3c cd15 6d3d 2aac c73d c49b 343d
000000b0: 4d5c 653c 61c9 913d 8c95 7f3c 1fc0 febc
000000c0: 9dd9 98be 5aa2 06bc 3c71 bc3d 80c0 b63b
000000d0: 5305 bb3d 6abe 13bd 5ff0 e33c 75cd e93c
000000e0: 449a ce3d c860 98bc efba aebc d245 a23b
000000f0: 8205 e2bc 7c53 10bd bf7e bcbd c4d1 08bd
00000100: 7d29 74bd 908d a1bd 93f2 df3d b67c 473d
00000110: 7fd0 e4bd 83ba f13c 01df 3b3d 4606 693d
00000120: 291e 0abd f357 83bc 9f71 07bd c101 87bd
00000130: d9f7 093e 15e4 a6bc fdd2 cabd 5482 3abe
00000140: d210 b63c 33d3 f93b 8b90 bc3d f822 4ebc
00000150: 104c a6bd e6f9 633d 413f a93d 7824 03bd
00000160: 2792 31be b505 94bb 3086 5ebd 4164 43bc
00000170: ea9d 9c3d 3ec0 7c3d 793e 87bd 17c8 c43d
00000180: 9778 703d e79f 37bd 1845 b8bd 9a03 ee3a
00000190: 4676 afbd 27e2 bfbd d270 a23d 024a 8cbd
000001a0: 8828 d23c e78d 2bbc 0dc9 5dbc 2812 ac3d
000001b0: 80e4 603c a3b2 c13d 6d8d 043d 4ad8 af3d
000001c0: b3ae cc3d 4f13 8a3d febb 283d e050 febc
000001d0: 5da2 d6bd 2c47 9c3d 7237 c1bc 8b57 cebc
000001e0: 2d75 56bc baa5 54bd 4690 9cbd 6084 c4bd
000001f0: da79 733d 00d4 ec3b 1f61 8b3d 3136 b6bd
00000200: 0612 883d 7540 ac3d adc2 a63d d279 e73d
00000210: 4867 243d 976e a9bc 073f a13d 0487 bebc
00000220: 256a c43d 780a 9e3d 033e 963d 60c5 ad3c
00000230: 03e5 89bc 1dab d5bc 716b a3bd 7a6f c23d
00000240: 2095 8bbc 51a9 b2bd 76a0 9f3d f750 98bd
00000250: fb8a c3bd 6039 973d 2a14 9d3c c725 743d
00000260: a249 693d b40d c7bd 011b 29bd 2e47 83bc
00000270: 4921 51bd 14c2 753c 996d a13c a294 1bbd
00000280: 4b00 9d3c 252e c73c 4ad5 b8bc eeca b63b
00000290: 2e76 44bd 2d95 8a3d cd45 313d 49cc ab3c
000002a0: 4eec b2bc 40d3 ebbc 4638 753d 40f1 963c
000002b0: bdd8 88bd 1304 4fbd 0b80 c63d ccae 863d
000002c0: 7fd1 13bd 8de7 09bd 8b17 c9bd eec6 a4bd
000002d0: 64c1 9a3c 43d7 683d 8666 84bd a753 9b3d
000002e0: 23bc 16bd 0190 0c3d 7309 d4bd e651 94bd
000002f0: 87f0 d23d aaae 8d3d 1093 7fbd eee3 6a3d
00000300: 550c bd3d 7095 a1bd e543 9dbc b4e3 48bd
00000310: 6f38 803d 2018 83bc 4b8c a83d 9397 af3c

models.0.linear3.bias f4 [2]
-0.056775294 -0.091319256
00000000: 368d 68bd 9705 bbbd
