checkpoint/ode/pushing_4_steps_ode_dynamics_model.pt (torch, 47604 bytes, 6 tensors)

ode_func.net.0.weight f4 [100, 6]
0	0xbea4a253	-0.32155094
1	0xbe793b3c	-0.24339002
2	0x3e998c4d	0.29989854
3	0x3e8e16ce	0.27751774
4	0xbd85ad19	-0.065271564
5	0x3ed33035	0.41247717
6	0x3dd00bdc	0.10158512
7	0x3e449cc1	0.19200422
8	0x3e07b254	0.1325162
9	0x3e90c892	0.28278023
10	0x3ec1f53d	0.37882414
11	0xbcf88fb1	-0.030341955
12	0x3e205ce5	0.15660436
13	0x3e8b54dc	0.2721318
14	0x3d9125c4	0.07087281
15	0xbed437e4	-0.4144889
16	0x3ea0ac1e	0.31381315
17	0x3d47de6d	0.048796106
18	0x3df05d10	0.117365
19	0x3e718974	0.2358759
20	0xbea8d39c	-0.32973945
21	0xbcb97e14	-0.022643127
22	0xbe0b1f20	-0.13586092
23	0x3ecf1308	0.40444207
24	0x3cd6bc45	0.02621282
25	0xbea89bb1	-0.32931283
26	0xbeb8be03	-0.36082467
27	0xbe65c2be	-0.2243757
28	0x3e51fd5d	0.20506807
29	0x3e33eea9	0.1757151
30	0x3beba563	0.0071913465
31	0x3e00f3e4	0.12593037
32	0x3e922be8	0.28549123
33	0xbebc70be	-0.36804765
34	0x3e2d8243	0.16944222
35	0xbe659c71	-0.22422959
36	0x3ecc2c26	0.39877433
37	0xbeb1da1a	-0.3473671
38	0x3e0543fb	0.13014214
39	0x3e35cb07	0.1775323
40	0xbed3e4e9	-0.41385582
41	0x3e736e26	0.23772487
42	0xbd924808	-0.07142645
43	0xbe4fb9f5	-0.2028578
44	0xbe4f0bc5	-0.20219333
45	0xbdfe9b3c	-0.12431952
46	0xbe3c2128	-0.18372023
47	0x3e35e028	0.1776129
48	0xbe6adb76	-0.2293528
49	0xbe0f1ce7	-0.13975869
50	0xbebad2dd	-0.36489
51	0xbdee4f17	-0.11636179
52	0xbdcdff2c	-0.10058436
53	0x3e95ce15	0.2925879
54	0x3ed0fe35	0.40818945
55	0x3d1fb3a9	0.038989697
56	0xbe117a61	-0.1420684
57	0xbd3453d8	-0.044025272
58	0xbed9bd90	-0.42527437
59	0xbe85f2c8	-0.2616179
60	0xbe5ea202	-0.21741489
61	0x3ea045de	0.31303304
62	0x3eabd0b5	0.33557668
63	0xbe84c1b6	-0.2592904
64	0xbe121bb9	-0.14268388
65	0xbe1eae4c	-0.15496176
66	0xbd9b800c	-0.075927824
67	0x3e213128	0.15741408
68	0xbe135f41	-0.14391805
69	0xbeadee38	-0.3397081
70	0xbe58d0b8	-0.2117337
71	0x3e59a5d1	0.2125466
72	0xbd96993e	-0.073534474
73	0xbcae9507	-0.021311296
74	0x3e9d0aba	0.30672246
75	0x3e0b5d5b	0.13609831
76	0xbe9f9546	-0.31168574
77	0xbd23d768	-0.04000035
78	0xbe29bff3	-0.16577129
79	0xbe3ac406	-0.1823884
80	0x3e7416f5	0.23836882
81	0x3e8b507f	0.2720985
82	0xbe520c80	-0.20512581
83	0xbe172fa6	-0.1476427
84	0x3e65a4b7	0.22426115
85	0x3ea79752	0.32732636
86	0xbe8920db	-0.2678288
87	0xbe9258c0	-0.28583336
88	0xbd5243e4	-0.051334277
89	0xbc5d3f17	-0.013503811
90	0x3e110e17	0.14165531
91	0x3ca9648d	0.02067783
92	0x3dd57266	0.104222104
93	0xbea86b03	-0.32894143
94	0xbe01af87	-0.12664615
95	0xbd9bd533	-0.07609024
96	0xbe05ef40	-0.13079548
97	0x3e9d1da8	0.30686688
98	0x3e40dc61	0.18834068
99	0xbd018a22	-0.031625874
100	0x3e93db21	0.2887812
101	0xbc90cdf5	-0.017676333
102	0xbd43b14d	-0.04777651
103	0x3e951504	0.29117596
104	0xbcb50108	-0.022095218
105	0x3e4f2b0c	0.20231265
106	0x3e6a5530	0.22884059
107	0xbebaa9d0	-0.36457682
108	0xbe0b2dca	-0.13591686
109	0xbecaf94d	-0.39643326
110	0x3e6e553f	0.23274706
111	0x3e7ab22c	0.2448203
112	0xbeb5054c	-0.35355604
113	0x3e342a8e	0.17594358
114	0xbe9c779c	-0.30560005
115	0xbea771be	-0.32703966
116	0xbd112b5a	-0.035441734
117	0x3e96f73c	0.294855
118	0x3e52c281	0.2058201
119	0x3c221c0c	0.009894382
120	0xbe940659	-0.28911093
121	0xbe5ff00b	-0.21868913
122	0x3e665fdb	0.22497503
123	0x3ed5c2d3	0.41750202
124	0x3e9c1b1f	0.30489442
125	0xbe5b50ff	-0.21417616
126	0x3ea16ee6	0.3152992
127	0xbe0c4458	-0.13697946
128	0x3eb36ebe	0.35045427
129	0x3e7df3ab	0.24799983
130	0x3ece50a2	0.40295893
131	0x3e10faa8	0.14158118
132	0xbe9d5f43	-0.3073674
133	0xb8a0a54d	-7.660184e-05
134	0xbe0c9c5a	-0.13731518
135	0xbeca7fe1	-0.3955069
136	0xbdb0eb6d	-0.08638654
137	0xbe3db07f	-0.18524359
138	0xbdf028f3	-0.117265604
139	0x3ecf0f15	0.40441194
140	0x3eb2cec3	0.34923372
141	0xbdb18393	-0.08667674
142	0xbeb91719	-0.36150435
143	0xbd2fb70c	-0.042899176
144	0x3d31eb80	0.04343748
145	0xbe6168d9	-0.22012652
146	0x3eadb32e	0.33925766
147	0x3c9cb77a	0.019130457
148	0x3dc327af	0.095290534
149	0x3d0fb883	0.035088073
150	0x3e51151f	0.20418213
151	0xbeb0a749	-0.34502628
152	0x3ebefff4	0.37304652
153	0xbe8e5d8e	-0.27805752
154	0xbeb93829	-0.3617566
155	0xbe4fc500	-0.20289993
156	0x3e71a0dd	0.2359652
157	0x3d950b63	0.072775625
158	0x3eb8d9e8	0.3610375
159	0xbde9281c	-0.113846034
160	0x3d8e08e9	0.06935293
161	0x3d00e8ad	0.031471897
162	0x3e950e32	0.29112393
163	0x3c4f391d	0.012647894
164	0x3ec3122a	0.38099796
165	0xbeb889fb	-0.3604277
166	0x3e8fa548	0.28055787
167	0xbe9fc0fe	-0.3120193
168	0xbe8eb4e3	-0.2787238
169	0x3e008e94	0.12554389
170	0x3d598445	0.053104658
171	0xbc825eb1	-0.015914293
172	0xbe290f22	-0.16509679
173	0x3e685f0a	0.22692505
174	0x3ec1b272	0.37831455
175	0xbe6ab3f8	-0.22920215
176	0xbe721af8	-0.236431
177	0xbe8ff7a8	-0.28118634
178	0x3e0703c1	0.13185026
179	0xbead1976	-0.33808488
180	0xbeb98940	-0.36237526
181	0x3ea1b0a3	0.31580076
182	0x3c06d1eb	0.008228759
183	0x3e890efa	0.2676924
184	0x3e499daa	0.1968905
185	0x3e8ac0c5	0.27100196
186	0xbcff84eb	-0.03119131
187	0xbe3378aa	-0.17526498
188	0xbe92bbc1	-0.2865887
189	0x3e976e4f	0.29576346
190	0x3eadd0f3	0.33948478
191	0x3ec36dee	0.38169807
192	0xbeb1e532	-0.34745175
193	0xbcfe2c2a	-0.031026918
194	0xbea847a9	-0.32867172
195	0x3ec25ac4	0.37959874
196	0xbd88551a	-0.06656857
197	0x3e7735d6	0.2414163
198	0x3e9bd183	0.30433282
199	0x3de127cb	0.10993918
200	0xbdf7c5ef	-0.120983
201	0xbdd59095	-0.104279675
202	0xbe866f04	-0.26256573
203	0xbebc1a6c	-0.36738908
204	0x3e823cf7	0.25437137
205	0x3e570b4a	0.210004
206	0x3e655fbd	0.22399803
207	0x3de7a86b	0.1131142
208	0x3e34716c	0.17621392
209	0xbe747fd4	-0.23876888
210	0xbe57973c	-0.21053785
211	0xbd5c2f0e	-0.053755812
212	0x3eb64f18	0.3560722
213	0x3e1e227f	0.15442847
214	0x3e08e1ec	0.13367432
215	0x3e59cea1	0.21270229
216	0x3ecdb03c	0.4017352
217	0x3e689e8a	0.22716728
218	0x3e5b5b00	0.21421432
219	0xbe026abd	-0.1273603
220	0xbe09a36d	-0.13441248
221	0xbe5621d8	-0.20911348
222	0xbe816af5	-0.25276914
223	0x3ed06a5a	0.4070614
224	0xbe717fd9	-0.23583926
225	0x3e841163	0.25794515
226	0xbddfe58a	-0.10932453
227	0xbe0b3924	-0.13596016
228	0x3e966c15	0.29379335
229	0xbec2086f	-0.3789706
230	0x3df6490a	0.1202565
231	0x3e86d1da	0.2633198
232	0x3e0932a4	0.13398224
233	0xbe875ab4	-0.26436388
234	0x3e73bfec	0.23803681
235	0x3e63440f	0.22193931
236	0xbe3b02d4	-0.18262798
237	0xbea9df13	-0.33178005
238	0x3d1dfed6	0.03857311
239	0x3ec6419e	0.38721937
240	0xbec5ce0e	-0.3863377
241	0xbe098c45	-0.13432415
242	0xbe7f89d8	-0.24954927
243	0xbdc31af4	-0.09526625
244	0x3e8150e2	0.2525702
245	0x3d74324e	0.059618287
246	0xbd3a9778	-0.045554608
247	0xbebf19fc	-0.37324512
248	0x3e52a5de	0.20571086
249	0xbeb81a09	-0.35957363
250	0x3d90fe57	0.070797615
251	0x3da4ed8d	0.08053122
252	0x3d900254	0.07031694
253	0xbe627c13	-0.22117643
254	0x3e8ce556	0.2751872
255	0xbd945991	-0.07243646

ode_func.net.0.bias f4 [100]
0	0xbe31374b	-0.17306249
1	0xbe88831b	-0.26662526
2	0xbe7a5ef9	-0.24450292
3	0x3ec027fd	0.3753051
4	0x3e015b9d	0.12632604
5	0x3e4ddbb7	0.20103346
6	0xbd1d063b	-0.03833602
7	0x3c7c0a11	0.015383259
8	0x3e9057d8	0.2819202
9	0x3e092a42	0.13395026
10	0x3e398641	0.1811762
11	0xbed0201b	-0.40649495
12	0xbd7e3df0	-0.062070787
13	0x3e9bcf03	0.30431375
14	0x3e8a6c85	0.2703592
15	0xbea7705c	-0.3270291
16	0xbeae1813	-0.34002742
17	0x3d350eae	0.044203453
18	0x3e2f7fe3	0.17138629
19	0x3e939c54	0.28830206
20	0x3e2820d5	0.16418774
21	0xbe81a5ab	-0.25321707
22	0xbebe35b7	-0.37150356
23	0x3e7cb201	0.24677278
24	0xbe21029a	-0.15723649
25	0x3e1c305b	0.15252821
26	0x3da075ec	0.07834992
27	0x3ea6cb41	0.32576945
28	0x3e2f08a6	0.17093143
29	0xbdd9e76d	-0.10639844
30	0xbe995a03	-0.29951486
31	0xbea076d6	-0.31340665
32	0x3eaf1683	0.34196863
33	0xbe3fe817	-0.18740879
34	0xbe53d4a5	-0.20686586
35	0x3eb2b766	0.34905547
36	0xbd615f7e	-0.05502271
37	0xbebac093	-0.36475047
38	0xbd9dd710	-0.077070355
39	0xbe36ecda	-0.17863789
40	0x3d0ce5f9	0.034399007
41	0xbe3df07b	-0.18548767
42	0x3ebeb688	0.37248635
43	0xbcc89f90	-0.024490148
44	0xbe924346	-0.2856695
45	0x3e4b1dc6	0.19835576
46	0x3eba3b54	0.3637339
47	0x3b629914	0.0034576105
48	0x3ec71121	0.38880256
49	0x3e008e96	0.12554392
50	0xbdbe6a8e	-0.092976674
51	0x3e4d0c6e	0.20024273
52	0xbea4ad05	-0.32163253
53	0xbe84020d	-0.25782815
54	0xbea77eb9	-0.3271387
55	0x3df4b59f	0.11948704
56	0x3e579b2e	0.2105529
57	0xbe34e0f7	-0.17663942
58	0x3ea6d003	0.32580575
59	0xbe9ae342	-0.3025151
60	0x3ecdf134	0.40223086
61	0xbe87f17c	-0.26551425
62	0x3e142af7	0.14469515
63	0xbe8a7288	-0.27040505
64	0xbd52b132	-0.051438518
65	0xbdbb1071	-0.09133995
66	0xbdffde98	-0.12493628
67	0xbdaa464d	-0.0831419
68	0x3e813c64	0.25241387
69	0xbec8d029	-0.39221314
70	0xbdd30792	-0.10304178
71	0x3e96bbf1	0.29440263
72	0x3d3919bb	0.045190554
73	0xbe5e189e	-0.21689078
74	0xbe30e1ac	-0.17273587
75	0xbe66a3a7	-0.22523366
76	0xbdfa1e49	-0.12212808
77	0x3ecf7986	0.40522403
78	0x3daa0509	0.08301742
79	0xbe93bff1	-0.28857377
80	0xbeb7761e	-0.35832304
81	0xbe9254df	-0.28580377
82	0x3e329447	0.17439376
83	0x3e967a98	0.29390407
84	0x3e6dd503	0.23225789
85	0x3e734637	0.23757254
86	0x3e4fee85	0.20305832
87	0x3e64df25	0.22350748
88	0xbe83e573	-0.25760993
89	0x3e9882ff	0.29787442
90	0x3da09f19	0.078428455
91	0x3dd4aff4	0.10385123
92	0xbdb1e01c	-0.086853236
93	0xbe22facc	-0.15915984
94	0x3e938160	0.28809643
95	0xbebd6646	-0.3699209
96	0x3c0f8bb7	0.008761338
97	0x3ea49af2	0.32149464
98	0xbe90bd34	-0.2826935
99	0xbec4a523	-0.3840724

ode_func.net.2.weight f4 [100, 100]
0	0x3c003a08	0.007826336
1	0x3d6243ce	0.055240445
2	0x3dc6288d	0.09675703
3	0xbd3716fa	-0.044699647
4	0xbd1f7618	-0.038930982
5	0xbb8c10df	-0.004274472
6	0xbcb38785	-0.021915207
7	0x3e2c475d	0.16824098
8	0xbb586a48	-0.0033022333
9	0xbc8c6554	-0.01713816
10	0x3c32913a	0.0108988825
11	0xbe8727ff	-0.26397702
12	0x3d620b13	0.055186342
13	0xbd67e882	-0.05661822
14	0x3dcadbea	0.099052265
15	0xbe32de3b	-0.17467587
16	0x3c9a4207	0.018830312
17	0x3d6859ca	0.056726255
18	0x3d80affd	0.06283567
19	0xbd9251a1	-0.07144476
20	0xbdd65443	-0.104652904
21	0xbde3e30e	-0.111272916
22	0x3daf61d7	0.08563583
23	0x3c569b1d	0.013098505
24	0xbd2ef2d4	-0.042712048
25	0xbd9162fa	-0.070989564
26	0x3dc21326	0.094763085
27	0xbd053569	-0.03252164
28	0x3db15902	0.08659555
29	0xbc987603	-0.01861096
30	0xbe184fda	-0.14874211
31	0xbd99f060	-0.07516551
32	0x3dea41d5	0.11438338
33	0x3d7ce2a9	0.061739597
34	0xbe36df75	-0.1785868
35	0x3c35ee95	0.011104246
36	0x3c3f7ee6	0.01168797
37	0xbdb177d8	-0.086654365
38	0x3c865038	0.016395673
39	0x3d63f929	0.05565754
40	0x3d8e80fb	0.06958195
41	0xbbd912a2	-0.0066245357
42	0xbd28afca	-0.04118327
43	0x3da94e89	0.082669325
44	0x3d9792bf	0.074010365
45	0x3c439434	0.01193719
46	0x3d5b1a6f	0.053492006
47	0x3d325bb6	0.043544494
48	0xbbf1b39a	-0.0073761465
49	0x3c8fc4a9	0.01754983
50	0xbd8e1a91	-0.06938661
51	0xbd7055f5	-0.058675725
52	0xbe345050	-0.17608762
53	0xbde1f11b	-0.11032315
54	0xbe32fba0	-0.174788
55	0x3db46159	0.0880763
56	0x3ded7825	0.115951814
57	0xbe218429	-0.15773071
58	0xbd518491	-0.051151816
59	0xbd724bfd	-0.0591545
60	0x3da852a6	0.08218889
61	0x3d99d209	0.07510764
62	0x3dda0156	0.10644786
63	0xbbbd9118	-0.005785119
64	0xbc801cf8	-0.015638813
65	0x3e398653	0.18117647
66	0xbcc910f0	-0.02454421
67	0x3dc0f15a	0.09421034
68	0x3de7d17d	0.113192536
69	0xbcfe3b74	-0.031034209
70	0x3d01e2ce	0.03171044
71	0x3d07991f	0.033105012
72	0xbde99a1e	-0.11406349
73	0xbea66010	-0.32495165
74	0x3c877d08	0.016539112
75	0xbd9eea4e	-0.07759534
76	0x3cd18e5c	0.025580578
77	0xbd540149	-0.051759038
78	0x3c21bc6b	0.0098715825
79	0xbe5df397	-0.21674953
80	0x3dcc0942	0.09962703
81	0xbd873fce	-0.06603967
82	0xbc53be46	-0.012923783
83	0xbccdd104	-0.02512408
84	0x3c08b5ed	0.008344156
85	0x3dce4c52	0.10073151
86	0x3d4c5903	0.049889576
87	0xbdac37d9	-0.084090896
88	0xbdb67da3	-0.08910682
89	0xbd54761e	-0.051870458
90	0x3c9f6fe6	0.019462537
91	0x3dad0b3e	0.0844941
92	0x3dee7949	0.11644227
93	0xbd8cf9c2	-0.06883575
94	0x3ddce15b	0.10785171
95	0xbd0539b3	-0.03252573
96	0x3b9d62c7	0.004803035
97	0x3e170941	0.14749624
98	0xbda7bbbe	-0.08190106
99	0xbe5b1507	-0.2139474
100	0xbcdcbdc0	-0.026945949
101	0x3d2dd7f8	0.042442292
102	0xbcb84a4a	-0.022496361
103	0xba9c2e31	-0.0011915622
104	0x3bcd16c5	0.006258818
105	0xbbd9caf1	-0.006646507
106	0xbd786b73	-0.060649347
107	0xbdb8ede2	-0.090297475
108	0xbdbbb6ee	-0.091657504
109	0x3d9d2274	0.07672587
110	0xbcdfac6e	-0.0273039
111	0x3d414a3d	0.04718994
112	0x3d848128	0.06469947
113	0xbce3d185	-0.027809868
114	0x3db12f75	0.0865163
115	0x3d1d5bd7	0.038417663
116	0x3d158fdf	0.03651416
117	0x3cc232e6	0.02370591
118	0xbdb7e0c2	-0.08978416
119	0xbdc27b30	-0.094961524
120	0xbc429dbb	-0.011878426
121	0xbc200d9b	-0.009768869
122	0xbdc46ef0	-0.09591472
123	0xbd948f34	-0.07253876
124	0xbc1212a3	-0.008915576
125	0xbdac4f9c	-0.08413622
126	0x3a9b280c	0.0011837496
127	0x3c5b7da2	0.013396652
128	0x3cc38003	0.023864752
129	0xbdb0d125	-0.08633641
130	0x3ce6de8d	0.028182292
131	0xbc91b604	-0.017786987
132	0x3d63d11e	0.05561935
133	0xbd9b5f78	-0.075865686
134	0x3d8463bc	0.06464335
135	0xbca32a6a	-0.019917686
136	0xbdb63675	-0.088971056
137	0xbd2e9863	-0.042625796
138	0x3dc1819b	0.094485484
139	0x3d1c4c11	0.03815848
140	0x3da01f59	0.07818479
141	0xbda67e68	-0.08129579
142	0xbdb134d6	-0.08652656
143	0xbd0ad7ff	-0.033897396
144	0xbd776988	-0.060403377
145	0xbc0a550b	-0.008443127
146	0xbc44b0a7	-0.012005008
147	0xbdb70ba9	-0.08937771
148	0xbd383984	-0.044976726
149	0xbdb8e42d	-0.09027896
150	0xbd817e97	-0.06322973
151	0xbda58fb1	-0.080840476
152	0x3dad473d	0.08460853
153	0xbd07c3f0	-0.033145845
154	0xbcda0513	-0.026613748
155	0x3c4bcbd5	0.012438734
156	0xbd607a23	-0.05480398
157	0x3c33f298	0.010983132
158	0xbcb129be	-0.02162635
159	0x3cdda8ad	0.02705797
160	0xbd8629e2	-0.06550957
161	0xb9ea33c3	-0.00044670523
162	0x3dc06f70	0.09396255
163	0x3da8f21c	0.08249304
164	0x3da40493	0.08008685
165	0xbd0166f3	-0.03159232
166	0xbc7fe575	-0.015618672
167	0xbd5e15a4	-0.054219857
168	0x3d930a50	0.07179701
169	0x3c84110a	0.016121406
170	0xbdad37ed	-0.084579326
171	0xbd7df9c2	-0.062005766
172	0x3d6218d0	0.055199444
173	0x3bfc899a	0.007706833
174	0xbd67c3dc	-0.05658327
175	0xbdba64e3	-0.09101274
176	0xbd8f3bdf	-0.069938414
177	0x3d85069b	0.064954005
178	0xbd4b9c68	-0.049709707
179	0xbdc8c410	-0.09803021
180	0x3b1a399a	0.0023532868
181	0xbd734d16	-0.059399687
182	0x3d876b5a	0.066122726
183	0xbdbbe05f	-0.09173655
184	0xbd7c4f33	-0.061598968
185	0x3da5ace1	0.08089615
186	0xbd12e11d	-0.035859216
187	0x3d2ff994	0.042962626
188	0xba617123	-0.00085999275
189	0xbd44a1de	-0.04800593
190	0x3d08383d	0.033256758
191	0x3d845e34	0.0646328
192	0x3cde1258	0.027108356
193	0x3d0830a6	0.03324952
194	0x3d9172bb	0.07101961
195	0xbda24a27	-0.079243
196	0xbdb6d9cb	-0.089282595
197	0xbcbc8637	-0.023013217
198	0xbdb87b46	-0.090078875
199	0xbd6b2196	-0.057405077
200	0xbdb6d141	-0.08926631
201	0x3da86b8a	0.082236364
202	0xbdcce372	-0.10004319
203	0x3bde38fe	0.0067816963
204	0x3dbf849b	0.09351464
205	0x3db47142	0.08810665
206	0x3c1d85ff	0.009614467
207	0x3c984ded	0.018591845
208	0xb9590788	-0.00020697538
209	0xb9ca5a90	-0.00038595917
210	0x3dc3663e	0.095409855
211	0x3c326352	0.010887938
212	0xbd1ccc80	-0.038280964
213	0xbd1287be	-0.035773985
214	0x3d0eb29a	0.034838296
215	0x3df0856c	0.11744198
216	0x3d530407	0.051517513
217	0xbd2fafbd	-0.042892206
218	0x3b1a0565	0.002350175
219	0xbc6f8286	-0.014618522
220	0xbd0bc574	-0.034123853
221	0x3db9f904	0.09080699
222	0xbdca4eb5	-0.098782934
223	0xbd0cd8e5	-0.034386534
224	0xbcc06cc1	-0.023489358
225	0x3b69972d	0.0035643086
226	0x3c72c39c	0.014817145
227	0xbd3a81b3	-0.045533847
228	0x3bb05dc2	0.0053822706
229	0xbd48dc49	-0.049038205
230	0xbdb5b1e4	-0.088718206
231	0x3c899063	0.016792482
232	0x3d584291	0.052797858
233	0xbd7dca4e	-0.06196051
234	0x3cccb5d9	0.024989055
235	0x3d8d3f91	0.0689689
236	0xbd1ad0c8	-0.037796766
237	0xbd9c44e9	-0.07630331
238	0xbd3ed2e0	-0.046587825
239	0xbda0bb9d	-0.078482844
240	0x3c27d11b	0.010242726
241	0xbcd12d39	-0.02553426
242	0x3b80a7ed	0.0039262683
243	0xbdb2efdd	-0.087371565
244	0x3cf2841d	0.029604012
245	0x3c6c39df	0.014418094
246	0x3bbb720d	0.005720383
247	0x3d327061	0.043564204
248	0xbd80adac	-0.06283125
249	0xbca5e458	-0.020250484
250	0x3d9e0dfb	0.0771751
251	0xbd983214	-0.07431427
252	0x3d6daf7b	0.05802868
253	0xbcfae6a5	-0.030627558
254	0x3d61321b	0.054979425
255	0xbda71da6	-0.08159952

ode_func.net.2.bias f4 [100]
0	0x3cc5e8da	0.024158884
1	0x3d08eabe	0.033426993
2	0x3d3dfc60	0.04638326
3	0x3d3b5603	0.045736324
4	0x3d063f77	0.03277537
5	0x3c29f322	0.010372909
6	0xbd1b282b	-0.037880104
7	0xbd9c017f	-0.07617473
8	0x3d9c8cb2	0.07644023
9	0xbd5bf498	-0.05370006
10	0xbd43c678	-0.047796696
11	0x3d3efd92	0.046628542
12	0xbd121f99	-0.035674665
13	0x3d754402	0.05987931
14	0x3d1f0532	0.038823314
15	0x3d3c1dee	0.04592698
16	0xbd945b03	-0.072439216
17	0x3d9e3d8a	0.077265814
18	0xbd935818	-0.07194537
19	0xbd73b551	-0.05949909
20	0xbd91ce13	-0.07119384
21	0x3da4c2bb	0.080449544
22	0x3d96ef4c	0.07369861
23	0x3d70b635	0.058767516
24	0x3d9aa603	0.075511955
25	0xbd9fdc86	-0.078057334
26	0xbcfd7673	-0.03094027
27	0x3cd32147	0.025772704
28	0x3d9e1fd6	0.07720916
29	0xbd66c90d	-0.05634408
30	0x3c2a8d82	0.010409715
31	0xbd9065ad	-0.07050643
32	0x3ca90f32	0.020637129
33	0x3d822248	0.06354195
34	0x3d6dac70	0.058025777
35	0x3d7dbba7	0.061946537
36	0x3d50b6e0	0.050955653
37	0xbdc31fb1	-0.09527529
38	0x3d80b06a	0.06283648
39	0x3dd1e3af	0.10248505
40	0xbdbc55c1	-0.09196044
41	0x3dabeb3f	0.08394479
42	0x3e08d2f8	0.13361728
43	0x3daa021b	0.08301183
44	0xbdbc35e5	-0.09189967
45	0xbd43a1de	-0.04776179
46	0x3bff8dd6	0.0077988906
47	0xbc919298	-0.017770097
48	0x3d8c439f	0.06848835
49	0xbcf62939	-0.030048953
50	0x3d277459	0.040882442
51	0x3d6c667a	0.057714917
52	0xbd9dcece	-0.077054605
53	0x3dc98658	0.09840077
54	0x3dc211fd	0.09476087
55	0x3c04b435	0.008099605
56	0x3db0808b	0.086182676
57	0x3d6de58b	0.058080237
58	0xbd0e9266	-0.034807585
59	0x3dc2c0a6	0.09509401
60	0x3d1c988c	0.038231418
61	0x3c8f34cf	0.017481236
62	0x3d83b5c0	0.064311504
63	0xbb48c593	-0.0030635342
64	0xbd43adcc	-0.047773167
65	0x3cd30b9f	0.025762377
66	0x3d066654	0.03281243
67	0x38112e43	3.461378e-05
68	0x3c9cb3e2	0.019128744
69	0x3b71673f	0.003683522
70	0xbcdde2ff	-0.02708578
71	0xbdd01a2a	-0.101612404
72	0x3bcf2bc1	0.0063223545
73	0x3dbe57b3	0.09294071
74	0xbc4ec8cf	-0.012621119
75	0xbd17d4ea	-0.037068285
76	0x3d9444e4	0.07239702
77	0xbcfd076c	-0.030887328
78	0xb8df3e08	-0.00010645023
79	0xbd9fbe7f	-0.07800006
80	0xbca17226	-0.01970775
81	0x3cb7d06b	0.022438249
82	0x3dc4f640	0.09617281
83	0x3cc554bc	0.024088256
84	0xbd48437c	-0.048892483
85	0xbd3e6a1c	-0.046487913
86	0xbdba93a6	-0.09110193
87	0x3a8eb88f	0.0010888743
88	0x3d8d143b	0.06888624
89	0x3d97c4e4	0.07410601
90	0xbda05afa	-0.078298524
91	0xbd725073	-0.059158754
92	0x3c2ba266	0.0104757305
93	0x3d703c0d	0.05865102
94	0x3db92861	0.09040905
95	0x3d6584df	0.05603492
96	0xbd2fda5b	-0.04293285
97	0x3dbae2cd	0.0912529
98	0x38948f8a	7.083926e-05
99	0x3ce83c6c	0.028349124

ode_func.net.4.weight f4 [3, 100]
0	0x3cffa2e9	0.031205611
1	0xbd4cc171	-0.049989168
2	0xbd1972de	-0.03746306
3	0x3d69afe1	0.057052497
4	0xbd842e82	-0.06454183
5	0xbb9cd236	-0.0047858013
6	0xbdd93e17	-0.10607546
7	0xbcae620a	-0.021286983
8	0xbda0c053	-0.07849183
9	0x3c93c184	0.018036611
10	0x3ccc9864	0.02497501
11	0xbdcb561c	-0.099285334
12	0x3b807727	0.003920454
13	0xbbf7a32d	-0.007557294
14	0x3c098360	0.008393139
15	0xbcbca482	-0.023027662
16	0xbbd37aa9	-0.006453831
17	0x3d9e9738	0.077436864
18	0xbbd48f8b	-0.006486838
19	0x3d84fb5e	0.06493257
20	0x3dad2da7	0.08455973
21	0xbdb2e280	-0.08734608
22	0x3d77183c	0.060325846
23	0x3d9cf765	0.07664374
24	0xbc4dae79	-0.012553805
25	0x3d6e3458	0.058155388
26	0xbbc81fd8	-0.0061073117
27	0xbd740e47	-0.05958393
28	0xbe0fc196	-0.14038691
29	0x3d8af815	0.06785599
30	0xbdaed223	-0.08536174
31	0xbd9277c2	-0.07151748
32	0x3d8a3bc2	0.06749679
33	0x3d2f05de	0.042730205
34	0xbd9fabea	-0.07796462
35	0xbdc2a376	-0.09503834
36	0x3c88df90	0.016708165
37	0x3bb9c876	0.0056696488
38	0x3d85ddf6	0.06536476
39	0xbce34fcb	-0.02774801
40	0x3c907051	0.017631682
41	0xbc9d5f8c	-0.0192106
42	0x3c12e3f4	0.008965481
43	0x3cdff027	0.027336193
44	0xbdbe21dc	-0.09283802
45	0x3db96176	0.09051792
46	0xbd872276	-0.0659837
47	0x3d35b10f	0.04435831
48	0xbd25d144	-0.040482774
49	0xbcd6a383	-0.026201015
50	0x3ce157ff	0.02750778
51	0x3dcbe0be	0.099549755
52	0x3d1d81bc	0.038453802
53	0x3d26d4e8	0.040730387
54	0xbdbdfe50	-0.09277022
55	0x3d7b4b05	0.06135084
56	0x3da45728	0.08024436
57	0x3cbbdbf4	0.02293203
58	0xbd821f06	-0.063535735
59	0xbda21f50	-0.07916129
60	0x3c20259e	0.009774594
61	0xbd28d765	-0.04122104
62	0x3d2e91c1	0.04261947
63	0x3bce1e86	0.00629026
64	0x3d40dc99	0.04708538
65	0xbc97eb63	-0.018544858
66	0xbbef307c	-0.007299481
67	0xbd04fb97	-0.032466497
68	0xbd0f696e	-0.035012655
69	0xbda96bc3	-0.08272507
70	0x3b39fb7c	0.0028378656
71	0xbd464cae	-0.04841297
72	0x3bfa7f41	0.0076445644
73	0x3d2a7f11	0.041625086
74	0x3d332287	0.0437341
75	0xb9aefccd	-0.00033376217
76	0x3d83f31f	0.06442856
77	0xbd2b60c3	-0.041840326
78	0xbd599d92	-0.053128786
79	0x3daa27f0	0.08308399
80	0xbd6bcb32	-0.05756683
81	0x3a84152f	0.0010077114
82	0xbbe7229e	-0.0070536872
83	0xbd15cef9	-0.036574338
84	0xbdba02f4	-0.090825945
85	0xbd83ed0c	-0.064416975
86	0x3cec3674	0.028834559
87	0x3d7d769e	0.0618807
88	0x3d1b7691	0.03795487
89	0xbcac5751	-0.02103773
90	0xbd6c162f	-0.057638343
91	0x3d0d975b	0.034568172
92	0xbd57ffcf	-0.052734192
93	0xbdc8624c	-0.09784374
94	0x3cf4b012	0.029869113
95	0xbd8611d8	-0.06546372
96	0xbc8310a4	-0.015999146
97	0x3d75e060	0.060028434
98	0xbca2c5a6	-0.019869637
99	0x3d582b3a	0.0527756
100	0xbd4c5df5	-0.049894292
101	0x3ba5516d	0.005045107
102	0x3d7384d2	0.05945284
103	0xbda58e56	-0.08083789
104	0xbd3380a5	-0.043823857
105	0xbdca6678	-0.098828256
106	0x3ccfd1ea	0.02536865
107	0x3da6909c	0.08133051
108	0x3c864f92	0.016395364
109	0xbd853d8d	-0.065058805
110	0x3d175c2f	0.036953148
111	0xbd118673	-0.03552861
112	0x3d4c7004	0.049911514
113	0xbd5ffec7	-0.054686334
114	0xbda6f6de	-0.08152555
115	0x3d6a1dc3	0.05715729
116	0xbdd9ad78	-0.1062879
117	0x3d853c34	0.065056235
118	0x3db9abc1	0.090659626
119	0xbd1a989f	-0.037743207
120	0xbd82d85b	-0.06388923
121	0x3d7c7a67	0.06164017
122	0xbb90ead9	-0.0044225273
123	0xbc44c77f	-0.012010454
124	0x3c9017b8	0.017589435
125	0x3dace304	0.08441737
126	0x3d778dc5	0.060437936
127	0x3d67c0a4	0.0565802
128	0xbd70556f	-0.058675226
129	0x3da9ebde	0.08296941
130	0x3c5d470d	0.013505709
131	0xbd5aff1d	-0.05346595
132	0x3c8eec49	0.017446654
133	0xbd4a7adb	-0.04943357
134	0x3db3a08c	0.08770856
135	0x3d9943ed	0.07483659
136	0x3c87dcc2	0.016584758
137	0xbdc3b991	-0.09556878
138	0xbdad59db	-0.08464404
139	0x3b95f68e	0.0045765107
140	0x3db47967	0.08812218
141	0x3cbe377b	0.023219815
142	0xbd6bf227	-0.05760398
143	0x3d3e4383	0.046451103
144	0xbda97d98	-0.08275908
145	0x3dafc784	0.085829765
146	0x3d9f8c87	0.07790475
147	0xbbfdc34a	-0.0077442275
148	0x3cf80c2c	0.030279242
149	0x3db64669	0.089001484
150	0xbd56a170	-0.052400053
151	0xbd40835c	-0.047000274
152	0x3dc3e1d1	0.095645554
153	0x3db45cb0	0.08806741
154	0x3da0b073	0.07846155
155	0x3cfd6c6a	0.030935485
156	0x3c423fd7	0.011856041
157	0x3d9c7f00	0.07641411
158	0x3d8aa0b9	0.06768937
159	0x3d5369c7	0.05161455
160	0x3c438242	0.011932911
161	0xbd0b1757	-0.033957805
162	0x3d17608e	0.036957316
163	0x3d416850	0.04721862
164	0xbc49efd4	-0.012325246
165	0x3cec369d	0.028834635
166	0x3da31e61	0.07964779
167	0xbdc56cfe	-0.09639929
168	0x3da5a837	0.08088725
169	0xbde4b34f	-0.11167013
170	0xbda0008e	-0.07812606
171	0x3cd2e45a	0.025743652
172	0x3cfb5adf	0.03068298
173	0xbc0d0dca	-0.008609245
174	0x3d96c05e	0.0736091
175	0xbc2a7dc0	-0.010405958
176	0xbd9f1942	-0.077684894
177	0x3d9517fa	0.07279964
178	0xbda42976	-0.080157205
179	0x3d917152	0.07101692
180	0x3bc97fff	0.0061492915
181	0x3c30b25d	0.010784713
182	0xbcea6952	-0.028614674
183	0xbd384702	-0.044989593
184	0x3daa2af0	0.08308971
185	0xbca1825b	-0.019715479
186	0x3d23f9a2	0.04003299
187	0x3cd037ab	0.02541717
188	0x3c59c6fb	0.01329207
189	0x3c65790e	0.0140059125
190	0xbd9c7d6f	-0.07641112
191	0x3d8c15d1	0.06840099
192	0x3d09de44	0.033659235
193	0xbdbd941f	-0.092567675
194	0xbd8f4654	-0.06995836
195	0x3db4f0e5	0.088350095
196	0x3c63be8c	0.01390041
197	0x3adef4c8	0.0017010206
198	0xbd942c4b	-0.07235011
199	0x3d19b1af	0.037522968
200	0x3e610a96	0.21976694
201	0x3d27c3f7	0.04095837
202	0x3cb9c5dd	0.022677356
203	0x3e3f4c47	0.18681441
204	0x3ce97696	0.028498929
205	0x3d8976ab	0.06712087
206	0xbd314bc9	-0.043285165
207	0xbcfa7503	-0.030573374
208	0xbd879f75	-0.06622211
209	0xbe0585f5	-0.13039382
210	0xbe890588	-0.26762033
211	0x3e9c3c1c	0.3051461
212	0x3d56b6e4	0.05242051
213	0x3d6ac606	0.057317756
214	0xbe960990	-0.2930417
215	0xbd320366	-0.043460272
216	0x3e89e2ce	0.2693085
217	0x3d11b145	0.035569448
218	0xbbfaaaf9	-0.007649776
219	0xbd3d02be	-0.046145193
220	0x3d906fa2	0.07052542
221	0x3bf58f67	0.0074939015
222	0x3d350632	0.04419536
223	0xbd6f2638	-0.058386058
224	0x3de8aeac	0.11361441
225	0xbd875832	-0.06608619
226	0x3caafa5f	0.02087134
227	0xbd0303d9	-0.03198609
228	0x3e3c4210	0.18384576
229	0xbdb72794	-0.08943096
230	0x3d8e49c1	0.06947661
231	0x3d395e8d	0.045256186
232	0x3da98bb8	0.08278602
233	0x3dbed122	0.09317233
234	0xbd60aebb	-0.054854136
235	0x3d688c96	0.0567747
236	0xbd3f17fe	-0.04665374
237	0xbe26aeed	-0.16277666
238	0x3d1fa81a	0.038978674
239	0xbca8b9bc	-0.020596378
240	0x3d4677f7	0.04845425
241	0xbde40dba	-0.11135431
242	0xbe9db7c8	-0.30804276
243	0xbdb26d08	-0.08712202
244	0x3dd2a02b	0.10284456
245	0x3e1f53af	0.15559267
246	0xbd96e0ac	-0.073670715
247	0x3dc6a5b5	0.09699575
248	0xbddc9e4f	-0.107723825
249	0x3d4abc52	0.049496002
250	0x3d8c185c	0.06840584
251	0xbdcb965b	-0.099407874
252	0x3d09b4fa	0.03361986
253	0xbd142dd6	-0.036176525
254	0x3dbce76d	0.092238285
255	0x3cd76c96	0.026296895

ode_func.net.4.bias f4 [3]
0	0x3cef26a6	0.029193234
1	0x3cba4e90	0.02274254
2	0xbd6a7808	-0.057243377
