checkpoint/ode/pushing_3_steps_ode_dynamics_model.pt (torch, 47574 bytes, 6 tensors)

ode_func.net.0.weight f4 [100, 6]
-0.36613977 -0.27696833 0.37163225 0.3567428 -0.36369517 0.17043334 0.2887127 -0.16561362
0.3731854 0.33129314 -0.25616986 -0.17319965 0.4026612 0.12066712 -0.22793493 -0.39960003
0.40577838 -0.01587369 0.1993842 0.061667353 -0.012066889 -0.0005946531 0.3362131 0.022165183
0.30896166 0.23773272 -0.33219543 -0.020876743 0.31774074 0.3661236 0.37640703 -0.18748273
-0.12706056 -0.33194032 -0.015260531 -0.31659934 -0.20294054 -0.16252205 0.15565543 -0.028784717
-0.0539971 -0.10450054 -0.3463115 -0.25107834 0.3284424 0.07233389 -0.10650642 -0.0980069
-0.3792943 0.22709385 -0.30190846 0.008748379 0.120510615 -0.11123804 0.051444102 -0.004997859
-0.15491892 -0.20877536 -0.37179878 -0.26472455 0.113005266 0.17067188 0.285654 0.2199104
0.2928076 0.40163147 -0.23217045 -0.03888511 -0.3086252 -0.37808812 0.0984353 0.0967594
-0.2916891 -0.33525097 0.09082092 0.06370951 -0.22806387 0.32588556 -0.015424606 0.28603292
-0.30532762 0.39385748 -0.16111808 -0.4191513 -0.3636466 -0.10299503 0.3215415 -0.30489066
-0.044712402 -0.3313904 -0.1203569 0.43529305 0.22982407 -0.19192037 -0.10283402 0.29706135
0.1191866 0.44430125 -0.004827197 -0.17354439 -0.08031362 -0.008673085 -0.16190872 -0.060090102
0.1490174 0.30372933 0.038782656 -0.17212303 -0.31758583 -0.06620088 0.14126499 0.27979103
0.24477611 0.33560002 0.25709423 -0.16372861 -0.15758875 -0.37207323 0.36293474 0.16957769
-0.074155584 -0.2511552 0.06757717 0.16918385 0.33278704 0.17980376 0.38493317 0.42255846
-0.22202832 -0.25294462 -0.33078846 -0.09742033 -0.099092364 0.14183421 -0.29486126 0.34480172
0.16481598 0.16765505 0.16277537 0.11062121 -0.2758952 -0.015864521 0.12966473 -0.037597284
0.20325457 0.32104412 0.049552925 0.095240965 -0.34589463 -0.21103421 0.2313762 -0.28272146
-0.35515875 -0.1994144 0.37333956 -0.11384858 0.37005773 0.047049887 0.20070541 -0.04304839
0.18851744 0.19870096 0.19339928 -0.32951733 -0.29596835 -0.3867454 0.35664082 -0.21069503
-0.22509412 0.31532663 -0.013283789 -0.14956747 -0.2258674 0.36781353 0.03507268 0.06966885
-0.19579269 -0.1405697 0.25160363 0.34716722 -0.37032992 0.27165934 0.076873615 -0.41013432
-0.34658617 0.33443034 0.08713487 0.15348741 0.27173743 -0.06064058 0.109708965 -0.21266451
0.29625106 -0.30478162 0.33361095 -0.399208 -0.25986668 0.12970309 -0.16741003 0.21000716
0.08644235 -0.2536652 0.20644094 0.33256882 -0.33199784 -0.04539498 0.42028075 -0.09337101
-0.039864704 -0.25091547 -0.36089948 -0.078851454 0.010606078 0.07801855 -0.38318217 0.055273026
-0.28177434 -0.20629212 0.018240971 -0.35901332 -0.003258693 -0.1495738 -0.11304911 0.23126307
0.15543227 0.32973802 0.3161488 0.11283572 0.2614314 -0.0013723543 0.1952577 0.21928582
0.18580015 -0.35863543 -0.13999106 -0.19462624 -0.114520006 -0.11492304 0.30233508 -0.29753408
-0.25552532 0.13445665 0.25609025 -0.19829047 -0.5013886 -0.21908857 -0.22124471 -0.30720428
0.03500292 -0.18995458 0.12392029 0.3260734 -0.048813142 -0.08792894 -0.13521612 -0.25270978
00000000: ac76 bbbe cbce 8dbe 9546 be3e fea6 b63e
00000010: 4136 babe 1486 2e3e 27d2 933e 9e96 29be
00000020: 2812 bf3e 419f a93e b228 83be 405b 31be
00000030: 9c29 ce3e 5320 f73d c667 69be 6098 ccbe
00000040: 2fc2 cf3e 8a09 82bc 5f2b 4c3e e896 7c3d
00000050: 33b4 45bc 7ee2 1bba 2024 ac3e c293 b53c
00000060: 3930 9e3e 3570 733e 8515 aabe b405 abbc
00000070: eaae a23e 8d74 bb3e 6cb8 c03e 79fb 3fbe
00000080: 2a1c 02be 15f4 a9be 4e07 7abc 4f19 a2be
00000090: a5cf 4fbe 2e6c 26be 2364 1f3e edcd ebbc
000000a0: 102c 5dbd 6104 d6bd be4f b1be 578d 80be
000000b0: 9a29 a83e ca23 943d 0a20 dabd d7b7 c8bd
000000c0: dd32 c2be 4a8b 683e bf93 9abe 5c55 0f3c
000000d0: 45ce f63d c5d0 e3bd 0db7 523d 14c5 a3bb
000000e0: 11a3 1ebe 35c9 55be 695c bebe fa89 87be
000000f0: 4e6f e73d 9cc4 2e3e 3e41 923e 3130 613e
00000100: e1ea 953e a4a2 cd3e 17be 6dbe fe45 1fbd
00000110: 1f04 9ebe c494 c1be 7298 c93d cb29 c63d
00000120: 4658 95be 04a6 abbe 5200 ba3d 227a 823d
00000130: 9389 69be 79da a63e 7db7 7cbc e872 923e
00000140: e753 9cbe b0a7 c93e 23fc 24be 009b d6be
00000150: e32f babe 0fef d2bd 16a1 a43e a11a 9cbe
00000160: 5a24 37bd 01ac a9be ae7d f6bd bbde de3e
00000170: 0057 6b3e c686 44be a59a d2bd 6d18 983e
00000180: 1b18 f43d 747b e33e 772d 9ebb 9fb5 31be
00000190: 787b a4bd 8e19 0ebc 66cb 25be 0a21 76bd
000001a0: 0498 183e 6982 9b3e 90da 1e3d 0541 30be
000001b0: 9c9a a2be 5494 87bd c5a7 103e c540 8f3e
000001c0: 97a6 7a3e c4d3 ab3e dba1 833e 79a8 27be
000001d0: f25e 21be 6280 bebe 95d2 b93e c6a5 2d3e
000001e0: e2de 97bd 6a97 80be e665 8a3d 883e 2d3e
000001f0: 1063 aa3e 7a1e 383e f615 c53e 9559 d83e
00000200: 645b 63be f581 81be 1b5d a9be 4f84 c7bd
00000210: f0f0 cabd fd3c 113e 0ef8 96be da89 b03e
00000220: 85c5 283e c4ad 2b3e 96ae 263e 5f8d e23d
00000230: 2342 8dbe 50f6 81bc d5c6 043e 9cff 19bd
00000240: f721 503e e55f a43e 02f8 4a3d b20d c33d
00000250: 1a19 b1be 5a19 58be e2ed 6c3e dec0 90be
00000260: 5ed7 b5be 4a33 4cbe 5d26 bf3e 7229 e9bd
00000270: 3578 bd3e 62b7 403d b885 4d3e 8253 30bd
00000280: b70a 413e 4478 4b3e 760a 463e 7fb6 a8be
00000290: 2a89 97be 7e03 c6be a099 b63e 70c0 57be
000002a0: 137f 66be 7e72 a13e 40a4 59bc 3728 19be
000002b0: c949 67be 0e52 bc3e 5fa8 0f3d 8bae 8e3d
000002c0: e17d 48be 81f1 0fbe 31d2 803e e7bf b13e
000002d0: e29b bdbe ef16 8b3e ea6f 9d3d 20fd d1be
000002e0: be73 b1be 743a ab3e c473 b23d ce2b 1d3e
000002f0: 2b21 8b3e 4262 78bd 18af e03d bac4 59be
00000300: 38ae 973e 560c 9cbe 0ecf aa3e fe64 ccbe
00000310: 3f0d 85be e3d0 043e 896d 2bbe 1e0c 573e
00000320: b008 b13d 68e0 81be 4165 533e 7646 aa3e
00000330: 9ffb a9be 16f0 39bd 0a2f d73e 4d39 bfbd
00000340: 2c49 23bd fe77 80be d1c7 b8be df7c a1bd
00000350: 1ec5 2d3c 31c8 9f3d 7430 c4be f865 623d
00000360: ba44 90be 3e3e 53be 176e 953c 98d0 b7be
00000370: cc8f 55bb e029 19be 4b86 e7bd 3ad0 6c3e
00000380: a329 1f3e 6cd3 a83e 41de a13e 6a16 e73d
00000390: 56da 853e 92e0 b3ba a2f1 473e 768c 603e
000003a0: 6542 3e3e 109f b7be d159 0fbe 1a4c 47be
000003b0: 7789 eabd c55c ebbd aacb 9a3e 6356 98be
000003c0: 37d4 82be 01af 093e 431e 833e a80c 4bbe
000003d0: 015b 00bf c158 60be f98d 62be e149 9dbe
000003e0: 395f 0f3d 7483 42be ecc9 fd3d 18f3 a63e
000003f0: 4af0 47bd 1714 b4bd 1876 0abe 2d63 81be

ode_func.net.0.bias f4 [100]
0.12723082 0.18846318 -0.38668966 0.35199147 -0.12878984 -0.22344564 0.09635569 0.00089767645
-0.25077116 -0.22508834 -0.063609846 0.34664747 0.3093426 -0.045481093 0.16751538 -0.053530477
-0.19994737 0.19210972 -0.41032398 -0.09183468 -0.33622316 -0.2789729 0.12912802 0.24544929
-0.0026542023 -0.34036496 0.15489408 0.10156425 -0.13683423 0.25356814 0.0922353 -0.037963398
-0.13385731 -0.26107675 0.14940976 0.11133281 -0.25800022 0.1681689 0.24994989 -0.22095138
-0.16049989 -0.15263237 0.15219621 0.15141164 -0.1194847 -0.19084778 -0.090019464 0.3688096
0.35085538 0.34458312 0.055138122 0.08590028 0.16881587 -0.31702206 -0.0062029674 0.030100051
0.2640118 -0.27163893 -0.11599513 -0.070917666 0.2125532 -0.34491765 -0.23985907 0.38654488
0.3839859 -0.18921754 -0.32585585 -0.04257485 -0.18232654 -0.17701434 -0.38878205 -0.34124425
0.23094591 -0.016267503 0.14440617 0.31937835 -0.02529933 0.045045085 0.4047055 -0.074906774
0.12642615 0.07498117 -0.32550222 -0.010475774 -0.2390227 -0.20722806 0.0618021 0.092998505
-0.27393 -0.12978438 0.19184858 0.2503947 -0.20578904 -0.02398078 0.40652952 -0.42387
-0.3144008 -0.17132339 0.39070567 0.3989193
00000000: cc48 023e 7efc 403e 30fc c5be 3a38 b43e
00000010: 7ce1 03be efce 64be 2256 c53d 0c52 6b3a
00000020: 1465 80be 8f7d 66be e145 82bd c77b b13e
00000030: 2762 9e3e 624a 3abd 2789 2b3e c642 5bbd
00000040: 01bf 4cbe 69b8 443e fc15 d2be d213 bcbd
00000050: 7125 acbe 89d5 8ebe 233a 043e 0f57 7b3e
00000060: 20f2 2dbb 5144 aebe 8e9c 1e3e eb00 d03d
00000070: 461e 0cbe afd3 813e dce5 bc3d 827f 1bbd
00000080: e411 09be daab 85be dffe 183e 7502 e43d
00000090: 9b18 84be 7834 2c3e ddf2 7f3e 1441 62be
000000a0: 155a 24be a94b 1cbe 53d9 1b3e a70b 1b3e
000000b0: 65b4 f4bd 9a6d 43be 205c b8bd 9dd4 bc3e
000000c0: 51a3 b33e 336d b03e 83d8 613d 7cec af3d
000000d0: 11de 2c3e b750 a2be 4342 cbbb 6294 f63c
000000e0: 8e2c 873e 4214 8bbe db8e edbd 483d 91bd
000000f0: 8ca7 593e 0c99 b0be 9e9d 75be 36e9 c53e
00000100: cd99 c43e 3ec2 41be 94d6 a6be f762 2ebd
00000110: cfb3 3abe 3f43 35be 710e c7be 91b7 aebe
00000120: 167d 6c3e 6d43 85bc 36df 133e 8f85 a33e
00000130: 8a40 cfbc 3281 383d 8f35 cf3e b968 99bd
00000140: db75 013e ba8f 993d 3aa8 a6be 95a2 2bbc
00000150: 5ec2 74be 9833 54be 3324 7d3d 0076 be3d
00000160: 8e40 8cbe 32e6 04be f473 443e bc33 803e
00000170: 5dba 52be 5773 c4bc a324 d03e 7d05 d9be
00000180: 24f9 a0be 666f 2fbe 930a c83e 273f cc3e

ode_func.net.2.weight f4 [100, 100]
-0.031125948 -0.012056967 0.090040945 -0.06011138 -0.00359327 0.07433596 -0.039709013 0.032193538
0.019610072 -0.030669952 0.04583486 0.029962838 0.035033483 -0.058022913 0.013786205 0.004249003
-0.08027456 -0.00038530686 0.0070270877 -0.09859951 -0.11981618 -0.07853443 -0.056361746 -0.06654813
-0.022285203 -0.051444173 0.052904975 0.013412969 -0.0066008815 0.007796012 -0.033064917 -0.097317584
0.007924348 -0.020342093 0.033999685 -0.07847108 0.0011850834 -0.0326968 -0.09680792 0.008612536
0.0049654325 0.013883306 -0.083975114 0.045392334 -0.13012339 -0.08799636 -0.14531443 0.057946976
0.012129621 0.013473998 0.09292015 -0.00832971 0.0047228374 -0.0091135055 -0.061511435 0.06311633
-0.036194853 -0.078877226 -0.037358437 -0.016879683 0.0071015377 -0.06378568 -0.048414286 0.09208652
-0.07446872 0.050772637 -0.11631263 -0.08547596 -0.105826356 -0.2504276 -0.045922734 -0.008147734
-0.0022677255 0.004238392 0.015364134 0.04484591 -0.0316633 -0.10134957 -0.013337946 -0.019069416
-0.092604 0.066027634 -0.060626686 0.044327136 0.19628578 -0.10892092 0.09481475 -0.04604336
0.10369357 -0.047004487 -0.036631554 0.065949894 -0.14452048 -0.07722152 -0.0975322 -0.0058275047
0.054603793 -0.04191148 0.038304042 0.06393052 -0.020779584 0.087015435 -0.09723422 -0.016367596
0.042884473 0.03310249 -0.044016466 -0.16564332 -0.05008589 -0.010916895 0.09935131 0.019671733
-0.019420182 -0.13478857 -0.20543408 -0.0022267406 -0.01236324 -0.05500169 -0.15806049 -0.011012571
-0.14910997 0.16176184 -0.0037394164 -0.018206563 0.048281487 -0.039502878 -0.037366558 -0.03641346
-0.04977307 0.07239966 -0.0007818882 -0.0695052 -0.105039485 0.030103039 -0.1496232 -0.00799847
-0.0009415269 -0.035920836 -0.09619886 -0.14247464 -0.08156402 -0.0058384105 0.10122279 -0.03737822
-0.045021378 0.040704492 0.031737976 0.091857746 0.08621787 -0.03218992 0.004402569 0.039089747
-0.17219283 0.011002312 -0.077949435 0.030895768 -0.010204644 -0.021058245 -0.010599791 0.0024317103
0.08243174 -0.2766776 -0.16503903 0.05610095 -0.11498943 -0.09551441 0.02768556 -0.16309758
-0.056561377 -0.19844975 -0.076602064 0.03236442 0.1288109 -0.05068584 -0.036183055 -0.11407411
-0.1929819 -0.066598274 -0.03245905 0.10740535 0.12855671 -0.15546635 0.04909621 -0.07394127
-0.18721612 0.028775824 0.0076948847 0.067616835 -0.101550244 0.039928038 -0.016754495 0.0628619
0.009853167 -0.004542729 0.033432655 -0.079534836 -0.016255435 0.0032399122 -0.111384384 0.071139306
0.06441272 0.057208147 0.0077330526 -0.018298773 0.014677207 -0.041405037 -0.0984824 0.021910341
0.019447302 0.012771102 -0.05056921 -0.0016245219 -0.027606014 -0.04176921 -0.03440147 0.08918567
0.017822973 0.09544466 -0.099699646 0.020574542 -0.1436495 0.027258342 -0.03740723 -0.048681416
0.07392477 0.04523126 0.005089306 0.041452017 0.05752112 0.05790898 -0.03774317 -0.018579068
-0.0034865427 -0.01656425 -0.08502801 0.0782694 -0.032451358 0.0010336167 -0.081466764 -0.044805326
0.044478446 -0.0869177 -0.087862946 -0.09185441 0.07099937 -0.0077057793 -0.13617566 0.099465534
-0.049993712 -0.09316341 0.04564552 -0.03230345 0.03683432 0.021180714 -0.005092836 -0.09258884
00000000: d8fb febc 968a 45bc 6367 b83d 5a37 76bd
00000010: 117d 6bbb 743d 983d eba5 22bd 5fdd 033d
00000020: 4da5 a03c 8d3f fbbc 56bd 3b3d a074 f53c
00000030: 457f 0f3d 6fa9 6dbd 89df 613c 383b 8b3b
00000040: fd66 a4bd 0303 cab9 7c43 e63b 8aee c9bd
00000050: 2f62 f5bd a9d6 a0bd 93db 66bd 634a 88bd
00000060: 758f b6bc 20b7 52bd e3b2 583d 12c2 5b3c
00000070: 354c d8bb b075 ff3b 146f 07bd 714e c7bd
00000080: 20d5 013c 76a4 a6bc 4143 0b3d 72b5 a0bd
00000090: cd54 9b3a 14ed 05bd 3b43 c6bd 981b 0d3c
000000a0: 11b5 a23b ce76 633c 25fb abbd 50ed 393d
000000b0: 113f 05be 7037 b4bd 4ecd 14be cf59 6d3d
000000c0: 51bb 463c 0bc2 5c3c eb4c be3d 5679 08bc
000000d0: 08c2 9a3b d050 15bc 6af3 7bbd 2243 813d
000000e0: 0e41 14bd 628a a1bd 2905 19bd 4347 8abc
000000f0: 04b4 e83b 11a2 82bd 0f4e 46bd db97 bc3d
00000100: 0e83 98bd f8f6 4f3d 5135 eebd 050e afbd
00000110: 7dbb d8bd 0c38 80be 7a19 3cbd 137e 05bc
00000120: 1f9e 14bb 36e2 8a3b d9b9 7b3c 58b0 373d
00000130: 60b1 01bd 5d90 cfbd 6687 5abc 7737 9cbc
00000140: 2aa7 bdbd 7f39 873d b053 78bd 5f90 353d
00000150: 24ff 483e ee11 dfbd 3c2e c23d f697 3cbd
00000160: 4b5d d43d c787 40bd f80a 16bd bd10 873d
00000170: 2dfd 13be 5126 9ebd f6be c7bd a7f4 bebb
00000180: 3aa8 5f3d 5fab 2bbd b3e4 1c3d 01ee 823d
00000190: f239 aabc 2635 b23d bc22 c7bd 5615 86bc
000001a0: a1a7 2f3d 7a96 073d 9c4a 34bd 679e 29be
000001b0: dd26 4dbd c7dc 32bc b378 cb3d 9d26 a13c
000001c0: 1317 9fbc 0406 0abe 505d 52be 82ee 11bb
000001d0: 308f 4abc 7449 61bd 9cda 21be 126e 34bc
000001e0: 49b0 18be e5a4 253e ff10 75bb ee25 95bc
000001f0: cfc2 453d c5cd 21bd ad0d 19bd 4826 15bd
00000200: d9de 4bbd 4646 943d a1f7 4cba be58 8ebd
00000210: f11e d7bd a69a f63c d336 19be 040c 03bc
00000220: cdd0 76ba ba21 13bd e803 c5bd dfe4 11be
00000230: 090b a7bd 2350 bfbb e54d cf3d e819 19bd
00000240: 5668 38bd c1b9 263d aeff 013d ea1f bc3d
00000250: ff92 b03d 94d9 03bd 6d43 903b 921c 203d
00000260: 5153 30be 0b43 343c f4a3 9fbd 1f19 fd3c
00000270: 6131 27bc 5782 acbc bfaa 2dbc 545d 1f3b
00000280: f9d1 a83d b0a8 8dbe feff 28be 1cca 653d
00000290: 947f ebbd 0f9d c3bd d4cc e23c 0d03 27be
000002a0: e7ac 67bd 6936 4bbe 8be1 9cbd 8e90 043d
000002b0: 01e7 033e f59b 4fbd af34 14bd b09f e9bd
000002c0: 0c9d 45be ad64 88bd c8f3 04bd 56f7 db3d
000002d0: 5fa4 033e 9232 1fbe 1c19 493d 856e 97bd
000002e0: 95b5 3fbe 47bb eb3c 5f25 fc3b b27a 8a3d
000002f0: 93f9 cfbd 958b 233d b940 89bc bdbd 803d
00000300: 2e6f 213c 2cdb 94bb aef0 083d 29e3 a2bd
00000310: 1e2a 85bc b554 543b 7f1d e4bd 7cb1 913d
00000320: d1ea 833d 1753 6a3d 8c65 fd3b 4fe7 95bc
00000330: ab78 703c 5498 29bd 24b1 c9bd 517d b33c
00000340: f34f 9f3c e23d 513c a921 4fbd e9ed d4ba
00000350: 0226 e2bc 3116 2bbd 8ee8 0cbd faa6 b63d
00000360: 7c01 923c 7d78 c33d 542f ccbd f18b a83c
00000370: db18 13be e34c df3c 5338 19bd 2a66 47bd
00000380: df65 973d 6a44 393d 31c4 a63b 97c9 293d
00000390: 449b 6b3d f731 6d3d 9598 1abd 2133 98bc
000003a0: 7b7e 64bb c0b1 87bc 2a23 aebd b54b a03d
000003b0: b7eb 04bd 6c7a 873a 0cd8 a6bd ca85 37bd
000003c0: 082f 363d e801 b2bd 7df1 b3bd 2a1e bcbd
000003d0: 1e68 913d c380 fcbb a271 0bbe 96b4 cb3d
000003e0: 35c6 4cbd 75cc bebd ccf6 3a3d 9f50 04bd
000003f0: 95df 163d 2d83 ad3c cee1 a6bb 389f bdbd

ode_func.net.2.bias f4 [100]
0.05185804 -0.0012935442 0.01932999 0.08932636 0.034813736 0.083899885 -0.016308062 -0.06556198
0.057720996 0.050429106 -0.022154773 0.06799508 -0.014986667 0.02619924 0.041372374 0.09492211
-0.0030703626 -0.080134474 0.014921067 -0.03357876 0.009686913 0.025819218 -0.05543224 0.0645316
-0.05449262 0.02829537 0.05123707 -0.014664071 -0.06528237 0.0768424 0.07190999 0.07217985
-0.033934783 0.01910702 -0.028320067 -0.0632502 0.039882574 0.039637588 0.059990942 -0.06903052
-0.05603336 0.05635193 0.06865165 -0.09937675 -0.10174735 -0.03512553 0.018243656 -0.026752247
0.016724234 -0.039704613 0.0003409761 0.078572065 0.025613507 -0.04086753 0.060112488 -0.04555453
0.015923565 -0.0033143729 0.053499132 0.048294127 -0.07181234 -0.0027156537 0.066576794 0.084418885
0.06671266 0.07982737 0.058247246 0.089661926 0.018059053 -0.045300048 0.016863052 -0.04288837
0.0047018337 -0.047265295 0.052620888 -0.037581302 0.0785341 -0.09221495 0.024610432 0.024826158
0.019889083 0.008599758 0.04418861 0.08736584 0.082058184 -0.02652165 0.0361288 0.087714426
0.034736276 0.022624783 0.02491938 -0.037364483 -0.019498397 -0.029021837 -0.068932645 -0.08179138
-0.04442282 0.037305616 -0.010485698 -0.013521962
00000000: 1969 543d 248c a9ba ed59 9e3c bdf0 b63d
00000010: d998 0e3d b4d3 ab3d 7c98 85bc 5c45 86bd
00000020: da6c 6c3d c08e 4e3d ed7d b5bc 0141 8b3d
00000030: a38a 75bc ca9f d63c 1476 293d 8666 c23d
00000040: 2338 49bb 8b1d a4bd 7e77 743c e289 09bd
00000050: dcb5 1e3c d382 d33c eb0c 63bd 2529 843d
00000060: a733 5fbd b1cb e73c f6dd 513d 9241 70bc
00000070: c3b2 85bd 8c5f 9d3d 8b45 933d 07d3 933d
00000080: 33ff 0abd 5386 9c3c 7cff e7bc 5289 81bd
00000090: e95b 233d 065b 223d 10b9 753d e05f 8dbd
000000a0: 3d83 65bd 48d1 663d 3c99 8c3d 0a86 cbbd
000000b0: ea60 d0bd cadf 0fbd b873 953c 8727 dbbc
000000c0: 4301 893c 4ea1 22bd 0ac5 b239 64ea a03d
000000d0: 6bd3 d13c b664 27bd 8338 763d 6397 3abd
000000e0: 2372 823c f335 59bb e821 5b3d 10d0 453d
000000f0: 5912 93bd 1cf9 31bb 6a59 883d cfe3 ac3d
00000100: a6a0 883d 887c a33d aa94 6e3d aca0 b73d
00000110: 94f0 933c 8b8c 39bd 6224 8a3c b7ab 2fbd
00000120: d711 9a3b 4199 41bd 0089 573d daee 19bd
00000130: 7cd6 a03d 31db bcbd d19b c93c 3a60 cb3c
00000140: 6eee a23c 00e6 0c3c 1eff 343d ddec b23d
00000150: 1f0e a83d ee43 d9bc cbfb 133d 9fa3 b33d
00000160: a047 0e3d 9c57 b93c ba23 cc3c 800b 19bd
00000170: 1abb 9fbc 34bf edbc 8f2c 8dbd 3d82 a7bd
00000180: b4f4 35bd c6cd 183d 34cc 2bbc 388b 5dbc

ode_func.net.4.weight f4 [3, 100]
0.07740839 0.061616357 0.034880646 0.023826383 0.054461997 0.044287153 -0.022953141 0.08329577
0.032150265 -0.059110135 0.033901155 0.08668352 0.036699943 0.016066289 0.071169496 0.01356088
-0.074044 0.01084567 -0.03652871 -0.022462696 -0.029333644 0.054600142 -0.020958792 0.033823084
0.06120198 0.04082755 0.011196875 0.052556474 -0.07167485 -0.00011379754 0.0021443763 -0.06262991
-0.0074180295 -0.008330739 -0.017816871 -0.06667389 0.05133425 -0.09023969 0.02671008 0.06613169
-0.08780506 0.001244419 -0.04946961 0.07429219 0.033066433 -0.03231966 0.03772444 -0.07927243
-0.09271112 0.04991802 0.09225283 -0.05518896 0.030227648 -0.043903552 0.038631015 -0.09728704
0.070696734 -0.0020452857 -0.008691722 -0.027773263 -0.031134624 -0.017342448 0.04206942 -0.07702878
-0.094495066 -0.04792556 -0.0726324 0.049236655 -0.052369483 -0.049513802 0.046009623 0.054610074
-0.020298665 -0.034130126 -0.070492186 -0.097723365 0.028996218 0.09166675 0.064370446 -0.0007852
-0.013151969 0.06865166 -0.102012746 0.03761495 0.006755177 -0.05559496 0.052603684 -0.043687318
0.09224705 -0.008326775 -0.087038554 -0.0081839925 0.09185211 0.026461566 0.09008934 -0.010959868
-0.06473955 -0.08777092 -0.098810755 -0.00483455 0.017160103 0.026022153 -0.010108898 -0.036790997
0.07362713 -0.11639992 -0.04399869 0.055561855 -0.094723776 0.037361868 -0.09500903 0.068020955
0.062172078 -0.049205102 -0.09317837 0.013083769 0.047872514 -0.01896276 -0.058920287 -0.043936197
0.09453612 -0.06448879 -0.07459223 0.044710565 0.06544327 0.087371916 0.007159358 -0.07062517
-0.06736473 0.011665645 0.0836783 -0.05411028 -0.07962393 0.0002746415 -0.08510596 -0.06701736
-0.0077889306 0.08978833 0.08253622 0.0645087 0.035540096 -0.03299486 0.06700532 0.0373919
0.01691324 0.08404987 -0.0015253278 -0.05346186 -0.04904683 0.023928449 0.007612607 0.03550797
-0.021820763 -0.012413564 0.043281678 -0.056307867 -0.026705367 -0.07946759 0.0414451 -0.06410171
-0.022429468 -0.009630941 0.011897154 0.065334134 0.037453804 -0.047383666 -0.038006492 -0.054429345
0.044982508 0.028499484 0.021685306 0.06417908 -0.04777153 -0.00970914 -0.06806447 -0.01043042
0.082593605 0.032111075 -0.043361127 -0.050211947 0.041314323 -0.096191645 0.07761351 -0.014207735
0.032264914 0.095658526 -0.010844061 -0.08976801 0.068314925 0.021008722 -0.055241663 -0.04163635
0.05418917 -0.037200022 0.059934493 0.0054138955 0.015342491 0.077287614 -0.08630618 0.083317734
0.10654813 -0.18318993 0.057559732 0.33537158 -0.07529346 0.13465175 -0.07146272 -0.1716718
-0.06273475 -0.0046725334 -0.018315172 0.068827875 -0.25720793 -0.025527835 -0.018898679 -0.17003392
0.24324982 -0.16545102 -0.17906426 0.005379432 0.13931414 -0.011825853 0.07696325 0.07236554
0.00039134026 0.05181105 0.15921035 -0.08405953 0.08524431 -0.23455676 0.032294497 0.10274837
-0.07339638 0.27149212 0.00523985 -0.10149427 -0.16769913 -0.017244078 0.086376265 0.14835733
0.07560681 -0.042862058 0.02414617 -0.025224239 -0.013168354 -0.19064008 0.210019 -0.0737994
-0.06959809 0.101072095 -0.12011252 -0.29986128 0.17529066 0.08350684 0.09815516 -0.18469043
00000000: 4a88 9e3d 6f61 7c3d 02df 0e3d 8c2f c33c
00000010: 8b13 5f3d 7266 353d 3a08 bcbc f996 aa3d
00000020: ffaf 033d 781d 72bd f0db 0a3d 2187 b13d
00000030: ae52 163d 739d 833c 50c1 913d 742e 5e3c
00000040: 61a4 97bd 09b2 313c 219f 15bd b003 b8bc
00000050: 1c4d f0bc 66a4 5f3d c6b1 abbc 138a 0a3d
00000060: edae 7a3d ca3a 273d 1973 373c 7545 573d
00000070: 44ca 92bd 97a6 eeb8 aa88 0c3b 1c44 80bd
00000080: f112 f3bb a77d 08bc b0f4 91bc 528c 88bd
00000090: dd43 523d 96cf b8bd 19cf da3c 0d70 873d
000000a0: 24d3 b3bd c61b a33a a5a0 4abd 8126 983d
000000b0: ab70 073d 9f61 04bd f184 1a3d 9559 a2bd
000000c0: 54df bdbd d676 4c3d 0def bc3d d20d 62bd
000000d0: f99f f73c 36d4 33bd 8e3b 1e3d 6d3e c7bd
000000e0: 73c9 903d 330a 06bb b967 0ebc c184 e3bc
000000f0: 0a0e ffbc c011 8ebc fc50 2c3d 44c1 9dbd
00000100: a186 c1bd 984d 44bd 4cc0 94bd 60ac 493d
00000110: 6281 56bd fcce 4abd 9674 3c3d d0ae 5f3d
00000120: 6349 a6bc 08cc 0bbd 355e 90bd 3023 c8bd
00000130: 7a89 ed3c c7bb bb3d a7d4 833d e1d5 4dba
00000140: 5b7b 57bc 3e99 8c3d 0fec d0bd 2212 1a3d
00000150: 885a dd3b 8ab7 63bd f676 573d 79f1 32bd
00000160: 05ec bc3d 076d 08bc 4541 b2bd 2716 06bc
00000170: f61c bc3d edc5 d83c c380 b83d 0591 33bc
00000180: 2b96 84bd 3dc1 b3bd 4b5d cabd 256b 9ebb
00000190: 5893 8c3c 692c d53c cb9f 25bc 28b2 16bd
000001a0: d2c9 963d 1563 eebd f837 34bd d494 633d
000001b0: 8afe c1bd c208 193d 1894 c2bd 924e 8b3d
000001c0: 26a8 7e3d 4a8b 49bd 4dd4 bebd 4e5d 563c
000001d0: f815 443d ca57 9bbc 6656 71bd 71f6 33bd
000001e0: 279c c13d b312 84bd d0c3 98bd 6d22 373d
000001f0: 1f07 863d 0cf0 b23d 0c99 ea3b eea3 90bd
00000200: 85f6 89bd 4321 3f3c 875f ab3d bea2 5dbd
00000210: df11 a3bd c2fd 8f39 094c aebd 6640 89bd
00000220: 493a ffbb f2e2 b73d c008 a93d 231d 843d
00000230: 7e92 113d 9e25 07bd 163a 893d 4028 193d
00000240: a38d 8a3c 5722 ac3d 82ed c7ba d3fa 5abd
00000250: 54e5 48bd 9805 c43c 2d73 f93b ce70 113d
00000260: 75c1 b2bc 4362 4bbc 2148 313d 14a3 66bd
00000270: 37c5 dabc e7bf a2bd 56c2 293d c247 83bd
00000280: 01be b7bc 18cb 1dbc 48ec 423c e7cd 853d
00000290: 2969 193d 6015 42bd b2ac 1bbd 4ef1 5ebd
000002a0: 943f 383d c077 e93c 62a5 b13c 5270 833d
000002b0: 14ac 43bd 1613 1fbc 6365 8bbd 5ae4 2abc
000002c0: d626 a93d e786 033d 709b 31bd 0bab 4dbd
000002d0: 3539 293d 2000 c5bd d5f3 9e3d 8fc7 68bc
000002e0: 3728 043d 9ee8 c33d 4aab 31bc 4ad8 b7bd
000002f0: b2e8 8b3d 7c1a ac3c 1545 62bd e18a 2abd
00000300: 77f5 5d3d 0d5f 18bd df7d 753d 0c67 b13b
00000310: 125f 7b3c f848 9e3d 4bc1 b0bd 7da2 aa3d
00000320: e835 da3d 2496 3bbe c1c3 6b3d d3b5 ab3e
00000330: 7533 9abd 26e2 093e 0c5b 92bd bbca 2fbe
00000340: 147b 80bd 0d1c 99bb b309 96bc a1f5 8c3d
00000350: c2b0 83be c01f d1bc 67d1 9abc 5f1d 2ebe
00000360: 7b16 793e fe6b 29be 9f5c 37be f245 b03b
00000370: 5ea8 0e3e 39c1 41bc e99e 9d3d 6234 943d
00000380: cd2c cd39 d337 543d 0a08 233e 6727 acbd
00000390: 9294 ae3d a62f 70be 3c47 043d bd6d d23d
000003a0: d750 96bd 0401 8b3e 0cb3 ab3b 3adc cfbd
000003b0: 52b9 2bbe 7443 8dbc 0ae6 b03d fcea 173e
000003c0: bed7 9a3d 2090 2fbd 30ce c53c 10a3 cebc
000003d0: 14c0 57bc 2737 43be 390f 573e 2424 97bd
000003e0: 7289 8ebd e3fe ce3d 8efd f5bd 6b87 99be
000003f0: 657f 333e a205 ab3d 9305 c93d 7d1f 3dbe

ode_func.net.4.bias f4 [3]
0.07533703 0.0045291507 0.06013737
00000000: 4d4a 9a3d 4569 943b 9a52 763d
