checkpoint/ode/pushing_4_steps_ode_dynamics_model.pt (torch, 47574 bytes, 6 tensors)

ode_func.net.0.weight f4 [100, 6]
0.20398122 0.07479272 0.06531885 0.12533279 -0.11884925 0.09585746 -0.19876233 -0.11168548
-0.32051188 0.14872354 0.17156957 0.37805066 0.3512197 -0.34219828 -0.13524249 0.0010738584
-0.30755156 0.35230353 0.10162497 -0.034990396 -0.3584598 0.14352696 -0.26607078 -0.07247538
0.3690161 -0.24907957 0.37990162 -0.23695377 0.38203743 -0.057493575 -0.38336134 -0.25988373
0.022976538 0.28268573 0.2593646 0.31461847 0.23318417 -0.32839808 0.3735889 -0.36712947
0.20348448 0.061366506 -0.033633847 -0.29010418 -0.36760354 0.24302702 -0.20589964 -0.40324208
0.14637434 0.26342323 0.42393357 -0.26509938 -0.06250107 -0.17055793 0.38093483 -0.13367455
0.29090366 0.03913402 0.3711575 0.29869843 0.04429285 -0.09199894 0.01134185 0.12376747
0.26810908 -0.1496976 0.2845093 0.28693306 0.01536311 0.12437465 -0.12770393 0.07011285
0.40395945 0.061444465 0.30000922 -0.29441926 -0.0022314168 0.33470437 -0.22557707 0.074252985
-0.13308267 0.19359808 0.43038362 0.29869965 -0.122714385 0.017692484 -0.5518075 -0.21051109
-0.087009005 -0.011466892 0.14300543 -0.12354924 -0.26149663 -0.100909345 -0.18052058 0.29169148
0.13864906 0.23742719 0.027953891 0.08073371 0.4057786 0.23543008 -0.15969573 0.017645968
-0.09871814 -0.17990784 -0.39663094 -0.35159805 0.009373647 -0.057113 -0.101791315 0.38024557
-0.3126249 -0.24776764 0.007697495 -0.14833128 -0.3400659 0.30351955 -0.07239547 -0.26819378
0.18821816 -0.3489854 0.34397668 -0.44110897 -0.42105776 0.3803376 0.08385259 0.30894914
0.28123754 -0.21698354 -0.30478582 0.14254123 -0.29154372 0.050981876 0.4069389 -0.41364986
0.013252768 0.17923741 -0.2782623 0.12934595 -0.1699224 0.13575721 -0.1328289 -0.31481972
0.36294702 0.052091543 -0.3416506 -0.21154556 -0.3480703 -0.14532259 -0.108825035 0.0698847
-0.3857148 0.38555893 -0.37428337 -0.28380457 0.19447203 -0.14861907 -0.15009607 0.14626127
0.08942018 0.3639434 0.083136536 0.10991916 -0.22974333 -0.04818755 -0.40421075 -0.3239509
-0.32592517 -0.15718433 0.07510281 0.13231467 -0.35976544 -0.17241496 0.28847876 -0.2831902
0.16084078 -0.005904553 -0.310568 -0.30891374 0.05712796 0.33625713 -0.047128163 0.18093999
0.15352842 -0.3529716 -0.32746172 -0.054395445 0.3440169 0.08918575 0.41244215 -0.13833766
-0.0024959676 0.11431617 -0.052639324 -0.270608 -0.40699485 0.08569115 0.31384727 -0.03556263
0.0056044552 0.14950529 -0.22181489 0.14129181 -0.24716882 -0.13122149 0.35528675 0.3190794
0.24289839 -0.037045684 -0.029209485 -0.15170681 -0.0517531 -0.20441094 0.31175408 -0.12238165
-0.060312837 0.3409902 0.33711088 -0.2586502 0.33308324 -0.12538317 -0.08122122 -0.13585848
0.3744956 -0.112258136 -0.021145323 -0.24560939 0.14931332 -0.24148634 -0.19353527 -0.0526844
0.32951233 -0.20219138 0.03578643 0.016981082 -0.27680573 0.027514836 -0.019128373 0.18440036
0.30318362 0.23157236 -0.20788446 0.18327858 -0.16884512 -0.18708389 0.1805332 0.37211043
-0.04274189 -0.2055028 -0.2771731 0.026674217 0.22109123 0.37385073 -0.33898336 0.42879897
00000000: 74e0 503e ed2c 993d e4c5 853d 3d57 003e
00000010: 3c67 f3bd ea50 c43d 5a88 4bbe 5bbb e4bd
00000020: 221a a4be fc4a 183e efaf 2f3e db8f c13e
00000030: 12d3 b33e 9d34 afbe 027d 0abe b5c0 8c3a
00000040: 6677 9dbe 2161 b43e c120 d03d 1752 0fbd
00000050: 0b88 b7be bbf8 123e 6e3a 88be f96d 94bd
00000060: aeef bc3e b70e 7fbe 7782 c23e 02a4 72be
00000070: 699a c33e 627e 6bbd f047 c4be 7b0f 85be
00000080: 4b39 bc3c 2fbc 903e 70cb 843e ac15 a13e
00000090: d5c7 6e3e cb23 a8be 0b47 bf3e 65f8 bbbe
000000a0: 3c5e 503e 725b 7b3d a5c3 09bd 8988 94be
000000b0: 8836 bcbe 13dc 783e 5bd7 52be bf75 cebe
000000c0: 28e3 153e 69df 863e d20d d93e 1bbb 87be
000000d0: 9000 80bd bda6 2ebe e409 c33e fbe1 08be
000000e0: 53f1 943e ff4a 203d 5b08 be3e 00ef 983e
000000f0: 6b6c 353d f169 bcbd 2bd3 393c cd79 fd3d
00000100: 9845 893e 544a 19be 34ab 913e e4e8 923e
00000110: 8eb5 7b3c 23b8 fe3d d2c4 02be 5397 8f3d
00000120: c6d3 ce3e 31ad 7b3d cf9a 993e 1fbe 96be
00000130: f63c 12bb 5f5e ab3e adfd 66be f311 983d
00000140: d346 08be 933e 463e 3e5b dc3e 29ef 983e
00000150: ae51 fbbd d4ef 903c 4243 0dbf 3890 57be
00000160: c731 b2bd a2df 3bbc 0470 123e 6207 fdbd
00000170: e3e2 85be 8fa9 cebd 63da 38be 9658 953e
00000180: 05fa 0d3e 1d20 733e 8fff e43c b757 a53d
00000190: 36c2 cf3e 9514 713e 4787 23be 478e 903c
000001a0: bc2c cabd c339 38be 3613 cbbe a904 b4be
000001b0: ed93 193c 52ef 69bd f777 d0bd 8caf c23e
000001c0: 5f10 a0be cdb6 7dbe 453b fc3b 28e4 17be
000001d0: 1e1d aebe ea66 9b3e 1444 94bd b250 89be
000001e0: 43bc 403e 37ae b2be b61d b03e 09d9 e1be
000001f0: e294 d7be 9cbb c23e e8ba ab3d 952e 9e3e
00000200: 5efe 8f3e ef30 5ebe e30c 9cbe 54f6 113e
00000210: 3845 95be 5fd2 503d 4c5a d03e eac9 d3be
00000220: 2322 593c 038a 373e 6578 8ebe 4473 043e
00000230: 2300 2ebe f003 0b3e 4d04 08be 0d30 a1be
00000240: 31d4 b93e f15d 553d d4ec aebe 669f 58be
00000250: 4536 b2be 72cf 14be a9df debd b61f 8f3d
00000260: 697c c5be fb67 c53e 12a2 bfbe d54e 91be
00000270: ad23 473e 992f 18be c9b2 19be 84c5 153e
00000280: ed21 b73d ca56 ba3e 7d43 aa3d 4c1d e13d
00000290: d641 6bbe 4f60 45bd b6f4 cebe e4dc a5be
000002a0: aadf a6be eef4 20be 81cf 993d 7f7d 073e
000002b0: 2d33 b8be 8c8d 30be 7db3 933e 4efe 90be
000002c0: 72b3 243e fb7a c1bb c502 9fbe f129 9ebe
000002d0: 02ff 693d e529 ac3e 7609 41bd 5548 393e
000002e0: 8e36 1d3e b2b8 b4be 10a9 a7be c2cd 5ebd
000002f0: fc22 b03e 05a7 b63d 9e2b d33e 63a8 0dbe
00000300: 6393 23bb 991e ea3d 559c 57bd 228d 8abe
00000310: a161 d0be d77e af3d 97b0 a03e 1faa 11bd
00000320: 94a5 b73b ea17 193e 7123 63be cdae 103e
00000330: d319 7dbe ed5e 06be 25e8 b53e 605e a33e
00000340: 5bba 783e 37bd 17bd bb48 efbc 0859 1bbe
00000350: 0ffb 53bd 1a51 51be 3b9e 9f3e 3ba3 fabd
00000360: 980a 77bd 4496 ae3e cc99 ac3e cd6d 84be
00000370: e389 aa3e 7264 00be 5057 a6bd 7c1e 0bbe
00000380: e3bd bf3e 98e7 e5bd f538 adbc 0781 7bbe
00000390: 97e5 183e 3248 77be 1c2e 46be 99cb 57bd
000003a0: d7b5 a83e 420b 4fbe cb94 123d e91b 8b3c
000003b0: 7bb9 8dbe cb66 e13c 1bb3 9cbc 73d3 3c3e
000003c0: e23a 9b3e 4e21 6d3e aadf 54be 61ad 3b3e
000003d0: bce5 2cbe eb92 3fbe b2dd 383e 4285 be3e
000003e0: 1f12 2fbd 536f 52be a2e9 8dbe e383 da3c
000003f0: bd65 623e 5d69 bf3e 3a8f adbe 8a8b db3e

ode_func.net.0.bias f4 [100]
0.35231125 0.40446863 -0.0028746508 0.25270918 -0.33122957 -0.32682285 -0.28429344 -0.014401734
-0.04715024 0.056103833 0.006945208 0.081685625 -0.0654035 -0.30370325 0.12200563 -0.13778082
-0.08918146 0.37349308 -0.15657991 -0.23721834 0.07455055 0.072079755 -0.24722919 0.22091483
0.29089665 -0.18272038 -0.22275206 0.40260795 -0.20298764 -0.10826466 0.41462007 0.14218464
0.009576399 0.122340515 0.21681164 -0.3967956 0.13745697 0.2278049 0.3195651 0.18108106
0.09885729 -0.3276821 -0.0039106333 0.07378942 0.35273448 0.12744823 0.31030706 -0.021490023
0.09732696 -0.008863675 0.27047524 -0.04109429 -0.118847996 -0.24640359 -0.00047831793 -0.29363725
0.16054377 -0.2997196 0.018297544 -0.27814427 -0.2563775 -0.28992227 0.25846973 -0.12802038
0.23412497 0.25057736 -0.2846981 -0.29190546 -0.33918598 0.29233128 -0.26470697 0.29184946
0.26004225 0.13143133 0.250058 0.059956595 -0.0973035 -0.1878918 0.32946426 -0.37309194
-0.18117754 0.25754493 -0.19409664 0.073099256 -0.4203814 0.038638808 0.42940754 -0.058484696
-0.14957204 -0.4254401 0.05776802 -0.20233724 -0.20246774 0.24416839 -0.18865386 0.28068635
0.2815089 -0.1536832 -0.016089022 -0.05245504
00000000: 2462 b43e 8316 cf3e a364 3cbb 1963 813e
00000010: ec96 a9be 5355 a7be e98e 91be 40f5 6bbc
00000020: 9c20 41bd 22cd 653d a194 e33b cb4a a73d
00000030: 45f2 85bd fe7e 9bbe 16de f93d 6a16 0dbe
00000040: c5a4 b6bd 7c3a bf3e 7c56 20be 5de9 72be
00000050: f5ad 983d 8d9e 933d a629 7dbe 7f37 623e
00000060: 68f0 943e 0d1b 3bbe 1e19 64be a122 ce3e
00000070: fedb 4fbe ddb9 ddbd 1549 d43e da98 113e
00000080: 54e6 1c3c aa8d fa3d df03 5e3e cb28 cbbe
00000090: 85c1 0c3e b045 693e 099e a33e 506d 393e
000000a0: b175 ca3d f3c5 a7be c524 80bb e81e 973d
000000b0: 9d99 b43e ca81 023e 91e0 9e3e d80b b0bc
000000c0: 5b53 c73d f338 11bc bb7b 8a3e 7c52 28bd
000000d0: 9466 f3bd 3951 7cbe bfc6 fab9 9f57 96be
000000e0: 9665 243e d974 99be bbe4 953c ed68 8ebe
000000f0: e943 83be b170 94be 2556 843e c617 03be
00000100: 75be 6f3e ad4b 803e f3c3 91be a274 95be
00000110: c9a9 adbe 72ac 953e ac87 87be 4b6d 953e
00000120: 4224 853e ef95 063e 9a07 803e 0c95 753d
00000130: 0f47 c7bd b566 40be 8aaf a83e e805 bfbe
00000140: 9b86 39be eedc 833e 45c1 46be 10b5 953d
00000150: 3b3c d7be ba43 1e3d 4edb db3e a68d 6fbd
00000160: 6a29 19be 49d3 d9be 299e 6c3d 7e31 4fbe
00000170: b453 4fbe 4707 7a3e 7a2e 41be 1fb6 8f3e
00000180: ef21 903e 215f 1dbe 20cd 83bc 19db 56bd

ode_func.net.2.weight f4 [100, 100]
0.04025693 0.07168374 0.023805225 0.08406842 -0.037506744 -0.21730135 0.062126677 0.013402324
-0.08632528 -0.0966097 0.09346536 0.021104168 -0.027622875 -0.11956953 0.015336747 -0.102096744
0.012211961 0.054991942 -0.034485787 0.0450006 0.070453025 0.09609318 -0.032703295 0.047438372
0.023161642 0.007638393 -0.063293636 0.01797748 -0.15008512 0.019037612 0.09843465 0.034138132
0.009671826 0.09615897 0.03931402 -0.16888091 -0.039811365 -0.08970252 0.042232987 -0.010736806
-0.023581661 -0.0737917 0.05192558 -0.083315484 0.0161012 0.090712085 -0.040283334 -0.016532771
-0.05004624 0.07603782 -0.07637496 -0.048494425 0.07811787 -0.111686386 0.013090887 0.02126775
0.082843125 -0.07213312 0.067726314 -0.03606682 -0.1170065 -0.08847518 -0.104867525 0.083157584
-0.038484193 -0.09372952 0.1107827 -0.086261235 0.09238934 -0.0753694 0.1116988 -0.040584028
0.00016179368 -0.064591326 0.030889645 0.0661518 -0.09055492 -0.010519348 0.044906847 0.058583997
-0.0061239363 0.08397268 -0.06740766 -0.06274416 0.1663237 -0.08076553 0.10362422 0.007468561
0.022516558 -0.18306407 -0.03492396 -0.042487416 0.28409606 0.0699459 0.021162596 0.05185128
-0.08305124 -0.023839446 0.07448011 0.07320447 -0.038260624 0.0020047287 0.0124993315 -0.08173405
0.06587155 -0.02095145 0.059061892 0.03361207 0.06566557 0.0140512595 0.059999198 -0.0716018
0.045734502 -0.031039251 0.0082272915 0.1009907 -0.06005425 -0.02491324 0.02250496 -0.051045783
-0.094331555 -0.042313702 0.071757436 -0.018219788 0.07495701 0.07466617 -0.034583442 0.024225099
0.010667319 0.06313535 0.04909059 0.051187932 -0.07651129 -0.090655625 -0.040131815 0.07643101
0.08064105 -0.017449364 -0.050992858 -0.080848426 -0.0631692 -0.0087181255 -0.09230133 -0.07584683
-0.059213225 -0.062063124 0.043792486 -0.09323489 -0.060306154 0.020173607 -0.03251265 0.051361166
-0.08151243 0.039563928 0.031333048 0.013921966 0.05032771 -0.08461114 0.10097285 0.022550324
-0.07689911 -0.027955487 -0.07376863 0.013782677 0.0010881217 -0.0023833062 0.00075387 0.0031144964
0.073584154 0.020510525 -0.029189225 0.04402035 -0.09515777 -0.039076187 0.05883146 -0.06889551
0.08973669 0.089165784 0.055646792 -0.08998445 -0.095250666 0.09740301 -0.033591684 0.071161
-0.09741009 0.02458906 -0.012070297 -0.10657178 -0.007475302 -0.027566345 0.031423785 0.07168664
0.23608783 0.04394461 -0.067040354 0.0723714 -0.06934767 0.084189564 0.07507376 0.0101863835
0.007250057 0.06994647 0.11211596 -0.042445112 0.06498219 0.19662194 0.0089565655 0.051638104
0.16286805 -0.061563667 0.25066325 0.022544455 0.084488 0.08167501 0.034987997 0.14996079
0.034091443 -0.05548851 0.02471666 -0.24223462 0.028801057 0.005623864 0.12267569 0.026455712
0.07639248 0.16435638 -0.07370245 -0.08275413 0.096352786 -0.0555241 -0.10168377 -0.040204026
0.09076974 -0.076839365 0.010186175 -0.12242946 0.019390967 0.08274121 -0.06006632 0.03719378
0.05002496 -0.20887205 0.051622912 -0.06362722 -0.014574551 0.16802722 0.0221973 -0.020233046
-0.11262511 0.12150152 0.027374476 0.025202857 0.06987288 -0.052793656 0.0051406585 -0.043973427
00000000: 73e4 243d edce 923d 2d03 c33c 102c ac3d
00000010: aca0 19bd 3f84 5ebe 8b78 7e3d 6c95 5b3c
00000020: 4fcb b0bd 4edb c5bd c46a bf3d a6e2 ac3c
00000030: 5e49 e2bc dfe0 f4bd fb46 7b3c 1918 d1bd
00000040: ad14 483c 3b3f 613d f840 0dbd 8d52 383d
00000050: ad49 903d 80cc c43d e4f3 05bd bd4e 423d
00000060: 7cbd bd3c 7c4b fa3b 18a0 81bd 8245 933c
00000070: eaaf 19be c4f4 9b3c 1b98 c93d 6dd4 0b3d
00000080: 9476 1e3c feee c43d bd07 213d 1eef 2cbe
00000090: 3e11 23bd f4b5 b7bd 7ffc 2c3d 6ee9 2fbc
000000a0: 542e c1bc 1a20 97bd ebaf 543d 4fa1 aabd
000000b0: aae6 833c 42c7 b93d 2300 25bd bc6f 87bc
000000c0: 49fd 4cbd b7b9 9b3d 7a6a 9cbd 17a2 46bd
000000d0: 43fc 9f3d d5bb e4bd 297b 563c b439 ae3c
000000e0: a8a9 a93d 87ba 93bd 18b4 8a3d cdba 13bd
000000f0: 1ba1 efbd 7a32 b5bd c9c4 d6bd 864e aa3d
00000100: 9aa1 1dbd 43f5 bfbd 0ae2 e23d bba9 b0bd
00000110: 9f36 bd3d 465b 9abd 57c2 e43d 703b 26bd
00000120: 29a7 2939 7548 84bd 480c fd3c 987a 873d
00000130: dc74 b9bd 5859 2cbc 3ef0 373d c6f5 6f3d
00000140: 4dab c8bb def9 ab3d 070d 8abd 0380 80bd
00000150: c350 2a3e 6668 a5bd ef38 d43d d5ba f43b
00000160: a574 b83c 2675 3bbe 6d0c 0fbd 4907 2ebd
00000170: 0a75 913e cc3f 8f3d 2e5d ad3c 0262 543d
00000180: c516 aabd f14a c3bc 0789 983d 3aec 953d
00000190: 2cb7 1cbd c461 033b ffc9 4c3c 2e64 a7bd
000001a0: aae7 863d 60a2 abbc e2ea 713d cfac 093d
000001b0: ac7b 863d 4137 663c b8c1 753d f7a3 92bd
000001c0: 1a54 3b3d 0746 febc c3cb 063c 36d4 ce3d
000001d0: 72fb 75bd da16 ccbc 525c b83c 6215 51bd
000001e0: e730 c1bd 2251 2dbd 90f5 923d aa41 95bc
000001f0: 1083 993d 94ea 983d 5ea7 0dbd b773 c63c
00000200: fbc5 2e3c 1b4d 813d 3713 493d 70aa 513d
00000210: f4b1 9cbd a8a9 b9bd 4261 24bd dd87 9c3d
00000220: 2327 a53d f8f1 8ebc e3dd 50bd dc93 a5bd
00000230: db5e 81bd 78d6 0ebc 7b08 bdbd 9555 9bbd
00000240: 9189 72bd e735 7ebd c05f 333d eff1 bebd
00000250: 9603 77bd 1f43 a53c fc2b 05bd 1660 523d
00000260: fdef a6bd c90d 223d 1557 003d f518 643c
00000270: 6e24 4e3d 9b48 adbd dbca ce3d 75bb b83c
00000280: 487d 9dbd e802 e5bc 0214 97bd bdd0 613c
00000290: 4e9f 8e3a 3e31 1cbb 5c9f 453a 941c 4c3b
000002a0: 4ab3 963d b005 a83c 3e1e efbc af4e 343d
000002b0: 14e2 c2bd 5a0e 20bd 42f9 703d 1719 8dbd
000002c0: dfc7 b73d 8d9c b63d e4ed 633d c449 b8bd
000002d0: c812 c3bd 3b7b c73d 6f97 09bd dcbc 913d
000002e0: f17e c7bd ff6e c93c 7fc2 45bc 4e42 dabd
000002f0: 61f3 f4bb d1d2 e1bc 3ab6 003d 72d0 923d
00000300: 02c1 713e 43ff 333d 744c 89bd 7537 943d
00000310: 2706 8ebd 946b ac3d 45c0 993d cae4 263c
00000320: e391 ed3b 1840 8f3d 0d9d e53d edda 2dbd
00000330: 6215 853d 4357 493e 8fbe 123c 7a82 533d
00000340: e2c6 263e 2f2a 7cbd ef56 803e 26af b83c
00000350: 0b08 ad3d 3a45 a73d 934f 0f3d 528f 193e
00000360: 78a3 0b3d eb47 63bd 987a ca3c 5a0c 78be
00000370: 32f0 eb3c 6448 b83b 643d fb3d a6b9 d83c
00000380: a973 9c3d 0a4d 283e 4ff1 96bd ff7a a9bd
00000390: 9c54 c53d 3d6d 63bd 953f d0bd faac 24bd
000003a0: 7ce5 b93d f55d 9dbd eae3 263c 4cbc fabd
000003b0: ced9 9e3c 3974 a93d 1a08 76bd 8158 183d
000003c0: f9e6 4c3d 8ee2 55be 8c72 533d fd4e 82bd
000003d0: 19ca 6ebc 540f 2c3e 1dd7 b53c c6bf a5bc
000003e0: fea7 e6bd cad5 f83d 7040 e03c 3976 ce3c
000003f0: 8319 8f3d 293e 58bd f872 a83b 7b1d 34bd

ode_func.net.2.bias f4 [100]
-0.06450128 0.08633202 0.018551059 0.07205505 0.06075531 -0.0075148665 -0.035475295 -0.09415555
0.062177863 0.038562525 -0.0785536 0.04818787 0.054091156 -0.018660447 0.06852614 -0.03758749
-0.015897393 -0.056875058 -0.062994584 -0.08212447 -0.015095747 -0.11087178 0.02195054 0.070722
0.045445792 -0.07193936 0.03487257 0.042571053 0.016479854 -0.065091066 -0.06710961 0.060935713
0.006591833 -0.072136745 0.05946436 0.021816524 0.09053043 -0.056090303 -0.024524093 -0.023179008
0.02604796 0.07198613 0.030582748 0.009875456 -0.07601652 0.0738191 0.027441889 0.048753526
-0.06069458 0.091008425 -0.10463739 0.0049372795 0.078418665 0.052768216 0.03473777 0.0843311
0.007179198 0.018116854 0.052538753 -0.030759066 -0.056644917 0.017347556 -0.04417864 -0.06453541
-0.04360196 0.0026326657 -0.019324927 -0.013102033 -0.036525007 0.013153867 0.027677692 -0.06177774
0.0021510369 -0.06431703 -0.08388619 0.102782875 -0.03608027 0.04905936 -0.037229374 -0.0038244335
-0.010200802 0.07229363 0.00015007783 -0.026705608 -0.07245141 -0.056829043 -0.09453201 0.02844601
0.01860494 -0.0870711 0.08976962 0.016295647 -0.023383647 0.086188816 0.079065025 0.09043878
0.07153917 0.036285974 0.1379045 -0.10940195
00000000: 3f19 84bd d8ce b03d 64f8 973c 9991 933d
00000010: 8fda 783d 453f f6bb 8b4e 11bd a0d4 c0bd
00000020: 37ae 7e3d bdf3 1d3d b6e0 a0bd a560 453d
00000030: b08e 5d3d cbdd 98bc 6f57 8c3d 57f5 19bd
00000040: 403b 82bc d2f5 68bd 4e03 81bd e030 a8bd
00000050: 2754 77bc be10 e3bd 9ed1 b33c b2d6 903d
00000060: 5e25 3a3d f154 93bd 8ad6 0e3d fc5e 2e3d
00000070: c200 873c 774e 85bd c370 89bd ba97 793d
00000080: 4e00 d83b 6ebc 93bd e790 733d 91b8 b23c
00000090: 0568 b93d f2be 65bd c0e6 c8bc e7e1 bdbc
000000a0: 8862 d53c 776d 933d ac88 fa3c aacc 213c
000000b0: 8dae 9bbd 782e 973d d0cd e03c c7b1 473d
000000c0: e19a 78bd a062 ba3d 214c d6bd e7c8 a13b
000000d0: f799 a03d 7c23 583d 3149 0e3d c9b5 ac3d
000000e0: 7a3f eb3b cc69 943c e032 573d 70fa fbbc
000000f0: 8004 68bd 761c 8e3c a9f4 34bd 242b 84bd
00000100: f897 32bd cd88 2c3b 4f4f 9ebc e9a9 56bc
00000110: 3f9b 15bd 5183 573c 54bc e23c a80a 7dbd
00000120: 69f8 0c3b a6b8 83bd 86cc abbd d47f d23d
00000130: e8c8 13bd 78f2 483d d47d 18bd 59a3 7abb
00000140: 4421 27bc af0e 943d 365e 1d39 b8c5 dabc
00000150: 6861 94bd 92c5 68bd 009a c1bd 9b07 e93c
00000160: 6369 983c 5552 b2bd 22d9 b73d 737e 853c
00000170: 108f bfbc c383 b03d d8ec a13d f837 b93d
00000180: 2183 923d 9aa0 143d d636 0d3e 210e e0bd

ode_func.net.4.weight f4 [3, 100]
0.039753538 0.092347205 0.008503915 -0.039883282 0.09087433 0.035437856 -0.05356392 0.08088682
0.080692716 0.032537382 0.04608255 0.018156996 -0.083572604 -0.014272455 -0.054480135 0.08555526
0.0038338653 -0.010565887 0.079132736 0.070393376 -0.062612735 0.019094251 0.08942704 0.04297203
0.030362822 0.076968715 0.056997873 0.08381889 0.025485856 0.0029537617 0.016411643 0.07650152
-0.03624116 0.024162889 0.061002694 0.04156595 -0.030828202 -0.081781074 0.008649698 -0.041711923
-0.06704469 -0.084957495 0.044301175 -0.06960387 -0.008208107 0.009465206 0.006931793 -0.03606397
-0.03623235 -0.00076086615 0.063639596 -0.07510525 -0.09546391 0.018788995 0.04503848 0.05913342
0.064818725 0.04791767 0.08805644 0.07786852 -0.0050522126 -0.029745195 -0.037770625 0.087397315
0.055290084 -0.07272935 0.08710525 -0.071258634 -0.054852046 -0.03146591 0.036036678 -0.09868961
0.03836779 -0.0024274092 0.040703826 -0.047877755 0.0154133905 -0.034999996 -0.040974032 5.798348e-05
-0.04044677 -0.04202042 0.060692765 0.092406504 -0.076061405 -0.063155 0.068744525 0.047582492
-0.0023159655 0.09579245 -0.090022326 0.029750105 0.082207195 0.04641335 0.09473332 0.012781287
-0.06533301 0.074331544 0.010992206 -0.108846456 -0.00047708943 0.05408959 0.049243715 -0.028042374
-0.0005339982 -0.01109347 0.022140602 -0.0058004144 0.031095373 0.019978559 0.03703282 -0.01544484
0.074428916 -0.07749268 0.09520644 -0.08649216 0.08939679 -0.075833574 -0.0035201076 -0.099177815
0.09573656 -0.013262352 0.045050714 0.024134558 -0.017344933 -0.07726933 -0.0017394033 -0.020080896
0.053510573 -0.081124164 -0.036511835 -0.008449548 -0.080166414 0.017735535 0.09032694 0.086126775
0.09069729 -0.0069801863 0.035567366 -0.070291236 -0.024367388 0.059641067 -0.0008191309 0.0515587
0.030765925 0.051987745 0.02952428 0.08793773 -0.020935638 0.00498242 -0.007984725 0.04643334
-0.029271059 -0.0005633509 -0.070610546 -0.0702773 -0.075879976 0.0899185 -0.026713317 -0.04731329
-0.054196097 -0.043412726 0.053117804 -0.0057249595 -0.0016001109 0.007411075 -0.022381395 0.050729454
0.10641723 -0.10254977 -0.0001263734 -0.08404687 0.056395393 -0.030630458 -0.03790826 -0.060549572
0.010650566 0.054491844 0.0018929833 0.027749015 0.030364823 -0.056541804 0.11577215 0.10405434
-0.05925205 -0.065777056 0.08517601 -0.037307564 -0.026239114 -0.06475351 0.08792291 0.017318314
-0.07386683 -0.038533982 -0.012288832 0.046832956 -0.045166887 -0.01035881 0.03624432 -0.08704471
-0.1526757 -0.16597287 0.18381006 -0.034522157 0.2653947 0.11165405 0.0145088155 -0.07540979
-0.05697801 0.07448921 -0.115292266 0.03834031 0.03726174 -0.24009004 0.07704637 0.058925685
0.11930066 0.03380363 -0.23402566 -0.04035909 -0.07663345 -0.32055333 -0.10414317 -0.07635361
0.06897543 0.0044316878 -0.029291378 -0.01840927 -0.15511337 0.20340039 -0.09271775 0.107726425
-0.19574408 -0.2673029 -0.013564693 -0.097385615 0.008907469 0.01285178 0.26231095 -0.22954361
-0.04400536 0.07409975 -0.10384092 -0.073278144 -0.009415655 -0.07275772 -0.1575437 0.09828191
0.06065342 0.05037977 -0.05208462 -0.049525827 0.008722465 0.07333542 -0.08357596 0.0497334
00000000: 9bd4 223d 8820 bd3d 0154 0b3c a75c 23bd
00000010: 521c ba3d 4927 113d d765 5bbd fda7 a53d
00000020: 3942 a53d eb45 053d 0ec1 3c3d fbbd 943c
00000030: 1d28 abbd 04d7 69bc 9026 5fbd 9937 af3d
00000040: 9641 7b3b 8b1c 2dbc 5810 a23d 672a 903d
00000050: 1b3b 80bd 8c6b 9c3c 8625 b73d 7003 303d
00000060: 74bb f83c c6a1 9d3d 9a76 693d 3da9 ab3d
00000070: b7c7 d03c e693 413b b671 863c d4ac 9c3d
00000080: 9c71 14bd 40f1 c53c f6dd 793d 0f41 2a3d
00000090: 6d8b fcbc d67c a7bd 77b7 0d3c 1fda 2abd
000000a0: ba4e 89bd 32fe adbd 2675 353d 798c 8ebd
000000b0: 4c7b 06bc f413 1b3c 1824 e33b d0b7 13bd
000000c0: 5f68 14bd dd74 47ba 7a55 823d c8d0 99bd
000000d0: 9582 c3bd 61eb 993c 457a 383d e335 723d
000000e0: aebf 843d 5245 443d ef56 b43d 8879 9f3d
000000f0: 088d a5bb 32ac f3bc 5fb5 1abd 5dfd b23d
00000100: db77 623d 20f3 94bd 3d64 b23d 0cf0 91bd
00000110: 8aac 60bd 66e2 00bd 329b 133d c71d cabd
00000120: 8b27 1d3d 2b15 1fbb 0eb9 263d 771b 44bd
00000130: 7288 7c3c 285c 0fbd 63d4 27bd 4a33 7338
00000140: 83ab 25bd 9b1d 2cbd fa98 783d 9f3f bd3d
00000150: 15c6 9bbd 6957 81bd eec9 8c3d dce5 423d
00000160: 74c7 17bb d52e c43d a05d b8bd 7eb6 f33c
00000170: 3f5c a83d ed1b 3e3d 8b03 c23d 9a68 513c
00000180: 50cd 85bd 233b 983d a718 343c e4ea debd
00000190: dc21 fab9 0c8d 5d3d c7b3 493d 1fb9 e5bc
000001a0: 03fc 0bba 63c1 35bc 3560 b53c 6711 bebb
000001b0: b9bb fe3c 13aa a33c baaf 173d 5b0c 7dbc
000001c0: 306e 983d 7bb4 9ebd 98fb c23d cd22 b1bd
000001d0: aa15 b73d a24e 9bbd 9bb1 66bb bd1d cbbd
000001e0: 8811 c43d 564a 59bc 1987 383d d6b5 c53c
000001f0: f616 8ebc 623f 9ebd b1fc e3ba b180 a4bc
00000200: e72d 5b3d 6d24 a6bd 6f8d 15bd f96f 0abc
00000210: 4a2e a4bd 1d4a 913c 55fd b83d 3c63 b03d
00000220: 80bf b93d 0cba e4bb 16af 113d daf4 8fbd
00000230: 1e9e c7bc 314a 743d f2ba 56ba 372f 533d
00000240: d208 fc3c 1af1 543d e7dc f13c b218 b43d
00000250: 3781 abbc 9143 a33b 5dd2 02bc e330 3e3d
00000260: dcc9 efbc d7ad 13ba 439c 90bd 8ced 8fbd
00000270: f666 9bbd 3127 b83d e3d5 dabc 95cb 41bd
00000280: bafc 5dbd 8bd1 31bd 0e92 593d 7198 bbbb
00000290: d0ba d1ba 9ad8 f23b 3059 b7bc b0c9 4f3d
000002a0: 47f1 d93d 9d05 d2bd 1a83 04b9 c420 acbd
000002b0: dbfe 663d baec fabc b145 1bbd d402 78bd
000002c0: b67f 2e3c d732 5f3d fb1d f83a e751 e33c
000002d0: a6bf f83c 6198 67bd f319 ed3d 711a d53d
000002e0: 47b2 72bd 1fb6 86bd c370 ae3d d1cf 18bd
000002f0: 69f3 d6bc 7d9d 84bd ed10 b43d 23df 8d3c
00000300: 7e47 97bd cfd5 1dbd 1957 49bc ead3 3f3d
00000310: ea00 39bd 00b8 29bc ed74 143d 7f44 b2bd
00000320: 0557 1cbe cbf4 29be b438 3c3e 1b67 0dbd
00000330: d0e1 873e e1aa e43d 62b6 6d3c 7370 9abd
00000340: c661 69bd cd8d 983d 5a1e ecbd bb0a 1d3d
00000350: c49f 183d 2ada 75be 7dca 9d3d 0f5c 713d
00000360: e853 f43d ad75 0a3d 6ca4 6fbe 934f 25bd
00000370: 00f2 9cbd 911f a4be 0449 d5bd 485f 9cbd
00000380: fe42 8d3d b137 913b 79f4 efbc 0acf 96bc
00000390: 0ad6 1ebe 3148 503e cee2 bdbd ac9f dc3d
000003a0: 2371 48be eddb 88be 723e 5ebc 1c72 c7bd
000003b0: a2f0 113c 4690 523c 9f4d 863e 7b0d 6bbe
000003c0: f73e 34bd 9cc1 973d 8caa d4bd da12 96bd
000003d0: 1f44 1abc 0002 95bd 2353 21be 0748 c93d
000003e0: b86f 783d 055b 4e3d af56 55bd 98db 4abd
000003f0: abe8 0e3c e130 963d df29 abbd 40b5 4b3d

ode_func.net.4.bias f4 [3]
0.046804894 0.06267646 0.008029559
00000000: 7db6 3f3d 845c 803d 698e 033c
